pretrained/clinical_trained.pth (torch, 410799 bytes, 15 tensors)

layer1.weight f4 [128, 5]
00000000: 496d d73d 641a 383e a34f 323d 40b3 c63d
00000010: 6de4 98ba a560 10be 580b 86bd 1c94 24bd
00000020: d8c0 1fbe ef1b 233e bebf 4abe 55f6 0ebe
00000030: 89e6 2abe c90d 063e f07a 8c3d 5977 2a3e
00000040: 63dc 46be 1183 663c 8387 27bd 2379 0b3e
00000050: 412a 0cbc a174 48be 4397 11be 0c58 63bc
00000060: 0aec 473d 71da 303e 98f1 04bd b9c8 063e
00000070: 44d0 15be 17cc 3abc eece 16be 995d 11be
00000080: 4664 3c3e f039 5cbd 8a29 5bbd 8dd3 8d3d
00000090: e2fa 2f3e 7207 e13d daf3 a83c 52b0 debd
000000a0: e1d8 86bd 9cf8 f9bc 31f4 ebbd cb13 263e
000000b0: 1115 3bbe b252 983d 9cb1 ad3d e1fe 753d
000000c0: 7bac 083e f269 48be f5df 793d 86c0 263e
000000d0: bb27 433e 95d6 143e 7f29 ae3d 6152 19bd
000000e0: f233 503e dff5 3fbd 5372 433e cf8d 4bbe
000000f0: 70ea 17be 6a3a fc3d f937 e0bd 7af0 d1bc
00000100: 929f c4bd fb71 fd3d 89e2 f437 166e b23d
00000110: 3648 63bd 73b2 cfbc 17d6 18be be76 3c3d
00000120: 1ec7 cd3b 5ab8 893d 2059 d53d 42d4 ca3c
00000130: 5ecb 553d bff6 1abe 4382 c13d 8b0c 01be
00000140: 933a bbbd b7b9 f13d 8f8b bb3d 1d20 c43d
00000150: 02ef 94bd 1421 eb3d 19e4 05bd 37f8 d9bd
00000160: 531a 0bbc 49c9 563e 3b41 0e3d af5f dc3c
00000170: 54ae 16bd 9756 63b9 558d 79bd d43c 2abe
00000180: 2b0a a8bd 51d0 1ebb a25e 4abe 7841 3dbe
00000190: fa60 123e 1074 4a3e 6180 fb3d 8d1b 843d
000001a0: f86b 0ebe a950 e4bb b48a a5bd cd3c 30bd
000001b0: dd4a 6c39 50c3 253e b623 013e ce58 353c
000001c0: f931 8e3c 3bf4 d5bc ff26 553d cc55 cf3d
000001d0: f436 6abd 5033 063e 8279 4dbe 544a 303e
000001e0: 23df bb3d 4387 27bd 048a c5bd a4b6 003e
000001f0: 52dd 473e ad24 6dbc 9bae abbc 400f e3bc
00000200: 5a2d d4bd 93bf 093e 0e3d 87bd dc1a 083d
00000210: ca6c 853d fdd4 26be 6556 e6bd 0980 0fbe
00000220: 4b30 20be 57d5 543d e473 acbd f471 51be
00000230: 0c7f 79ba d8fc 2b3d 3256 843d 37b0 f43d
00000240: 9b80 0fbe cbf8 c63c 7423 4b3e 25eb fd3d
00000250: e140 e93d d5bf d9ba 77cc 2e3c 17ad 2d3e
00000260: 384e e0bd 9c44 223d 05da 4d3d 3057 e23d
00000270: 824c 48bc 6ba6 fcbd 1059 173e 7cc0 593d
00000280: fa5e 3abd d753 b63d 951a 453e 5990 19bd
00000290: 15f2 233e e5d9 453e 53e8 193d 48ae 253e
000002a0: 307e d93d 9ebf 40bb a4d4 483e b09c d9bc
000002b0: d1a7 1cbe ff2b 97bc e062 3c3e 6f30 f1bd
000002c0: 7aaa 53bb 8f21 34be 373f ad3d 4807 053e
000002d0: 8cfb 50bd 9f42 45be bd0b a53d c59c d23d
000002e0: afe5 57be 3394 073d 0808 7d3d 7302 263e
000002f0: cb62 4e3e e9e8 4f3d a9ec 903d 9354 d33c
00000300: 6bd8 46bd a954 f2bc 16f1 fb3b 6837 f03d
00000310: 2b6e fbbd 2bcd 4c3b 68df 2d3d f207 e8bd
00000320: 26f4 0e3d 4594 cb3c 95f9 41be cb7d d93c
00000330: 3ebe 30be d8d2 f4bc 25cd 25be d3e1 19bb
00000340: 05fc 553c 771f 163e 67fd c2bd 1530 d43d
00000350: 7574 b73d 018a 41be c374 1abc 560f c43b
00000360: 0d29 1e3e 8232 8e3d f97e 57be cbc7 e33d
00000370: 4413 09bd 4487 29be b010 c63d 5b76 2d3e
00000380: a6a1 48be e419 67bc f6e7 083e 7a8a 46bd
00000390: 230a f8bd 4e34 2abe 71c0 833d 3d44 34be
000003a0: 86d7 973d d910 273e f0b1 01bc 829f 2fbe
000003b0: 51c6 22be 27bc b8bc 678b b0bd 5f74 1cbe
000003c0: 7eba 0a3e 42d4 d4bd 84e0 8e3d 9047 883d
000003d0: e867 b23d 6bae 32be 1b88 2c3e e7df 58be
000003e0: f28c 3a3e 1f42 40be 1e13 3a3d b013 0dbe
000003f0: d9e2 9dbd eb54 013e 5439 c0bc 7958 3cbe
0.10518891 0.17978817 0.04353298 0.09702158 -0.0011664756 -0.14099367 -0.065451324 -0.04018031
-0.15600908 0.15928625 -0.19799706 -0.13961156 -0.16689505 0.13091196 0.06859386 0.1664709
-0.19420008 0.014069335 -0.04090072 0.13620429 -0.008554996 -0.1957574 -0.14217858 -0.0138759725
0.04880909 0.17270829 -0.032456964 0.13162507 -0.14630228 -0.011401198 -0.14727375 -0.14195861
0.18397626 -0.05376619 -0.05350641 0.06925116 0.17185548 0.10987748 0.02062409 -0.10873474
-0.06584335 -0.030514054 -0.11521185 0.16218488 -0.18269755 0.07437648 0.08481142 0.060057525
0.13347046 -0.19571665 0.061004598 0.1628438 0.19058125 0.14534982 0.085040085 -0.03743208
0.20332316 -0.04686534 0.1908658 -0.19878314 -0.14835525 0.12315829 -0.10948176 -0.025627363
-0.09600748 0.12375256 2.9192555e-05 0.087124035 -0.055488788 -0.025353646 -0.14925419 0.04601168
0.00627984 0.067246154 0.1041739 0.024759416 0.0521959 -0.15133189 0.094486736 -0.12602441
-0.091420315 0.118030004 0.09157478 0.095764376 -0.072721496 0.114809185 -0.032688234 -0.10643046
-0.008490163 0.20975222 0.034730177 0.026901094 -0.036787346 -0.00021680664 -0.0609258 -0.16624767
-0.082050644 -0.0024233053 -0.19762662 -0.18482006 0.14294806 0.19770837 0.12280346 0.064505674
-0.13908374 -0.0069676233 -0.08083096 -0.043026734 0.00022534603 0.16187787 0.12611279 0.011068536
0.017357813 -0.026117435 0.052039143 0.10123786 -0.057181314 0.13105512 -0.20065883 0.17215854
0.09173419 -0.04090048 -0.09645465 0.12569672 0.19518021 -0.014474076 -0.020957282 -0.027717233
-0.103602126 0.13451986 -0.06603442 0.03322874 0.065148905 -0.16292186 -0.11246947 -0.14013685
-0.15643422 0.05196127 -0.08420542 -0.20453626 -0.00095175277 0.041989177 0.06461753 0.11947673
-0.14013903 0.024288556 0.19837743 0.12398366 0.11389328 -0.0016612957 0.010668865 0.1696056
-0.10952419 0.039616212 0.050256748 0.11051786 -0.012225272 -0.12336429 0.14780068 0.053162083
-0.045500733 0.0890271 0.19248421 -0.037491176 0.16010316 0.19321401 0.037575077 0.16179764
0.106197715 -0.0029411088 0.19612366 -0.026563972 -0.15298392 -0.018453596 0.18397093 -0.11776816
-0.0032297657 -0.17590927 0.08459323 0.12991059 -0.051021144 -0.19263695 0.080588795 0.10283808
-0.21083711 0.03310032 0.061775237 0.16211872 0.20154874 0.05075923 0.07076389 0.025797164
-0.048546236 -0.029581385 0.007688652 0.11729318 -0.12276872 0.003125022 0.042449385 -0.113296404
0.034900807 0.024850974 -0.18942864 0.02654924 -0.17260072 -0.029885694 -0.16191538 -0.002348055
0.013060574 0.1466044 -0.09520989 0.103607334 0.08957759 -0.189003 -0.009427252 0.0059832735
0.15445347 0.06943227 -0.2104453 0.11122092 -0.03346564 -0.16555506 0.09671152 0.1693968
-0.19592914 -0.014105294 0.13369736 -0.048471905 -0.121113084 -0.16621515 0.0643319 -0.17604156
0.07414155 0.1631502 -0.007915959 -0.17150691 -0.15895964 -0.022550656 -0.08620339 -0.15278767
0.13547704 -0.103920475 0.06976417 0.066542745 0.08711225 -0.17449348 0.16848795 -0.21179162
0.18217829 -0.18775223 0.045428388 -0.13777041 -0.077092834 0.1263005 -0.023464836 -0.18393125

layer1.bias f4 [128]
00000000: a280 c4be 8fbe c5be 49b3 87be 5461 f4bd
00000010: 3949 e43e c6b0 d8bd 0398 84bd bc8f 9cbd
00000020: bf85 d23e 7eda af3d 6cb6 d2be c96b 62be
00000030: 02b8 9cbe 6230 fbbc d332 803d 8a59 cb3e
00000040: 64ff de3e 6b85 36be 19a8 113e a3b7 b8bd
00000050: 9545 9f3e 7373 1f3e 1b46 dabd 2fdd 8ebe
00000060: d884 96be df8f 5b3e 987b 8abe 44aa f43d
00000070: 5544 65be 410d 933e d52a 013d 0040 333e
00000080: 4375 bd3e 1ca6 0a3e 2895 cabc 40a6 9fbe
00000090: 62de 56be e16c 463c bb08 973c 7efc f63d
000000a0: cf9b 92bd 2b8d 9abe 18f6 0f3d 701c adbe
000000b0: e23f 98be 49e7 8c3e 7733 55bd f288 5d3e
000000c0: b368 c43d 87fd cbbe c260 b13e 13ef d1be
000000d0: e49f cabe ce29 1cbe e7f6 c6be 9720 953e
000000e0: 653c 21be 7c92 acbe 9793 923e a617 b8be
000000f0: 4a3a a93e 12c8 dabe c91b c23e 7122 2cbd
00000100: 00a8 4f3e fae4 5dbe 3a97 b3be 0fe7 aabe
00000110: b5cb b1bd 2cd8 ba3e ef59 933e 3776 5d3e
00000120: 45e5 453e ceaf aabe 78b3 d43d dd67 9cbe
00000130: 6b9a 48be 2593 8ebe 086a 90be 91fb c83d
00000140: 410a 123e 0644 c3be 3a17 133e da67 9cbe
00000150: 26d9 843e 4b86 cfbd dedf 963e 7ce7 b53d
00000160: b03c c53c df28 923e ac0b 8f3e c397 4e3e
00000170: a045 863d 6789 89be 369c e23e be94 443d
00000180: c80c c83e 64f2 96be 8446 a1be 8248 9abe
00000190: 6007 7d3d 4f17 98be bbd8 7a3e 8923 4a3d
000001a0: 9196 093e 3885 ac3e 7e81 453e 6afb 8b3e
000001b0: d94b e03d 48fc 54bc e17d 44be c3a5 8bbe
000001c0: ff80 aa3c 89f2 14be f331 19bd 6177 a83e
000001d0: de53 b33e 2288 d83d e068 cf3d 8503 463e
000001e0: 9a8e 8a3d ec94 c3be eba6 a33e c8fc c83e
000001f0: 5f84 163e 37ba 2d3d b29d b73e 8f06 33be
-0.3837939 -0.38621947 -0.2650397 -0.11932626 0.44587114 -0.10580592 -0.064743064 -0.07644603
0.41117665 0.08586596 -0.41154802 -0.2211143 -0.30609137 -0.03066272 0.06259694 0.3971675
0.43554223 -0.17824332 0.1422428 -0.09019401 0.31107774 0.15571384 -0.10657903 -0.27903125
-0.29398227 0.21441601 -0.2704742 0.11946538 -0.22389348 0.2872105 0.03153499 0.17504883
0.37003526 0.13539928 -0.024729326 -0.31181526 -0.2098327 0.01211092 0.01843678 0.12059878
-0.071586244 -0.30185828 0.035146803 -0.3381076 -0.2973624 0.27520207 -0.052051034 0.21634272
0.09590282 -0.39841864 0.34644133 -0.41002712 -0.39575112 -0.15250322 -0.38860247 0.29126427
-0.15745695 -0.3370551 0.28628227 -0.35955542 0.33052284 -0.42730767 0.37911823 -0.042025033
0.2027893 -0.21669379 -0.35076314 -0.3337941 -0.08681432 0.3649305 0.2877955 0.21627127
0.1932574 -0.33337253 0.103857934 -0.3054799 -0.19590156 -0.27846637 -0.28205895 0.098136075
0.14261724 -0.38137835 0.14364329 -0.30547982 0.2594692 -0.10133036 0.29467672 0.08882043
0.02407679 0.28546807 0.27938592 0.2017508 0.06556249 -0.26862642 0.44259804 0.047993414
0.3907225 -0.29481804 -0.31499112 -0.30133444 0.06177461 -0.29705283 0.24496739 0.049350295
0.13436343 0.33695388 0.19287679 0.2734025 0.10951967 -0.012999602 -0.19188644 -0.27274904
0.020813463 -0.14545645 -0.03740115 0.3290358 0.35024923 0.1057284 0.10127425 0.1933728
0.0676548 -0.38199556 0.31963286 0.39255357 0.14698933 0.042413916 0.358625 -0.1748297

layer2.weight f4 [256, 128]
00000000: 1955 203d f6dd 613d b0f5 84bd ffa0 fb3d
00000010: 5b4e bdbd 6a10 9c3b cdf0 acbd 9454 443d
00000020: db8c 50bd 9d05 783d 972f dd3d 832a acbc
00000030: e8f7 733d d4c2 ccbd 18da 703d 3b1c 2b3c
00000040: 2879 ce3d 88f6 d1bd 96d5 bfbc cc0a ed3c
00000050: aff8 023d 0a1a b43b 7711 3dbc 3b94 c23d
00000060: 8c5f aebd 4f50 eabd cd62 8dbd df17 e13d
00000070: 5b7f ee3c 433f 093d 2897 b1bd f5a6 d83d
00000080: 9a3a 9e3b 81fc 5c3d 9673 6f3d 9596 8b3d
00000090: d0f1 ad3c 3df0 81bd f245 53bd f5e0 edbd
000000a0: 0914 833d 4872 b73c f65d 733d 0334 85bd
000000b0: 04a5 26bd 736e 9e3d 054f f8bd b751 eb3d
000000c0: ab40 8dbd 0434 b3bd b331 a03d 41e2 2abb
000000d0: 34e2 a43d f2ad c9bd aa9b 0c3d 8484 83bd
000000e0: 2fde 02bd b7ab d43d 94d1 953d 6905 cb3d
000000f0: e8b5 d3bd 71b0 e3bc 7f11 ee3d 5d2b 94ba
00000100: 50a0 f0bd c976 9a3c 2054 8c3b 2c3d 483c
00000110: c1b1 85bc e2b7 debc 864b 823d e50d 0fbc
00000120: 87e1 eb3c 7ce6 8c3a 4295 bfbb 9a72 c1bc
00000130: 4ac6 ef3d 56e0 2abd d8f8 58bd 5edd cebd
00000140: 52f5 4ebd c17f 73bc 1c70 24bc ade1 e53c
00000150: 41a1 00be bc94 f3bd fbfa ad3c 342b 50bd
00000160: ebdd cabc 79f0 9abd 3172 ac3d 2c69 19bd
00000170: 791b 883d 9703 c63d be6f 12bd d514 bebd
00000180: 1ba5 c33d c36b 0bbd 334b 8cbd aaea 003a
00000190: 2b58 9a3d a81e 87bd d4a7 fe3c ab2b 533d
000001a0: 78dc fa3d 3a08 723c 1ed3 2a3d 8cff 473d
000001b0: 8c4a 55bc d3fa be3d b859 513d 65e7 85bd
000001c0: 486c 313d c598 6d3d d7b8 303d 889a 683d
000001d0: cc6f d13d 5359 dc3d f837 303d 4300 0fbd
000001e0: 8e4b 4abd a6b6 e23d d2b9 7ebd ec94 d7bd
000001f0: 6b8a ed3d 3e27 8bbc 6bab 7abc 014c 88bc
00000200: 7787 08bd a782 64bd da78 6f3d b050 c0bd
00000210: 6aa5 47bd 08f6 eb3d f426 e73c d842 873c
00000220: ea47 5ebc f9ff f5bc 5ffd 14bc f696 2b3d
00000230: 7c8e 9b3d fe1d 44bd 819f adbc 2226 23bd
00000240: 1ceb dfbc b18b 113a 90aa 973c d122 6dbd
00000250: 3a7a aabd 9e18 a03c e646 273d f99b 943d
00000260: b65e fdbd 9fe1 40bc e6db e43d 0060 a2bd
00000270: 8bd3 8dbd 45a4 1a3d 5b62 c03d a52f 72bd
00000280: db7f aa3c 9ada 5cbd 6fff c33c bda1 9f3d
00000290: f6e4 f1bd e223 033d 1fe8 f33c 2098 44bc
000002a0: cb8d 9c3d 5d6a 81bb 15b9 d7bd fada b93d
000002b0: ca38 3ebd 3913 66bd 48c0 0f3d 672c e3bd
000002c0: 69de febc cd56 183d 78b6 f83d a7b1 13bc
000002d0: b5a5 7a3d a033 d63d b086 e8bc afa8 233d
000002e0: 4c22 e3bc dd58 87bd 617b 723d 7fc2 f1bc
000002f0: 2e41 70bd 7763 dd3d fd5f 64bd d1f5 8dbc
00000300: 6c1e dabd c38f 3f3d 1e49 41bc 4e74 68bc
00000310: 44e2 b93d 670e 9c3c c5d2 b0bd 326b 6fbd
00000320: 6ca0 093c 5393 f2bd 584e 3d3d 8fb2 d53d
00000330: 5596 ef3d 4f1c dabb 0346 2e3d a37c fdbd
00000340: b83b ccbd 6415 b23d 82d5 e13d 3537 763d
00000350: 1108 fbbd 3b8d 763d 15a8 443c f303 ad3d
00000360: 1659 053c 0709 26bd 6a6e 62bd cdf8 86bb
00000370: 0d76 003d 7723 f9bd 0cc0 e6bd b047 a83d
00000380: d7de 1a3d 1b08 c83d c4ce 6bbd 5e43 86bc
00000390: 321d da3d 28c3 5a3d 9dcf 0f3d 5634 7cbd
000003a0: 1e82 5f3d fdea 76bd 6df9 b13d abb5 e13d
000003b0: c784 8c3d 1d60 8fbd f2af 8c3d 0f48 8cbd
000003c0: 547b ba3d 74c7 adbd 8e2c 743d 6da6 acbc
000003d0: 9d04 72bd 4a4b 82bd 2019 49bd 08b5 b73d
000003e0: 6b6b 1cbb f0a8 21bd 5d2d 433d 71d2 34bd
000003f0: 14a7 a73d 3a2a 67bd 5210 d7bc f112 de3d
0.039143655 0.05514332 -0.06492174 0.12286567 -0.09243461 0.004762699 -0.084443666 0.047932222
-0.05091558 0.06055223 0.10800093 -0.021016365 0.059562594 -0.09998098 0.05880174 0.010443742
0.100817025 -0.102521 -0.023417275 0.028935812 0.031975444 0.005496268 -0.0115398085 0.09500929
-0.08514318 -0.11441099 -0.069036104 0.10990881 0.029113462 0.033507597 -0.08671409 0.105787195
0.004828763 0.053951744 0.05845984 0.068158306 0.02123347 -0.0634465 -0.051580377 -0.11615173
0.06400306 0.02239336 0.05941578 -0.06504061 -0.040684715 0.0773591 -0.12124447 0.11490195
-0.068971 -0.087501556 0.078219794 -0.00260748 0.08050957 -0.098476306 0.03432814 -0.0642176
-0.031950172 0.103843145 0.073153645 0.09913141 -0.1033743 -0.027794095 0.11624431 -0.0011304427
-0.11749327 0.01885547 0.0042824894 0.012221616 -0.016320111 -0.027187292 0.06362061 -0.00873134
0.028794063 0.0010749842 -0.0058466503 -0.023614217 0.117077425 -0.04171785 -0.05297169 -0.10100816
-0.050526924 -0.014862002 -0.010036495 0.028061712 -0.12561513 -0.11893603 0.02123784 -0.05082245
-0.024764022 -0.07565398 0.08420218 -0.037453815 0.06645865 0.096686535 -0.035751097 -0.09281317
0.09552976 -0.034038316 -0.068502806 0.000491778 0.07536348 -0.06597644 0.031085886 0.051555317
0.12249082 0.014772469 0.041705243 0.048827693 -0.013018262 0.09325185 0.051110953 -0.06538276
0.043316156 0.05800702 0.043145027 0.056787997 0.10226402 0.10759225 0.043022126 -0.03491236
-0.04938846 0.11069994 -0.06218893 -0.105264515 0.11598667 -0.016986486 -0.015299658 -0.016637804
-0.033332314 -0.055788662 0.058464862 -0.0939039 -0.048741736 0.11521536 0.028216816 0.016511366
-0.01356695 -0.030029284 -0.0090936115 0.041892014 0.07595536 -0.047880165 -0.021194221 -0.03983129
-0.027333789 0.00055521267 0.018513948 -0.05789453 -0.08324094 0.019542988 0.0408391 0.07256312
-0.1237158 -0.011772542 0.11174755 -0.07928467 -0.06925114 0.037754316 0.0939376 -0.05912747
0.02081292 -0.053919412 0.023925511 0.07794521 -0.11811249 0.032016642 0.02977377 -0.01199916
0.07644232 -0.003949447 -0.105333485 0.090749696 -0.046440877 -0.056170676 0.035095483 -0.110924534
-0.031111913 0.037192155 0.12144178 -0.009014524 0.061193187 0.104590654 -0.028384537 0.03995579
-0.027726315 -0.06608746 0.059199695 -0.029511688 -0.05865591 0.10809987 -0.055755604 -0.017329128
-0.10650334 0.04676796 -0.011797218 -0.014187885 0.0907636 0.019049836 -0.08633951 -0.05845184
0.008400064 -0.11844506 0.046217293 0.10434448 0.116985954 -0.0066562067 0.042547237 -0.12377288
-0.09972328 0.08695486 0.110270515 0.060111243 -0.12257398 0.06019328 0.0120029645 0.08448019
0.0081389155 -0.040535953 -0.05528108 -0.004119015 0.031362582 -0.121649675 -0.11267099 0.08216798
0.037810173 0.09767171 -0.057570234 -0.016389545 0.106501 0.05340877 0.035110105 -0.06157335
0.05456745 -0.060282696 0.08690152 0.110209785 0.06861263 -0.07000754 0.068694964 -0.068496816
0.09105554 -0.08485308 0.059612803 -0.021075452 -0.05908643 -0.063620165 -0.049096227 0.08970076
-0.0023867737 -0.039467752 0.047650684 -0.044146005 0.081861645 -0.056436755 -0.0262529 0.108434565

layer2.bias f4 [256]
00000000: 1d2c 833d cba1 a3bd 0109 043c 1f97 84bd
00000010: 71b7 5bbd b81f 373c 691f 69bd e7f0 6e3d
00000020: 7d77 dc3c 5f54 343d f7b4 643d 1f63 b43d
00000030: ad2a b1bd d1f3 acbd d7c9 a83c 120f 81bd
00000040: bfa2 9b3d 2d37 42bd 3969 063d 0b50 843b
00000050: 84b7 673d ba16 023d db47 0dbd d414 8bbd
00000060: 020f 933d b404 51bd e110 9bbd 6a08 6bbd
00000070: c6e6 39bd 77cf 113d 6f8c 503d cb93 a5bd
00000080: 7f3f a03c 971e 223d 3bea 89bc bca3 94bd
00000090: a09c 123d b64a 073d eaee afbc c2ae 89bd
000000a0: 220b 1dbd 663c 85bd 2082 883d 69a2 8ebd
000000b0: a8e8 0abd c6c2 0fbd 47c3 b23c 9c18 30bd
000000c0: a6f8 8abd fc72 803b 468c 9e3d 8616 9dbc
000000d0: 7e9a 263d 9b49 e73c 117e 8fbd a591 033d
000000e0: caef 9c3d aa4a 9bbd 3157 053d f843 413d
000000f0: e107 7a3c 6bd6 a8bd f804 87bb 2408 a8bd
00000100: 1b83 66bc e68b 26bd ae96 1ebd ef77 81bd
00000110: 4f79 77bd 90f5 6cbd abb1 0d3d 409d 1fbd
00000120: 3114 983c 2ab0 6b3d 84c8 2bbd 82aa a63d
00000130: 4a77 943d 2448 e6ba 15d3 8dbd 6904 85bd
00000140: 5edd 9fbd 7516 373d 9372 823d bcfe b33d
00000150: 2142 863d 6685 3a3d 70ee 14bd 466f 5bbd
00000160: 1f9c 3dbc 95c7 a9bd 0bbc 50bb 2cd4 583d
00000170: b28a d8bc c3f6 b63c 4604 57bd 6156 783d
00000180: a1d7 f9bc 32e0 b2bd ef10 8e3d 0ddb abbd
00000190: 0303 363c 4a35 9a3d 4212 c5bc 3fdf 7cbd
000001a0: db9f 8f3c 15cb 58bd 6868 55bd 5c7b b13d
000001b0: b92b e73c 170f 0bbd 54a6 973b 9a4e 29bd
000001c0: 99f0 323d db23 203d c3f7 7bbd c12a 9a3d
000001d0: 2056 013d ee7b 503d 92cc c33c 03d8 883d
000001e0: 3c16 6fbd 82b3 88ba 609d 283c b91d 823d
000001f0: 62e4 b3bc 097e 703d 90e5 6dbd 05cb f0bb
00000200: 1d35 8bbd afa5 8abd 8863 aa3c 92df bbbd
00000210: 8a2b b0bd 078c 71bd 9960 6b3d 866b abbc
00000220: 54e8 71bd 0047 1cbd cc9b ddbc 3b7b adbd
00000230: d323 e9ba 79a8 91bb d943 b3bd d107 bd3c
00000240: 1564 88bd 653a 253c 7bf9 74bd b1e6 98bd
00000250: 1d83 483d cfa8 103d 56e7 b43d 2fd7 99bd
00000260: 6fc4 c33c aa4b 5cbd feaa a83d ead2 6b3d
00000270: 68dd 05bc ec49 95bd f7ee 113b 08cf 27bd
00000280: 58e8 febb 1cbb afbd c95e cbbc a5e8 ac3c
00000290: ba59 83bc 6ffa b7bc a03a cdbc d5f2 833c
000002a0: 7caf 143d 3df4 4ebd ae77 06bc ba7b aa3a
000002b0: 0af6 1dbd 3300 173d 6f1f 8b3d 695f dd3c
000002c0: 6efe 8cbc 5709 04ba a698 2ebc e8f9 80bd
000002d0: 2dc5 973d 7165 723d a56a 80bc 84b3 95bd
000002e0: 57a5 8c3c 8433 97bd a5eb b4bc 4980 3b3d
000002f0: c13c 583d 0bfb 3abd 7351 963d d48c 8cbd
00000300: ce85 3fbd 9514 1d3d 84d3 10bd c4b1 6dbd
00000310: d3a2 59bd 2913 2b3d da18 92bd 0e0c 86bc
00000320: ecc0 663d f6eb 8a3d 5c51 0b3d a9ae 6d3d
00000330: cd6c f3bb 09aa b03b cbc5 b3bd f03a 803d
00000340: 9b41 403d b893 2c3c 79db 5e3d 904f 4fbd
00000350: 18c5 5c3d 9ab5 143d eee7 773d 8cc1 57bd
00000360: 33ff 87bd abbc 3c3d d85b bbbb dfb5 1a3d
00000370: ed0c 96bd 1d1e b3bc d7a6 a53d 5e1f 193d
00000380: 3557 a0bd 5173 d13c 4f0a 373c 8eaf aabd
00000390: 40dd 83bd 4039 8fbc 0d4d d93c 59a4 a93c
000003a0: ae6a 4cbd 30fd 163d 5582 483c 8232 263d
000003b0: be75 91bd 43e3 a53d ec26 cdbc 38a9 983d
000003c0: 779b 453d 3376 a1bc 0649 10bc 5960 49bd
000003d0: 539e 74bd d417 7ebd ab90 183d 7a5b 273d
000003e0: a8a7 18bd 3dc7 b43c fbf9 3f3a 38c3 0a3d
000003f0: 8255 46bd 1ac0 d3bc 7648 883d a0f8 503c
0.06404898 -0.07989844 0.008058787 -0.064741366 -0.05364174 0.011176996 -0.05691472 0.05833521
0.026912445 0.044025775 0.055836644 0.08807968 -0.08650718 -0.08444942 0.020604057 -0.063017026
0.07599401 -0.0474159 0.032815192 0.004037862 0.0565715 0.031759955 -0.034492355 -0.06791082
0.07180597 -0.051029876 -0.07571579 -0.05738107 -0.0453861 0.035598245 0.050915178 -0.0808483
0.019561527 0.039579954 -0.016835323 -0.07257792 0.0357939 0.033030234 -0.021476228 -0.067227855
-0.038340695 -0.06505661 0.066654444 -0.06964571 -0.033913285 -0.03509786 0.021821631 -0.04299222
-0.06785707 0.003919957 0.07741599 -0.01917578 0.04067468 0.02823334 -0.07006467 0.03212132
0.07662924 -0.075826004 0.032553855 0.04718396 0.015260668 -0.08244022 -0.0041204654 -0.08204678
-0.014069344 -0.04066076 -0.038717918 -0.06321704 -0.060418423 -0.057851374 0.034593266 -0.038968325
0.018564316 0.05754105 -0.041939273 0.081379905 0.07249315 -0.0017569107 -0.06925026 -0.06494982
-0.07805894 0.04469915 0.063695095 0.08788821 0.06555582 0.045537375 -0.036360204 -0.053572915
-0.011572867 -0.082900204 -0.0031850364 0.052936718 -0.026433323 0.022334462 -0.05249431 0.060629252
-0.030498328 -0.08734168 0.069368236 -0.0839139 0.0111091165 0.07529695 -0.024056558 -0.06173634
0.01753228 -0.05292805 -0.052101523 0.08666107 0.02821909 -0.033949938 0.004627982 -0.041334726
0.043686483 0.039096694 -0.06151558 0.07527686 0.031576276 0.05089944 0.023901258 0.06681826
-0.058370814 -0.0010429474 0.010291427 0.063533254 -0.021959487 0.058713946 -0.058080256 -0.0073484206
-0.0679724 -0.06769883 0.020799413 -0.09173502 -0.086020544 -0.05897143 0.05746517 -0.020925295
-0.059059456 -0.03815365 -0.027051829 -0.0847077 -0.0017787166 -0.0044451323 -0.08753175 0.023075016
-0.06659714 0.010084723 -0.059808236 -0.07465876 0.048953164 0.03531724 0.08833186 -0.07511746
0.023897378 -0.053783096 0.08235739 0.05757419 -0.008170463 -0.0728949 0.0022267678 -0.040968925
-0.0077791624 -0.0858061 -0.02482547 0.021107027 -0.016033996 -0.022458283 -0.025052369 0.016107002
0.036300167 -0.050525893 -0.008207245 0.0013006844 -0.03856472 0.036865424 0.06793105 0.027023034
-0.017211165 -0.0005036792 -0.010656511 -0.06297666 0.07410655 0.059178773 -0.015675852 -0.073096305
0.017168684 -0.07382873 -0.02208502 0.04577664 0.052792314 -0.04564957 0.07339754 -0.06862798
-0.046758465 0.038349707 -0.035357967 -0.05803086 -0.053133797 0.04176632 -0.07133646 -0.01636317
0.05633633 0.06783287 0.034013137 0.058027897 -0.0074287415 0.0053913635 -0.087779604 0.062612414
0.046937566 0.010533266 0.054408524 -0.050612986 0.0538989 0.036306 0.06052392 -0.052674815
-0.06640472 0.046078365 -0.0057177357 0.037771102 -0.07326684 -0.021864945 0.08088463 0.03738343
-0.078291334 0.025567682 0.011171891 -0.08334266 -0.064386845 -0.017483354 0.026525998 0.02070825
-0.049906425 0.036862552 0.012238105 0.04057551 -0.07102536 0.08099987 -0.025042973 0.07454151
0.048243966 -0.019709682 -0.008806473 -0.04916415 -0.059721302 -0.062034443 0.03724734 0.040858723
-0.037269264 0.02206766 0.0007323322 0.03387758 -0.04842139 -0.025848437 0.06654446 0.012754589

layer3.weight f4 [256, 256]
00000000: 646f 5e3d b177 2cbc 0aea d33d a30c 1fbd
00000010: fdb6 cf3d bc95 743b 73c3 e4bc 1dc3 473d
00000020: 9d21 853c fddc 8ebd de58 29bd fad8 da3d
00000030: a698 243a de32 a1bd 89b2 81bd b609 983d
00000040: 7963 7c3d d15f 84bd c3e0 99bc f72d 91bc
00000050: efac ac3d e595 ca3d afab 06bd 1583 a13d
00000060: e011 a3bd c2b2 a539 98a0 883c f0ec c1bd
00000070: 123c cc3d 5fee bbbd 7ea4 b03d 64e6 96bd
00000080: cf8d 70bd 8609 38bd 81a0 8a3d 1ab1 83bd
00000090: ef04 3ebc 11bc 16bd 3992 3e3d 4bf0 193d
000000a0: 7317 063d bb73 d43d c15f 46bd 7670 773d
000000b0: 5e65 6c3d 1594 85bc 5fd0 913b 3e79 0c3d
000000c0: 072e 5dbd 1d58 fcbc e2f0 2ebd d540 c3bd
000000d0: 32c4 55bd e529 c03d 4691 26bd ffb3 c1bd
000000e0: ab9d a3bc a102 2fbc e0e8 983d 5ff2 c0bd
000000f0: 269f 8bbd 25c5 b5bd 2ccf 603d 856a 84bc
00000100: 47f6 5ebd f38c d33d c208 2e3d 56e7 2f3d
00000110: dcf4 9e3c 9082 d0bd f1bc ad3d 34fe 2ebd
00000120: 73af 5f3d 06ee d9bd 9d35 393d ada6 fe3c
00000130: 8d79 81ba 806d c6bd 25a1 403d 954b 53bd
00000140: d89f 8e3d 2a99 993c 5a8d dabd a219 273d
00000150: 9606 353d de66 a2bd 9148 f1bb d83b 9b3c
00000160: 1006 a9bd 6e65 8dbd ba00 aabd 0c2e e3bd
00000170: 3fbd c4bb b804 eb3c 1f81 25bc 2483 fe3b
00000180: 479e f43b 3647 bf3d 7be1 f23c 35fd b83c
00000190: 0aff 2ebd 93e5 3d3d ed87 a4bd 6ba5 b03d
000001a0: 999a 993d 4509 1dbd a05d 433d d219 9bbd
000001b0: 2a3a 93bd 4e33 f13c d1a3 763c 3e90 8cbd
000001c0: c92e a93d c553 c23d 1b4b a6bd 268b 86bd
000001d0: c86d 94bd b557 c13d e97e 85bd e2bb d2bd
000001e0: ff79 88bd 64a0 b93d c19c 28bb de66 c3bd
000001f0: f941 79bd 01aa 7e3d 2485 1abd 4c44 893d
00000200: c5fc 81bd a567 c8bd 6158 a03d fb53 afb9
00000210: 8e90 ef3c d5ea b9bc c429 c4bd 93fe 1bbd
00000220: fa1f 943d 1c3f 74bd bafb 8b3d cd5a 11bd
00000230: b02e 3bbc a415 033c 39d5 783b 7f00 91bd
00000240: c381 333d 6d92 c0bd faca d03d 80e1 c6bd
00000250: 4559 c2bb 0b41 efbc ea36 b4bd d7e6 bc3c
00000260: fd30 76bd 3dd7 78b9 a21d 353d 976e c33d
00000270: da9f 273d 1bde adbd 21ee 29bd e425 82bc
00000280: c93b 3a3c 53e4 2dbd ab47 d6bc 0d36 b1bd
00000290: 55c3 17bc b39e babc 367d 443d ead4 4e3d
000002a0: 21ff 9b3c 2ccc 503d 8200 c73d 7352 2ebd
000002b0: 9888 adbd 0466 82bd 2e8e 31bd 61d3 873d
000002c0: aac1 82bd eac3 ff3c b463 5ebd 59cc e5bb
000002d0: eb2f 9cbd 212a 9c3d 8777 f03c 2588 0e3b
000002e0: b9cb d13c d868 cf3d b377 753d eb13 393d
000002f0: 82e0 30bd 087f 36bc 2e29 103d 82e7 cdbd
00000300: 6ded c53c e4b0 443d 067c 463d 3097 323d
00000310: 405f 62bb f894 ce3d ee4e dabd 9eec a33d
00000320: f917 00bc 9c1e 993d a81e a43c 114a d63d
00000330: a8a2 6b3b 4c4c 053d 6e22 32bd 5e24 bebc
00000340: 1bb4 8d3d 97a6 e63a 6485 16bb 4131 2b3c
00000350: 5c7c 62bd de15 96bd d0c5 d8bd 3344 9abd
00000360: 6397 d93c 4f98 413d 4949 d2bb 2571 50bd
00000370: 75da a6bc d15f 59bd 8c41 c0bd 92cf cdbc
00000380: 8db7 2b3d 624c 37bd b310 a9bd d7b6 9dbd
00000390: 5086 d7bd 8fd1 9a3c e09e 37bd b28c 233c
000003a0: 32c6 7d3d 9bf6 e5bc 4692 67bb 8218 59bd
000003b0: 5f19 a1bd 861d 4cbc b40c f93c a9b7 6bba
000003c0: a87f 0cbd 2243 d03d c19f c0bd 6a98 a43d
000003d0: 5f9b 30bd 529f b5bb 30a6 4c3d 8b8f c43c
000003e0: 4d07 27bc 6921 1c3d 77ac 993d 990f 283d
000003f0: 4655 bebd c5ff af3c 6c0a 80bd 0b0f 1f3d
0.05430545 -0.0105265835 0.10347374 -0.03883041 0.10142324 0.0037320694 -0.027925229 0.04877006
0.01625138 -0.06975744 -0.041344516 0.10685916 0.000627885 -0.0787103 -0.06332881 0.07423727
0.061618302 -0.06463588 -0.018783933 -0.017722113 0.08431422 0.09891871 -0.032878574 0.0788633
-0.07962394 0.00031604437 0.01667814 -0.0946902 0.09972395 -0.09176325 0.086251244 -0.07368162
-0.05872899 -0.044930957 0.06768895 -0.06430264 -0.011597856 -0.036800448 0.046526168 0.037582677
0.032737207 0.10373636 -0.04843116 0.060409985 0.05771386 -0.016305963 0.0044498886 0.034295313
-0.053998973 -0.030803734 -0.042710193 -0.0953385 -0.05218906 0.09382991 -0.040665887 -0.0945816
-0.019972643 -0.010681779 0.074662924 -0.094212286 -0.068174645 -0.08875493 0.054885074 -0.016164074
-0.054434087 0.10329618 0.04248882 0.04294523 0.019403867 -0.10181153 0.08483303 -0.042722896
0.05461068 -0.106411025 0.045217145 0.031085337 -0.0009878144 -0.09688854 0.04702868 -0.051585753
0.069640815 0.018749792 -0.10671492 0.04079593 0.044195734 -0.079297766 -0.007363387 0.018949434
-0.082531095 -0.06904112 -0.0830092 -0.11092767 -0.006004005 0.028688774 -0.010101586 0.007767098
0.007465157 0.09339754 0.029648533 0.022581676 -0.042723693 0.046361517 -0.08033738 0.08625301
0.0750019 -0.03833892 0.04769671 -0.07573284 -0.07188828 0.02944341 0.015053705 -0.068634495
0.08260877 0.09488634 -0.08119794 -0.06569509 -0.072475016 0.09440557 -0.06518347 -0.10289742
-0.06663894 0.09063795 -0.0025728198 -0.09541105 -0.060853932 0.062173847 -0.03772463 0.0670248
-0.0634704 -0.097853936 0.07829357 -0.0003344117 0.029243734 -0.022694984 -0.09578279 -0.038084578
0.072326615 -0.0596305 0.068351224 -0.035486985 -0.011424705 0.008000765 0.0037968887 -0.07080173
0.043824922 -0.094029285 0.10194965 -0.097109795 -0.005931052 -0.02920582 -0.087995365 0.023059292
-0.060105313 -0.00023731306 0.044217713 0.09542578 0.04092393 -0.08489629 -0.041486863 -0.015887208
0.011366793 -0.042454075 -0.02615722 -0.086528875 -0.009262879 -0.022780752 0.047970973 0.05049602
0.019042553 0.050975963 0.09716894 -0.0425591 -0.08473319 -0.06367114 -0.043348484 0.06632114
-0.06384595 0.031221349 -0.054294303 -0.0070128855 -0.07626327 0.07625223 0.02935387 0.002174863
0.025609838 0.10127419 0.059928607 0.04518501 -0.043182857 -0.011138685 0.035195522 -0.10053922
0.024161065 0.04802026 0.04845812 0.043601215 -0.0034541637 0.10087007 -0.10659586 0.080041155
-0.0078182155 0.074765414 0.02003415 0.10463346 0.0035955105 0.032543465 -0.043489866 -0.0232107
0.06919118 0.0017597255 -0.002296769 0.010448755 -0.05529438 -0.073283896 -0.10584605 -0.07532539
0.026561445 0.047264393 -0.0064174277 -0.050889153 -0.02036784 -0.053069893 -0.09387502 -0.025123391
0.041923095 -0.04475058 -0.08255138 -0.077008896 -0.10523665 0.018898753 -0.04482925 0.009982275
0.061956592 -0.028071692 -0.0035334988 -0.053001888 -0.07866167 -0.012458211 0.030401565 -0.0008991906
-0.03430143 0.101690546 -0.09405471 0.08036883 -0.043116923 -0.005542674 0.049963176 0.023994228
-0.010194612 0.0381178 0.07503598 0.0410305 -0.09293608 0.021484265 -0.06251988 0.038832705

layer3.bias f4 [256]
00000000: f67d c1bc e262 c73c 16d1 57bd 568b b43c
00000010: d0bf 2fbd 73dd 5bb9 3e83 80bc 6147 ec3b
00000020: 51a4 0a3b 4bd4 14bd 02f3 15bc 9993 7f3b
00000030: d5c3 6c3d 51ec 25bd 6e2b 573d 9644 f63a
00000040: ccb5 64bd 344b 6cbd 0e5d 843c d22a 3c3d
00000050: ae9a 4e3d b447 5cbd ff69 ba3b 5abc 4cbd
00000060: 5db6 223d 526e 6b3c 5ea4 b2bc 859d bf3b
00000070: e73c 7abd 53f8 61ba 2fde 1e3d cdc5 2dbd
00000080: 9a70 f9bc da8c 4dbd 6117 2abd afce 04bd
00000090: f19a 463d 9c8e b1bb faee 1ebd ab69 383d
000000a0: 9f81 e03c bbf9 10bd 7983 4bbd 00bd fdbc
000000b0: d1a6 fc3c 952e 293d 747d 843b 58b5 97bc
000000c0: 2fa0 01bd 058c b93b 75d9 e6bc ff41 9ebb
000000d0: f94a 703d 3912 2dbd 0457 40bd dfa0 94bc
000000e0: 06e8 ef3c a530 2bbd b096 81bc 8b5f 6ebd
000000f0: 59c1 d33c a7d7 6c3d aebd 133d 3991 18bd
00000100: fc18 633c 01a1 76bc 45ee 0ebc 01f0 2638
00000110: 3ddd dbbc 2d6d 7b3d 6d67 14bd 8a33 213b
00000120: 9994 773d ea98 12bd 9bf4 523d 299e 8d3c
00000130: e174 33bc 4a55 efbc 41a1 beba 4a19 713d
00000140: 53cc 13ba 076e cbbc d80c 22bd 6d0d e63c
00000150: 2ac1 533d c15d 68bc 7533 7a3d 4256 2b3d
00000160: 73f5 3a3c 99d6 e93b 45a3 a03c 4060 0cbd
00000170: f09a 29bd 2bad 513d 30b5 eb3b fbd2 cc3c
00000180: ac70 113d 3d40 2b3d 2b40 7c3d a6e1 fcba
00000190: c361 f9bc 2cbe 0f3d ff75 06bc f1ae 5f3d
000001a0: ed68 cbbc dc97 6dbd 217b 0e3d 6051 183d
000001b0: 2d88 8f3c 91fe d7bc 7919 39bc 29cc 363d
000001c0: 9e63 04bd 0152 cebc 1878 37bd b12e 143c
000001d0: 50c2 313b 56e3 fb3c 838e b73a f82d e7bc
000001e0: 74d8 5d3d 2efe 71bc d1e1 6abd b6c6 d9bc
000001f0: 29e2 4fbd cfe3 7cbc d41d 633d 2e09 f73c
00000200: b330 59bd 88bd d23b 098f 713d eccb 22bc
00000210: 355b 3d3d df2f 5dbc b542 d53c 5248 2e3c
00000220: 83e9 263c ac70 7b3d fd67 673d 0d04 f7ba
00000230: e2b1 1cbd 4bcf 32bd 4d0f c63c f037 aebc
00000240: a706 3f3b 2b89 acbc 3384 55bb 1809 c9bc
00000250: efef 1c3d 2906 73bd 51d2 a4bc 5997 073c
00000260: 3433 5e3d 90a4 84bd 7ad1 1bbd 61da 0c3d
00000270: d857 483c 70c0 163c baf9 5fbd 00df 48bc
00000280: 17e1 cf3c 0186 1bbc fd53 593d 34f4 6bbd
00000290: 97c8 633c 0dd7 6fbd 03fa 50bd 35b1 2f3d
000002a0: 4921 5d3d 007b 2a3c 245d f73c 6a5a 0bbc
000002b0: 555a c1bc 2766 79bd 91c4 b43c be60 aa3c
000002c0: bc30 613b 19d1 19bd 6750 79bd 3132 5e3d
000002d0: 002d 5ebb fe03 35bd 0761 063d 1c15 fd3c
000002e0: 3bf6 843c cf24 63bd 8be9 853c 9cb7 053d
000002f0: c817 02bd 7199 193d 58ad 053d 5d2b 79bd
00000300: 3b9e 2bbd a31a 06bd 4889 ca3c efa3 b0bc
00000310: 8943 22bd 8ac5 9abc e137 7abb 9b66 a23c
00000320: 1895 363d 16be f6bc e6ca 673d 2252 0cbd
00000330: 0b67 743d fc60 c1bc 8c04 2abd c9de 083d
00000340: 4dcd a93c 38bf 5d3b 6331 08ba 1859 25bd
00000350: fa37 36bd a302 973b 7c2c 1dbd 354a f43c
00000360: 5027 973c b13d ecbc 50f9 a13c aaa0 34bc
00000370: cf1d 853c 9bd2 95bc cbd5 7b3d fd89 583c
00000380: 2d00 a6bc 6353 f43c 448a 633c 19a6 d33b
00000390: 8030 593d 0f0c 853c 0106 013d b0ab 51bd
000003a0: c24e 4bbd 66e3 b8bc 9fff d03c 4ca8 be3c
000003b0: 2c11 87bc 2a4a 7fbd 89db 0a3d bd5f 24bd
000003c0: d9c4 3e3d 4994 65bd 645e 4a3d 9ddb 053d
000003d0: ef91 49bd 6a64 e9bc 62a7 133d 3e80 573d
000003e0: 88b9 bf3a 4a0a 183d cc37 55bd 4a01 c13c
000003f0: a7e2 823c 023f 813d ca34 40bd 870f bdbc
-0.023619633 0.024339143 -0.052689634 0.022039097 -0.042907536 -0.00020967964 -0.015687581 0.0072106575
0.002115507 -0.03633527 -0.009152176 0.0038997887 0.057803947 -0.040508572 0.052531652 0.0018788751
-0.055837438 -0.057688907 0.016157653 0.045939274 0.050440483 -0.05377932 0.0056889053 -0.049984314
0.039724696 0.014369564 -0.021806892 0.005847635 -0.061093237 -0.0008620072 0.03878611 -0.042424966
-0.0304492 -0.050183155 -0.041526202 -0.03242367 0.048487607 -0.0054186117 -0.038802125 0.045022648
0.027405558 -0.03539441 -0.04968593 -0.030973911 0.030841263 0.04130419 0.0040432755 -0.018519089
-0.031646904 0.0056624436 -0.028179863 -0.0048296447 0.05866525 -0.042253707 -0.046957985 -0.018143116
0.029285442 -0.041794438 -0.015818924 -0.058196586 0.025849031 0.05782285 0.036069565 -0.03724787
0.013860937 -0.015053035 -0.0087238 3.9801005e-05 -0.026838893 0.061383415 -0.036231447 0.002459737
0.06044445 -0.03579036 0.051502805 0.01728733 -0.010953159 -0.029215474 -0.0014543907 0.05886201
-0.00056380517 -0.024832739 -0.03956303 0.028082574 0.051697887 -0.014182509 0.06108423 0.04183031
0.011411059 0.0071361777 0.019609103 -0.03427148 -0.041407526 0.051190536 0.00719323 0.025002947
0.035507843 0.04180931 0.061584633 -0.0019293323 -0.030442124 0.03509347 -0.008206843 0.054610197
-0.024830306 -0.058006153 0.034785394 0.03718698 0.017520988 -0.026366504 -0.011297577 0.044628296
-0.032321565 -0.025185587 -0.044792265 0.009044335 0.0027123876 0.03074805 0.0014004264 -0.028220162
0.054161504 -0.014770074 -0.05734426 -0.02658401 -0.050752793 -0.015435173 0.05544837 0.030155744
-0.05302496 0.0064312853 0.0589743 -0.009936314 0.04622956 -0.013500183 0.026032785 0.01063736
0.0101875095 0.06138675 0.056495655 -0.0018845812 -0.03825558 -0.04365472 0.024177218 -0.021266907
0.0029148252 -0.0210615 -0.0032580018 -0.024540469 0.038314756 -0.059332047 -0.020119818 0.00827583
0.05424805 -0.064767 -0.03804157 0.03438795 0.012227975 0.009201154 -0.054681517 -0.012260199
0.025375886 -0.009492398 0.053058613 -0.057605937 0.013902805 -0.058554698 -0.05101968 0.042893607
0.05398682 0.010405302 0.03019578 -0.008505443 -0.023602644 -0.060888436 0.022066386 0.020798083
0.0034361323 -0.037552927 -0.060867693 0.054247085 -0.0033901334 -0.04419326 0.032807376 0.030893855
0.016230693 -0.055455025 0.016346714 0.032645807 -0.03176096 0.03749985 0.032636017 -0.06083237
-0.041898947 -0.032740247 0.024723664 -0.021562545 -0.039615188 -0.018893022 -0.003818028 0.019824317
0.04457578 -0.030119937 0.056589983 -0.034258015 0.059668582 -0.023605816 -0.041508242 0.03341559
0.020727778 0.00338359 -0.00051953475 -0.04036817 -0.044486977 0.0046084686 -0.0383725 0.02982054
0.018451363 -0.02883801 0.019772202 -0.011024633 0.016249565 -0.018288901 0.061483186 0.013216493
-0.020263756 0.029824918 0.013887946 0.0064590094 0.05302477 0.016241102 0.031499866 -0.051189125
-0.049635656 -0.02256937 0.025512515 0.02327361 -0.01648768 -0.062326588 0.03390077 -0.040130366
0.046574447 -0.05604962 0.049406424 0.032680143 -0.04921144 -0.028490264 0.0360483 0.052612536
0.0014627436 0.037119187 -0.052055165 0.023560185 0.015977217 0.06310846 -0.046925344 -0.023078693

layer4.weight f4 [1, 256]
00000000: 4979 ffbc c486 09be 257f d5bd 6d60 e23d
00000010: caa0 16be 9088 cebc e026 393c 70c8 15be
00000020: ec15 653d 16b6 4e3d dd90 ca3d 15dd acbd
00000030: 1541 fdbd 5442 f83d ab8a cd3d fdd7 1abc
00000040: 689d da3c 8118 843d bafb 36bb 9f0f 84bc
00000050: 4b34 fa3d 3da4 b1bd ac60 d7bd d82e edbd
00000060: 7062 9cbd a3aa e2bd 18f3 6cbd eb78 6cbd
00000070: a6cd eabd 0d30 533d d210 14be 4c35 37bd
00000080: ed13 233d 839a aa3d b6ff 92bd 4cbe d23b
00000090: 455f f83d 06ea 10be 1cdb 9bbc 9c14 f13c
000000a0: e704 ce3c 2373 923d a555 bd3a 1f6b edbd
000000b0: 5e27 353d 2791 c23d 0cfe 8dbd 7882 0a3d
000000c0: 9fd3 8b3d 65a5 b53d f169 bfbd f649 943d
000000d0: 77e6 5dbd 755f 503d 52b0 c23d bd44 b3bd
000000e0: de7d 4c3d cc1a 02be 1633 a43d b046 babd
000000f0: c87d d2bd 26d8 e7bd e904 b8bd 91ca bf3d
00000100: 454b d63c 7faa abbd 0bd9 023e 649c 133e
00000110: a53f 1cbd f5ba 04be b254 193e 41ab fbbd
00000120: 663d 8c3c 5db3 d1bd c1ec ff3d 27d4 91bb
00000130: 82fa 8d3d 052a fdbd aa92 8d3d c668 733d
00000140: 908e eebd 17c4 b53d 69e2 b43d f9ef 39bd
00000150: ed2b 6f3d 3097 6dbd 5754 e93d ec83 ae3b
00000160: 2604 d9bd 5b33 1bbe f8ca 9d3d d74b 003e
00000170: ed3e 023d 6a38 85bd dc5c cfbd b858 92bd
00000180: e24b ef3c 16c9 d9bd 8f3b 41bd 877c 5dbd
00000190: 0d07 c93d a8f9 babd c272 ce3d 1da9 3e3d
000001a0: 124e e0bd bdf5 e9bd b1d0 023e 190b 0e3e
000001b0: e731 04be 0c87 0bbd 9218 a8bd 9b0a e03c
000001c0: 53a5 eabd 2bf0 58bd 799a 893c ea78 8dbc
000001d0: 7afc e53d 031b 863d b0f8 b43d 5e8d cc3a
000001e0: 9e16 223d 6cbb a23d aee7 cdbb b0d6 023e
000001f0: 5e71 a0bb 520f e43d 01c8 7f3c 1192 e33b
00000200: 032b 1d3e 7677 a6bd f27c d5bd 4adc 7abd
00000210: c32c 13be 61a2 0bbe f926 95bd c813 c2bd
00000220: f19e 9d3b c0e5 c33b ebc6 47bd bb01 bcbc
00000230: e342 d2bd c00d ecbd 3f64 09be 3657 dd3d
00000240: d525 183e 1388 8e3c c7bd e03d da62 ae3d
00000250: 7ca3 04be 00aa 15be 9ccd 873d d1e3 13be
00000260: 2211 a5bd 84e3 843d 39da e63d 8e90 edbd
00000270: 113c 9ebd 5838 693d 96fe cd3d bd38 2a3c
00000280: bbd0 afbd da8e 68bd 4e25 b6bd e278 cf3c
00000290: b84e 15be f2a8 69bc 320a 57bd 89ef efbd
000002a0: 5aa4 503d cbe1 edbc 9955 1ebe 2d94 09be
000002b0: 4078 9c3d 05f5 dd3d 339b debd 8f69 ae3c
000002c0: c612 ff3d b942 babd 1cb9 463d 6edc a23d
000002d0: 0500 d73d a1a9 013e 67f0 e03b 91f5 353d
000002e0: fd75 ba3c c15d 14bd 7f14 c83d 0d2d b73d
000002f0: b2b7 98bd 996a 013e fb2e d1bc 033f 12be
00000300: 2044 32bc 0271 073e d0e6 123e dc6b 4fbb
00000310: 9407 16bd 5f4c d73d 1844 0dbe 56f8 8fbd
00000320: fa27 ef3c 17f3 53bb ee44 0d3c b606 093e
00000330: 2bb3 1d3e 38f3 133e 6049 f6bd c941 c7bd
00000340: bdf8 173e 17cb 4ebd 20e7 bebd 1eb5 0bbe
00000350: 81d2 97bd 1d90 023d 4bbf c13c 6643 e5bb
00000360: b1b0 db3d 6967 343d 2e4a 96bd d534 563d
00000370: 578d 0ebe ec0f b1bd 554a 19be 5fd6 7bbd
00000380: 4709 e0bc 3355 05be 85f4 42bd 8318 6ebd
00000390: 679a 2dbd 9f1c 353c da8c ee3b dbf8 afbd
000003a0: 2d54 ecbd e503 823c 9620 22bd 54e0 853d
000003b0: ca49 5bbd 3f34 e23d 2c43 8c3d 5a2c 83bc
000003c0: 2a2e 953c 078a f7bd 4ef1 f63d c4c6 ac3c
000003d0: e0de b0bd 9374 02bd 55c0 e83d dc78 19bd
000003e0: 22a5 1ebd aa50 01be 450f 9fbd f471 243d
000003f0: f1b9 c93d de59 09be f996 e2bc 518a af3d
-0.031185763 -0.13430315 -0.104246415 0.11053548 -0.14709774 -0.025211602 0.011300772 -0.14627242
0.05592911 0.05046662 0.09890912 -0.084406056 -0.12365929 0.12122026 0.100362144 -0.00945091
0.026686385 0.06449986 -0.0027921037 -0.01612073 0.12217005 -0.08673904 -0.105164856 -0.115812
-0.07635963 -0.110677026 -0.05784902 -0.057732504 -0.114650056 0.051559497 -0.14459541 -0.044728562
0.039813925 0.08330252 -0.07177679 0.0064313766 0.12127546 -0.14151773 -0.019025378 0.029428773
0.025148822 0.07150867 0.001444508 -0.11592697 0.044226997 0.09500342 -0.06933221 0.03381583
0.06827473 0.08869437 -0.093463786 0.072406694 -0.054174867 0.050872285 0.09506287 -0.08753345
0.049924724 -0.12705535 0.08017556 -0.09095514 -0.10277897 -0.11320524 -0.089853115 0.09364808
0.026158938 -0.08382129 0.12778108 0.14415127 -0.038146634 -0.12961943 0.14973715 -0.122885235
0.01711912 -0.10239289 0.12496329 -0.0044503394 0.06932546 -0.1236153 0.069127396 0.05942609
-0.116482854 0.08875292 0.08832247 -0.04539487 0.0583915 -0.05800551 0.1139304 0.005325785
-0.105964944 -0.1515631 0.07704729 0.1252893 0.031798292 -0.06504901 -0.101251334 -0.07145828
0.029210988 -0.10634057 -0.04717594 -0.054073837 0.09815798 -0.091296494 0.10080482 0.046547998
-0.10952391 -0.11423824 0.12774922 0.13871421 -0.12909661 -0.034064338 -0.082078114 0.027348807
-0.11457314 -0.052963417 0.016797291 -0.01726957 0.11229797 0.06548121 0.08836496 0.0015606096
0.03957235 0.07945904 -0.006283722 0.1277721 -0.004896327 0.111357346 0.0156116495 0.0069449027
0.15348439 -0.08128254 -0.10424222 -0.06124524 -0.14372544 -0.13636161 -0.07282824 -0.09476429
0.004810207 0.005978316 -0.048773687 -0.022950044 -0.10266664 -0.1152606 -0.13417147 0.1080765
0.14858182 0.01739887 0.10973697 0.08514948 -0.1295299 -0.14615631 0.06631014 -0.14442374
-0.080599084 0.06488708 0.112720914 -0.11599837 -0.077263005 0.0569385 0.10058324 0.010389504
-0.08584734 -0.05677686 -0.08893834 0.025326196 -0.1458081 -0.014261471 -0.052499957 -0.117156096
0.050937988 -0.02903833 -0.1546234 -0.13435431 0.07640123 0.108377494 -0.10869446 0.021290569
0.124547526 -0.090947576 0.048516378 0.079522 0.104980506 0.12662365 0.0068645957 0.044423643
0.02276134 -0.036222223 0.09769534 0.0894414 -0.07456912 0.1263832 -0.025535097 -0.1428185
-0.0108805 0.13226703 0.1434586 -0.0031649983 -0.03662832 0.105126135 -0.13795507 -0.07029788
0.029193867 -0.0032340938 0.008622391 0.13381466 0.15400378 0.1444825 -0.12025714 -0.097293444
0.1484098 -0.05048665 -0.09321427 -0.1364331 -0.07413197 0.03187572 0.023650786 -0.00699656
0.107270606 0.044043932 -0.073383674 0.05229648 -0.13921104 -0.08645615 -0.14969762 -0.061483737
-0.027348174 -0.13020782 -0.047596473 -0.058128845 -0.042383578 0.011054187 0.0072799744 -0.08592387
-0.11539493 0.015870998 -0.039581858 0.06536928 -0.053537168 0.110451214 0.068487495 -0.01601236
0.01821049 -0.120868735 0.12057744 0.021090873 -0.0863626 -0.031849455 0.113648094 -0.037468776
-0.0387317 -0.12628427 -0.07766584 0.040147737 0.09849919 -0.13413188 -0.02765988 0.08571304

batchnorm1.weight f4 [128]
00000000: 120d 803f 0000 803f 0000 803f 8f1d 803f
00000010: 0000 803f b111 803f 1a1a 803f 7cd1 7f3f
00000020: 0000 803f 2b05 803f 52ec 7f3f 0000 803f
00000030: 0000 803f 2ef0 7f3f e086 7f3f e49b 803f
00000040: 0eec 7f3f 5b35 803f bf26 803f 0000 803f
00000050: 3e0e 803f 0000 803f c315 803f 77d2 7f3f
00000060: 4f8a 7f3f 0000 803f 76d9 7f3f 8eda 7f3f
00000070: 96df 7f3f 94d3 7f3f 936e 803f f1fe 7f3f
00000080: 64ca 7f3f db0e 803f b97e 7f3f 0000 803f
00000090: cc0e 803f 73de 7f3f 7645 803f 3fff 7f3f
000000a0: 1017 803f 0000 803f 73f8 7f3f 5f1a 803f
000000b0: f519 803f 0000 803f aa17 803f 0000 803f
000000c0: bb01 803f 0000 803f 3f5c 803f 0000 803f
000000d0: 05f7 7f3f 0000 803f 0000 803f 0000 803f
000000e0: 78fc 7f3f 0000 803f 0000 803f 0000 803f
000000f0: 24ff 7f3f 02d8 7f3f 002d 803f 29dd 7f3f
00000100: 0000 803f a307 803f 0000 803f 39e0 7f3f
00000110: 2ef6 803f 9fdd 7f3f 0000 803f 6005 803f
00000120: be46 803f db2d 803f 0000 803f 8661 803f
00000130: 0000 803f 01ed 7f3f 9d35 803f 820f 803f
00000140: 6dcf 7f3f 7504 803f 8d1a 803f af70 803f
00000150: f8c3 7f3f 5bf0 7f3f c61d 803f 0000 803f
00000160: 58b3 7f3f 911a 803f 9115 803f 1ded 7f3f
00000170: 1f5e 803f ee07 803f 2cc9 7f3f 71ed 7f3f
00000180: cbda 7f3f 0000 803f 0000 803f 1144 803f
00000190: 532f 803f 0000 803f 86da 7f3f 4ad2 7f3f
000001a0: 98e2 7f3f f30d 803f ca4b 803f 0000 803f
000001b0: 0000 803f 0000 803f a81e 803f 3564 7f3f
000001c0: e78e 7f3f 0000 803f 7007 803f 0508 803f
000001d0: 0000 803f 0a01 803f e5c8 7f3f b20d 803f
000001e0: 4216 803f 2fee 7f3f 0ec9 7f3f 6986 803f
000001f0: 7f03 803f 580a 803f 7d2a 803f 0000 803f
1.0003989 1.0 1.0 1.000902 1.0 1.0005399 1.0007966 0.9992902
1.0 1.0001577 0.9996997 1.0 1.0 0.9997586 0.9981518 1.0047574
0.99969566 1.0016283 1.0011824 1.0 1.0004346 1.0 1.0006641 0.9993052
0.9982042 1.0 0.99941194 0.99942863 0.9995054 0.9993222 1.0033745 0.99998385
0.999182 1.0004534 0.9980274 1.0 1.0004516 0.99948806 1.0021198 0.9999885
1.0007038 1.0 0.9998848 1.0008048 1.0007921 1.0 1.0007222 1.0
1.0000528 1.0 1.0028151 1.0 0.99986297 1.0 1.0 1.0
0.9999461 1.0 1.0 1.0 0.9999869 0.99938977 1.0013733 0.9994684
1.0 1.000233 1.0 0.9995151 1.0075128 0.9994754 1.0 1.000164
1.0021589 1.0013994 1.0 1.0029762 1.0 0.99971014 1.0016361 1.0004733
0.9992588 1.000136 1.0008103 1.0034388 0.999084 0.9997613 1.0009086 1.0
0.9988303 1.0008107 1.0006582 0.9997118 1.0028723 1.000242 0.9991634 0.9997168
0.99943227 1.0 1.0 1.0020772 1.0014442 1.0 0.99942815 0.9993025
0.9995513 1.0004257 1.0023129 1.0 1.0 1.0 1.0009356 0.9976228
0.99827427 1.0 1.000227 1.0002447 1.0 1.0000317 0.99915916 1.000418
1.0006793 0.99972814 0.9991616 1.0041019 1.0001067 1.0003157 1.0012966 1.0

batchnorm1.bias f4 [128]
00000000: e975 833a 333a 55bb cc15 d33a ba7a 02bb
00000010: e3b5 b33a 2d28 00ba 6450 a3b9 1e00 663b
00000020: 82ff 0fb9 5a0f 1dba 8b88 983a 8024 bd3b
00000030: 1181 ba39 156d 31ba 65fd 743b 3741 9abb
00000040: 557f 7ebb e7b9 04bb b0df a938 90fe 0fbb
00000050: 7d1b 0fbb bd5a afba bc90 bbb7 002f a73a
00000060: 9ea5 82b9 1a67 74bb df52 463a 2b9e 4939
00000070: 094f f53a 09c9 1a3a 5616 02bb 3264 8eb9
00000080: 1ef8 3d3b 6486 0dba 9fd0 e739 a1b8 2f3b
00000090: f424 9d38 ef4d 81ba 52c3 2a3a 29c0 16bb
000000a0: 5772 923a 0401 66b9 61c7 143a 0d93 21ba
000000b0: 041e 5abb 0295 aeba c811 c7ba e67a e8ba
000000c0: 01ef 8837 f373 9dba ac21 783b e140 173b
000000d0: 0c1d 83b9 f525 cfba 12de 763b 3c2f 70bb
000000e0: 07d7 95bb e5cd 8a3b 028f 503b 3921 6a3a
000000f0: b2c0 5a3a 4e08 423a 3e1d 4238 6f62 763a
00000100: bf3e b9ba 0c56 d8ba 983f 2b3a 24f3 8fba
00000110: c07d c1ba c2c6 343b 8602 423b 2775 01bb
00000120: 2199 0a3b 62e2 b9ba 4133 02bb f410 20bb
00000130: 538b ccba cfb3 863b a6f6 513b f555 f439
00000140: fad6 883a 64ed 103b 2d48 d639 41d1 e1ba
00000150: 7787 2a3b 5a65 03bb 8665 9dbb 516f f7b9
00000160: c9cb fc39 e670 d73a daec 1fbb c36a 5fba
00000170: ef00 6bba 72fc a1ba 8eda 283b 7ee4 2039
00000180: 4f64 0f3b 650f 2cbb b3c1 06ba 70bc 3d3b
00000190: 6409 333b 7397 c23a 69e4 973a b7dd 46bb
000001a0: 74c7 0b3a 3682 ef35 7530 e8b9 3d89 f5b8
000001b0: 69d6 b43a aabf 35bb 9b1d be39 d99d 0cba
000001c0: ccd4 e2ba 3f10 ddbb 6881 a6b9 9f9d ca39
000001d0: 1d1e 863b 5d27 893a ce74 523b d90f 42ba
000001e0: 7ae9 e8ba bc42 463a 32fa 083b 1b33 653b
000001f0: d1c8 573b 8144 cbba 09ce 9a3a dbd7 85b9
0.0010029647 -0.003253591 0.0016104518 -0.0019909577 0.0013710823 -0.0004888799 -0.00031149678 0.0035095285
-0.00013732727 -0.0005991362 0.0011637373 0.0057721734 0.00035572847 -0.00067682686 0.003738248 -0.0047074812
-0.003883322 -0.0020252408 8.100213e-05 -0.00219718 -0.0021836453 -0.0013378483 -2.2359534e-05 0.0012755096
-0.00024918927 -0.0037292899 0.00075654493 0.00019227776 0.0018715571 0.00059045904 -0.001984974 -0.00027159002
0.0028987 -0.0005398749 0.00044215188 0.0026812928 7.4932264e-05 -0.0009865145 0.00065140903 -0.002300272
0.0011172992 -0.00021934888 0.0005675462 -0.0006163575 -0.003328205 -0.0013319554 -0.0015187794 -0.0017736822
1.6323758e-05 -0.0012012705 0.0037861867 0.0023079442 -0.0002500791 -0.0015804159 0.0037668985 -0.0036649248
-0.0045727524 0.0042359703 0.003182352 0.0008931342 0.0008344754 0.000740175 4.628044e-05 0.0009398823
-0.001413308 -0.0016505136 0.00065326085 -0.0010982496 -0.0014762208 0.002758429 0.0029603555 -0.0019753666
0.00211484 -0.0014181847 -0.0019866975 -0.0024424167 -0.0015605487 0.0041107903 0.0032037883 0.0004660335
0.0010440045 0.0022114152 0.00040871036 -0.00172285 0.0026020685 -0.0020049424 -0.0048033623 -0.00047194448
0.00048217017 0.0016436845 -0.002440265 -0.00085226836 -0.00089646777 -0.001235856 0.0025765034 0.00015343909
0.0021879857 -0.0026254293 -0.0005140558 0.0028951429 0.002731883 0.0014846161 0.0011588457 -0.0030344555
0.000533215 1.7844784e-06 -0.00044286592 -0.00011708073 0.0013796809 -0.002773265 0.00036261682 -0.00053640973
-0.001730585 -0.0067463215 -0.00031758402 0.0003864588 0.0040929453 0.0010464002 0.0032113078 -0.0007402874
-0.0017769777 0.0007563045 0.002090108 0.0034973088 0.0032926092 -0.0015508087 0.0011810671 -0.00025528562

batchnorm1.running_mean f4 [128]
00000000: 6b86 bd41 0000 0000 0000 0000 a918 7b41
00000010: 0000 0000 0296 7a42 d330 7d42 bde8 3f42
00000020: 0000 0000 8757 e541 669a 9e42 0000 0000
00000030: 0000 0000 5533 2a42 bb4b bb3f e458 b93c
00000040: 24f3 fd41 b98f 5c3f 25c7 773e 0000 0000
00000050: 38e8 6842 0000 0000 c631 6b41 e552 6842
00000060: 25f4 fd3e 0000 0000 2d65 af41 1483 7441
00000070: cfe3 cb41 778a 4d42 a965 213c 8765 123f
00000080: 01df 9342 c097 9842 ed5a 1440 0000 0000
00000090: eaf7 df41 4e5e 8542 3952 8b3f 9413 0c41
000000a0: 056e 893c 0000 0000 97ed f041 5379 da41
000000b0: a3eb 0d42 0000 0000 89d8 0342 0000 0000
000000c0: 3832 1142 0000 0000 480a 7e3d 0000 0000
000000d0: 91eb 7440 0000 0000 0000 0000 0000 0000
000000e0: ee5c 5242 0000 0000 0000 0000 0000 0000
000000f0: cf8e 9441 dddb 9341 2b6f 1e41 24c3 e73f
00000100: 0000 0000 6066 c840 0000 0000 e43e 2d42
00000110: 439d c23e 3121 a042 0000 0000 71e0 1642
00000120: 7017 0a3d 1ea5 4a40 0000 0000 deda 3e3e
00000130: 0000 0000 d85b 9342 e9ab 5f40 855a 7d41
00000140: a4e8 6541 55bd 5b42 af65 393f d545 b740
00000150: 3065 7f42 d4d8 3b40 5b34 2a41 0000 0000
00000160: a00f ee40 70f3 363d 3164 e441 a773 7142
00000170: 37cc 803f 77d5 2342 5e1d a841 a54d dc40
00000180: e603 1842 0000 0000 0000 0000 cacf 873d
00000190: e6ac 583c 0000 0000 6150 0b42 f0f9 6940
000001a0: 37b9 a442 c345 0941 1f20 5341 0000 0000
000001b0: 0000 0000 0000 0000 5c95 2e40 669a 6d3f
000001c0: 159e 953f 0000 0000 d4a2 4642 e904 3242
000001d0: 0000 0000 be89 6e42 f7b6 9142 b7fd ff41
000001e0: 2501 6442 c7ce 9842 7a27 db40 efd3 1d41
000001f0: 4272 6542 bcbc c341 3f37 303d 0000 0000
23.690634 0.0 0.0 15.693521 0.0 62.646492 63.29768 47.977283
0.0 28.667738 79.30156 0.0 0.0 42.55013 1.4632486 0.022625394
31.743721 0.86156803 0.24197061 0.0 58.226776 0.0 14.699652 58.08095
0.4960033 0.0 21.924402 15.2820015 25.486235 51.38522 0.009850898 0.5718617
73.935555 76.29639 2.3180497 0.0 27.996052 66.68419 1.0884467 8.75478
0.016776094 0.0 30.11601 27.30924 35.480114 0.0 32.96146 0.0
36.29904 0.0 0.062021524 0.0 3.8268778 0.0 0.0 0.0
52.59075 0.0 0.0 0.0 18.56973 18.482355 9.902141 1.8106427
0.0 6.262497 0.0 43.311417 0.38010606 80.06483 0.0 37.71918
0.033713758 3.166328 0.0 0.18638179 0.0 73.67938 3.4948676 15.8345995
14.369297 54.934895 0.7242078 5.7272744 63.848816 2.9351091 10.637782 0.0
7.4394073 0.044665754 28.548922 60.36294 1.0062321 40.95846 21.01434 6.884478
38.003807 0.0 0.0 0.066314295 0.013224816 0.0 34.828495 3.65588
82.36175 8.579532 13.195342 0.0 0.0 0.0 2.7278662 0.9281372
1.1688868 0.0 49.65901 44.504795 0.0 59.634514 72.85735 31.998884
57.001118 76.40386 6.848569 9.864242 57.36158 24.467155 0.043021437 0.0
