pretrained/clinical_trained.pth (torch, 410799 bytes, 15 tensors)

layer1.weight f4 [128, 5]
00000000: f622 d73d 3a00 383e 8878 303d ac3d c63d
00000010: 9008 89ba a560 10be 580b 86bd 1c94 24bd
00000020: d8c0 1fbe ef1b 233e bebf 4abe 55f6 0ebe
00000030: 89e6 2abe c90d 063e f07a 8c3d c498 2b3e
00000040: 034e 46be be38 633c dd2b 29bd 6a53 0c3e
00000050: 412a 0cbc a174 48be 4397 11be 0c58 63bc
00000060: 0aec 473d 1cc0 303e d085 05bd 2df6 063e
00000070: 06ad 15be 13b4 3cbc df5f 16be 1fed 0fbe
00000080: f473 3c3e f6c6 5ebd edbe 57bd 5ef8 8c3d
00000090: 1e38 303e 1ef9 df3d b2b7 a73c 4f84 debd
000000a0: e1d8 86bd 9cf8 f9bc 31f4 ebbd cb13 263e
000000b0: 1115 3bbe 5f3f 983d 018e ac3d a62a 773d
000000c0: 3334 093e 25df 48be 2235 793d 6be5 263e
000000d0: 2183 433e 52d9 143e a9ed ad3d 6152 19bd
000000e0: f233 503e dff5 3fbd 5372 433e cf8d 4bbe
000000f0: 70ea 17be 6a3a fc3d f937 e0bd 7af0 d1bc
00000100: 929f c4bd c254 fd3d d710 ec37 c2b2 b23d
00000110: bfa5 62bd a215 d1bc d569 19be c13b 3a3d
00000120: ffcd b83b 8d9c 883d 2059 d53d a22c c33c
00000130: e0f5 513d 51ec 1bbe 554b bf3d 8203 00be
00000140: 0198 babd c6bd f03d e083 bc3d db47 c53d
00000150: 99ec 94bd 80d8 ea3d b6d2 04bd ffc1 dabd
00000160: 3602 09bc b185 563e 78e8 0c3d c11c bd3c
00000170: d355 17bd 2b5a 96ba 5cbd 79bd d43c 2abe
00000180: 2b0a a8bd 51d0 1ebb a25e 4abe 7841 3dbe
00000190: 6294 123e 6d3a 4a3e 710d fc3d 3588 843d
000001a0: 3296 0ebe a950 e4bb b48a a5bd cd3c 30bd
000001b0: dd4a 6c39 50c3 253e 5e9d 013e b382 373c
000001c0: 1e2c 8e3c 5cc1 d0bc 2a51 533d e85a ce3d
000001d0: 5e65 6bbd 8c76 063e 2ecb 4dbe a35f 303e
000001e0: 5ee5 ba3d 766b 20bd 452e c7bd 3cc4 003e
000001f0: 8098 473e ad24 6dbc 9bae abbc 400f e3bc
00000200: 5a2d d4bd 93bf 093e 0328 88bd 02d0 063d
00000210: 9f65 853d acfd 26be 7382 e6bd c366 0fbe
00000220: ce45 23be 58ae 543d a2e7 a8bd fe6b 51be
00000230: d675 a0ba 563b 2d3d 6ecf 843d e6fc f33d
00000240: 223c 0fbe 89f3 c73c a93b 4c3e 52d2 fd3d
00000250: 6e5a e83d b6d7 9cba 605a 133c 522d 2c3e
00000260: 5f4d e3bd 0d68 1e3d eb92 513d d2e9 de3d
00000270: fa4f 15bc 4450 00be e2b1 143e f018 603d
00000280: 4cc6 3dbd 90b5 b63d b572 463e 5060 19bd
00000290: 93bb 233e d4dc 453e 7712 1d3d 1e64 253e
000002a0: c677 d93d 4920 3fbb 109e 483e af77 f5bc
000002b0: d352 1dbe 6735 92bc 0192 3b3e 6f30 f1bd
000002c0: 7aaa 53bb 8f21 34be 373f ad3d 4807 053e
000002d0: bf1c 4fbd 848e 44be a73a a43d 46bb d23d
000002e0: 4899 57be 7e4e 073d 9901 7e3d d74d 263e
000002f0: 3e5a 4e3e 415c 503d 240b 913d 5db2 da3c
00000300: f2d5 3fbd 5b3e efbc 9b11 043c fc6a f13d
00000310: b9aa f9bd b27f 493b 6c89 2c3d b9c2 e7bd
00000320: afe4 073d b045 c03c ef63 43be e838 d13c
00000330: 3b36 30be d8d2 f4bc 25cd 25be d3e1 19bb
00000340: 05fc 553c 771f 163e 4987 c3bd 9641 d53d
00000350: 785f b73d f2d6 41be 661e 17bc 46fb ca3b
00000360: dc05 1f3e 20f5 8d3d 24b2 57be 0e48 e43d
00000370: b37f 05bd 3008 29be cb6d c63d 9a49 2d3e
00000380: 261a 48be e419 67bc f6e7 083e 7a8a 46bd
00000390: 230a f8bd 4e34 2abe ecd0 843d 6a0f 34be
000003a0: 577d 973d 89df 263e f160 f9bb 829f 2fbe
000003b0: 51c6 22be 27bc b8bc 678b b0bd 5f74 1cbe
000003c0: 1571 0a3e b7b8 d3bd 24eb 8e3d 1321 883d
000003d0: 2784 b23d 6bae 32be 1b88 2c3e e7df 58be
000003e0: f28c 3a3e 1f42 40be ed1d 313d 6726 0ebe
000003f0: bc8f a2bd 6274 f43d 8b50 c0bc 7958 3cbe
0.10504715 0.17968836 0.043083698 0.09679732 -0.0010454822 -0.14099367 -0.065451324 -0.04018031
-0.15600908 0.15928625 -0.19799706 -0.13961156 -0.16689505 0.13091196 0.06859386 0.16757494
-0.19365697 0.013868509 -0.041301597 0.13703695 -0.008554996 -0.1957574 -0.14217858 -0.0138759725
0.04880909 0.17260784 -0.032598317 0.13179846 -0.14616784 -0.011517542 -0.1468501 -0.14055298
0.18403608 -0.054388963 -0.052672315 0.0688331 0.17208907 0.10936187 0.020473335 -0.108650796
-0.06584335 -0.030514054 -0.11521185 0.16218488 -0.18269755 0.07433962 0.084255226 0.060343407
0.13398819 -0.19616373 0.060841687 0.16298454 0.1909299 0.14536026 0.08492596 -0.03743208
0.20332316 -0.04686534 0.1908658 -0.19878314 -0.14835525 0.12315829 -0.10948176 -0.025627363
-0.09600748 0.12369682 2.8141234e-05 0.087255016 -0.05533385 -0.02552301 -0.14981778 0.045467142
0.005639791 0.06670485 0.1041739 0.023824994 0.051259875 -0.15226866 0.0934054 -0.12501338
-0.09111024 0.117549464 0.09204841 0.09632846 -0.0727169 0.11467075 -0.032427512 -0.10681533
-0.008362344 0.20949437 0.034401387 0.023085 -0.036947083 -0.0011470964 -0.060971603 -0.16624767
-0.082050644 -0.0024233053 -0.19762662 -0.18482006 0.14314416 0.1974885 0.12307251 0.06471292
-0.13924482 -0.0069676233 -0.08083096 -0.043026734 0.00022534603 0.16187787 0.12657687 0.011200595
0.017355021 -0.025482826 0.051591076 0.10075933 -0.05746972 0.1313116 -0.20097038 0.17223983
0.091257796 -0.039164983 -0.09725622 0.12574857 0.19491768 -0.014474076 -0.020957282 -0.027717233
-0.103602126 0.13451986 -0.06648257 0.032913215 0.06513523 -0.16307706 -0.1125535 -0.14004044
-0.15944597 0.05192408 -0.082473055 -0.20451352 -0.0012242149 0.042292915 0.064848766 0.11913471
-0.13987783 0.024408119 0.19944634 0.12393631 0.11345373 -0.0011966142 0.008993715 0.16814163
-0.11098742 0.03867345 0.051165503 0.108844414 -0.009113306 -0.12530619 0.14520982 0.054711282
-0.04633169 0.08921349 0.19379695 -0.037445366 0.15989523 0.1932252 0.038347688 0.16151473
0.10618548 -0.002916353 0.19591546 -0.029964296 -0.15363626 -0.01784773 0.18317415 -0.11776816
-0.0032297657 -0.17590927 0.08459323 0.12991059 -0.050564524 -0.1919499 0.080189995 0.10289626
-0.21054566 0.03303384 0.062013242 0.16240631 0.20151612 0.05086923 0.07082203 0.026696378
-0.046834894 -0.029204538 0.008060838 0.11787984 -0.12190766 0.0030746278 0.042123243 -0.11316437
0.033177074 0.02347073 -0.1908109 0.02553983 -0.17208187 -0.029885694 -0.16191538 -0.002348055
0.013060574 0.1466044 -0.09547288 0.104129 0.08953756 -0.18929651 -0.009223556 0.006194505
0.15529579 0.069315195 -0.21064049 0.11146556 -0.032592487 -0.1650703 0.0968891 0.16922608
-0.19541225 -0.014105294 0.13369736 -0.048471905 -0.121113084 -0.16621515 0.06485161 -0.17584005
0.073969536 0.1629621 -0.0076104333 -0.17150691 -0.15895964 -0.022550656 -0.08620339 -0.15278767
0.135197 -0.10337966 0.06978443 0.066469334 0.08716612 -0.17449348 0.16848795 -0.21179162
0.18217829 -0.18775223 0.04324143 -0.13881837 -0.079375714 0.11936261 -0.023475906 -0.18393125

layer1.bias f4 [128]
00000000: 28fd c4be 8fbe c5be 49b3 87be d523 f0bd
00000010: 3949 e43e 828f d7bd fea4 83bd 5d48 a0bd
00000020: bf85 d23e 811a b13d cbe7 d2be c96b 62be
00000030: 02b8 9cbe ccd9 ffbc e42d 7e3d abde ca3e
00000040: d033 df3e 43fe 35be 19df 103e a3b7 b8bd
00000050: fba8 9f3e 7373 1f3e cf9f d7bd 88e0 8fbe
00000060: a0b8 96be df8f 5b3e 60c3 8abe 23c7 f43d
00000070: 0c9a 66be cb29 933e b45a f63c b8ab 313e
00000080: e198 bc3e e907 0b3e 71f4 cdbc 40a6 9fbe
00000090: 3b53 56be 9642 5e3c 0c8a 963c e3a0 f73d
000000a0: e16f 95bd 2b8d 9abe 6632 0f3d 90f8 acbe
000000b0: cbc5 97be 49e7 8c3e 2446 51bd f288 5d3e
000000c0: 0ab6 c33d 87fd cbbe fa1a b03e 13ef d1be
000000d0: 0cba cabe ce29 1cbe e7f6 c6be 9720 953e
000000e0: aa40 20be 7c92 acbe 9793 923e a617 b8be
000000f0: 0d24 a93e 8e7c dabe cb34 c23e a556 2cbd
00000100: 00a8 4f3e 91ab 5dbe 3a97 b3be e0c7 a9be
00000110: 3923 b3bd a02e b93e ef59 933e f1ce 5e3e
00000120: 385d 443e e1cb aabe 78b3 d43d cad6 9cbe
00000130: 6b9a 48be e7c7 8fbe efbc 91be a98f c93d
00000140: 1199 113e 7503 c4be 17b2 133e baa6 9bbe
00000150: 615f 833e 34c3 d1bd aed8 963e 7ce7 b53d
00000160: 654f c33c bc7d 8f3e 7c1d 8f3e 0b3f 4f3e
00000170: 11a4 863d 8ea4 89be d481 e13e 71fb 473d
00000180: f1d0 c73e 64f2 96be 8446 a1be 3f0a 9bbe
00000190: 1c73 773d 4f17 98be 2ee2 793e 97fe 4f3d
000001a0: 92b1 093e a4d7 ac3e 7025 473e 6afb 8b3e
000001b0: d94b e03d 48fc 54bc 9e08 46be 9753 8bbe
000001c0: f381 b63c 89f2 14be 5bc4 15bd 8d46 a83e
000001d0: de53 b33e 34f0 d63d ff6a cf3d 12e0 453e
000001e0: d9bd 8d3d c94c c4be 1afa a23e 0678 c83e
000001f0: 4f2e 143e 7b85 2e3d c20a b73e 8f06 33be
-0.38474393 -0.38621947 -0.2650397 -0.117255844 0.44587114 -0.10525419 -0.06427954 -0.07826302
0.41117665 0.08647633 -0.4119247 -0.2211143 -0.30609137 -0.031231783 0.062055483 0.39623007
0.43594217 -0.17772774 0.14147605 -0.09019401 0.3118361 0.15571384 -0.10528528 -0.2810099
-0.29437733 0.21441601 -0.27102184 0.11952045 -0.22519702 0.28742823 0.030072547 0.17350662
0.36835387 0.13577236 -0.025140973 -0.31181526 -0.20930187 0.01356568 0.018376373 0.120912336
-0.0729673 -0.30185828 0.034960173 -0.33783388 -0.29643092 0.27520207 -0.051092282 0.21634272
0.095562056 -0.39841864 0.3439558 -0.41002712 -0.39595068 -0.15250322 -0.38860247 0.29126427
-0.15649667 -0.3370551 0.28628227 -0.35955542 0.33035317 -0.42673153 0.37930903 -0.04207482
0.2027893 -0.21647479 -0.35076314 -0.33160305 -0.087469526 0.36168385 0.2877955 0.2175863
0.19176185 -0.33358672 0.103857934 -0.3063262 -0.19590156 -0.280822 -0.28464457 0.09841854
0.14218546 -0.38283888 0.14423405 -0.3040064 0.25658706 -0.1024231 0.29462188 0.08882043
0.02384157 0.28025615 0.27952182 0.20238893 0.06574262 -0.26883358 0.44044363 0.048823778
0.39026597 -0.29481804 -0.31499112 -0.30281255 0.06041251 -0.29705283 0.24402687 0.050779905
0.13446644 0.3375827 0.19447875 0.2734025 0.10951967 -0.012999602 -0.19339225 -0.2721221
0.022278761 -0.14545645 -0.036564212 0.32866326 0.35024923 0.10495034 0.1012783 0.19323757
0.06920976 -0.38339832 0.31831437 0.3915407 0.1447079 0.042607766 0.35750395 -0.1748297

layer2.weight f4 [256, 128]
00000000: 16ef 203d 4e10 663d a57d 85bd a86b fb3d
00000010: d463 bbbd 43b6 a03b ca7b acbd d1d7 443d
00000020: a03f 51bd 5348 783d 8975 dd3d 4c65 b9bc
00000030: c69d 713d 647a ccbd ef05 723d 23bc 163c
00000040: a5fb ce3d 5db9 cfbd 3b4c aebc f157 f13c
00000050: 0c57 033d 2d18 d93b 1543 3cbc 77c6 c23d
00000060: 384b aabd 3f91 e7bd 4ce1 8cbd 7b62 e13d
00000070: a0bb ef3c 1fe4 093d 0891 b4bd b9e1 dc3d
00000080: 8367 a43b 2c45 5d3d 9db8 743d 29d7 893d
00000090: fc33 af3c 99ae 81bd 14f2 4dbd f9d1 eebd
000000a0: 7f71 803d 5342 b43c 4e6d 743d 86c6 84bd
000000b0: 5429 26bd f1c2 9f3d 2436 f8bd 24c8 ec3d
000000c0: 5b0f 8dbd dd25 b4bd b658 a03d 31a2 84bb
000000d0: 4c8d a33d 2f61 c8bd 5ce3 083d 722e 81bd
000000e0: 47d8 01bd e7b3 d23d 2884 923d 8dea c93d
000000f0: 3068 d3bd f206 e2bc e038 ee3d cc21 62ba
00000100: 1c9e efbd 3734 9a3c a02b 893b ef8e 493c
00000110: c6be 64bc 5310 debc 9698 803d 5eca 0cbc
00000120: 43c7 e13c 213d 193b 53b6 d1bb f8fd afbc
00000130: 204e ef3d 5d94 2abd 1e46 5abd d070 cebd
00000140: 1674 4ebd 6b96 70bc 9d82 0abc b80e d83c
00000150: 8691 00be 9b53 f3bd 8e49 ae3c f6c1 4cbd
00000160: df8a cebc 3395 9dbd e2f3 ac3d dd70 18bd
00000170: c79e 8a3d 8a78 c63d 3d1b 12bd f8eb bdbd
00000180: f5cb c33d fad6 07bd 9186 8ebd 1994 6dba
00000190: 5a7e 973d 5905 8abd a603 003d 00d7 4d3d
000001a0: 0e19 fb3d 5546 733c 781f 2a3d 24f6 473d
000001b0: 4a75 6abc 5260 bf3d c874 553d 8c0d 82bd
000001c0: dbb4 3a3d 3b43 713d 2a4e 313d bd7a 693d
000001d0: 5b5d d23d bb99 dc3d e9e6 303d 3e3f 0ebd
000001e0: 8de3 49bd 73e1 e23d 698d 81bd df2d d7bd
000001f0: 82d6 ed3d 5f27 8bbc 9a09 87bc bc28 8fbc
00000200: af0b 08bd 45d1 5dbd ef21 683d de24 bfbd
00000210: ba92 41bd e74e ec3d 771c ed3c 55fb 893c
00000220: c6d6 30bc 3e77 f4bc f9f9 0cbc 1725 233d
00000230: f976 983d f181 43bd 2cf8 abbc f356 24bd
00000240: 8a52 dbbc c4c5 b43a 9c5e 993c ffe0 68bd
00000250: a915 aabd 9d4d a83c 7647 283d 8e52 953d
00000260: a048 fcbd 6b45 2abc 4026 e63d 1243 a1bd
00000270: d4b3 8cbd cdb4 1c3d 35ff bf3d cb0e 71bd
00000280: 571d b03c 1e18 5cbd b423 c83c 49ee 9c3d
00000290: 7f28 f0bd 5a4d 053d 3c5b f33c 6f30 2dbc
000002a0: c737 9c3d 2db7 13bb 987e d6bd 2b1a bb3d
000002b0: 7dbd 3abd 752e 62bd 1806 113d 4548 e0bd
000002c0: 6f16 febc 3750 1e3d a8a4 f13d 39b6 34bc
000002d0: 5b5e 7a3d bfed d73d d47d efbc 476c 293d
000002e0: 6701 ddbc 0a18 89bd 9fd3 6b3d 7eba fabc
000002f0: 23cd 6dbd a67b de3d f20a 62bd e299 8bbc
00000300: 1564 d8bd 6af8 413d db09 4bbc 6296 66bc
00000310: ee04 b43d baa2 9e3c 932a b3bd aae5 6dbd
00000320: 2c88 053c 4f3f f2bd e719 3f3d fb8a d83d
00000330: f981 ef3d 2afc d2bb 3da8 2d3d a4e8 fcbd
00000340: 36ef cabd 7150 b33d c023 e03d b543 7e3d
00000350: ce66 fabd 60de 783d 70e0 4e3c 12a3 b63d
00000360: cd26 0b3c 9f18 27bd 110a 60bd 674c 64bb
00000370: 17e4 023d 1213 f8bd 5752 e6bd 46d0 a83d
00000380: 607f 1b3d a3b7 ca3d f427 63bd 68b5 80bc
00000390: b6a2 d93d 50d0 433d df22 133d 1dcf 79bd
000003a0: e003 623d efcf 72bd bbcc b33d 0c82 e03d
000003b0: 6321 8a3d 3f5c 8ebd 6996 8d3d 3d1e 8cbd
000003c0: e965 b93d b2d6 abbd c3d6 743d d731 a8bc
000003d0: 3722 72bd d40c 82bd d8ab 45bd b9de b83d
000003e0: cad7 09bb 437e 20bd d1c2 433d 16f9 33bd
000003f0: be09 a93d f1f4 65bd 8409 d1bc 50dc d83d
0.03929051 0.056167893 -0.065181054 0.12276393 -0.091499 0.00490454 -0.084220484 0.04805738
-0.05108607 0.06061585 0.10813434 -0.02263131 0.058988355 -0.09984282 0.05908769 0.009200129
0.10106591 -0.10142777 -0.021276584 0.029460879 0.032065436 0.0066251964 -0.011490603 0.095105104
-0.08315128 -0.11307 -0.068789095 0.11005112 0.029264271 0.03366482 -0.08816725 0.10785241
0.0050172224 0.054021046 0.059746373 0.06730492 0.021387093 -0.0633213 -0.05027969 -0.11661143
0.06271648 0.022004282 0.059674554 -0.06483178 -0.040566757 0.07800854 -0.121197015 0.11561611
-0.068876944 -0.08796284 0.0782942 -0.004047655 0.079859346 -0.09784161 0.03341995 -0.06307687
-0.0317004 0.1028822 0.07154113 0.0985919 -0.103226066 -0.027591202 0.11631942 -0.0008626252
-0.11700079 0.018823726 0.0041861087 0.012302144 -0.0139615 -0.027107393 0.062791035 -0.00859317
0.027560836 0.0023382383 -0.0063999086 -0.021483406 0.11684823 -0.041645397 -0.053289525 -0.10080111
-0.050403677 -0.0146843 -0.008453992 0.026374206 -0.12555513 -0.11881181 0.021275308 -0.049989663
-0.025212703 -0.07694473 0.084449545 -0.03721701 0.067685656 0.0969096 -0.035670508 -0.09273523
0.09560386 -0.033164002 -0.0695926 -0.0009062901 0.073971465 -0.06739301 0.03125348 0.050253868
0.12260638 0.014848311 0.041533917 0.048818722 -0.01431019 0.093445435 0.052113324 -0.0635024
0.045582633 0.058902007 0.043287434 0.057001818 0.102717124 0.10771509 0.043188963 -0.03472828
-0.049289275 0.11078157 -0.063258 -0.10506796 0.1161318 -0.016986547 -0.01648407 -0.017475478
-0.033214267 -0.054154653 0.056672987 -0.09333204 -0.04725907 0.11538487 0.028944237 0.016843477
-0.0107933935 -0.029842015 -0.00860452 0.039830294 0.07444567 -0.047731344 -0.020992361 -0.040121984
-0.026772756 0.0013791849 0.018721871 -0.056855198 -0.083049126 0.020544821 0.041083775 0.07291137
-0.123185396 -0.010392527 0.11237764 -0.07874121 -0.06870237 0.038258363 0.09374849 -0.058852
0.021498365 -0.053733937 0.024431087 0.07662637 -0.11726474 0.03254447 0.02970659 -0.0105706295
0.07627826 -0.0022539601 -0.104733646 0.091358505 -0.045590866 -0.055220086 0.035406202 -0.10951284
-0.031016557 0.038650718 0.11798984 -0.011029773 0.06112514 0.10543393 -0.029234804 0.041363027
-0.026978208 -0.06694038 0.057574864 -0.030606505 -0.05805696 0.10863428 -0.05518622 -0.01704115
-0.10565964 0.047356047 -0.012392486 -0.01407394 0.08790003 0.019364703 -0.08748355 -0.058080353
0.008150142 -0.118284814 0.04665556 0.105733834 0.11694712 -0.0064387517 0.042396773 -0.1234906
-0.09908907 0.08755577 0.10944319 0.06207629 -0.1222664 0.06075895 0.012626752 0.08917822
0.008493138 -0.040794965 -0.0546971 -0.0034835578 0.031955805 -0.121130124 -0.11246174 0.0824285
0.03796327 0.09898307 -0.055458024 -0.015711501 0.10626738 0.047806084 0.035921928 -0.060988534
0.055179477 -0.059280332 0.087792836 0.109623045 0.06744649 -0.06951188 0.06913454 -0.06841705
0.09052641 -0.08390559 0.059775125 -0.020531578 -0.05911466 -0.06350103 -0.048259586 0.09026856
-0.0021033161 -0.039182913 0.047793213 -0.04393872 0.08253811 -0.056141797 -0.025517233 0.10588896

layer2.bias f4 [256]
00000000: 8101 823d da52 a5bd a011 a63b 89ea 88bd
00000010: 85ea 5fbd 91ef 653c 6169 69bd 3be6 623d
00000020: cb6a cc3c bc08 353d 73ae 643d 4c30 b03d
00000030: 74cd b0bd f5a7 aebd eb61 983c 8135 80bd
00000040: e36f 973d 8157 38bd f2c3 073d b8d6 983b
00000050: 663d 663d 190a 043d f863 0ebd 9ba1 87bd
00000060: c6cb 8e3d 471b 53bd a123 9ebd 85c8 67bd
00000070: a2d4 41bd 7e84 0e3d c32a 4a3d 13de a5bd
00000080: 49c2 9c3c d1a6 253d 4c20 7fbc 6952 96bd
00000090: 6b93 023d dac1 073d e49c aebc c3d1 87bd
000000a0: 374c 24bd d9fe 86bd 3a9d 853d 4602 95bd
000000b0: 301d 01bd bcf3 08bd 5a5f bb3c cab8 2cbd
000000c0: e30e 8abd ae9c 3f3b 3c47 a63d 38d6 86bc
000000d0: 0291 273d 412c f03c 68c8 91bd 571a fe3c
000000e0: 9664 9e3d 2ff5 98bd 3d31 083d d53f 413d
000000f0: d562 813c 06f0 a5bd b2c1 a1bb 5824 a6bd
00000100: b2b7 3dbc dd86 25bd b318 1abd 7886 81bd
00000110: d55f 74bd 3efd 6bbd 662d 0f3d d03b 1cbd
00000120: d7dc 7d3c 6bf3 6a3d 340e 2fbd dfc4 a83d
00000130: 83e2 943d 31ce f8bb 160b 90bd 27c5 86bd
00000140: 279e a2bd 5c18 3d3d e566 803d 7e7f b43d
00000150: 8037 873d ad64 333d 6b32 17bd 957a 64bd
00000160: 02cf 3abc 8747 a3bd 704c 81bb 9bd7 543d
00000170: 4e39 d3bc 2c9c 9f3c 55c6 52bd d4aa 733d
00000180: c5f9 06bd 41aa b1bd 08b9 8a3d e674 abbd
00000190: 4457 373c aa51 993d 629d e5bc 67c8 7fbd
000001a0: d285 8e3c 16bd 59bd 3e21 57bd 67a0 b23d
000001b0: 7177 e53c 4d4d 02bd a14a a73b d09d 35bd
000001c0: 7ffb 363d 214b 163d 7274 7abd c14f 9a3d
000001d0: 6846 0e3d 8103 553d 2708 b93c 68c6 873d
000001e0: 0004 61bd 1d56 13ba 1017 053c 4361 813d
000001f0: 1590 aebc e524 6a3d 3d8a 69bd ed89 b9bb
00000200: 6aac 8fbd 370f 88bd c44b 913c a240 b5bd
00000210: 3b63 afbd ffd0 7bbd c5ee 623d 6751 c2bc
00000220: ebb7 65bd 1e8a 1fbd d8c7 b8bc 3431 acbd
00000230: aed1 edba 853d 9fbb 630e b2bd bd6e b53c
00000240: 38d0 88bd 4076 323c 86f5 78bd 97f9 98bd
00000250: 8198 453d e1a8 133d 225c b53d 2a1f 9dbd
00000260: 54b6 d43c a360 54bd 1f87 a53d 36ca 6f3d
00000270: d2f5 22bc 8f55 92bd 767a 903b 5cfc 28bd
00000280: 573f fdbb 7568 aebd 8d70 e2bc 34fd b83c
00000290: 6389 60bc 8cea afbc 1e47 bcbc dbfa 5d3c
000002a0: e21d 113d 6dda 4dbd e7d1 1fbc 695a c7ba
000002b0: 70dc 18bd 090c 1d3d cd01 853d cb8a c23c
000002c0: d9b2 9cbc 6fb7 1db7 03b0 32bc a7ed 81bd
000002d0: 9713 9a3d 2abc 6f3d cb8d 96bc 1b87 9cbd
000002e0: 48ab 803c 5420 9abd 33c0 b1bc 3bd9 403d
000002f0: 019c 523d c3f2 37bd 51a4 923d dc31 8bbd
00000300: e727 4dbd 5bb0 1e3d faf3 0bbd 600a 65bd
00000310: b3a2 4ebd 8260 293d 8ecf 92bd e659 90bc
00000320: 707a 703d 872a 8d3d 184e 013d 07cd 573d
00000330: 6904 08bc f5f3 983b e6a0 afbd d81d 883d
00000340: 808a 3f3d 166f 2b3c f26e 633d 1a45 4fbd
00000350: 53b1 653d bbca 133d d288 793d 0215 6ebd
00000360: c17c 8fbd 8523 3b3d d1b3 c4bb 8f21 163d
00000370: 1890 94bd 8048 c6bc b834 a53d 4396 1a3d
00000380: 3ccb a0bd fdc4 d33c 9b3c 223c c5ea b1bd
00000390: 4f4d 87bd 891f 96bc 1f47 c63c 878c a83c
000003a0: 107c 4ebd d5f0 143d 9331 373c 1e53 283d
000003b0: 6566 90bd 0bea a93d 0064 d0bc d8b8 953d
000003c0: ac21 4d3d 7650 92bc 7503 35bc fe18 40bd
000003d0: bf18 80bd 469c 80bd 777c 0e3d 34b3 273d
000003e0: 391e 13bd 2850 bd3c 6047 adba d4c0 0e3d
000003f0: 536c 41bd 70f3 dcbc 932a 8c3d bbdd 283c
0.06347943 -0.08072443 0.005068019 -0.06685359 -0.054667015 0.014034168 -0.056985263 0.055395346
0.024953267 0.044197783 0.05583043 0.08602962 -0.08632937 -0.08528129 0.018601378 -0.06260205
0.073943876 -0.045005325 0.033145852 0.0046642683 0.056210898 0.032236192 -0.034763306 -0.06622621
0.069724604 -0.051539686 -0.077216394 -0.056587715 -0.047321923 0.034794323 0.049357187 -0.08098998
0.019135611 0.04044229 -0.015571665 -0.07339937 0.03187887 0.033143856 -0.021315046 -0.06631806
-0.040111747 -0.06591577 0.06524129 -0.07275824 -0.031521976 -0.03343557 0.022872616 -0.042168416
-0.06741121 0.0029237675 0.08119056 -0.01645957 0.040909775 0.029317977 -0.071183026 0.03101842
0.07734029 -0.0746864 0.033250082 0.047180016 0.015794197 -0.081024215 -0.0049364204 -0.08112401
-0.011579441 -0.04041182 -0.03762121 -0.06324476 -0.059661705 -0.057614557 0.034955405 -0.03814298
0.015494547 0.057361048 -0.042738155 0.08240675 0.07269766 -0.0075929393 -0.070333645 -0.065805726
-0.079403214 0.04616581 0.062696256 0.0881338 0.06602383 0.043797184 -0.036913317 -0.055780966
-0.011401894 -0.07972627 -0.0039458796 0.05196343 -0.025784161 0.019483648 -0.051458675 0.059489086
-0.032953043 -0.086750515 0.06773573 -0.08371906 0.011190239 0.07486279 -0.028029148 -0.062446978
0.017397795 -0.053158842 -0.052521937 0.087220006 0.028011056 -0.031812 0.005105332 -0.044339955
0.04467344 0.036692742 -0.061146207 0.07534743 0.034735113 0.052005295 0.022586895 0.0662964
-0.054935455 -0.0005620437 0.008123174 0.06317379 -0.021308938 0.05716409 -0.0570166 -0.005662194
-0.07015307 -0.06643527 0.017736323 -0.08850218 -0.085638486 -0.06147861 0.05540349 -0.023720456
-0.0560836 -0.03895008 -0.02255623 -0.08407822 -0.0018144154 -0.0048596286 -0.0869415 0.02214753
-0.066803396 0.010892451 -0.060781024 -0.074694805 0.048241142 0.036049727 0.088554636 -0.0767196
0.025965847 -0.051849972 0.08082413 0.058542453 -0.009946303 -0.07145225 0.0044091297 -0.041256294
-0.007728498 -0.08516017 -0.027641559 0.022581674 -0.013704631 -0.021474145 -0.02298313 0.013548578
0.03542889 -0.050257135 -0.009754634 -0.001520944 -0.0373196 0.038341556 0.06494484 0.023747822
-0.01912825 -9.400638e-06 -0.010906222 -0.06344157 0.07523268 0.058529057 -0.018378159 -0.07642957
0.015706673 -0.07525697 -0.021698093 0.047082167 0.05141831 -0.04490925 0.07160247 -0.06796619
-0.050086882 0.038742404 -0.03416822 -0.055918097 -0.05044813 0.041351803 -0.07168494 -0.017620992
0.058710515 0.06892877 0.031568617 0.052685764 -0.008301833 0.004667754 -0.08575611 0.06646317
0.046762943 0.010463497 0.055525728 -0.05060301 0.056077313 0.03608201 0.060921498 -0.058125503
-0.07006217 0.04568817 -0.006002881 0.036653098 -0.07254046 -0.024204493 0.08066696 0.037740957
-0.07851264 0.025850767 0.009902145 -0.08687357 -0.06606542 -0.018325584 0.024203835 0.020574821
-0.050411284 0.036362488 0.011181253 0.04109489 -0.0705078 0.08296593 -0.025438309 0.07310647
0.05008094 -0.017860632 -0.0110481875 -0.046898834 -0.0625472 -0.06279807 0.034786668 0.040942386
-0.035917494 0.02310951 -0.0013220124 0.034851864 -0.047222447 -0.026971549 0.06844058 0.010306771

layer3.weight f4 [256, 256]
00000000: c969 5d3d 4c67 20bc c4a2 d53d 5c60 1ebd
00000010: fd0d ce3d e694 7a3b 1d8b e1bc cf43 473d
00000020: 8c3b 773c 61e6 8fbd 0a6f 23bd 9612 dc3d
00000030: 1612 bd3a b831 a1bd bbd3 80bd 12e9 983d
00000040: 35d5 813d 3f53 82bd f44e 8fbc 6930 95bc
00000050: ece0 ac3d 0e55 cb3d 686e 0bbd 9c88 a23d
00000060: 483a a7bd f5dc 273a c8d0 8b3c cdc5 c2bd
00000070: cfdc c93d e370 bbbd 6c6b b13d 5b5a 96bd
00000080: dc35 6fbd 788d 31bd 0972 893d 8118 82bd
00000090: 14ad 3cbc f79e 15bd 53dd 393d 52a0 1a3d
000000a0: 5c5f 053d 4efa d43d 5cef 42bd dafb 703d
000000b0: ad14 6d3d 0a53 84bc 8ec1 a03b 9b50 0f3d
000000c0: 67dd 5bbd 9c2f 00bd 3320 2dbd b7e8 c3bd
000000d0: b346 4dbd e952 c13d ec4b 2cbd c1fa c2bd
000000e0: 2313 a3bc 57de 29bc 4241 983d dcd0 c2bd
000000f0: 2a9c 8abd cc18 b5bd a9bf 5d3d 15ab 86bc
00000100: c20a 5abd da82 d23d a85a 2f3d 9fbb 2e3d
00000110: 7f9e aa3c 43bf cfbd af3a ad3d 79d7 2dbd
00000120: a978 603d 82d6 d6bd 4bd4 3a3d 2a36 f83c
00000130: be90 66bb 22e8 c7bd 89b4 483d edc9 4dbd
00000140: c298 8d3d 2508 9b3c 4ed7 d8bd aca1 293d
00000150: 891c 373d 6d00 a2bd 11c4 ffbb 147f 943c
00000160: aa9e a9bd be0f 8cbd 462d a8bd 4f88 dbbd
00000170: 0e1b c2bb 8bc7 013d cdcd 1ebc f4fa 143c
00000180: cd09 013c a61a bf3d 7ac9 f13c 6081 b73c
00000190: 5001 2cbd 76dc 443d 7829 a3bd 1d7d b23d
000001a0: ad06 9d3d 0992 1abd 5c38 423d effb 9cbd
000001b0: a8ca 95bd 378f ed3c a15c 763c 9c16 8ebd
000001c0: d2aa a83d aa44 c03d f7f2 a4bd 7d3f 8abd
000001d0: 2094 94bd e41c c03d 95d2 83bd 90ee d4bd
000001e0: 53dd 87bd 7445 b83d b7ae 25bb d695 c5bd
000001f0: 466a 73bd a60d 743d e98f 1abd ca42 8e3d
00000200: d47c 82bd 59c4 c7bd 4a1c 9f3d 3c7c dcb9
00000210: aebd f13c 56af b8bc fa67 c3bd 7d59 18bd
00000220: 8249 943d 14c7 6ebd 1c0c 8e3d e4d5 12bd
00000230: 197f 41bc c22d fc3b e3c0 913b 0b15 92bd
00000240: 51be 303d bc05 c3bd 68cb cf3d 4cd0 c6bd
00000250: 9c69 d3bb 6be2 e8bc 2a5a b5bd f81b be3c
00000260: f8e3 75bd 089e 7c38 4831 3a3d b15b c33d
00000270: 190f 2d3d 2da9 aebd 3b19 29bd 9cd1 85bc
00000280: e2c9 3f3c e82a 2fbd 7543 c8bc cc57 b1bd
00000290: c0ca 11bc 148c aabc 84cc 3c3d d026 4e3d
000002a0: a471 a73c b9f0 523d a00f c63d 1886 38bd
000002b0: 8f89 acbd 9750 81bd cb81 32bd 2b3f 883d
000002c0: 52aa 81bd f55b fc3c 53f4 63bd 13f0 f5bb
000002d0: 2a82 9abd 7342 9c3d c86c eb3c d762 633b
000002e0: 0c30 d23c b738 cb3d d28f 773d e535 3f3d
000002f0: 76bd 2dbd 151c 35bc f1a7 0d3d 4b95 cdbd
00000300: 83c5 cc3c 440a 433d bad5 453d b674 383d
00000310: 79f2 49bb d76a cc3d 3287 dabd 6539 a63d
00000320: 1fc7 dcbb a41f 9a3d a2ec 993c 4494 d63d
00000330: 4aa4 7a3b 21ab fa3c 0a22 31bd 96a7 b8bc
00000340: dd88 8c3d de75 2d3b 517c 40bb 5ecd 303c
00000350: e606 63bd 1968 95bd 5133 d8bd 9d84 98bd
00000360: 177b dd3c 6179 403d 8743 dfbb 2ff8 4fbd
00000370: 356f a7bc 9b3b 64bd 445d c1bd 7719 c3bc
00000380: 5f0d 293d b3dd 3cbd 38b0 a9bd a348 9cbd
00000390: 69d9 d8bd f1d9 9b3c 5fa1 36bd 8901 243c
000003a0: d5cc 803d 1b1b e5bc 76b9 7bbb a0fa 57bd
000003b0: f4c9 a0bd 9d6a 59bc 23db f93c 731a 8bba
000003c0: 499e 0dbd fc13 d03d d2a6 c0bd 1c8d a63d
000003d0: ef0f 30bd bef3 a7bb 27e7 4f3d 0522 be3c
000003e0: 0ecf 27bc 08fe 193d 9e05 9c3d 7ece 283d
000003f0: 472e bdbd e707 b83c 8403 80bd d2d4 223d
0.054055963 -0.009790253 0.10431436 -0.038666114 0.10061262 0.0038235723 -0.027532155 0.04864865
0.015089881 -0.07026363 -0.039900817 0.107457325 0.0014424946 -0.07870811 -0.062903844 0.0746633
0.06339494 -0.06363534 -0.017493702 -0.01821156 0.08441338 0.09928332 -0.03404084 0.079362124
-0.08165413 0.00064034696 0.017067328 -0.09510384 0.09856569 -0.09152391 0.08663067 -0.07341453
-0.058400974 -0.043347806 0.067112036 -0.0635233 -0.011515874 -0.036528554 0.045377087 0.03775055
0.032561645 0.10399304 -0.047591552 0.058833934 0.057881046 -0.016152877 0.004905886 0.03498898
-0.053677943 -0.031295404 -0.042267036 -0.09565871 -0.050116252 0.09439642 -0.042064592 -0.09520484
-0.019906586 -0.010367951 0.07434322 -0.09512493 -0.06768067 -0.0884262 0.05413786 -0.016439
-0.053232916 0.10278864 0.042811066 0.0426594 0.02082753 -0.10143902 0.08458459 -0.04244182
0.05480257 -0.10490133 0.045612615 0.030299265 -0.0035181488 -0.09761073 0.049000297 -0.0502414
0.06913902 0.018924782 -0.10587941 0.041413948 0.044704948 -0.079102375 -0.0078053554 0.018127002
-0.08282216 -0.0683894 -0.0821176 -0.10719358 -0.0059236353 0.03168444 -0.009692621 0.009093035
0.007875872 0.09331255 0.029515017 0.022400558 -0.04199344 0.04806181 -0.07966894 0.0871527
0.07667289 -0.037736926 0.04741703 -0.0766524 -0.07314044 0.028998954 0.015036733 -0.06937906
0.082357064 0.09388097 -0.08054154 -0.06750391 -0.07254815 0.093805104 -0.0643665 -0.10397065
-0.06634011 0.08997622 -0.002528114 -0.096477196 -0.059427522 0.05958333 -0.0377349 0.06946333
-0.06371465 -0.09754247 0.077690676 -0.00042054232 0.029509392 -0.022544544 -0.09541316 -0.037194718
0.07240583 -0.058295324 0.069359034 -0.035848513 -0.011810088 0.0076958844 0.0044480427 -0.0713292
0.04315025 -0.09522578 0.101462185 -0.09707698 -0.0064517986 -0.028428277 -0.08855088 0.023206696
-0.06003186 6.022866e-05 0.045457155 0.09538973 0.042250726 -0.085283615 -0.041283827 -0.016335301
0.011705847 -0.042765528 -0.024446229 -0.08659324 -0.008898437 -0.020818748 0.04609348 0.050329983
0.02043993 0.051499102 0.09670949 -0.045049757 -0.08424675 -0.063141994 -0.04358081 0.06652673
-0.06331314 0.030805567 -0.055652928 -0.0075054257 -0.07544358 0.07629862 0.028738394 0.0034696364
0.025657676 0.09922927 0.060439892 0.046682257 -0.042417012 -0.011054059 0.03458399 -0.10038241
0.024996525 0.047617212 0.04829953 0.04503318 -0.003081469 0.099813156 -0.10670318 0.08116416
-0.0067376043 0.07525566 0.018789593 0.10477498 0.0038244897 0.030599179 -0.043245353 -0.022540849
0.06862042 0.002646796 -0.0029370973 0.010791151 -0.0554265 -0.07295246 -0.10556663 -0.07447169
0.027036233 0.046990756 -0.00681347 -0.050773796 -0.02043877 -0.055720907 -0.09441617 -0.023815854
0.041272517 -0.046109866 -0.08285564 -0.07631042 -0.10588343 0.019024821 -0.04458749 0.010010132
0.062890686 -0.027967026 -0.0038410104 -0.05272925 -0.078510195 -0.0132700475 0.0305 -0.0010612741
-0.03457478 0.10160062 -0.094068184 0.08132383 -0.042983945 -0.005125492 0.050757553 0.023209581
-0.010242237 0.03759578 0.07618259 0.04121255 -0.09237342 0.022464706 -0.062506706 0.039753743

layer3.bias f4 [256]
00000000: e9a6 c3bc 356c cc3c c93c 56bd 0a43 ad3c
00000010: e384 2fbd bc2d 983a d764 8ebc ecdb e83b
00000020: 25fa 483b c3c4 11bd 16c0 20bc bba3 853b
00000030: 2fa3 713d 1d5a 21bd 89e8 4b3d 3a63 bc3a
00000040: 18f2 6abd 9b23 6dbd eb6f 953c 7920 3b3d
00000050: 0ee7 493d 7e9c 5abd 2095 a83b 6e86 49bd
00000060: 13c3 233d da1d 4c3c f6eb b3bc a31a dd3b
00000070: 33f7 79bd 7aeb 48bb 6ed0 1d3d 9e32 2ebd
00000080: 17ce fdbc 5357 43bd a260 27bd ebe9 02bd
00000090: 7a3d 4b3d 4b9e a3bb c398 2bbd 593d 383d
000000a0: 666b e13c 0a28 15bd e541 49bd 4d51 fbbc
000000b0: 091c 033d 1ff1 293d f863 9b3b 8b14 98bc
000000c0: 8253 05bd ad27 bc3b de15 e2bc 6c34 9abb
000000d0: 9a22 713d 7515 2dbd 6a98 48bd e84c 92bc
000000e0: 0b28 f03c 6922 2bbd f94c 83bc 3d28 6fbd
000000f0: a57d ce3c 1e45 6f3d 43f3 0a3d 25ad 1bbd
00000100: 6a5b 603c 8b32 7cbc 196b 1dbc 8c2d 6038
00000110: 85a1 d4bc 1d7d 793d ff78 15bd 1dab 753b
00000120: f401 743d 6a77 1bbd 54ce 503d 3892 9b3c
00000130: 442d 35bc 0982 e5bc 45e1 a6ba 533c 753d
00000140: a993 9dba 4515 c9bc c662 22bd c06e ec3c
00000150: bf5a 563d 3201 5bbc d644 783d aa09 2e3d
00000160: c8a8 4c3c f873 ed3b f78e 9e3c f304 04bd
00000170: 6600 27bd cef6 513d 8e04 f53b 6e6d d23c
00000180: 75d8 113d 0e46 2a3d 5677 7f3d 369b 6ebb
00000190: ed40 f7bc 85eb 103d f422 0cbc b5d5 633d
000001a0: b93a cabc 5ea6 6abd 80c3 0b3d e852 1a3d
000001b0: 33db 913c fc77 d2bc 8c33 2ebc 9640 363d
000001c0: 7914 04bd f64e cbbc a489 33bd 0be2 003c
000001d0: ff21 e13a aea4 f03c ce1d 21ba f74a e5bc
000001e0: 16aa 573d 5285 64bc ff11 68bd 8576 dabc
000001f0: d7ea 52bd edbe 68bc 576a 683d 1d07 f53c
00000200: b9bc 5abd c885 bf3b a287 743d abd6 0bbc
00000210: 42d3 413d 3ccb 63bc 7360 d63c 2ea4 363c
00000220: e232 523c e6c1 7f3d 8f6f 683d 5bbf 0abb
00000230: 7818 1bbd 23a9 34bd ebc8 c93c 4d23 a9bc
00000240: 65d0 5e3b 2b74 adbc ad03 53bb 47b6 d2bc
00000250: a8cb 1e3d d006 75bd b99f 9fbc 396a 1e3c
00000260: f186 5c3d 7eb8 80bd 3645 1cbd bf53 123d
00000270: 3b87 3d3c f1b2 153c 2da1 60bd 2abe 64bc
00000280: b153 dc3c 7c79 26bc f7a7 5c3d 9dee 67bd
00000290: c331 813c fbb6 70bd fcba 50bd caa0 293d
000002a0: e068 5c3d 7555 3c3c d0d1 f63c 3a4c eabb
000002b0: 77c5 bebc cc0e 79bd c785 b53c 4f69 a93c
000002c0: e3f2 6db9 9262 1bbd 8615 71bd 5f3f 5d3d
000002d0: d554 92bb fc16 34bd fb77 0d3d 7198 f23c
000002e0: 064c 783c c286 67bd 5b77 883c 6d79 0c3d
000002f0: 12c5 02bd 95bb 183d 4047 003d 2bee 73bd
00000300: d05f 2cbd f112 0bbd 3537 d23c a54e a1bc
00000310: 8f8e 2abd 2577 9dbc 58c5 71bb 9fb7 9f3c
00000320: 9757 373d 9fd6 eabc 632e 6a3d f21c 0ebd
00000330: e55c 723d 69fd babc 9429 28bd ade3 f33c
00000340: c598 bb3c c469 483b 3975 15ba 8720 21bd
00000350: 329f 3dbd e3e6 a33b ea03 1ebd 68c5 f83c
00000360: ba47 9e3c 9bf3 e7bc 4475 7b3c a9a9 20bc
00000370: fc81 883c b4df 95bc 60f9 7e3d bb46 623c
00000380: d30f a4bc a618 ee3c 8976 5f3c 2336 d63b
00000390: 79be 593d 3688 893c 8181 033d 6f5b 4ebd
000003a0: cd83 4bbd 0261 adbc db07 d43c 99ad bf3c
000003b0: 0e2e 65bc 0836 80bd ae72 0e3d 2b69 26bd
000003c0: d3a2 3d3d 7100 61bd a5ba 453d ea13 fd3c
000003d0: 3872 49bd 0df1 e6bc aff3 163d 202b 583d
000003e0: 20d9 0d3a 8e41 1d3d 345b 53bd b97f c13c
000003f0: ab44 963c 1bbf 803d f243 3ebd f5a1 b9bc
-0.0238833 0.02495394 -0.052304063 0.02115013 -0.04285134 0.001161031 -0.017382069 0.007106295
0.0030666676 -0.035588037 -0.009811422 0.004078356 0.058993515 -0.03939258 0.04978231 0.0014372834
-0.057359785 -0.057895284 0.018241843 0.045685265 0.049292617 -0.0533719 0.00514473 -0.049200468
0.03998096 0.012458289 -0.0219631 0.00674756 -0.061026763 -0.0030657933 0.038528852 -0.04252874
-0.03098206 -0.0476907 -0.04086364 -0.031961363 0.049619175 -0.004993235 -0.04189373 0.04498038
0.027517032 -0.036415137 -0.049135108 -0.030678416 0.03200916 0.041489717 0.004742142 -0.018564483
-0.032550342 0.0057420344 -0.027598318 -0.004705956 0.05887089 -0.04225679 -0.04897348 -0.017858937
0.029315969 -0.041780863 -0.016027914 -0.058387984 0.025206396 0.058415525 0.0339234 -0.03800692
0.01369367 -0.01539291 -0.009608054 5.344818e-05 -0.025955925 0.060910333 -0.036492344 0.0037486025
0.059572175 -0.03795568 0.05097802 0.018990621 -0.011058155 -0.028016107 -0.001273193 0.059871983
-0.0012022156 -0.024546275 -0.03964498 0.028861403 0.052332636 -0.013366984 0.060612522 0.042489685
0.012491412 0.0072464906 0.01935528 -0.032231282 -0.040771864 0.051260762 0.0074773496 0.025686946
0.03560682 0.041570716 0.062369667 -0.003640843 -0.030182326 0.03538086 -0.008553255 0.05562373
-0.024686204 -0.057287566 0.03412199 0.03767672 0.017804718 -0.025691979 -0.010632407 0.044495188
-0.032246087 -0.024817925 -0.043832436 0.007866393 0.0017176269 0.0293754 -0.0006146104 -0.027989848
0.05265244 -0.013947802 -0.056657787 -0.026667843 -0.051493492 -0.0142056765 0.05674204 0.029910618
-0.053402636 0.0058448054 0.059699662 -0.008535068 0.04732061 -0.013903435 0.026169037 0.011147542
0.012829514 0.062440775 0.056747016 -0.0021171186 -0.037865132 -0.044106614 0.024631938 -0.020646716
0.0033998725 -0.021173557 -0.0032198236 -0.025721682 0.03876844 -0.05982095 -0.019485341 0.00966888
0.053839628 -0.06285189 -0.038151942 0.035724398 0.011567886 0.009136901 -0.05484121 -0.013961354
0.026895376 -0.0101608 0.05387112 -0.056624044 0.015770799 -0.058768254 -0.050959572 0.041413106
0.053810954 0.011494984 0.030129343 -0.0071502 -0.023287518 -0.060805127 0.022158517 0.020680098
-0.00022692564 -0.0379358 -0.058858417 0.054015514 -0.004465679 -0.043967232 0.03453825 0.029613705
0.015154844 -0.056525 0.016658476 0.03429549 -0.031926222 0.037288267 0.03131795 -0.059553307
-0.04208356 -0.03395361 0.02566109 -0.019690821 -0.04163986 -0.019221852 -0.0036891308 0.019496737
0.044761267 -0.028666792 0.057173144 -0.034695573 0.059170622 -0.022825914 -0.041055277 0.02977165
0.022899995 0.003058062 -0.00057013665 -0.03933766 -0.0462944 0.005001889 -0.03857795 0.030367568
0.019321311 -0.028314402 0.0153477825 -0.009806075 0.016663544 -0.018295147 0.06224954 0.013810809
-0.020027077 0.029064488 0.013639101 0.0065372153 0.053160165 0.016788583 0.032105926 -0.050380167
-0.049686242 -0.021164421 0.025882652 0.023398208 -0.013988031 -0.06260306 0.034777336 -0.04062764
0.04629786 -0.05493206 0.0482737 0.030893285 -0.049181193 -0.028191114 0.03685349 0.052775502
0.0005411077 0.038392596 -0.05160065 0.023620473 0.01834329 0.062864505 -0.046451516 -0.022660235

layer4.weight f4 [1, 256]
00000000: 4d49 f9bc 9895 09be 5946 d5bd 8cec e03d
00000010: 389a 16be 9ef5 cabc a0c2 253c 927e 13be
00000020: 5a5b 633d 22f0 4f3d 38f8 cb3d fd54 acbd
00000030: 1c29 febd a52b f83d da64 cc3d 7c2f 25bc
00000040: 99a1 db3c 7662 833d a98b 64bb dc37 7cbc
00000050: 60cc f93d 73b8 b1bd 9973 d4bd d357 ebbd
00000060: bcee 95bd 87da e1bd 7912 6cbd 3ebd 6ebd
00000070: e251 e8bd c7a4 453d 4e8f 14be 9fa2 37bd
00000080: 8bf1 1c3d 6565 ab3d dc00 95bd a0b9 d73b
00000090: bbfd fa3d 2e34 10be c65f 99bc 8615 f93c
000000a0: ccf4 c53c 9e4b 923d d4cb 153b 0f67 e5bd
000000b0: e809 343d ac32 c23d 18f2 8cbd 3afd 043d
000000c0: 2d42 893d cb83 b23d fd20 bfbd 83d1 933d
000000d0: c965 5cbd 9d53 4d3d a53b c43d 2d69 b2bd
000000e0: 5769 4d3d 3176 01be 4db3 a23d d7d1 b7bd
000000f0: 7876 d0bd 0b63 e7bd 8e43 b7bd 8d5f bd3d
00000100: 9d9d ce3c ac61 a6bd 272a 033e 89a4 133e
00000110: 9c45 1ebd 14f1 02be ef29 183e cc38 fbbd
00000120: 92cc 8b3c 268d cdbd 9de2 fe3d 7e85 8abb
00000130: d2ce 8d3d 90ec fdbd eddb 8a3d f551 723d
00000140: 60ba edbd d8b3 b43d 7e2a b43d 760e 3abd
00000150: d483 703d 0f02 70bd 99ce f33d 141c 983b
00000160: 7b99 d8bd ef92 1bbe 6035 9c3d 850b 003e
00000170: 6eb1 023d 2307 85bd 13c5 c9bd 0b29 92bd
00000180: a5e0 eb3c 5c5b d9bd d7a0 40bd 42dc 53bd
00000190: 30fc bd3d 967e bcbd cbac cc3d f322 403d
000001a0: 97d8 dfbd d503 ebbd 320a 023e af25 0d3e
000001b0: 5a16 04be cf22 0bbd d46e a7bd 3bae e43c
000001c0: c5fd e8bd c7a2 59bd 42e9 883c 2e93 8dbc
000001d0: f966 e53d 6e65 853d a5a7 b43d 3035 88ba
000001e0: 4a81 1d3d b680 a53d 6837 c5bb 0202 033e
000001f0: 2f6a 83bb 5b75 e23d 2a32 813c dbdc d03b
00000200: 299d 1c3e 551f a3bd 873a d4bd c34d 74bd
00000210: 308c 11be 5dd9 09be cd22 93bd b5e4 c1bd
00000220: 1ca3 993b 0b59 a13b 76d9 47bd 900f bbbc
00000230: e5a4 d0bd 75cd eabd 3faa 08be aad4 e03d
00000240: fc45 183e 0e70 7d3c 53fa e03d f834 ab3d
00000250: ddbc 04be fb08 14be 07f2 873d f668 13be
00000260: d30a a2bd 6dce 843d 205a e23d 7ead ecbd
00000270: 1557 9cbd 5c56 653d e120 cf3d 51aa 133c
00000280: 50fd afbd 2c0d 59bd 7c84 b3bd f9ce cc3c
00000290: 9d5c 15be 9922 66bc 119f 53bd bd41 eebd
000002a0: 72c6 403d 9922 f3bc 42b2 1dbe 1dc3 09be
000002b0: ef21 9a3d d8b9 dd3d 58f1 dbbd 82f9 bb3c
000002c0: 06a4 fe3d 2a2e b8bd e0e4 473d 2c13 a03d
000002d0: 575c d63d c373 023e baf5 e33b 0a86 323d
000002e0: 37b2 9a3c 0e14 0cbd 5e77 c73d 1b77 b43d
000002f0: c514 99bd 8b98 003e d237 cdbc 64d5 11be
00000300: 5c16 13bc 054c 073e 8702 133e dfee 67bb
00000310: 2260 10bd 35c6 d63d b8a6 0cbe 6b44 8ebd
00000320: 019c eb3c 8d13 1abb 3a36 153c b9fd 083e
00000330: 0f53 1c3e 6550 123e acdf f4bd 783a c8bd
00000340: 0b8a 173e ac86 4fbd e988 babd b740 0bbe
00000350: f7d7 96bd 9115 043d 90c5 bc3c a97c c4bb
00000360: 4538 db3d acd7 2f3d 900e 93bd ccb2 543d
00000370: 9fc8 0cbe 692b afbd 76f1 19be ca76 79bd
00000380: 6ac1 d3bc 6545 05be fd0d 42bd e20d 6bbd
00000390: f83a 2fbd dc62 3b3c 0e5b 033c af87 b0bd
000003a0: 4e35 e7bd 6e66 7f3c 28e9 27bd e246 833d
000003b0: 48b4 5bbd 0f6c de3d e857 8c3d 720a 7cbc
000003c0: 9f86 953c 4f95 f8bd 755c f73d 56c6 a23c
000003d0: 6e20 b2bd 6ece 02bd 3ff6 e93d 17da 17bd
000003e0: 8f20 1dbd cc53 01be 3a5f a2bd ec80 243d
000003f0: 6a2d c93d f49b 07be a8a9 dfbc f983 af3d
-0.03043046 -0.13435972 -0.104138084 0.10982618 -0.14707267 -0.024775323 0.010117203 -0.14403751
0.05550704 0.050766118 0.09959453 -0.08414648 -0.12410185 0.121176995 0.099801734 -0.010082122
0.026810454 0.06415264 -0.0034873283 -0.015394177 0.121971846 -0.08677759 -0.10373611 -0.114913605
-0.073209256 -0.11028009 -0.057634804 -0.058285944 -0.11343743 0.048252847 -0.14507791 -0.044832822
0.03831629 0.08368949 -0.072755545 0.0065834075 0.122554265 -0.14082405 -0.018722426 0.030405771
0.02416458 0.07143329 0.0022857087 -0.112012975 0.04395476 0.09482321 -0.06882113 0.03246806
0.06702075 0.08716544 -0.09332464 0.072176956 -0.053808007 0.050128568 0.09581689 -0.08711467
0.050149288 -0.12642743 0.07944355 -0.08975571 -0.10178846 -0.11298188 -0.08948432 0.092467405
0.02522164 -0.08124098 0.12809049 0.14418234 -0.038640603 -0.12787277 0.14859746 -0.122666925
0.01706532 -0.100366876 0.12445567 -0.0042273393 0.069242135 -0.12398636 0.06780229 0.05916019
-0.11607814 0.08823365 0.08797167 -0.045423947 0.05871947 -0.058595713 0.1190464 0.004642019
-0.10576149 -0.1519277 0.07627368 0.12504394 0.03190749 -0.06495502 -0.09852042 -0.071367346
0.028793642 -0.106131285 -0.04702839 -0.051723726 0.092766166 -0.09203832 0.09993895 0.04690833
-0.10929983 -0.1147534 0.12699202 0.13783906 -0.12899151 -0.033968743 -0.08175436 0.02791511
-0.11376528 -0.053133752 0.016712788 -0.017282095 0.11201281 0.06513487 0.08821038 -0.0010391828
0.038453378 0.0808119 -0.006018568 0.12793735 -0.004010461 0.1105754 0.01577099 0.0063739843
0.15294327 -0.079649605 -0.10362726 -0.05964447 -0.14213634 -0.13461824 -0.07184372 -0.094674505
0.0046886336 0.004923945 -0.04879137 -0.02283457 -0.10187701 -0.11464969 -0.13346194 0.109780625
0.14870447 0.01546861 0.109852456 0.08359712 -0.1296267 -0.14456551 0.0663796 -0.14395508
-0.07912221 0.06484685 0.11052346 -0.115565285 -0.07633797 0.05599056 0.10113693 0.009012775
-0.085932374 -0.052991077 -0.08765504 0.025001036 -0.1458611 -0.014046335 -0.05166537 -0.11633632
0.047064252 -0.029679583 -0.15400031 -0.13453336 0.075260036 0.108264625 -0.10739392 0.022946123
0.12433629 -0.0899318 0.048802257 0.07816157 0.10466831 0.12739472 0.006956783 0.04358486
0.018883808 -0.034198813 0.09739564 0.0881178 -0.074746646 0.1255819 -0.025051031 -0.14241558
-0.008977499 0.13212593 0.14356433 -0.003539018 -0.03524793 0.10487024 -0.13735473 -0.069466434
0.028760912 -0.0023510188 0.009107167 0.13378038 0.1526606 0.1428848 -0.119567245 -0.09776777
0.14798753 -0.050665542 -0.09108145 -0.13598906 -0.07365411 0.03224713 0.023043424 -0.005996306
0.10704092 0.04293029 -0.07180512 0.051928326 -0.13748406 -0.08553202 -0.15033516 -0.0609043
-0.025849063 -0.13014753 -0.04737662 -0.057386287 -0.042780846 0.011437144 0.008017315 -0.086196296
-0.11289464 0.015588386 -0.04099384 0.06410004 -0.053638726 0.10860454 0.06852704 -0.01538335
0.018252669 -0.12137853 0.12078182 0.019869965 -0.08697592 -0.031935148 0.11423921 -0.03707322
-0.03836113 -0.12629622 -0.07928319 0.040162012 0.09823115 -0.13243085 -0.027302578 0.08570094

batchnorm1.weight f4 [128]
00000000: 45fd 7f3f 0000 803f 0000 803f ec0f 803f
00000010: 0000 803f e50b 803f 150e 803f 7ede 7f3f
00000020: 0000 803f c904 803f cdf8 7f3f 0000 803f
00000030: 0000 803f 20fb 7f3f faf8 7f3f be34 803f
00000040: a8ed 7f3f ee20 803f d0f7 7f3f 0000 803f
00000050: ec11 803f 0000 803f fd08 803f 15e7 7f3f
00000060: 3bc2 7f3f 0000 803f f7df 7f3f 9af1 7f3f
00000070: efdd 7f3f 79e8 7f3f d60c 803f 0ed2 7f3f
00000080: a7f9 7f3f 7606 803f 1ec0 7f3f 0000 803f
00000090: b5f6 7f3f ffec 7f3f 8119 803f 7302 803f
000000a0: 2e13 803f 0000 803f b4f9 7f3f 2d12 803f
000000b0: a811 803f 0000 803f 120d 803f 0000 803f
000000c0: 32fd 7f3f 0000 803f 1dfe 7f3f 0000 803f
000000d0: 170b 803f 0000 803f 0000 803f 0000 803f
000000e0: 77e6 7f3f 0000 803f 0000 803f 0000 803f
000000f0: 44f3 7f3f c1f2 7f3f f9e1 7f3f 6bf7 7f3f
00000100: 0000 803f a202 803f 0000 803f 07f6 7f3f
00000110: 2e13 803f cbed 7f3f 0000 803f 4f02 803f
00000120: 9123 803f eaf1 7f3f 0000 803f 1c13 803f
00000130: 0000 803f 8300 803f a42f 803f 4906 803f
00000140: cffd 7f3f 9e02 803f ef08 803f 341e 803f
00000150: 19e8 7f3f 07e7 7f3f eb15 803f 0000 803f
00000160: 12c3 7f3f eeb3 7f3f 3306 803f 23ed 7f3f
00000170: d727 803f e507 803f a0dd 7f3f e8e9 7f3f
00000180: 5ded 7f3f 0000 803f 0000 803f 1d1a 803f
00000190: 4423 803f 0000 803f 9ae7 7f3f 2cc5 7f3f
000001a0: 9af1 7f3f af08 803f f10a 803f 0000 803f
000001b0: 0000 803f 0000 803f 08f3 7f3f 1d92 7f3f
000001c0: 5dd7 7f3f 0000 803f bc05 803f a805 803f
000001d0: 0000 803f ad09 803f d7df 7f3f eb07 803f
000001e0: b912 803f 68ff 7f3f 4bf1 7f3f 712d 803f
000001f0: 1904 803f 9ff0 7f3f 0c09 803f 0000 803f
0.99995834 1.0 1.0 1.0004859 1.0 1.000363 1.0004297 0.9994887
1.0 1.000146 0.99989015 1.0 1.0 0.9999256 0.99989283 1.0016096
0.9997201 1.0010049 0.99987507 1.0 1.0005469 1.0 1.0002743 0.9996198
0.9990575 1.0 0.9995112 0.9997803 0.9994802 0.999641 1.0003917 0.99929893
0.99990314 1.0001972 0.9990252 1.0 0.9998582 0.99971 1.0007783 1.0000747
1.0005853 1.0 0.9999039 1.0005547 1.0005388 1.0 1.0003989 1.0
0.9999572 1.0 0.9999712 1.0 1.0003384 1.0 1.0 1.0
0.99961036 1.0 1.0 1.0 0.9998057 0.9997979 0.9995418 0.99986905
1.0 1.0000803 1.0 0.9998478 1.0005853 0.9997222 1.0 1.0000705
1.0010854 0.99978507 1.0 1.0005832 1.0 1.0000156 1.0014539 1.0001918
0.99996656 1.0000799 1.0002726 1.0009217 0.9996353 0.99961895 1.0006689 1.0
0.9990703 0.99883926 1.0001892 0.99971217 1.0012158 1.0002409 0.9994755 0.9996629
0.9997156 1.0 1.0 1.0007969 1.0010762 1.0 0.9996277 0.99910235
0.9997803 1.000265 1.0003339 1.0 1.0 1.0 0.9998021 0.99832326
0.99937993 1.0 1.000175 1.0001726 1.0 1.0002953 0.9995093 1.0002416
1.0005714 0.99999094 0.9997756 1.0013868 1.000125 0.99976534 1.0002761 1.0

batchnorm1.bias f4 [128]
00000000: 64fa 8b37 f19b 4fba 4406 4d38 cd82 3cb9
00000010: afee bd39 1aa9 13b9 a185 033a f1a2 b83a
00000020: acc5 e937 0cef 00b9 3f76 1d3a 3d0f 3a3a
00000030: d0c7 3f37 0c97 fbb9 bd3f b53a 41b0 efb9
00000040: b1ee d9ba 15db 4fba 4d80 1a39 fd80 a6ba
00000050: aa69 81ba 5855 13ba 4286 f039 8960 dcb9
00000060: 4844 19ba 0ede 81ba 40d6 a138 14e5 57ba
00000070: 4c98 403a a389 343a 9be9 e0b9 a7eb 7939
00000080: 28f8 b53a 610a fab8 92e3 3d3a a963 603a
00000090: 69f4 b73a 8312 b3b8 6079 57b9 c1e7 a3ba
000000a0: 71be 353a d962 f839 92f0 cdb9 745d c2b9
000000b0: 3db4 c6b9 aaeb 78ba de5c 0bba d436 84ba
000000c0: 654f 09ba 722e 84b9 8eee b53a 955c de39
000000d0: d3fd 21b9 edc7 28ba c04b ac3a 8f9d 5fba
000000e0: bf1c 86ba c839 713a 1f32 763a d0f2 e839
000000f0: 3493 583a 4d37 453a bcfb 6539 9f43 6bba
00000100: e572 8eb9 bbd6 6bba 3d22 1f3a 6deb f039
00000110: 535c 2cba 85ba a138 6599 3f3a 99b2 8fb9
00000120: e990 9a3a 6353 d3b9 00f3 18ba 74a0 65ba
00000130: 8bf0 a6b9 03e2 8a3a 6b5f 2e3a cc30 543a
00000140: 5486 eb39 3085 d539 f7d1 d238 9078 0fba
00000150: 8606 3839 039b 87ba 6180 34bb d5fe 1d3a
00000160: b2f8 3fb8 98ab 043a 1086 14ba e4cf f939
00000170: da16 c4b9 ed22 c7b9 6f97 663a ccb3 053a
00000180: 7b79 b03a a4fc 27ba ed8d fd39 8395 be39
00000190: 8508 a73a 823e 1db8 40e6 acb6 fbfa 8fba
000001a0: b1f5 b539 e109 f339 ae13 b739 5980 ac38
000001b0: 811b 803a 1ccf aaba dcb1 0039 ab49 ad37
000001c0: 14b2 32ba b04a 20bb 8129 3739 0357 5fba
000001d0: bff4 263a 88dc a439 0e01 003b a3e0 00ba
000001e0: 9e96 4cb9 1e3f 9ab9 f4c2 9539 9773 f63a
000001f0: 9c46 273a dafc 46ba a389 843a de40 00ba
1.6686688e-05 -0.00079196604 4.8881644e-05 -0.00017977804 0.00036226722 -0.00014082008 0.00050171657 0.0014086646
2.7867813e-05 -0.00012296083 0.0006006695 0.00070976076 1.143101e-05 -0.0004798699 0.00138282 -0.00045716952
-0.0016626922 -0.0007929069 0.0001473438 -0.0012703236 -0.0009873409 -0.0005620322 0.00045876397 -0.00042033594
-0.00058466615 -0.0009908096 7.7169854e-05 -0.00082357344 0.0007346913 0.00068869645 -0.0004289866 0.00023834278
0.001388316 -0.00011922862 0.00072436885 0.00085597724 0.0014034632 -8.538833e-05 -0.00020549214 -0.0012504981
0.000693298 0.00047375893 -0.00039279886 -0.00037072191 -0.0003789979 -0.0009495566 -0.00053162675 -0.0010087141
-0.0005237966 -0.00025211606 0.0013880299 0.0004241212 -0.00015448713 -0.00064384827 0.0013145134 -0.0008530253
-0.0010231956 0.00092020305 0.0009391624 0.00044431398 0.0008261681 0.0007523194 0.0002193292 -0.0008974615
-0.00027169954 -0.0008996536 0.00060704706 0.00045951773 -0.00065750367 7.71182e-05 0.00073089293 -0.0002740815
0.0011792454 -0.00040307184 -0.00058345497 -0.0008759566 -0.00031841206 0.0010595921 0.00066517916 0.00080944295
0.00044922775 0.00040725758 0.00010052689 -0.00054729823 0.00017550038 -0.001034588 -0.002754234 0.00060270476
-4.5769564e-05 0.000506097 -0.0005665729 0.00047647872 -0.0003740106 -0.0003798226 0.0008796369 0.0005100339
0.0013463938 -0.0006408191 0.00048361663 0.0003635102 0.0012743628 -3.7489932e-05 -5.152804e-06 -0.0010984832
0.00034706065 0.00046355932 0.00034919142 8.225506e-05 0.0009773822 -0.0013031694 0.00012273289 2.0657511e-05
-0.0006816697 -0.002445858 0.00017467701 -0.00085197407 0.00063688675 0.00031444826 0.0019531879 -0.0004916286
-0.00019511065 -0.00029420195 0.00028564746 0.0018802759 0.0006381066 -0.00075907784 0.001011182 -0.00048924785

batchnorm1.running_mean f4 [128]
00000000: 22e8 c141 0000 0000 0000 0000 c6ab 8041
00000010: 0000 0000 eccc 7f42 b392 8042 cc90 4342
00000020: 0000 0000 3e30 ea41 9290 a142 0000 0000
00000030: 0000 0000 d4ae 2d42 bb4b bb3f 7e10 693c
00000040: c32b 0142 b241 6d3f b598 883e 0000 0000
00000050: 32a4 6d42 0000 0000 4488 7141 26d9 6c42
00000060: c6c8 123f 0000 0000 02e7 b141 ccf8 7441
00000070: f5e6 cf41 1747 5142 a76b c53b 739f 293f
00000080: af4a 9642 849e 9b42 2f67 0b40 0000 0000
00000090: cd5f e341 58c8 8742 8212 823f c477 0f41
000000a0: 715e 173c 0000 0000 9e63 f441 70e5 de41
000000b0: b819 1042 0000 0000 b838 0642 0000 0000
000000c0: 9238 1442 0000 0000 6e59 5b3d 0000 0000
000000d0: ad66 7640 0000 0000 0000 0000 0000 0000
000000e0: 1790 5542 0000 0000 0000 0000 0000 0000
000000f0: 3069 9441 1428 9441 18c9 2341 24c3 e73f
00000100: 0000 0000 f63c cb40 0000 0000 32c9 3042
00000110: 9360 ca3e 6227 a342 0000 0000 0dd2 1942
00000120: 397c af3c 5867 3c40 0000 0000 24b4 473e
00000130: 0000 0000 182f 9642 6c53 5b40 87ac 8141
00000140: b674 6641 76c7 5f42 d6bb 543f 60f5 bc40
00000150: 0517 8242 4262 3c40 b5a8 2a41 0000 0000
00000160: 3f17 f740 846d cf3c eff9 e741 ad85 7542
00000170: 0875 713f 77d0 2442 695b ac41 b1d6 e240
00000180: 621a 1b42 0000 0000 0000 0000 c224 293d
00000190: 287c 0c3c 0000 0000 fc5c 0d42 b3a8 7040
000001a0: 9389 a742 2ab5 0a41 a56a 5a41 0000 0000
000001b0: 0000 0000 0000 0000 28d7 2040 2478 6a3f
000001c0: 7a23 903f 0000 0000 00b6 4a42 cc22 3542
000001d0: 0000 0000 4053 7342 38f4 9342 7efb ff41
000001e0: 196f 6842 e8b5 9b42 614a dd40 1937 2341
000001f0: 363b 6942 2a06 c941 1a87 e43c 0000 0000
24.238346 0.0 0.0 16.083874 0.0 63.95012 64.28652 48.891403
0.0 29.273556 80.782364 0.0 0.0 43.42073 1.4632486 0.014225123
32.292736 0.9267837 0.26679006 0.0 59.410347 0.0 15.095768 59.21206
0.57337606 0.0 22.237797 15.310741 25.987772 52.319424 0.006024796 0.66258925
75.14587 77.8096 2.1781728 0.0 28.421778 67.8913 1.0161898 8.96674
0.009238825 0.0 30.548641 27.86203 36.025116 0.0 33.55539 0.0
37.055244 0.0 0.053552084 0.0 3.8500168 0.0 0.0 0.0
53.390713 0.0 0.0 0.0 18.551361 18.51957 10.236595 1.8106427
0.0 6.3511915 0.0 44.19648 0.39526805 81.57692 0.0 38.455128
0.021421539 2.9438076 0.0 0.19502312 0.0 75.09198 3.4269667 16.209242
14.403494 55.944786 0.83099115 5.904953 65.04496 2.9434972 10.666188 0.0
7.7215877 0.025320776 28.997038 61.380543 0.943192 41.20358 21.544634 7.0887074
38.775764 0.0 0.0 0.04129482 0.008574523 0.0 35.340805 3.7602966
83.7687 8.6692295 13.651036 0.0 0.0 0.0 2.513132 0.9158957
1.1260827 0.0 50.677734 45.28398 0.0 60.8313 73.97699 31.997799
58.108494 77.855286 6.9153295 10.200952 58.307823 25.12801 0.027896453 0.0
