pretrained/eegnet_trained.pth (torch, 20448 bytes, 19 tensors)

conv1.weight f4 [16, 1, 1, 4]
000000 54 8b ef bc 05 0f 74 3e fe 46 b3 3e 5b db c9 3c
       -0.029241242 0.23833854 0.350151 0.02464073
000010 67 91 3b 3d 14 63 66 3e 93 bf c6 be 6b 0c 84 be
       0.045792963 0.22498733 -0.38818035 -0.25790724
000020 c2 17 03 be c8 12 d7 be df 24 37 3d 14 9c ca 3e
       -0.12802032 -0.42006516 0.044712897 0.39572203
000030 67 89 c5 3e c9 7d 5b be 43 cb d3 3e a4 6b 9c be
       0.38581392 -0.21434702 0.41366014 -0.30550873
000040 c1 c7 3e be 42 8f a6 3d 88 d1 14 3e a4 9f 9e bd
       -0.18630888 0.08132793 0.14533055 -0.07745293
000050 ba 52 b8 be b5 60 98 be cd bc f2 be dd 66 e7 3e
       -0.36000615 -0.29761282 -0.4740967 0.45195666
000060 77 59 b0 3d db ad b4 bb 34 86 18 be 76 78 3b be
       0.08610814 -0.0055138892 -0.14894944 -0.18307671
000070 a4 01 53 bd bf f3 4a be 5b eb 85 be fa 67 f4 bb
       -0.051515236 -0.19819544 -0.26156124 -0.007458684
000080 f7 ee a5 3d 26 0e 17 3e de 23 a4 3e f4 74 6d 3e
       0.081022196 0.14751491 0.32058614 0.23189145
000090 bd 28 7d be 8e 02 87 3e d9 97 0a bd f8 a6 d7 be
       -0.24722572 0.26369137 -0.03383622 -0.42119575
0000a0 87 60 99 3e 4d 36 82 be e3 61 c1 be f4 fa 50 ba
       0.29956457 -0.25432053 -0.37769994 -0.0007971965
0000b0 f7 63 a7 be 1e 41 35 be d3 5b c1 3e e7 32 1f be
       -0.32693455 -0.17700621 0.3776537 -0.15546761
0000c0 38 87 93 3d 7a 6b d2 3d be eb d4 3e 0c 6a 81 3e
       0.07203525 0.10274406 0.41586107 0.2527622
0000d0 b6 df 91 3e e8 31 66 3d 2a 6a b8 3e 42 bd 07 be
       0.2849099 0.056199938 0.36018497 -0.1325579
0000e0 cd de cd 3e e2 b0 91 3d 43 e2 e8 3e 43 be 35 3e
       0.40209046 0.07113816 0.45485124 0.1774836
0000f0 44 09 86 bd a2 ba a4 be f1 55 4f be ed ee bc be
       -0.06544736 -0.3217364 -0.20247628 -0.36901036

conv1.bias f4 [16]
000000 35 36 a8 bd 13 59 97 be 24 35 fc 3d 4f 2f de be
       -0.08213464 -0.29560146 0.12314823 -0.4339547
000010 3a 8a 2e bd a3 e2 5f be d4 e8 4b 3e 2a 65 b9 3e
       -0.042612292 -0.21863799 0.19913036 0.36209995
000020 86 b2 ef 3e b3 67 75 be 36 69 8a be c5 e0 8e 3d
       0.4681589 -0.2396534 -0.27033395 0.06976465
000030 fd fe 95 3e 96 f4 ec be 00 40 e3 3e 66 a9 7f be
       0.29296103 -0.46280354 0.44384766 -0.24966964

batchnorm1.weight f4 [16]
000000 bd 12 80 3f b3 a7 80 3f 3a 37 80 3f 28 fc 7f 3f
       1.0005718 1.0051178 1.0016854 0.99994135
000010 3d be 80 3f 3c 25 80 3f 07 87 80 3f 58 f8 7f 3f
       1.0058056 1.0011363 1.0041207 0.9998832
000020 be ca 80 3f cd 69 81 3f 5c 7a 80 3f 03 de 7f 3f
       1.0061872 1.0110413 1.0037341 0.9994814
000030 d3 71 81 3f 70 15 80 3f 83 29 7f 3f e8 d9 7f 3f
       1.0112861 1.0006542 0.99672717 0.99941874

batchnorm1.bias f4 [16]
000000 d3 02 aa 3b e1 71 55 bb d7 8c d8 bb b7 0a 9b 3a
       0.005188325 -0.0032569098 -0.0066085863 0.0011828755
000010 94 4f 42 3b 4f 1c 76 bb b8 4c b6 bb 07 c8 a5 3a
       0.0029649483 -0.0037553494 -0.005563345 0.0012648114
000020 67 6b 33 3b 6f e9 f7 3b eb 4e 9f bb 37 67 9b 3a
       0.002737725 0.0075656692 -0.0048617027 0.0011856322
000030 da 59 0c bb 3b 42 20 ba 2e 38 59 3b f7 88 a1 3a
       -0.002141586 -0.0006113385 0.0033145058 0.0012324144

batchnorm1.running_mean f4 [16]
000000 ee 79 a4 4a 9f 3c ec 4a 5c d7 e0 4a a8 fb 54 4b
       5.389559e+06 7.7410075e+06 7.367598e+06 1.3958056e+07
000010 da ee 75 4a 10 cf 4e 4b 38 c1 8a 4a a0 e5 92 4a
       4.0293665e+06 1.3553424e+07 4.546716e+06 4.81352e+06
000020 3a fa cd 4a 0a 5a f9 4a be ad 14 4b 43 4d 06 4b
       6.749469e+06 8.170757e+06 9.743806e+06 8.801603e+06
000030 cc 5b e4 4a 50 e2 16 4b 69 3e 46 4b 5d 2e 0b 4b
       7.482854e+06 9.888336e+06 1.2992105e+07 9.121373e+06

batchnorm1.running_var f4 [16]
000000 7e 7a 1f 58 f3 32 bf 58 0f 03 87 58 48 84 8f 59
       7.013938e+14 1.6818044e+15 1.1875777e+15 5.049546e+15
000010 7a d4 91 57 ae 76 72 59 63 ad f3 57 aa bb 15 58
       3.2068353e+14 4.2654646e+15 5.3585203e+14 6.58533e+14
000020 cb 6f 40 58 d6 20 6f 58 71 25 09 59 f3 79 b3 58
       8.463455e+14 1.0516972e+15 2.4127024e+15 1.5786908e+15
000030 0e 30 7e 58 6c a1 02 59 dd 9f 44 59 66 ea c7 58
       1.1179294e+15 2.298077e+15 3.4590542e+15 1.7584764e+15

conv2.weight f4 [4, 1, 2, 32]
000000 97 24 bc 3d 55 ba e7 3d 09 2d 69 3d ea 6f 57 bc
       0.091866665 0.11314837 0.056927714 -0.013149241
000010 e1 93 97 3d 2f 41 b6 3d 56 4d 23 bd d5 00 c5 3d
       0.074012525 0.088991515 -0.039868675 0.09619299
000020 62 68 56 3c 6c fc 1f bc aa 6e 59 bc 72 42 4e bb
       0.01308641 -0.009764772 -0.013271013 -0.003147271
000030 9c 5b ba 3d 93 17 d2 bd 7f f4 90 3d 03 fe 4d bd
       0.09099504 -0.10258403 0.07077884 -0.050291073
000040 80 94 60 3d 26 4c 47 bc 57 7a 89 3d 62 8a 9a bd
       0.05482912 -0.012164151 0.067127876 -0.07545926
000050 1f 6d ec bc 62 de d7 bc 87 e0 f1 3d 12 27 be 3d
       -0.028860627 -0.026351158 0.11810403 0.09284796
000060 03 5d 7a 3d f8 dd fe bd 09 65 d1 bd 77 86 31 3c
       0.06112386 -0.12444681 -0.10224349 0.010835282
000070 2f 7e 6a 3d f2 97 e5 3c 86 bf 88 bd a3 82 37 b9
       0.057249244 0.028026555 -0.06677155 -0.00017500906
000080 2d 3f 83 bd f0 69 6e 3c cf 45 ac bc 4b f1 f1 3d
       -0.06408534 0.014551625 -0.021029381 0.11813601
000090 75 74 d5 3c 18 de 98 bd 2e 82 9e bd 90 da 69 bd
       0.026056508 -0.07464236 -0.077396736 -0.057093203
0000a0 27 e7 86 bd 91 8b 81 3d 6c d1 4c bd c7 60 04 bd
       -0.065870576 0.06325448 -0.050004408 -0.032318857
0000b0 7c 17 e4 bd 25 ac db 3c 1d 94 a7 3d 7a 9a c0 bc
       -0.11137292 0.026815483 0.08182547 -0.02351116
0000c0 67 0e 63 bd 2c 0b 99 bd bc 2e 91 bd 4b ba 1d bd
       -0.055433657 -0.07472834 -0.07088992 -0.03850774
0000d0 6e 41 96 bd ca ba 67 3d b4 9e 7c 3c 87 b0 31 bd
       -0.073366985 0.05657462 0.015418697 -0.04338124
0000e0 dd 97 2d 3d f0 c4 d2 3d c9 71 a2 bd 57 d3 12 bd
       0.042381156 0.10291469 -0.07931859 -0.03584608
0000f0 2e 0b 10 bd f9 b1 6e 3d 91 9e 58 3c 68 8e 92 bd
       -0.03516691 0.058275197 0.013221399 -0.07156068
000100 08 e3 31 3d e8 19 4a 3d 10 bd f0 3c 67 dc 3f 3d
       0.043429404 0.049341112 0.029387027 0.04684105
000110 fe 65 2f bd ae ad 01 3e b6 3d e5 bd 55 f9 df 3d
       -0.042821877 0.1266391 -0.11193411 0.10936228
000120 72 56 98 3d 0d 1f 4c 3d be d3 27 3d f7 87 7f bb
       0.07438363 0.0498343 0.040973417 -0.0038990953
000130 b1 f9 b4 3d b6 86 cf 3d 40 5f 05 bc b7 a5 57 bd
       0.08836687 0.10133116 -0.008140385 -0.052648272
000140 ae aa c6 3d bf ac 69 3d 2a d4 4e 3d 92 d2 f1 bd
       0.09700523 0.05704951 0.050495304 -0.11807741
000150 8a 74 e7 3c 07 71 5d bc 7d 1a af bc 44 53 2d bc
       0.028253812 -0.013515717 -0.021374935 -0.010578934
000160 85 4a bf bd 03 87 f8 3d 50 d5 5a bd 64 52 e7 bc
       -0.09340385 0.121351264 -0.053426087 -0.02823753
000170 e5 38 b1 bd ba 93 ba 3c f2 eb cb bc e8 d9 e2 bc
       -0.0865343 0.02277552 -0.02489278 -0.027691796
000180 9a 53 b5 3d 57 12 76 3d cc 4e f6 3d 36 46 dc bb
       0.08853836 0.060076084 0.12026748 -0.006722237
000190 cf a0 68 bc 15 2f bd bd 82 0b ea bd 72 d0 8d 3d
       -0.014198496 -0.09237496 -0.11427976 0.069245234
0001a0 76 6e b5 3d d8 3c 9f 3d 10 dd e6 3d a8 df aa bd
       0.088589594 0.07775277 0.11272633 -0.0834344
0001b0 32 6d aa 3b 35 cb 3f bd 05 14 92 3d fe 4e 7f 3d
       0.0052010054 -0.046824653 0.07132725 0.062331192
0001c0 c0 3b 97 bd f6 ae 24 bd e6 98 97 bd d1 a5 62 3c
       -0.07384443 -0.04020592 -0.0740221 0.013833479
0001d0 c9 69 11 bd fb 68 bf bd 0d c3 ba bc 54 63 98 3d
       -0.035501275 -0.09346195 -0.022798086 0.0744082
0001e0 8b 19 c2 bd b1 26 c6 bd 7e fa 8c bd 94 d4 54 bd
       -0.09477528 -0.096753486 -0.06883715 -0.051960543
0001f0 79 99 05 3e 21 7d e6 3d 33 79 92 bb f5 4f 00 3c
       0.13046826 0.11254335 -0.0044700145 0.007831563
000200 24 38 50 3d 7e 42 24 bc 82 8d 80 bd 3b c0 dd 3d
       0.05083479 -0.010025619 -0.062769905 0.10827681
000210 e9 26 cd 3d 0d 99 ff 3d 3d ec c3 bd 16 b2 fe 3d
       0.10017187 0.12480364 -0.09566543 0.12436311
000220 f3 19 b5 3c 57 ae a2 3d 83 7c 07 3e a7 ea b9 bc
       0.0221071 0.07943409 0.13231091 -0.022694899
000230 5a e2 b0 bd 09 5e ac bb 79 2d dd 3d ea e6 1a 3c
       -0.08636923 -0.0052602333 0.10799689 0.009454468
000240 a0 ef 80 bd d3 37 06 3e 13 67 d3 3d 43 c3 34 bd
       -0.06295705 0.13107233 0.10322394 -0.04413153
000250 48 6e f0 bc 3e 0c af 3c 80 eb 2b bd 05 7a 82 3d
       -0.029349461 0.021368142 -0.041972637 0.0637093
000260 f6 01 f0 3d 77 e5 b6 bd 05 4a 01 3e b1 0f 75 3d
       0.11719124 -0.08930486 0.12625892 0.059829418
000270 f5 a4 35 bd 25 8d 93 bd 77 ca 81 3d f7 e1 18 3d
       -0.04434677 -0.072046556 0.06337445 0.037324872
000280 e7 6f 5e 3a 8a f6 36 3d b7 97 e3 bd 3a e2 c3 bc
       0.00084853027 0.04466871 -0.11112922 -0.023911584
000290 ad 4b 9d bd c1 b9 df 3d f4 ae 73 3d 04 f6 f0 bd
       -0.0768045 0.109241016 0.05949302 -0.11765674
0002a0 f7 d6 d4 bd 70 0b b7 3d 3c 8d d7 3d 22 6f 7d 3d
       -0.10392564 0.089377284 0.10524985 0.061873563
0002b0 53 02 e0 3d a7 75 68 bc cd 7c b8 3d 71 64 f0 3d
       0.10937943 -0.014188207 0.09008179 0.11737908
0002c0 76 02 97 bd 15 a1 3f bc 82 34 10 bd 61 49 cf bd
       -0.07373516 -0.01169612 -0.035206325 -0.10121418
0002d0 5f bb f6 bd d6 22 6c bd 30 1f 4d bc 80 55 5d bd
       -0.12047457 -0.05765041 -0.012519643 -0.054036617
0002e0 74 2b de bd 40 34 00 3e 16 d4 f2 bd c6 2b 2c bc
       -0.10848132 0.12519932 -0.118568584 -0.010508483
0002f0 a5 55 19 3d a8 33 15 bd 29 8c 8d 3d 2e 7b 53 3b
       0.037435193 -0.036426216 0.06911499 0.0032269466
000300 f3 60 9b bb 58 58 68 bb f6 d3 5c 3d 31 07 e5 3d
       -0.004741782 -0.0035453048 0.05391308 0.11183012
000310 7a 88 db 3d 9d 43 55 3d af 37 fd ba 19 bd 93 bd
       0.1071939 0.052066434 -0.0019318963 -0.07213802
000320 21 63 bd 3d 17 31 d9 bc 74 39 ea bd f0 7f 04 3e
       0.09247423 -0.026512666 -0.114367396 0.1293943
000330 fa 98 a5 3d 10 b5 e2 bc fd 6e 02 3e 99 35 a6 3d
       0.080858186 -0.027674228 0.12737651 0.08115692
000340 65 1c c6 bb b5 f9 ce bd 8c 0f cf 3d 0f 7a 2a bd
       -0.0060458654 -0.101062216 0.10110387 -0.04162031
000350 6b 5d 2a 3d 04 ff 20 3d 45 c3 05 3e ca 94 fb 3d
       0.041592997 0.0393057 0.1306277 0.12284239
000360 7b e2 39 3d 31 10 08 3d 6a 9d d8 3c d8 fa dd 3d
       0.045382004 0.033218566 0.026442248 0.1083886
000370 51 ff f0 3d c7 20 81 3d 86 a1 9d bd e4 d1 c1 3d
       0.11767448 0.0630508 -0.07696824 0.094638616
000380 00 eb a3 3b 68 1a 88 3d ea a8 18 bd 87 70 9c bd
       0.0050023794 0.066456616 -0.037270464 -0.076386504
000390 7e 55 bc 3c 0e 6a 8e 3c 89 66 b2 bd 0f 85 bf bd
       0.022989985 0.017384555 -0.08710963 -0.09351551
0003a0 a0 27 28 bc 16 59 b1 bd 97 0a c1 3d a5 2f 8b 3d
       -0.010263354 -0.0865957 0.09425848 0.06796197
0003b0 ab 23 94 3d 4c 94 fe bc e1 d6 0e bc 16 4a 33 bd
       0.072333656 -0.031076573 -0.008718223 -0.043771826
0003c0 38 1f c0 3d 64 5c 56 bd e5 e6 b7 3d f0 28 bc bc
       0.093809545 -0.052334204 0.089795865 -0.02296874
0003d0 0b f8 16 bd dc 73 a8 bc 3e 6f 6e 3b 75 d9 66 3d
       -0.036857646 -0.020563059 0.0036382223 0.056359727
0003e0 ee 85 cb bc f6 9a b9 bd 52 78 f8 3c b0 eb c3 3d
       -0.024844136 -0.090627596 0.03033081 0.09566438
0003f0 56 63 f2 bd 37 48 9b 3d e5 6f 97 3d 56 a0 f1 bd
       -0.11835353 0.07582133 0.07394389 -0.1179816

conv2.bias f4 [4]
000000 c7 62 f4 3d ee e1 12 3c 91 d3 56 3c 86 42 fd bc
       0.11932903 0.008964999 0.013111965 -0.03091551

batchnorm2.weight f4 [4]
000000 b6 de 7f 3f e4 21 81 3f d8 6f 81 3f cd 87 81 3f
       0.99949205 1.0088468 1.0112257 1.0119568

batchnorm2.bias f4 [4]
000000 a2 86 ef 3b 14 cc 50 bb b4 2f 48 bb 2a 2c b0 bb
       0.0073097507 -0.0031859921 -0.0030546011 -0.0053763585

batchnorm2.running_mean f4 [4]
000000 dc 6c 0a 3e a3 4f 20 3d 0f 0c 48 3d de 67 a5 3c
       0.13518089 0.039138447 0.048839625 0.02019113

batchnorm2.running_var f4 [4]
000000 ad 9b c3 3e 48 5c 90 3e 59 d0 df 3e c1 17 4d 3f
       0.3820471 0.28195405 0.43713644 0.8011437

conv3.weight f4 [4, 4, 8, 4]
000000 99 73 af 3d 40 69 41 3d 6d 55 83 3b 57 a7 db bc
       0.085669704 0.047219515 0.0040079863 -0.026813192
000010 16 3f fd 3c be c2 4a 3d 19 70 4f 3d b0 e8 80 3d
       0.03091387 0.049502127 0.050644014 0.062943816
000020 0c 6e 39 3d 88 55 9d bc ad 9f a6 3d eb e3 7d bd
       0.045270965 -0.019205824 0.081359245 -0.061984938
000030 a2 3f 7b 3d 66 e7 33 bd c0 f0 06 3d 1a 3f 84 3d
       0.06133998 -0.04392185 0.03294444 0.06457348
000040 bb c0 82 bd a6 e7 48 3d 67 1d d0 bc f9 aa 13 bd
       -0.06384417 0.049049042 -0.025404645 -0.036051724
000050 2a ef 88 bd 98 75 03 3d 94 43 9e bd ba ff cb bb
       -0.06686242 0.032094568 -0.07727733 -0.0062255533
000060 f2 89 af bd 15 f9 80 3d 45 3a 9a 3c d5 06 53 3c
       -0.08571233 0.062975086 0.018826613 0.012880047
000070 bd 6b b1 3a 4e 2b 95 bb 17 1c a8 bd 25 23 3e bd
       0.0013536137 -0.0045522815 -0.08208483 -0.046420235
000080 11 93 1e bd e9 c5 40 3d 54 97 14 bd 79 5b a2 bd
       -0.038714472 0.04706374 -0.03627713 -0.07927603
000090 40 68 8a bd 97 58 93 bd 85 08 24 bd de b0 aa bb
       -0.06758165 -0.071946315 -0.040047187 -0.0052090725
0000a0 9a 93 4a bd a5 01 c9 3c 7e 1f 85 3d 57 56 8b bd
       -0.04945717 0.024536917 0.06500147 -0.068035774
0000b0 66 31 a3 bd dd 00 1c 3b a0 e8 ac bd 71 54 44 3d
       -0.079684064 0.0023804225 -0.08442807 0.047932092
0000c0 c8 6e 14 3c 8c af 5e bd d0 a2 9a 3d e9 8f 1a bd
       0.009059615 -0.054366633 0.07550585 -0.0377349
0000d0 d2 17 9b 3d 9c 6e 95 3d c9 0c d6 3c 42 d4 84 bc
       0.07572903 0.07296488 0.026129143 -0.016214494
0000e0 13 5a f7 bc ef 28 aa bd 52 3d 80 bd bf 7b 9c bb
       -0.030194318 -0.08308589 -0.06261696 -0.004775494
0000f0 47 5c 50 3b 36 dc 83 3d 82 37 87 3d e0 8b 83 bc
       0.0031793283 0.06438486 0.06602384 -0.016057909
000100 00 61 23 3d de 92 09 3d aa a2 05 3d 5a b4 73 3d
       0.03988743 0.03358733 0.03262583 0.05949817
000110 07 8d 9d bc 34 85 30 bd a2 92 33 bd d8 13 b7 bd
       -0.019232286 -0.043095782 -0.04384101 -0.08939332
000120 69 aa 27 bd 74 0e 29 bd 29 3b 60 bd 01 bb 68 3d
       -0.040934 -0.04127355 -0.05474392 0.056818966
000130 5d 2d a4 bd 6b 29 27 bd e3 39 be 3c 14 54 55 3d
       -0.08016465 -0.040810984 0.023220962 0.052082136
000140 b7 21 f9 3b 79 fa 4e 3d 03 9e 3f bc 27 fe 16 bd
       0.007602896 0.050531838 -0.011695388 -0.036863472
000150 93 6e 83 bd 9c ca 86 bd cb 72 a4 3d 9c 7c 64 3d
       -0.06417575 -0.065816134 0.080297075 0.0557829
000160 83 8d bb 3d 6d 3d 74 3d b4 50 5d 3d 6e b6 03 3c
       0.091578506 0.059628893 0.054032043 0.0080391
000170 82 15 b1 bd 1b 5b 79 3b 4e de 1a bd a2 94 92 3d
       -0.086466804 0.0038048688 -0.037809663 0.07157256
000180 03 8a ae bc a0 c5 3b 3d 23 19 f2 3c 02 18 76 bd
       -0.021306043 0.045842767 0.029553002 -0.06008149
000190 24 8a b9 3b a9 59 11 3d eb f3 b9 bd 81 47 92 3c
       0.0056622196 0.035485897 -0.09079727 0.017856361
0001a0 15 98 3e bd ee 82 9e bd aa f3 b9 bd c2 08 89 bd
       -0.046531755 -0.077398166 -0.09079678 -0.066911235
0001b0 1e cb 89 3d cb f8 88 3d 87 34 9b bd 72 c4 8a bd
       0.06728195 0.066880785 -0.07578378 -0.0677575
0001c0 a2 9f 97 bd 56 55 c4 3c eb 82 91 3d d6 4d bb 3a
       -0.074034944 0.023966473 0.07105049 0.0014290165
0001d0 6b 7e 9e bd 42 04 17 bd fe f0 05 bd 9c b5 17 bd
       -0.07738956 -0.036869295 -0.03270053 -0.03703843
0001e0 83 6e 95 3d bc 48 83 3d 78 f0 29 3a 28 68 71 bd
       0.07296469 0.06410357 0.0006482671 -0.05893722
0001f0 7c c0 4a 3d 20 7e 5b bb 3b 78 90 3d 25 c6 90 bd
       0.049499974 -0.0033491924 0.07054182 -0.07069043
000200 c8 d0 e2 3c f6 00 8c bd 0b 1f 29 3c ce bd 98 bd
       0.027687445 -0.06836121 0.010322343 -0.07458077
000210 3d 6a 6b bd d4 93 7f bd 57 4a fb bc 1a 31 b6 3c
       -0.057474364 -0.06239684 -0.030675096 0.02224021
000220 fb 36 1d 3d b0 ce a6 3d 87 cd cb bc 73 fb 9e bd
       0.03838251 0.08144891 -0.024878277 -0.07762804
000230 1c fe 22 bd 2c b5 1d 3d b1 fd 44 3d 54 49 1a 3c
       -0.03979312 0.038502857 0.0480935 0.009416897
000240 07 8c ed bc d9 d2 82 bd a0 d3 9d bd f4 9b ac bd
       -0.028997434 -0.06387872 -0.0770638 -0.08428183
000250 41 c0 53 3b ac b6 8c 3d 8a 8b 2c bd c9 38 3b 3d
       0.0032310637 0.068707794 -0.042125262 0.04570845
000260 c4 13 22 bc 5b df 7b 3d d3 cb 4b 3d 3e 6e c5 bb
       -0.009892408 0.061492305 0.04975493 -0.006025105
000270 aa f9 8e ba f3 2c 9e 3d f9 17 6b 3d 4e 6d b9 3a
       -0.0010908146 0.07723417 0.05739591 0.0014146955
000280 2b 1d b5 3c 6d be c7 3a e0 d9 ad bc bf c9 ca bb
       0.022108635 0.0015239246 -0.021222055 -0.006188601
000290 1f 6f 69 3c a5 07 a4 bd 07 61 48 3d 0b 4e 72 bd
       0.014247685 -0.080092706 0.048920657 -0.05915646
0002a0 08 e6 6c 3d a4 2e ab 3b 1f 65 e5 3c a4 f3 b5 3d
       0.057836562 0.005224066 0.02800232 0.088843614
0002b0 0b 54 30 3c 62 bf 2b 3d 24 ce a6 bd fb 78 4c 3c
       0.010762225 0.041930564 -0.08144787 0.012480016
0002c0 eb 71 24 3d 8a ca bb 3c bd 1c 09 3d fb e7 c7 bc
       0.040147703 0.022923727 0.033474673 -0.02440261
0002d0 c4 ad 87 bd 52 ad e8 3c 41 1b 2d bc 2d 05 2b bd
       -0.0662494 0.028402958 -0.01056558 -0.041752983
0002e0 9a f5 9f 3d 60 86 86 3d bf ef 86 3d 54 0e 48 3d
       0.07810517 0.06568599 0.06588697 0.04884179
0002f0 fd 26 97 bd a7 1b bd 3d 14 db bb 3d 25 50 a6 3c
       -0.07380483 0.0923379 0.09172645 0.020301888
000300 00 cb 9e bd 31 27 00 3d b1 d5 cc bc 63 88 e7 3c
       -0.07753563 0.031287376 -0.02500424 0.028263276
000310 7b c2 c2 3c 5e d2 92 bd ad c9 89 bd 70 f5 46 3c
       0.023774376 -0.071690306 -0.0672792 0.012143478
000320 03 56 93 3c a3 07 8c 3d 9e 06 c6 3c 7e fb 71 bc
       0.01798535 0.06837394 0.024173077 -0.014769433
000330 f8 1a 6e 3d 50 67 b0 3d 05 e3 75 bd 53 94 1f 3d
       0.05813119 0.08613455 -0.060030956 0.038959812
000340 8a ec 87 3d 4f 8c 12 bd 73 d3 af 3d 69 95 ba 3c
       0.06636913 -0.03577834 0.085852526 0.022776322
000350 4f d9 2c 3d a0 2e 15 3d 0a 17 0c 3d db 96 78 3c
       0.04219943 0.03642142 0.03420166 0.0151726855
000360 f5 80 77 3c a5 ae 03 3d 7b 3e cc 3d 69 42 56 bd
       0.015106429 0.032148976 0.09972855 -0.052309427
000370 a4 76 c3 3d 75 10 93 bd 87 a3 84 3d ff ff 53 3d
       0.09544113 -0.07180873 0.06476503 0.05175781
000380 1d a8 98 3b b2 ea 06 3d 41 cc 2f 3d 60 6e 70 bd
       0.0046587125 0.032938667 0.0429194 -0.05869901
000390 14 27 ae 3d f4 23 d7 bc 1e 0e d5 39 b4 a7 22 3d
       0.08503547 -0.026262261 0.00040637044 0.039710715
0003a0 91 1c a9 bb 99 c6 a2 3d 38 f3 70 3d f3 92 8c 3d
       -0.005160876 0.07948036 0.0588257 0.06863966
0003b0 ee a6 86 bc 5d 0f e2 bb 90 63 a1 bd 21 37 3a bd
       -0.01643702 -0.006898804 -0.07880318 -0.04546273
0003c0 7a 01 55 3c 31 dc d6 bc 00 94 1b bd 33 12 2a bd
       0.01300084 -0.026228042 -0.03798294 -0.041521262
0003d0 a0 91 00 3d 17 7e 89 3b 73 80 f3 bb c9 90 6e 3d
       0.03138888 0.0041959393 -0.007431084 0.058243547
0003e0 bd 3e ba 3d f1 dc ad 3d e0 80 cb 3a dc 36 3d 3d
       0.09093998 0.08489407 0.0015526079 0.046194896
0003f0 5f 38 b7 3d c7 08 ca 3c 6a 27 98 bd c5 63 9b 3d
       0.08946299 0.024662388 -0.07429393 0.07587389

conv3.bias f4 [4]
000000 18 fc 75 bd 58 cb 2e bd ed 23 72 bd 09 dd d6 3a
       -0.06005487 -0.042674392 -0.059116293 0.0016392778

batchnorm3.weight f4 [4]
000000 88 ab 80 3f 05 b5 81 3f 9a 36 80 3f de ec 80 3f
       1.0052347 1.0133368 1.0016663 1.0072286

batchnorm3.bias f4 [4]
000000 7e 65 0d 3c 5f 9c df 3b b9 e5 9a 3b 9a ea f5 3a
       0.008630155 0.006824061 0.004727092 0.0018761933

batchnorm3.running_mean f4 [4]
000000 4f ff 06 be ef 70 72 3e 9e cc 29 3e 2c 2d 1d 3e
       -0.1318333 0.23675893 0.16581962 0.15349263

batchnorm3.running_var f4 [4]
000000 21 50 1e 3e ea 75 52 3f b2 ae 2a 3f 8a f9 a1 3e
       0.15460254 0.8221117 0.66672814 0.31635696

fc1.weight f4 [1, 2496]
000000 1f 42 a4 bc 4e 16 8c bc 15 50 20 bc 03 a9 8b bc
       -0.02005106 -0.01710048 -0.009784718 -0.017048365
000010 79 41 45 3c e1 b3 3f bc 14 fc 01 bc e8 59 b6 3b
       0.012039536 -0.011700601 -0.007933635 0.005564917
000020 b0 30 85 3c c7 5b 37 3c f6 67 a1 bc b5 d9 91 bc
       0.016258568 0.011191315 -0.019702893 -0.017804006
000030 35 9c 7b 3c 26 88 35 bc 92 6d 8b bc 73 7a 81 bc
       0.015357067 -0.011079824 -0.01702002 -0.015805459
000040 c9 8b 18 3c c9 9a c5 3a 05 95 9c 3b 37 c8 cb bb
       0.009310671 0.0015076037 0.0047785067 -0.006218936
000050 af 1d 49 3c 79 b3 9c 3c 37 b1 c4 bb 8d ae f5 ba
       0.0122751435 0.019128548 -0.006002571 -0.0018744037
000060 b3 2c e9 bb 97 a6 ab bc d7 58 a9 3b 0e 69 bf bb
       -0.0071159243 -0.02095346 0.0051680612 -0.005841381
000070 64 34 f3 ba 2d 64 d3 39 fe d5 59 3c f0 3d 80 3c
       -0.0018555042 0.00040319693 0.013295649 0.015654534
000080 0d 0b 1b bc e7 08 a9 3c 8b 6d 6d 3b e5 b7 33 3c
       -0.009463084 0.020634128 0.0036228623 0.010969137
000090 6d 18 ed 3b 62 21 a1 ba bf df ab bc 00 06 91 bc
       0.007235578 -0.0012293274 -0.020980714 -0.017703056
0000a0 7e 44 5e 3c 4b b8 87 bc 0a 7e 36 3c 75 51 79 3a
       0.0135661345 -0.01656737 0.0111384485 0.0009510734
0000b0 b9 e0 9b bb a4 6f 09 3b b9 df b0 bc 8e b3 e6 3a
       -0.0047570136 0.0020971084 -0.021591054 0.0017601119
0000c0 e1 aa 9a 3c 6d c2 e2 3b 58 b9 75 bc 90 60 a1 bb
       0.01888031 0.00692015 -0.014997803 -0.004924841
0000d0 c6 34 bf 3b 9f 2a 43 bc b9 f2 48 3b 7b e4 50 ba
       0.0058351485 -0.011912017 0.0030662252 -0.00079686166
0000e0 53 d5 50 bc b4 ab 4d 3b b5 a6 94 3c 57 7d 71 bb
       -0.012746173 0.003138286 0.018145898 -0.003684839
0000f0 e9 5f b2 ba 09 eb 9a 3c 3d 3d 94 ba 9f 5f 7b 3c
       -0.0013608906 0.018910902 -0.0011309754 0.015342622
000100 e2 68 32 3a 0d fa 28 3c 99 74 0f bc 16 3e e3 39
       0.000680579 0.010313523 -0.008755826 0.00043343072
000110 48 e7 54 bc f0 f4 5e ba 0e e1 7f 3c fb 1f 65 bc
       -0.012994595 -0.00085051265 0.015617622 -0.0139846755
000120 85 46 5d 3b 46 7e 32 3c da f9 4d 3c 77 52 3a 3c
       0.0033763957 0.010894364 0.012571776 0.0113722
000130 1a b6 cd 3b 52 70 98 bb 43 86 79 bc 55 a5 92 bc
       0.0062778117 -0.0046520615 -0.015229764 -0.017901102
000140 0c 82 8e 3c cb d0 95 bc 32 7f 15 3c 44 60 5e bb
       0.017395996 -0.018288037 0.009124564 -0.003393189
000150 8c f1 a9 bc 40 c2 2f 3c 78 b2 3c 3c c8 93 95 bc
       -0.020745061 0.010727465 0.01151716 -0.018258944
000160 08 f0 be ba 64 b4 bb bc 4b 81 77 3b 22 84 3d 3a
       -0.0014567384 -0.022913165 0.0037766274 0.0007229467
000170 d8 20 01 3c 02 78 36 3c d8 4c 20 3c 21 d3 8a bb
       0.007881366 0.0111370105 0.009783946 -0.0042365943
000180 8f fe 97 bc 0f 73 29 bc 45 62 8f 39 74 c1 45 3c
       -0.018554 -0.0103423735 0.00027348302 0.012070049
000190 86 5e 24 bb 17 df 0c 3c 55 a2 7a bb 7f 1e b8 3b
       -0.0025080754 0.008598111 -0.003824373 0.00561887
0001a0 8f 9d 6c 3c dc 8d 67 bc 36 d6 73 bc 44 c9 c9 bb
       0.014441862 -0.014132943 -0.014882615 -0.006158026
0001b0 c2 4e 63 3b f3 8c 8c 3c b7 8e 83 bc 28 39 6e bc
       0.0034684394 0.017157054 -0.016059263 -0.014539994
0001c0 25 50 20 bc 3a 4f 96 3a 3f 18 c1 bc 04 81 c0 3a
       -0.009784733 0.0011467703 -0.023571132 0.0014686887
0001d0 17 0e 91 3a f2 95 86 bc 7d 1f 6f bb 22 35 5a 3c
       0.0011066821 -0.016428921 -0.0036487274 0.013318332
0001e0 5c 0f 74 bc 37 62 aa 3b 97 cd a9 3b a2 e8 d9 3b
       -0.01489624 0.0051996964 0.005181979 0.0066500464
0001f0 7f 22 99 bb 37 f5 11 bc 88 76 98 bc 27 6a 57 3c
       -0.0046733017 -0.008908561 -0.018611208 0.013147867
000200 33 f3 8b 3c a2 d1 64 bc 6f 40 86 bb 35 a6 9a 3c
       0.01708374 -0.013965996 -0.0040970366 0.018878082
000210 0a 97 f7 bb 01 4d 04 bc 48 9a 11 3c f0 b3 81 bc
       -0.007555847 -0.008075 0.008886881 -0.015832871
000220 2b 03 69 ba f6 2c 6c 3c bd ee 0a bb 5c b1 cd 3a
       -0.00088887167 0.014415016 -0.0021199428 0.0015693116
000230 51 ed 02 3b 84 c3 83 3c b8 22 65 bc cd 50 86 bc
       0.0019977877 0.01608444 -0.013985328 -0.01639595
000240 9e 0b c3 bb 4d c8 99 bc 4a aa c4 3b 4c 28 a7 3c
       -0.0059523126 -0.018772269 0.0060017454 0.020404957
000250 0d 39 03 bc bd 2b 0a 3b 64 65 33 3c 93 75 95 bc
       -0.008009207 0.00210832 0.010949466 -0.01824454
000260 bb 24 51 3b 11 b3 b7 3c f3 b5 8e bb d9 a2 83 ba
       0.0031912762 0.022424253 -0.004355186 -0.0010043039
000270 f9 44 9e 3c 25 e8 36 3c a9 8a 3b bc 48 30 18 bc
       0.019319998 0.011163746 -0.011446633 -0.009288855
000280 15 30 95 3c 23 bc 55 3b 86 fa 9a 3b 4f 5b 58 bc
       0.018211404 0.003261336 0.0047295718 -0.013205363
000290 10 93 8c bc e3 9b fe bb ca 39 58 3c 64 39 3b 3a
       -0.017159969 -0.007770048 0.013197372 0.0007142036
0002a0 1c 11 8f bc d2 40 04 3c 97 7d 81 3c 02 7d ab 3b
       -0.017464213 0.008072095 0.015806956 0.005233408
0002b0 85 77 1c bc 17 a2 48 3a 60 87 82 bc e1 9f ae 3b
       -0.00954998 0.0007653548 -0.015933692 0.0053291176
0002c0 02 83 21 3c 71 f6 82 3c ab 78 2a bc b9 5c 83 3c
       0.009857895 0.015986653 -0.010404746 0.016035425
0002d0 e9 b3 6e 3b bb c1 72 bc 90 30 d5 3b 83 01 5a 3b
       0.0036423153 -0.014816697 0.0065060332 0.0033265061
0002e0 09 29 2f 3c c2 29 80 3c 10 a1 13 3c c6 82 7a 3c
       0.010690936 0.015644912 0.009010568 0.015289968
0002f0 aa b3 6c 3c dc 57 04 3c 6e d9 98 bc 82 51 c2 3b
       0.014447132 0.008077588 -0.018658366 0.0059301266
000300 13 16 8f bc a0 e3 94 3a fb 05 ea 3b 74 1b 7e 3b
       -0.01746658 0.0011359341 0.007141826 0.0038773688
000310 82 46 d0 bb 6f 31 86 bc 4d ee 9c 3c 19 9b 11 bc
       -0.0063560614 -0.016380994 0.0191566 -0.008887076
000320 1e 88 8d b9 49 46 d4 bb 71 7b 34 bc e5 08 1f bc
       -0.0002699503 -0.006478105 -0.011015759 -0.00970671
000330 47 b2 33 bc 8d 48 43 3c 3c f9 99 bc a0 25 e7 bb
       -0.010967798 0.011919153 -0.018795602 -0.007054046
000340 23 70 55 bc b4 f3 49 3c dc 17 76 3c a6 cf 96 3c
       -0.013027224 0.01232617 0.015020337 0.018409561
000350 21 94 8b bc 35 46 80 bc d7 c2 50 bc 1e 87 70 3c
       -0.017038407 -0.015658477 -0.012741766 0.014680652
000360 a3 3a cb bb 54 f3 91 bc fc 5b 2a 3c 63 a7 75 3c
       -0.0062020584 -0.017816223 0.010397907 0.014993521
000370 02 97 da 3b 10 d4 9c 3b e5 2a 89 bc 46 c9 99 bc
       0.0066708336 0.004786022 -0.016744087 -0.018772732
000380 8f 5c 81 3c 56 0e 45 bc 38 43 2b bc 69 ad 0b 3c
       0.015791206 -0.012027344 -0.010453038 0.008525231
000390 6b db 48 3c db 9d 09 bc fd 79 19 3a cf 3e f5 b9
       0.012259345 -0.008399452 0.00058546645 -0.00046776838
0003a0 7e 23 49 bc 2c 04 46 3c 88 a8 8a 3c 8e 8c 92 3c
       -0.012276528 0.012085956 0.016926065 0.017889287
0003b0 e4 65 d4 ba 10 6c 69 3c c9 61 a9 3b df 86 81 39
       -0.0016204682 0.0142469555 0.0051691276 0.00024705284
0003c0 a4 1a 38 3b b0 99 99 3b db cf 68 ba 6a 7c 7e bb
       0.002809205 0.0046875104 -0.00088810705 -0.003883148
0003d0 15 46 15 3c 57 af 82 3c dc 7f f0 3a be 62 a3 3a
       0.009110947 0.01595275 0.0018348652 0.001246534
0003e0 4a b0 47 bc 40 0c 07 bc 77 ec 85 bb 17 c8 d0 bb
       -0.012188027 -0.008242667 -0.0040870267 -0.006371509
0003f0 f1 10 f4 bb f5 7d 01 bc 31 51 06 3c 83 e8 5e 3c
       -0.0074483086 -0.007903566 0.0081980685 0.01360524
