pretrained/eegnet_trained.pth (torch, 10400 bytes, 19 tensors)

conv1.weight f4 [16, 1, 1, 4]
-0.27333906 0.087375805 -0.122065134 0.33606893 -0.39161554 0.12095319 0.088617645 0.2136648
0.24572355 0.43639293 -0.15676317 -0.35560647 0.43576908 0.40426412 0.30374512 0.13439472
-0.25120834 -0.26793554 -0.050826043 -0.19597778 -0.13701904 0.37630525 -0.36613667 0.29917088
-0.008834034 -0.30812463 0.120642774 -0.49949455 0.2623285 -0.036517117 -0.2857975 -0.20511645
0.2741888 -0.060582656 -0.46227843 0.058293015 -0.44542477 -0.44844228 0.32792917 -0.45528746
0.2728129 0.10262358 0.23137532 -0.041702554 0.06823601 0.1580385 -0.28989393 0.32500318
-0.32754198 0.21122745 0.14793581 0.23773801 -0.3748532 -0.45984533 -0.08395171 0.39063427
0.25287336 0.35470584 0.017632166 -0.20870306 -0.2127146 0.44751963 0.3518646 -0.31780246
00000000: 19f3 8bbe 16f2 b23d 49fd f9bd 3a11 ac3e
00000010: d581 c8be 4eb6 f73d 2b7d b53d f2ca 5a3e
00000020: f49e 7b3e e56e df3e 8686 20be 0d12 b6be
00000030: 201d df3e b5fb ce3e 7b84 9b3e c59e 093e
00000040: 619e 80be d92e 89be f82e 50bd 66ae 48be
00000050: b84e 0cbe 15ab c03e 4476 bbbe ed2c 993e
00000060: a0bc 10bc 83c2 9dbe 8f13 f73d c0bd ffbe
00000070: ec4f 863e f992 15bd 0d54 92be 0c0a 52be
00000080: 7962 8c3e 8525 78bd c2af ecbe a8c4 6e3d
00000090: b70e e4be 3a9a e5be 55e6 a73e 701b e9be
000000a0: 22ae 8b3e 502c d23d a7ed 6c3e 4cd0 2abd
000000b0: 52bf 8b3d d8d4 213e fa6c 94be d166 a63e
000000c0: 95b3 a7be 024c 583e 7c7c 173e 9871 733e
000000d0: c2ec bfbe d970 ebbe e0ee abbd 3701 c83e
000000e0: 9e78 813e 019c b53e 5571 903c 41b6 55be
000000f0: dbd1 59be 4b21 e53e 9927 b43e 01b7 a2be

conv1.bias f4 [16]
0.24100108 0.4603884 0.43456587 -0.24162649 -0.21353456 -0.049348705 0.24588874 -0.35995194
0.21244639 0.46389738 0.44677854 0.25079104 -0.17215939 -0.48435524 -0.41720802 -0.15167458
00000000: fdc8 763e 07b8 eb3e 6b7f de3e ef6c 77be
00000010: cea8 5abe de21 4abd 42ca 7b3e 9f4b b8be
00000020: 8c8b 593e f583 ed3e 28c0 e43e af67 803e
00000030: 8d4a 30be 69fd f7be 4a9c d5be 9550 1bbe

batchnorm1.weight f4 [16]
0.9895651 0.9913135 1.0012965 1.0005078 0.99244416 1.011265 1.014694 1.0007324
1.0160854 0.9972394 0.99891657 1.000107 1.0066758 1.0119902 1.009616 0.9997157
00000000: 2354 7d3f b9c6 7d3f 7c2a 803f a410 803f
00000010: d210 7e3f 2271 813f 7ee1 813f 0018 803f
00000020: 160f 823f 154b 7f3f ffb8 7f3f 8203 803f
00000030: c1da 803f e588 813f 193b 813f 5eed 7f3f

batchnorm1.bias f4 [16]
0.016596453 0.013496932 -0.00811819 0.00076989457 -0.008049914 -0.029264206 -0.010355803 0.00075090455
-0.027993266 0.0030529152 0.012073548 0.0007128387 -0.012680955 -0.008846824 0.001863993 0.000730112
00000000: 49f5 873c 3c22 5d3c 2802 05bc c0d2 493a
00000010: c9e3 03bc 7dbb efbc 63ab 29bc 5ad8 443a
00000020: 2252 e5bc 6b13 483b 21d0 453c ccdd 3a3a
00000030: c8c3 4fbc 45f2 10bc 3a51 f43a fd64 3f3a

batchnorm1.running_mean f4 [16]
3.8706632e+06 4.345589e+06 8.0640075e+06 8.594923e+06 5.431953e+06 5.4788735e+06 5.80328e+06 6.6222145e+06
7.64077e+06 9.598018e+06 4.71233e+06 5.010525e+06 3.960347e+06 6.1205515e+06 5.7634725e+06 6.527074e+06
00000000: 1d3f 6c4a ea9d 844a 0f18 f64a eb25 034b
00000010: 22c5 a54a b333 a74a 201a b14a 0d18 ca4a
00000020: 842d e94a 4274 124b 14cf 8f4a bae8 984a
00000030: 6cb8 714a cfc8 ba4a 21e3 af4a c430 c74a

batchnorm1.running_var f4 [16]
2.4453121e+14 5.0515707e+14 8.161687e+14 8.875593e+14 3.4274745e+14 2.173712e+14 7.349356e+14 5.5650676e+14
5.654434e+14 1.2162327e+15 3.6361113e+14 1.5311899e+14 3.1788875e+14 4.566691e+14 4.7274265e+14 4.906992e+14
00000000: 5c66 5e57 06b8 e557 4593 3958 c0ce 4958
00000010: 0edd 9b57 adb2 4557 e21a 2758 ea11 fd57
00000020: 2391 0058 0845 8a58 e859 a557 cb42 0b57
00000030: 1f8f 9057 48ab cf57 7dfa d657 e824 df57

conv2.weight f4 [4, 1, 2, 32]
0.11842324 0.087388925 0.05524793 0.117106795 -0.012898097 0.117921144 0.036182612 0.1249754
-0.09595743 -0.00664621 -0.036204472 0.015897205 -0.05884002 0.06329266 -0.041534662 -0.008480918
-0.09974333 0.113123626 0.1072645 -0.020452315 0.07774604 0.07028384 -0.07813493 -0.12717517
0.008426536 -0.009983407 0.020614736 -0.07382022 -0.12445209 -0.112282835 0.10237272 0.09163723
0.002631451 0.0904627 0.0710327 0.098474935 0.109148465 -0.105104715 0.03710384 -0.08995249
-0.018074708 0.0020742987 -0.090178564 0.064486764 -0.08740881 -0.09965029 -0.06964873 0.031373985
-0.1296569 -0.06570976 0.040735867 0.1034925 -0.0569124 0.009274495 0.1195656 0.116164
-0.10647639 -0.04388181 0.11496726 -0.0054887556 0.016010715 -0.100446165 0.015506775 -0.07801252
0.063325755 0.11985873 -0.025304647 0.09694916 -0.007894626 0.09016794 -0.09443279 0.09254069
0.026009485 -0.0003104375 0.07502834 -0.11388894 0.047720965 -0.016909184 0.0327553 -0.08111046
-0.0191075 0.099648595 0.1316512 0.10803478 0.12752451 -0.1036625 0.11279822 -0.025351834
0.1372346 -0.10291395 -0.023926841 0.003094008 -0.054665335 -0.058904424 0.13218604 -0.069111735
0.031779267 0.007151244 0.12899904 -0.061131548 0.034323543 0.04562109 0.045606665 0.11264878
0.11803337 0.1149069 -0.004174161 -0.051024932 0.027901962 -0.063147575 0.09206403 0.051601145
-0.022027437 0.037672177 -0.07930237 0.056260817 -0.018909782 0.045159347 0.019906953 0.0937636
0.005494831 -0.09551791 0.07644589 0.021507 -0.014309932 -0.051876888 0.026311614 0.034852233
0.05026417 0.08480761 0.07699175 -0.109403856 0.10051708 -0.082630046 0.09327901 -0.06446174
-0.09781248 0.013771891 -0.034131367 -0.10706195 0.11398055 -0.113173194 0.03452296 -0.12744449
0.05255713 -0.09577158 -0.108148314 0.09742798 -0.11484283 -0.07018918 -0.027353339 -0.05016652
-0.11326594 -0.057806537 -0.015190026 -0.07720511 -0.10736185 -0.12175234 -0.13034134 0.0347905
0.0013945124 -0.031693682 0.07151472 -0.08626984 -0.0641174 0.086944915 0.081646256 0.008344889
0.07330322 -0.10489844 0.052106272 -0.030921232 -0.07489959 0.0368674 -0.01278405 0.099591784
0.0847898 0.011810841 -0.11481286 -0.134726 0.004757618 -0.08166214 -0.11376886 0.06984121
-0.115037486 0.08561304 0.07054838 -0.05087855 -0.013447813 -0.1267681 -0.030958416 0.03671999
-0.026798561 -0.09355389 -0.0069710054 -0.06636161 -0.020577986 -0.03985972 -0.061981015 0.04581158
0.09169848 0.12015204 -0.1060268 0.077743724 -0.031765483 0.0012446927 -0.070351444 0.01825238
0.008923988 0.056979507 0.055970244 0.08619679 -0.08284979 -0.12765203 0.045817588 0.10296459
0.079050705 -0.045780532 -0.10713273 -0.03579796 -0.056308027 -0.026329739 -0.0943422 -0.122023836
0.07436569 -0.008345153 -0.07397149 -0.042917274 0.090745576 0.0528745 -0.022479327 -0.11371101
0.043056276 -0.071042106 0.1333376 0.06312289 -0.08711869 -0.07695584 0.12753847 -0.008518893
-0.112668365 -0.034623362 0.067962095 -0.03501857 0.074563876 0.11016305 -0.112239026 0.011459137
0.097210556 0.019728264 -0.06728582 -0.028147295 -0.064352706 -0.0046513714 -0.015724408 0.108950645
00000000: e287 f23d f7f8 b23d a74b 623d b0d5 ef3d
00000010: 8a52 53bc a480 f13d 3834 143d 1af3 ff3d
00000020: 5485 c4bd 73c8 d9bb 244b 14bd db3a 823c
00000030: 3c02 71bd 959f 813d 4020 2abd 8cf3 0abc
00000040: 3b46 ccbd 5cad e73d 7dad db3d 9d8b a7bc
00000050: 5139 9f3d f9f0 8f3d 3505 a0bd 353a 02be
00000060: 740f 0a3c 7291 23bc 3ce0 a83c 0e2f 97bd
00000070: bde0 febd 8bf4 e5bd caa8 d13d 4dac bb3d
00000080: 6c74 2c3b 8244 b93d 9879 913d 3aad c93d
00000090: 3b89 df3d 2441 d7bd 32fa 173d 0339 b8bd
000000a0: 6911 94bc f5f0 073b 8aaf b8bd a311 843d
000000b0: 6403 b3bd 7415 ccbd fea3 8ebd 0282 003d
000000c0: c7c4 04be d792 86bd a7da 263d e0f3 d33d
000000d0: fa1c 69bd 0df4 173c cfde f43d 64e7 ed3d
000000e0: 4b10 dabd 6abd 33bd f473 eb3d 05db b3bb
000000f0: e728 833c b8b6 cdbd 2110 7e3c 07c5 9fbd
00000100: efb0 813d 7e78 f53d b14b cfbc 488d c63d
00000110: 7658 01bc f8a9 b83d fb65 c1bd f985 bd3d
00000120: d811 d53c 37c2 a2b9 75a8 993d 9b3e e9bd
00000130: 0f77 433d 2185 8abc 6c2a 063d 3e1d a6bd
00000140: 5587 9cbc 9014 cc3d 92cf 063e 5741 dd3d
00000150: c995 023e 014d d4bd c102 e73d a6ae cfbc
00000160: 3a87 0c3e 8dc4 d2bd 3902 c4bc d7c4 4a3b
00000170: c2e8 5fbd c445 71bd c75b 073e 748a 8dbd
00000180: fa2a 023d fc54 ea3b 5318 043e 1365 7abd
00000190: d896 0c3d 2edd 3a3d 0ece 3a3d 67b4 e63d
000001a0: 7bbb f13d 4f54 eb3d 66c7 88bb 85ff 50bd
000001b0: a892 e43c 8453 81bd 118c bc3d b95b 533d
000001c0: e272 b4bc 244e 1a3d 4869 a2bd be71 663d
000001d0: b0e8 9abc 02f9 383d e813 a33c 2107 c03d
000001e0: fc0d b43b e59e c3bd aa8f 9c3d 732f b03c
000001f0: 3474 6abc dc7c 54bd 748b d73c 37c1 0e3d
00000200: cde1 4d3d 9daf ad3d daad 9d3d 210f e0bd
00000210: e6db cd3d f139 a9bd 1109 bf3d 8404 84bd
00000220: e951 c8bd 7fa3 613c 55cd 0bbd 4c43 dbbd
00000230: a26e e93d 59c7 e7bd f367 0d3d cf80 02be
00000240: 2546 573d e423 c4bd dd7c ddbd 5288 c73d
00000250: b832 ebbd 58bf 8fbd 1c14 e0bc 697b 4dbd
00000260: f9f7 e7bd 8cc6 6cbd 96df 78bc b61d 9ebd
00000270: 88e0 dbbd 4a59 f9bd 3378 05be 7c80 0e3d
00000280: 12c8 b63a 3cd1 01bd 4f76 923d 3eae b0bd
00000290: fc4f 83bd 2d10 b23d 2736 a73d 00b9 083c
000002a0: 0020 963d fed4 d6bd 636d 553d 864e fdbc
000002b0: f564 99bd 4502 173d 3174 51bc c7f6 cb3d
000002c0: 46a6 ad3d 4282 413c 0123 ebbd 9df5 09be
000002d0: cbe5 9b3b 7b3e a7bd a6ff e8bd e908 8f3d
000002e0: c698 ebbd e455 af3d ab7b 903d 0766 50bd
000002f0: 3754 5cbc 7fcf 01be 819c fdbc b367 163d
00000300: a888 dbbc 2f99 bfbd 086d e4bb 99e8 87bd
00000310: 2a93 a8bc f243 23bd cedf 7dbd eca4 3b3d
00000320: 6acc bb3d 4612 f63d 9424 d9bd 1a38 9f3d
00000330: 861c 02bd f524 a33a 6b14 90bd 0486 953c
00000340: eb35 123c 5863 693d 0e41 653d f187 b03d
00000350: 27ad a9bd 37b7 02be 39ab 3b3d 19df d23d
00000360: 56e5 a13d 5e84 3bbd 6868 dbbd e2a0 12bd
00000370: 3fa3 66bd 77b1 d7bc 7c36 c1bd a2e7 f9bd
00000380: 0a4d 983d 1cba 08bc 5d7e 97bd 06ca 2fbd
00000390: d1d8 b93d ef92 583d 9126 b8bc 51e1 e8bd
000003a0: c75b 303d 867e 91bd a789 083e 9346 813d
000003b0: 496b b2bd 069b 9dbd 7299 023e d492 0bbc
000003c0: acbe e6bd 3ad1 0dbd b62f 8b3d a26f 0fbd
000003d0: f2b4 983d 2a9d e13d 93dd e5bd 1bbf 3b3c
000003e0: 5416 c73d 2b9d a13c 26cd 89bd 2895 e6bc
000003f0: 5acb 83bd 886a 98bb 79d0 80bc 8421 df3d

conv2.bias f4 [4]
0.1154679 -0.060477335 0.004808761 -0.0047743614
00000000: 6f7a ec3d 15b7 77bd d092 9d3b 3f72 9cbb

batchnorm2.weight f4 [4]
0.99226415 1.014289 1.0132735 0.99479425
00000000: 0605 7e3f 39d4 813f f2b2 813f d6aa 7e3f

batchnorm2.bias f4 [4]
-0.0008149955 0.00020954815 0.024455186 -0.0077631976
00000000: 6ca5 55ba 27ba 5b39 3e56 c83c 6c62 febb

batchnorm2.running_mean f4 [4]
0.14651512 0.007634628 0.09348443 0.047641657
00000000: 0f08 163e e72b fa3b c474 bf3d e623 433d

batchnorm2.running_var f4 [4]
0.45133412 0.4626529 0.33120388 0.22102234
00000000: 4415 e73e d7e0 ec3e 8e93 a93e ae53 623e

conv3.weight f4 [4, 4, 8, 4]
-0.0111467345 0.027214367 -0.06120594 0.04579312 -0.05671828 0.048238717 0.0040456434 0.0383824
-0.06956982 0.0367101 0.024692222 -0.00526415 0.068745434 -0.07690384 -0.084635265 0.073328
-0.038968544 0.034748428 -0.018628376 0.039450802 0.036320567 -0.06597119 0.045109853 -0.046906624
-0.064673185 -0.0012184192 -0.045150932 -0.07420729 -0.067957446 -0.037017718 0.032048278 -0.069643244
-0.03241411 -0.035003252 0.045955405 0.08818771 0.026958901 0.06554143 0.040301014 -0.06671875
0.03550029 -0.010539107 0.0059981123 -0.07573147 -0.08123892 0.0454632 -0.03065647 -0.03634843
0.044183828 -0.060583603 -0.033747282 -0.019811822 0.00786886 -0.05956561 -0.06189281 -0.033865485
0.057107806 0.02589785 -0.0526109 0.056397025 0.059769064 0.06706576 0.08299814 0.09024926
-0.05288614 0.036873445 0.0415866 0.03776245 -0.06944562 -0.060533293 -0.047670044 -0.0563336
0.00011698362 0.012776335 -0.027519496 -0.018328683 0.02459841 -0.073880516 0.08552387 0.08598416
-0.03421977 -0.032581896 -0.01543957 -0.012225949 -0.05283721 0.038229063 -0.028236438 0.07834145
0.07120922 0.06844244 -0.061637674 -0.092568874 0.07125309 0.045861017 0.050189786 -0.023930985
0.081964895 -0.033890396 -0.05819682 -0.023398591 0.08596863 -0.07216119 -0.08027906 0.057181623
-0.06208244 0.026578296 0.030335695 0.0043880083 -0.08784784 0.07289996 0.07933076 0.07099877
0.015003339 -0.050099004 0.0744452 -0.0070582204 0.018070918 0.029162873 0.015260449 0.05439484
0.054750808 -0.022812095 -0.010108032 -0.06697972 -0.0223256 0.084477305 0.07539317 -0.020049632
0.03208568 0.046684653 -0.017067662 0.08743656 0.04699301 -0.052049663 0.04185428 -0.07801869
0.018748071 0.060721736 -0.0160479 -0.054037236 -0.024944961 -0.06871212 0.04654706 -0.010148
-0.010390341 0.039584152 0.06964197 0.0028160755 0.047492847 -0.046192974 -0.07606445 0.06874657
-0.051967278 0.0059033325 -0.08335142 0.003067798 0.057907436 0.030346077 -0.061366323 -0.069166996
0.045636535 -0.08697903 0.047615528 -0.027644424 -0.061131526 0.061530676 -0.06968361 0.01166468
0.086961575 -0.07879604 0.062199082 0.034308508 0.065245256 0.04194735 -0.089254126 -0.07690703
0.07191346 -0.02940671 0.0036731497 0.011623397 -0.032239135 -0.04461478 0.04847875 0.051391143
0.038726334 0.024947897 -0.042845786 0.024986912 0.026568217 -0.007981659 0.027056716 0.06408813
-0.060520343 0.025896488 -0.03425369 0.0016261623 -0.04264532 -0.023294074 -0.062310763 0.07690919
0.02092007 -0.083886646 0.045152035 -0.056236517 -0.06501707 0.033585716 0.06684347 0.061198596
-0.017412502 -0.013161194 -0.05195519 -0.08114923 0.03724692 0.045971677 0.075092204 -0.024941824
-0.06872443 0.0003854739 0.0745541 0.093795635 0.064194664 0.040294968 -0.075934716 -0.009566993
0.010321879 -0.017381845 -0.0034131992 0.021278132 0.0027784081 -0.009702221 -0.049206834 -0.039104518
-0.046313 -0.030266598 0.03778459 0.059026558 -0.08838274 0.006031939 -0.038078737 0.022642272
-0.052274667 -0.028504211 0.08357874 -0.0021170268 0.048306294 -0.014164271 -0.013212077 -0.04128851
-0.0024786165 0.066826545 0.042741522 -0.054988813 -0.047475588 -0.036887236 0.0045302776 0.013954393
00000000: cba0 36bc aaf0 de3c 14b3 7abd 9191 3b3d
00000010: 6d51 68bd f695 453d 5191 843b dd36 1d3d
00000020: 9f7a 8ebd 545d 163d 5847 ca3c e47e acbb
00000030: 68ca 8c3d c37f 9dbd 4155 adbd fe2c 963d
00000040: 7b9d 1fbd 5e54 0e3d 899a 98bc 2a97 213d
00000050: e0c4 143d e71b 87bd 1cc5 383d 2921 40bd
00000060: 6073 84bd 5db3 9fba 2ff0 38bd fef9 97bd
00000070: 462d 8bbd e49f 17bd 0e45 033d 1ea1 8ebd
00000080: a8c4 04bd 925f 0fbd bc3b 3c3d c29b b43d
00000090: ead8 dc3c 963a 863d ad12 253d d7a3 88bd
000000a0: c168 113d 38ac 2cbc d08b c43b 1a19 9bbd
000000b0: 9760 a6bd 9f37 3a3d 4723 fbbc 17e2 14bd
000000c0: 1afa 343d 8326 78bd 973a 0abd 674c a2bc
000000d0: 64ec 003c 12fb 73bd 5183 7dbd 89b6 0abd
000000e0: e0e9 693d ba27 d43c 877e 57bd 9100 673d
000000f0: 68d0 743d c659 893d eefa a93d 9bd4 b83d
00000100: 239f 58bd 9c08 173d b656 2a3d ccac 1a3d
00000110: 8139 8ebd c2f1 77bd aa41 43bd 10be 66bd
00000120: 1a55 f538 d553 513c 9170 e1bc 0926 96bc
00000130: 9b82 c93c ab4e 97bd 2427 af3d 7718 b03d
00000140: 082a 0cbd 9874 05bd 40f6 7cbc 594f 48bc
00000150: d56b 58bd 1496 1c3d 1a50 e7bc 7b71 a03d
00000160: 24d6 913d 8d2b 8c3d c977 7cbd c094 bdbd
00000170: 24ed 913d c3d8 3b3d ce93 4d3d ea0a c4bc
00000180: 36dd a73d a8d0 0abd ca5f 6ebd 67ae bfbc
00000190: 5210 b03d 3fc9 93bd 5969 a4bd 4737 6a3d
000001a0: 284a 7ebd baba d93c 9082 f83c 48c9 8f3b
000001b0: 91e9 b3bd 934c 953d 2a78 a23d ce67 913d
000001c0: 91d0 753c 9d34 4dbd ba76 983d a548 e7bb
000001d0: 7609 943c fae6 ee3c f606 7a3c 20cd 5e3d
000001e0: 6242 603d 6ee0 babc 299c 25bc aa2c 89bd
000001f0: 2de4 b6bc 7002 ad3d bc67 9a3d 203f a4bc
00000200: 466c 033d 6838 3f3d 7bd1 8bbc f011 b33d
00000210: be7b 403d 0732 55bd 656f 2b3d 43c8 9fbd
00000220: 8e95 993c 5bb7 783d e376 83bc 2656 5dbd
00000230: 6059 ccbc f1b8 8cbd 21a8 3e3d cc43 26bc
00000240: 403c 2abc fe22 223d 73a0 8e3d e88d 383b
00000250: dc87 423d d834 3dbd aec7 9bbd 00cb 8c3d
00000260: a4db 54bd be70 c13b 26b4 aabd 1c0d 493b
00000270: 5930 6d3d 5698 f83c 415b 7bbd 6da7 8dbd
00000280: 60ed 3a3d 1022 b2bd 8008 433d 8f76 e2bc
00000290: 0d65 7abd 9707 7c3d 48b6 8ebd 371d 3f3c
000002a0: e918 b23d d15f a1bd 77c4 7e3d 1487 0c3d
000002b0: 4e9f 853d fcd0 2b3d deca b6bd 6f81 9dbd
000002c0: 5d47 933d 57e6 f0bc 3ab9 703b 0f70 3e3c
000002d0: 2f0d 04bd fdbd 36bd a791 463d 857f 523d
000002e0: 819f 1e3d 885f cc3c 107f 2fbd 5ab1 cc3c
000002f0: 97a5 d93c 81c5 02bc 0ca6 dd3c a340 833d
00000300: 2ee4 77bd df24 d43c 994d 0cbd f424 d53a
00000310: dcac 2ebd 37d3 bebc 9239 7fbd 9182 9d3d
00000320: 9160 ab3c c3cc abbd 57f1 383d 4358 66bd
00000330: ab27 85bd 2d91 093d 3be5 883d 61ab 7a3d
00000340: aaa4 8ebc 0ca2 57bc f7ce 54bd 9131 a6bd
00000350: 3a90 183d cc4c 3c3d f1c9 993d cc52 ccbc
00000360: 65bf 8cbd 6e19 ca39 d2af 983d ed17 c03d
00000370: 7e78 833d 560c 253d a983 9bbd e1be 1cbc
00000380: 191d 293c 5f64 8ebc fbaf 5fbb 7a4f ae3c
00000390: f415 363b 10f6 1ebc 1b8d 49bd 0f2c 20bd
000003a0: b3b2 3dbd a8f1 f7bc 04c4 1a3d d5c5 713d
000003b0: 0302 b5bd 92a7 c53b 73f8 1bbd 497c b93c
000003c0: f61d 56bd aa81 e9bc 552b ab3d d1bd 0abb
000003d0: d2dc 453d 4211 68bc 7877 58bc 241e 29bd
000003e0: 4970 22bb 5bdc 883d bc11 2f3d f33b 61bd
000003f0: c375 42bd 1217 17bd b972 943b f7a0 643c

conv3.bias f4 [4]
0.07558937 -0.04769682 0.056844186 -0.06265201
00000000: 9ace 9a3d be5d 43bd 73d5 683d b24f 80bd

batchnorm3.weight f4 [4]
0.99432844 0.98850673 1.0100898 1.0244814
00000000: 4f8c 7e3f c70e 7d3f 9f4a 813f 3522 833f

batchnorm3.bias f4 [4]
-0.009049728 -0.008661378 -0.009838304 0.024860326
00000000: 4f45 14bc 74e8 0dbc d630 21bc e2a7 cb3c

batchnorm3.running_mean f4 [4]
0.19544396 -0.026803857 0.057694525 -0.10518938
00000000: 7622 483e c393 dbbc 1851 6c3d 886d d7bd

batchnorm3.running_var f4 [4]
0.24538495 0.22360718 0.46418336 0.186586
00000000: 3146 7b3e 48f9 643e 71a9 ed3e 6610 3f3e

fc1.weight f4 [1, 56]
0.07559729 0.12536564 0.09220978 0.08423168 -0.0077249086 0.012072716 -0.035727397 -0.07125152
0.041214734 -0.033098817 -0.05777107 -0.048606206 -0.09416092 0.07986048 0.007988 -0.031503476
0.00092573784 -0.066762716 0.0003232251 -0.023743395 -0.055106223 0.062643796 0.1066146 0.10633105
-0.05181129 0.113387145 -0.09826683 0.106802166 -0.0061457865 0.12580185 -0.11452555 0.002319339
0.0805255 -0.08416174 0.072685145 0.08355335 0.08245023 0.045829646 0.083466806 -0.04873614
-0.12697004 -0.0064849025 -0.12155044 -0.09394593 -0.12584078 -0.09953789 -0.13608259 -0.1053815
0.06796679 0.04697441 -0.020675963 -0.09663127 0.05346761 -0.0010458857 0.12558098 0.09857066
00000000: c1d2 9a3d da5f 003e 7bd8 bc3d a981 ac3d
00000010: 3b21 fdbb a4cc 453c e456 12bd 51ec 91bd
00000020: c8d0 283d a092 07bd 5ca1 6cbd 4d17 47bd
00000030: 71d7 c0bd e48d a33d 1ae0 023c ca09 01bd
00000040: 37ad 723a e4ba 88bd 8a76 a939 8281 c2bc
00000050: 10b7 61bd 644b 803d c158 da3d 18c4 d93d
00000060: 1338 54bd 8537 e83d 1f40 c9bd 18bb da3d
00000070: 9862 c9bb 33d2 003e 5f8c eabd 0d00 183b
00000080: 8eea a43d fe5c acbd f3db 943d 051e ab3d
00000090: abdb a83d deb7 3b3d a5f0 aa3d 8c9f 47bd
000000a0: 6f04 02be 4e7f d4bb 70ef f8bd b966 c0bd
000000b0: 68dc 00be 85da cbbd 3c59 0bbe 42d2 d7bd
000000c0: 2c32 8b3d 3d68 403d a360 a9bc 9ee6 c5bd
000000d0: da00 5b3d 1a16 89ba 4d98 003e 6adf c93d
