pretrained/eegnet.pth (torch, 22176 bytes, 19 tensors)

conv1.weight f4 [16, 1, 1, 4]
0	0xbecb26e7	-0.39678118
1	0x3dc445a7	0.09583598
2	0x3e6f164e	0.23348352
3	0xbd03c8f1	-0.032174055
4	0x3eeb793f	0.4599094
5	0xbdb18425	-0.08667783
6	0x3ebec984	0.3726312
7	0xbdacedff	-0.08443832
8	0xbe8e5445	-0.27798668
9	0x3d48aaf1	0.048991147
10	0xbeff3d54	-0.49851477
11	0x3e401f50	0.18761945
12	0x3dd9c888	0.106339514
13	0x3e6eb78f	0.2331221
14	0x3e853ace	0.26021427
15	0x3edbd630	0.4293685
16	0xbea81b00	-0.328331
17	0xbef0fe8d	-0.47069207
18	0x3d2f65d2	0.042821713
19	0xbe62a3e2	-0.22132829
20	0x3b7bfb60	0.0038449392
21	0x3ede62fc	0.43434894
22	0x3d541493	0.051777434
23	0x3d75f313	0.060046267
24	0xbed4dd1e	-0.4157495
25	0x3b610eba	0.0034341053
26	0xbecd5518	-0.40103984
27	0xbe004a6a	-0.12528387
28	0x3eb063bd	0.34451094
29	0xbd281d35	-0.04104348
30	0x3e5651a2	0.20929578
31	0x3e2e1b00	0.17002487
32	0x3eac61bc	0.33668315
33	0x3e243826	0.16037044
34	0xbee33d9d	-0.44382945
35	0xbd1ea88d	-0.03873496
36	0x3d3c2eda	0.04594312
37	0xbe566d69	-0.20940174
38	0xbec151d5	-0.37757745
39	0xbea5119c	-0.32239997
40	0x3e6c5553	0.23079424
41	0xbe3072e7	-0.17231332
42	0xbd37b372	-0.044848867
43	0x3e1bbbd5	0.15208371
44	0x3ea8f35b	0.32998165
45	0x3e84467b	0.25835022
46	0x3e644fc5	0.22296055
47	0x3ee7e73d	0.45293608
48	0x3dbc175b	0.09184142
49	0xbe623c37	-0.22093283
50	0x3e675913	0.22592573
51	0xbd462e8e	-0.04838424
52	0x3efca835	0.49347082
53	0xbec58547	-0.38578245
54	0xbe954e3f	-0.2916126
55	0x3ea60d15	0.32431856
56	0xbea757fa	-0.32684308
57	0x3e8c7529	0.27433136
58	0xbea90770	-0.33013487
59	0x3e1ba78a	0.1520063
60	0x3edc9619	0.43083265
61	0x3e4d1151	0.20026137
62	0xbe980d0a	-0.29697448
63	0x3e4cdc9f	0.20006035

conv1.bias f4 [16]
0	0xbb948a05	-0.004533055
1	0xbdd33b54	-0.1031405
2	0xbefbfade	-0.49214834
3	0xbea8b3c4	-0.3294965
4	0xbe2e0b57	-0.16996513
5	0x3ebefa9b	0.37300572
6	0xbeb000b9	-0.3437555
7	0xbeef8341	-0.46779826
8	0xbebb7145	-0.36609855
9	0x3e24f184	0.16107756
10	0xbee419ee	-0.44551033
11	0xbeffe12c	-0.4997648
12	0x3c6638c8	0.014051624
13	0xbef1669c	-0.47148597
14	0x3dca864c	0.09888896
15	0xbd5f92ed	-0.05458348

batchnorm1.weight f4 [16]
0	0x3f7ff30c	0.99980235
1	0x3f800072	1.0000136
2	0x3f800d67	1.000409
3	0x3f7ff420	0.9998188
4	0x3f7fe8fd	0.99964887
5	0x3f7fd97e	0.9994124
6	0x3f800916	1.0002773
7	0x3f7ff0f4	0.9997704
8	0x3f800c08	1.0003672
9	0x3f800d07	1.0003976
10	0x3f7fdce9	0.9994646
11	0x3f800e3e	1.0004346
12	0x3f7fe0ef	0.99952596
13	0x3f801527	1.0006455
14	0x3f802282	1.0010531
15	0x3f7fef63	0.9997465

batchnorm1.bias f4 [16]
0	0x3a1e9aa9	0.0006050268
1	0xb8b42e42	-8.591685e-05
2	0x39093d88	0.0001308826
3	0xba189772	-0.0005820907
4	0x3a44d98d	0.0007509224
5	0x390fc598	0.00013711152
6	0x39a83083	0.000320796
7	0xb94cf0dc	-0.00019544683
8	0x391534a3	0.00014229356
9	0xb96c6555	-0.00022544463
10	0xb9ac33fa	-0.00032845122
11	0xb906e76c	-0.00012865447
12	0xb939c788	-0.00017717306
13	0xb99061f2	-0.00027538795
14	0xb99fa48d	-0.00030449443
15	0xb985c0d2	-0.000255114

batchnorm1.running_mean f4 [16]
0	0x49f79014	2.0280345e+06
1	0x4a19b978	2.518622e+06
2	0x49f420a5	1.9998926e+06
3	0x49deebb4	1.8261665e+06
4	0x4a229a60	2.664088e+06
5	0x49b3a758	1.471723e+06
6	0x4a1546dd	2.4457512e+06
7	0x49e96008	1.911809e+06
8	0x4a0af609	2.2767382e+06
9	0x49c8e443	1.6457044e+06
10	0x49a7d7d2	1.3749702e+06
11	0x4a2050c6	2.6266095e+06
12	0x4987a2b7	1.1111269e+06
13	0x4a415281	3.1673922e+06
14	0x4a00e5e5	2.1118652e+06
15	0x4a1fb43d	2.6165912e+06

batchnorm1.running_var f4 [16]
0	0x571ccb62	1.7239734e+14
1	0x575188fb	2.3038626e+14
2	0x571be3ff	1.7140354e+14
3	0x56af003d	9.620778e+13
4	0x575c7b92	2.4242329e+14
5	0x56b5d858	9.99704e+13
6	0x575737ae	2.3663414e+14
7	0x56e29fb9	1.24587816e+14
8	0x572a1a51	1.8703e+14
9	0x56cf6632	1.1401892e+14
10	0x567feec4	7.035024e+13
11	0x57236bcb	1.7968336e+14
12	0x56383905	5.063876e+13
13	0x57a2be2c	3.5787533e+14
14	0x57207442	1.7642118e+14
15	0x573ffd9b	2.1109595e+14

conv2.weight f4 [4, 7, 2, 32]
0	0x3d30f885	0.043205757
1	0xbc8f7fca	-0.01751699
2	0xbd32faa0	-0.043696046
3	0xbce26784	-0.02763725
4	0xbb1ec5f8	-0.0024226885
5	0xbc9a5d3a	-0.018843282
6	0x3d3e109e	0.046402566
7	0xbd1641b7	-0.036683764
8	0xbd38d4cb	-0.04512481
9	0x3cab6a0b	0.020924589
10	0xbc34b399	-0.011029148
11	0x3cf35398	0.029702947
12	0x3c0766a3	0.008264217
13	0x3c887cfb	0.016661158
14	0x3d0ccb73	0.03437371
15	0xbbad379d	-0.0052861706
16	0xbc9f25de	-0.019427236
17	0xbc87946d	-0.016550267
18	0xbc43ae50	-0.011943415
19	0xbd2b74df	-0.041859504
20	0x3d1f8885	0.038948555
21	0x3ca925ee	0.02064797
22	0xbc85fbc5	-0.016355405
23	0x3d188e8d	0.037245322
24	0x3c9c640c	0.019090675
25	0x3ca0e678	0.019641146
26	0x3ce32fcf	0.027732758
27	0x3bf7206b	0.0075417063
28	0xbb7368eb	-0.0037141393
29	0x3d11713d	0.035508383
30	0x3c7558ea	0.014974812
31	0x3d00a24a	0.03140477
32	0x3cde6292	0.027146611
33	0xbcfc645b	-0.030809572
34	0xbc35209e	-0.01105514
35	0x3d19ba54	0.037531212
36	0xbbfbe4da	-0.0076871933
37	0xbca193ee	-0.019723859
38	0xbca06e55	-0.01958386
39	0xbd15b8fa	-0.03655336
40	0x3ce93204	0.028466232
41	0x3ce5efd2	0.028068457
42	0xbcce739d	-0.025201613
43	0xbd391a79	-0.045191262
44	0x3c3f547c	0.0116778575
45	0x3b5fd8bb	0.003415628
46	0x3d0ac9cb	0.03388385
47	0x3c2af29a	0.010433817
48	0xbbd0d1cd	-0.0063726665
49	0x3cf1e261	0.029526891
50	0x3d019c9e	0.031643502
51	0x3cc8f452	0.024530564
52	0x3d092287	0.033480193
53	0xbd2bc35a	-0.04193435
54	0x3ca86f5a	0.020560909
55	0x3cddba50	0.02706638
56	0x3cee1036	0.029060464
57	0xbc9c88c7	-0.01910819
58	0x3c33ea9d	0.010981229
59	0xbd20421a	-0.03912554
60	0x3d189435	0.037250716
61	0x3b3638e7	0.0027804913
62	0x3d04fcc2	0.03246761
63	0x3c4a2d7d	0.012339947
64	0xbcb093fe	-0.021554943
65	0x3cd4d22f	0.02597913
66	0x3cf7e1bb	0.030259004
67	0xbccf52d8	-0.025308058
68	0x3b73a18e	0.0037175152
69	0xbcd17b9f	-0.025571642
70	0xbd0c4a80	-0.034250736
71	0x3c901a78	0.017590746
72	0xbd2524ae	-0.040318184
73	0x3c8d4891	0.017246516
74	0xbd164ec0	-0.036696196
75	0xbb2ee209	-0.002668502
76	0xbc9270f8	-0.017876133
77	0x3cb04d70	0.0215213
78	0x3d30d7cb	0.043174546
79	0xbd14b45a	-0.03630481
80	0xbc63f743	-0.013913932
81	0xbc0d9167	-0.008640624
82	0xbd2dc057	-0.042419758
83	0xbd2f8fda	-0.042861797
84	0xbcb98a63	-0.022648996
85	0xbc34f616	-0.011045
86	0x3d25274c	0.04032068
87	0x3c67b77a	0.014142865
88	0x3d2635ee	0.040578775
89	0xbd1f06e2	-0.038824923
90	0xbcd17390	-0.0255678
91	0x3b9d6bc0	0.0048041046
92	0xbd1aad3b	-0.03776286
93	0x3caf0563	0.021364873
94	0xb95e18c8	-0.00021180802
95	0xbd3df5f3	-0.046377134
96	0xbd3b543c	-0.04573463
97	0x3bac4273	0.005256945
98	0x3c840d69	0.016119676
99	0xba90e026	-0.001105313
100	0xbc59f509	-0.01330305
101	0x3cfeb7cb	0.031093499
102	0x3b614718	0.003437465
103	0xbcbcea88	-0.023061052
104	0x3d23f6ba	0.04003022
105	0xbc40f10f	-0.011776223
106	0xbc6f8cf3	-0.014621007
107	0xbb879dd7	-0.004138689
108	0xbc1357fd	-0.008993146
109	0xbb3b1548	-0.002854662
110	0xbca4c9ba	-0.020115722
111	0x3ce61b37	0.028089149
112	0x3ae04238	0.0017109578
113	0x3cd6d096	0.026222508
114	0x3b9ac89c	0.0047236215
115	0x3cfccfb5	0.030860761
116	0xbd042072	-0.032257505
117	0x3cc85446	0.024454247
118	0x3c969297	0.018380446
119	0x3caeeac7	0.021352185
120	0xbccbe3ee	-0.024888959
121	0x3bac1817	0.005251895
122	0xbc907380	-0.0176332
123	0xbc890152	-0.016724262
124	0xbbedd986	-0.007258597
125	0xbbe8e71b	-0.007107628
126	0x3cae62ba	0.02128731
127	0x3d3ed1f5	0.04658695
128	0xbc4a3f96	-0.012344262
129	0x3d37bb9f	0.044856664
130	0x3cc9ad6f	0.024618832
131	0xbd2faba7	-0.04288831
132	0x3d13f6db	0.03612409
133	0xbd1c83b6	-0.038211547
134	0xbca48796	-0.020084184
135	0xbc95b3de	-0.018274244
136	0xbab75483	-0.0013986978
137	0xbd4028cf	-0.046913918
138	0xbd373ddf	-0.04473674
139	0xbd1ff3d8	-0.039050907
140	0xbcc0d11f	-0.023537217
141	0xb9c09414	-0.0003673142
142	0x3cfbd3c9	0.030740635
143	0xbd33fb1c	-0.04394065
144	0x3b8f36f0	0.0043705627
145	0x3d1090fe	0.035294525
146	0x3c5d3427	0.013501204
147	0x3c188f30	0.009311482
148	0xbd30466d	-0.043035913
149	0x3cecd22f	0.028908817
150	0xbc3ed9f1	-0.011648641
151	0x3c9a8404	0.018861778
152	0xbd0128f1	-0.031533185
153	0xbc01cbea	-0.007922152
154	0x3ce6924a	0.028145928
155	0xbcf47c77	-0.029844506
156	0xbd135994	-0.0359741
157	0xbbab5a51	-0.0052292724
158	0x3cc89f4f	0.024490027
159	0xbd03f183	-0.032212745
160	0x3be1cc14	0.006890783
161	0xbc9b7b89	-0.018979805
162	0x3c009458	0.007847868
163	0x3c060c43	0.008181634
164	0x3d06d1cf	0.032914933
165	0xbcba8e5c	-0.02277296
166	0xbd2ebe84	-0.04266216
167	0x3bcc0b1b	0.00622691
168	0x3cdc793b	0.026913276
169	0xbca744e8	-0.0204186
170	0x3c7f9747	0.015600032
171	0xbd2f598a	-0.04281
172	0x3cc05c20	0.023481429
173	0x3cc8e26d	0.02452203
174	0xbd34d4aa	-0.044148125
175	0xbc395192	-0.011310952
176	0x3ca4ea12	0.020131145
177	0x3cac2c3a	0.021017183
178	0x3c6198a7	0.013769305
179	0xbd0caebb	-0.034346323
180	0x3d2037c8	0.039115697
181	0xbd29eed8	-0.041487545
182	0xba8b2220	-0.0010615028
183	0xbccdeff9	-0.025138842
184	0xbd1e4a7e	-0.03864526
185	0xbca856ad	-0.020549143
186	0x3d2d863e	0.04236435
187	0xbd2775b2	-0.040883727
188	0x3d051bdb	0.03249727
189	0x3d2d7755	0.042350132
190	0xbcd4b5ea	-0.02596565
191	0x3c721ae6	0.014776921
192	0xbc94077f	-0.01806998
193	0xbd354358	-0.044253677
194	0xbd2895ab	-0.04115836
195	0xbc003ed5	-0.00782748
196	0xbd093765	-0.033500094
197	0xbbadeeb0	-0.005307995
198	0x3ce6fdb1	0.028197141
199	0x3cc393fc	0.023874275
200	0xbd3b9e8d	-0.045805503
201	0x3c9dda6f	0.019269196
202	0x3a02d32b	0.0004990573
203	0x3c8b1583	0.016978031
204	0x3cfd8880	0.030948877
205	0xbd1e6792	-0.03867299
206	0xbcc3178e	-0.023814943
207	0x3caaead5	0.02086393
208	0x3c0a30cb	0.008434485
209	0xbc5132e9	-0.012768486
210	0xbcbe19fe	-0.023205753
211	0x3bf7709a	0.007551265
212	0xbc494bd7	-0.012286148
213	0x3c67de06	0.014152056
214	0xbca95a47	-0.02067293
215	0x3d3c97d2	0.046043225
216	0x3bc65953	0.0060531287
217	0xbc4cc272	-0.012497531
218	0xbd20377a	-0.039115407
219	0x3d3be47d	0.0458722
220	0xbd11c9b7	-0.03559276
221	0xbd298381	-0.041385178
222	0x3c957882	0.01824594
223	0xbcc9c12d	-0.024628246
224	0x3d0ce6b6	0.03439971
225	0x3c19e6ea	0.009393433
226	0xbce2f26e	-0.02770349
227	0xbd2b711d	-0.04185592
228	0xbcff9788	-0.031200185
229	0x3d3b20f9	0.045685742
230	0x3ac44986	0.0014975525
231	0xbcdf9238	-0.027291402
232	0x3d25d2e0	0.04048431
233	0x3c8a2b1d	0.016866261
234	0x3d119c22	0.03554929
235	0x3d054d00	0.032544136
236	0x3cf6c2bc	0.030122153
237	0x3cc7694b	0.0243422
238	0x3cac0eca	0.021003146
239	0x3c995956	0.018719357
240	0x3cb9ddab	0.022688707
241	0xbc711511	-0.014714495
242	0xbc4699ea	-0.012121657
243	0xbcaca263	-0.021073526
244	0xbcd95698	-0.026530549
245	0x3d21767b	0.039419632
246	0x3ce17931	0.027523609
247	0x3d10fe7c	0.035398945
248	0x3c93faac	0.018063866
249	0x3d04f602	0.032461174
250	0x3ce4ceda	0.027930666
251	0xbba90445	-0.0051579797
252	0xbd3716b5	-0.04469939
253	0x3c900c21	0.017583909
254	0xbc7bc150	-0.0153659135
255	0xbcfcd78e	-0.030864503

conv2.bias f4 [4]
0	0xbc4686a4	-0.012117062
1	0x3b579b93	0.0032899126
2	0x3cb62caa	0.022238094
3	0xbc7dbda4	-0.015487108

batchnorm2.weight f4 [4]
0	0x3f7fe742	0.99962246
1	0x3f7fec37	0.9996981
2	0x3f8030d8	1.0014906
3	0x3f7fd1d6	0.9992956

batchnorm2.bias f4 [4]
0	0xbac2f6b8	-0.0014874553
1	0x39ea0c4e	0.00044641126
2	0xba3ee364	-0.00072818086
3	0x3ad09193	0.0015912525

batchnorm2.running_mean f4 [4]
0	0xb9a39e19	-0.00031207575
1	0x3dd1a1ac	0.102359146
2	0x3da17f27	0.078855805
3	0x3e3bf858	0.18356454

batchnorm2.running_var f4 [4]
0	0x3e82f411	0.25576833
1	0x3e332a76	0.17496666
2	0x3e9a2c16	0.3011176
3	0x3ef678e1	0.48139098

conv3.weight f4 [4, 4, 8, 4]
0	0x3b62ed10	0.0034626164
1	0xbda63179	-0.08114905
2	0x3d2f6d7d	0.042829026
3	0x3d594206	0.05304148
4	0xbd95569b	-0.07291909
5	0xbd949782	-0.0725546
6	0x3b98a1c8	0.0046579577
7	0x3d9dc424	0.077034265
8	0x3d088ef0	0.03333944
9	0x3d8bf88e	0.068345174
10	0xbd92830d	-0.07153902
11	0x3d83ba58	0.064320266
12	0x3da752fc	0.08170125
13	0xbd91751e	-0.071024165
14	0x3ca25297	0.019814773
15	0xbc901517	-0.017588181
16	0x3db345f5	0.087535776
17	0xbd35206c	-0.044220373
18	0xbda99a22	-0.082813516
19	0xbd92f7ba	-0.07176156
20	0x3d8128e4	0.063066274
21	0x3cc9b9ca	0.024624724
22	0xbda7aa98	-0.08186835
23	0xbd90b9a0	-0.07066655
24	0x3d430112	0.047608443
25	0xbd372fb9	-0.044723246
26	0xbd7316b6	-0.05934783
27	0xbd15a7a1	-0.036536817
28	0xbd0a9ae1	-0.03383911
29	0xbd5addde	-0.053434245
30	0xbd1b0d04	-0.03785421
31	0x3c50edbe	0.012751995
32	0x3c93c06c	0.01803609
33	0x3d98c8ad	0.07460151
34	0xbdabf40b	-0.08396157
35	0xbcb00801	-0.021488192
36	0xbcd10271	-0.02551386
37	0xbd4400c4	-0.047852293
38	0x3cf66ed0	0.030082136
39	0xbd2dc497	-0.04242381
40	0xbcfbadca	-0.030722518
41	0xbd8bd05d	-0.068268515
42	0xbd0b2e06	-0.03397944
43	0x3b925ce3	0.0044666394
44	0xbd499b71	-0.049220506
45	0xbc8a0a1e	-0.016850527
46	0xbd50d3b8	-0.05098316
47	0x3c8fd534	0.017557718
48	0x3d027b64	0.031855956
49	0xbd55a36e	-0.05215781
50	0xbd12e85d	-0.03586613
51	0xbc45e5ba	-0.012078697
52	0xbd42221d	-0.047395814
53	0xbd20ffd0	-0.03930646
54	0x3d2f8ba8	0.042857796
55	0xbc6dd90f	-0.014517083
56	0x3d0f8af0	0.03504461
57	0x3aa329ed	0.0012448408
58	0x3b85939a	0.0040764334
59	0xbd7c7c6b	-0.06164209
60	0x3bd31186	0.006441298
61	0x3dab103d	0.083527066
62	0x3da8ab2c	0.082357734
63	0x3d7df03e	0.06199669
64	0xbce3e49e	-0.027818974
65	0xb9fec4b3	-0.00048593208
66	0x3da419ac	0.08012709
67	0xbca4dbab	-0.020124277
68	0x3cb2040b	0.021730443
69	0x3bff44ef	0.0077902
70	0x3d6774aa	0.056507744
71	0xbd3194d6	-0.04335483
72	0x3c8f7a37	0.017514331
73	0xbd9f400c	-0.07775888
74	0xbca99c3d	-0.020704383
75	0x3d240f84	0.04005386
76	0x3c1e2a28	0.0096536055
77	0x3da85c0e	0.08220683
78	0xbd80c5e7	-0.06287747
79	0x3d212033	0.03933735
80	0xbb4c7a39	-0.003120078
81	0x3dab0e6b	0.083523594
82	0x3d9f005d	0.07763741
83	0x3da25608	0.079265654
84	0xbd6ae470	-0.05734676
85	0x3db5e347	0.0888124
86	0xbd60423a	-0.05475066
87	0xbd263321	-0.040576104
88	0x3d536107	0.051606204
89	0x39d63f90	0.00040864618
90	0x3d314a5a	0.043283798
91	0x3d9cfd1d	0.07665465
92	0xbc10d6cb	-0.008840273
93	0x3cc911d0	0.024544626
94	0x3b59ab8a	0.0033213818
95	0x3d7821e7	0.060579207
96	0x3d3b66f1	0.04575247
97	0x3ba077b9	0.0048970846
98	0xbd8474b4	-0.06467572
99	0x3cd97b28	0.026547983
100	0x3d6017a2	0.054710038
101	0x3bdcfc4f	0.0067439447
102	0x3d2b3903	0.041802417
103	0x3cb8095b	0.022465399
104	0xbd2f00e6	-0.042725466
105	0xbd3763e8	-0.044773012
106	0xbc6f2f82	-0.014598729
107	0xbd9a2077	-0.075257234
108	0xbade0001	-0.0016937257
109	0xbcaf8200	-0.021424294
110	0xbd976d42	-0.07393886
111	0x3c3a7ce3	0.011382314
112	0x3c938d8c	0.01801183
113	0x3d1171e2	0.035508998
114	0xbb08b3ff	-0.002085924
115	0xbcf48528	-0.02984865
116	0xbc5efd7c	-0.01361024
117	0xbd8becbc	-0.06832263
118	0x3b32ab21	0.0027262645
119	0x3d45bebb	0.048277598
120	0x3b098187	0.0020981745
121	0x3c250f81	0.010074497
122	0x3d995a57	0.07487934
123	0x3d93f104	0.072237045
124	0x3da4528a	0.080235556
125	0x3d94fcd3	0.07274785
126	0x3d44bf1e	0.048033826
127	0xbae1943e	-0.0017210317
128	0xbdab74bf	-0.08371877
129	0x3c2b41f2	0.010452734
130	0x3d4c2443	0.04983927
131	0x3b5d09de	0.0033727805
132	0x3d4090bd	0.047013033
133	0xbd887c25	-0.06664304
134	0xbb21579b	-0.0024618867
135	0x3db1dd0c	0.086847395
136	0xbda2a7d2	-0.079421654
137	0xbc414185	-0.011795406
138	0x3d2690c1	0.04066539
139	0xbdaa7931	-0.08323897
140	0xbd0a07ef	-0.033698972
141	0xbd19f460	-0.03758657
142	0x3d724344	0.05914618
143	0xbc5c0c3a	-0.013430649
144	0x3b6f899f	0.0036550534
145	0x3d93b776	0.07212727
146	0x3caf0bc1	0.02136791
147	0xbcee22ed	-0.029069388
148	0x3d3629f1	0.044473592
149	0xbd133ca3	-0.0359465
150	0x3d9e037c	0.07715508
151	0xbcd10fab	-0.025520166
152	0x3da0d201	0.07852555
153	0xbcda3a99	-0.02663927
154	0x3d4425c3	0.047887575
155	0x3d9fd255	0.078037895
156	0xbd0570e2	-0.032578357
157	0xbbeca7b7	-0.0072221416
158	0xbd30569d	-0.04305135
159	0x3d38f433	0.04515476
160	0xbcf81ab7	-0.030286176
161	0x3d875ac2	0.066091076
162	0xbd6a7468	-0.05723992
163	0xbcfcf438	-0.030878171
164	0xbca5ee45	-0.020255217
165	0x3d95e873	0.07319727
166	0x3d4391a6	0.047746323
167	0xbb9a48a3	-0.004708366
168	0x3d3a83e4	0.045535937
169	0xbd9ca223	-0.076481126
170	0xbbc05869	-0.0058699143
171	0x3da3d548	0.079996645
172	0xbcacbd21	-0.021086277
173	0xbd499ac3	-0.049219858
174	0xbd2a443b	-0.041568976
175	0x3d8ebe04	0.06969836
176	0x3c5de6fa	0.013543839
177	0x3cb530f2	0.022118066
178	0xbd2599bc	-0.040429816
179	0x3d37b687	0.044851806
180	0xba945a7e	-0.0011318473
181	0x3db3f039	0.08786053
182	0x3d680b61	0.056651477
183	0xbd9bb759	-0.0760333
184	0x3d94bfea	0.07263167
185	0xbd747c12	-0.059688635
186	0xbcf55bac	-0.02995094
187	0x3c59c915	0.013292571
188	0xbd90c825	-0.070694245
189	0xbb957559	-0.004561108
190	0xbd3cddc2	-0.046109922
191	0xbcbc2b1c	-0.022969775
192	0xba05e44b	-0.00051075657
193	0xbc6ca95a	-0.014444673
194	0x3cfb2f9b	0.030662348
195	0xbcc8dc24	-0.024519034
196	0x3c41a153	0.011818248
197	0xba8fd28d	-0.0010972783
198	0xbcf38516	-0.029726546
199	0xbda6eed6	-0.08151023
200	0x3d3dc9aa	0.0463349
201	0xbd951dd2	-0.072810784
202	0x3c3d9eb1	0.0115734795
203	0x3d640fe7	0.05567923
204	0x3da70b9c	0.08156511
205	0xbd3a8273	-0.045534562
206	0x3d9a89f5	0.075458445
207	0xbd3dfedf	-0.046385642
208	0xbd52fac2	-0.051508673
209	0x3c691cf4	0.014228094
210	0xbd0a7b3f	-0.033808943
211	0xbd62c43b	-0.05536292
212	0x3cd014c9	0.025400536
213	0x3d9609d1	0.07326091
214	0x3d5de5fe	0.054174416
215	0x3d056298	0.03256473
216	0x3d47f1e6	0.048814677
217	0x3d957df3	0.072994135
218	0xbd1ecd2d	-0.03876989
219	0x3d8f474f	0.06996023
220	0x3cc8f2c1	0.024529817
221	0x3d76a952	0.06022007
222	0xbdae1cee	-0.08501612
223	0x3caea0f4	0.021316983
224	0xbb90f7b4	-0.0044240598
225	0xbb05fea2	-0.0020445962
226	0xbd83e2d7	-0.06439751
227	0xbc1cecc5	-0.009577935
228	0xbc9f7661	-0.019465627
229	0xbcf53f09	-0.029937284
230	0x3d96ae61	0.07357479
231	0xbda07ffe	-0.078369126
232	0x3c1c4c54	0.009539682
233	0x3d25ecb7	0.040508952
234	0x3c943162	0.018089954
235	0x3d7ea8ac	0.062172577
236	0x3c44ce69	0.012012103
237	0x3d65ea67	0.056131747
238	0x3d2e5fe6	0.042571925
239	0xbd6cb828	-0.057792813
240	0xbd99f21e	-0.07516883
241	0xbd31a18a	-0.043366946
242	0xbd4f1657	-0.050558414
243	0xbd85a80b	-0.06526192
244	0x3ca358b6	0.019939762
245	0xbd8bb5b6	-0.06821768
246	0xbd824184	-0.06360152
247	0xbcf0b72c	-0.029384218
248	0xbda963cd	-0.082709886
249	0xbd603cb8	-0.054745406
250	0xbc9a386f	-0.018825738
251	0x3bcb5eff	0.006206393
252	0x3d1ad4d4	0.037800625
253	0x3da1ef14	0.07906929
254	0xbc8a5d52	-0.016890202
255	0xbd53cb19	-0.05170736

conv3.bias f4 [4]
0	0xbd53e26c	-0.051729605
1	0x3db0a3bf	0.08624982
2	0xbbd397f3	-0.0064573227
3	0xbc33f8f4	-0.010984648

batchnorm3.weight f4 [4]
0	0x3f7fa3e6	0.99859464
1	0x3f7fbb96	0.9989561
2	0x3f7fd9ad	0.9994152
3	0x3f7fd71f	0.99937624

batchnorm3.bias f4 [4]
0	0xbacdc73f	-0.0015699639
1	0xbac0b786	-0.0014703132
2	0xbacfbec3	-0.0015849698
3	0x3ae3bb77	0.0017374594

batchnorm3.running_mean f4 [4]
0	0xbd81450d	-0.063119985
1	0x3e0929cb	0.13394849
2	0x3e810fa9	0.2520726
3	0xbd0690b5	-0.032852847

batchnorm3.running_var f4 [4]
0	0x3e734243	0.23755746
1	0x3e2c77f8	0.1684264
2	0x3ee37883	0.4442788
3	0x3e1bce6a	0.1521546

fc1.weight f4 [1, 1400]
0	0xbc4e1c5c	-0.012580004
1	0x3c19148a	0.009343276
2	0x3c17139b	0.009220983
3	0x3c1f765c	0.009732809
4	0xbc26a8a6	-0.010172045
5	0x3c53a724	0.012918267
6	0x3c863173	0.016381001
7	0x3cc5f326	0.024163794
8	0xbcd6c0e9	-0.026215034
9	0x3c14eb77	0.009089342
10	0xbc2af4bb	-0.010434325
11	0xbc08f171	-0.008358345
12	0xbca696b0	-0.020335525
13	0x3be2716c	0.0069104936
14	0xbcb35131	-0.021889301
15	0xbc861664	-0.016368099
16	0xbaf5786d	-0.0018727906
17	0x3c148e4e	0.009067131
18	0x3c34c31a	0.011032844
19	0x3c8473d0	0.016168505
20	0xbcdda7e8	-0.027057603
21	0xbc58d828	-0.013235129
22	0x3b8542c0	0.004066795
23	0xbca28896	-0.01984052
24	0xbc7d3bba	-0.015456134
25	0xbc3b8869	-0.011446097
26	0x3c4fde7e	0.012687324
27	0x3c381404	0.011235241
28	0xbc2a8b0d	-0.010409129
29	0xbc686937	-0.014185241
30	0x3b9f23df	0.004856571
31	0x3bf9340c	0.0076050814
32	0x3cc06e03	0.023489958
33	0x3c97914b	0.018501898
34	0xbc0152ed	-0.007893306
35	0xbb23d142	-0.0024996554
36	0x3c63ede5	0.013911699
37	0x3bb0ab2e	0.0053915
38	0x3c44ee18	0.012019657
39	0x3cc3e009	0.02391054
40	0x3c09c5df	0.008408993
41	0xbb1be729	-0.0023788905
42	0xbcda526f	-0.026650636
43	0xbc4fe8f0	-0.012689814
44	0x3c48361a	0.01221993
45	0x3cc4fee6	0.024047326
46	0x3c0ae1e8	0.008476712
47	0xbc9e6b3e	-0.019338246
48	0xbcb5ea64	-0.022206493
49	0x3cce45a8	0.025179699
50	0xbc0ec42b	-0.008713762
51	0xbbf27eea	-0.0074003832
52	0xbbcb02ac	-0.006195387
53	0x3c6f2465	0.0145960795
54	0x3cbe00a0	0.023193657
55	0x3c0d5fc5	0.00862879
56	0x3c88ca8e	0.016698148
57	0x3cbafd42	0.02282584
58	0xbcd6f8b9	-0.026241647
59	0xbc3758fd	-0.01119065
60	0xbc707860	-0.014677137
61	0x3c4d9846	0.012548512
62	0x3c96dc40	0.01841557
63	0x3b4f6a5d	0.003164909
64	0x3c921a51	0.017834814
65	0xbcd156eb	-0.025554141
66	0xbbbe984c	-0.005816495
67	0x3b1c6998	0.002386665
68	0xbb54cc91	-0.0032470564
69	0x3ca06c2d	0.019582832
70	0xbc3b2af8	-0.011423819
71	0x3caae86f	0.020862786
72	0xbc0b5ad4	-0.008505542
73	0x3a089513	0.0005210202
74	0x3b78edd2	0.0037983549
75	0x3cb272c9	0.02178325
76	0xbbc66442	-0.006054432
77	0xbb30078a	-0.0026859962
78	0x3c973839	0.018459426
79	0x3cd11d4f	0.02552667
80	0xbc7f953f	-0.015599548
81	0x3be6474e	0.007027543
82	0xba956854	-0.001139889
83	0xbcd52612	-0.02601913
84	0xbcc38c7a	-0.023870695
85	0xbc012188	-0.00788153
86	0xbbdf9105	-0.0068227076
87	0x3b53d29c	0.0032321578
88	0xbc6be3f2	-0.014397608
89	0x3ba99f5b	0.0051764674
90	0x3cd014b5	0.025400499
91	0x3b07cc1d	0.0020721026
92	0x3c882670	0.01661989
93	0xbc8e94ad	-0.017404879
94	0x3cbbddfb	0.022932997
95	0xbbe83114	-0.0070859287
96	0x3cd62b7b	0.02614378
97	0xbc1ed2e7	-0.009693838
98	0x3b369a7f	0.0027863083
99	0x3b86894d	0.004105723
100	0x3bcf5f4e	0.0063285
101	0x3aac9b30	0.0013168808
102	0xbbac7ef6	-0.0052641584
103	0xbc0345ad	-0.0080122175
104	0x3c966523	0.018358773
105	0x3cc0fb30	0.023557276
106	0x3ccb1368	0.024789527
107	0xbc79d43b	-0.015248354
108	0x3cb3f7b9	0.02196871
109	0x3cb9dadb	0.022687366
110	0x3c5543eb	0.013016681
111	0xbb3738b7	-0.0027957389
112	0xbc96a7f1	-0.018390628
113	0xbc0a8a9f	-0.008455901
114	0xbcd17c76	-0.025572043
115	0x3c779447	0.015111036
116	0x3c936417	0.017992062
117	0x3c2860b7	0.010276965
118	0xbcd553db	-0.026040962
119	0x3c1347a0	0.008989245
120	0xbc64dbe1	-0.013968439
121	0xbc3ec59f	-0.011643796
122	0xbcad4250	-0.021149784
123	0x3cba31f9	0.022728907
124	0x3c68c4df	0.014207094
125	0x3cc0f9fa	0.023556698
126	0x3cc87c16	0.024473231
127	0xbc596c4c	-0.013270449
128	0x3c9e66c3	0.01933611
129	0x3ca4396f	0.020046918
130	0x3bdda61a	0.0067641856
131	0xbcd44637	-0.025912387
132	0xbb7c3554	-0.0038483934
133	0xbcd56f10	-0.026053935
134	0xbb3168dc	-0.0027070558
135	0x3cb9a33e	0.022660848
136	0xb9675b7a	-0.00022063954
137	0xbcaa2975	-0.020771721
138	0x3ccecaa1	0.025243105
139	0xbb4da88d	-0.0031380982
140	0x3c7a9ba0	0.015295893
141	0xbbafcf06	-0.0053652553
142	0xbc899896	-0.016796391
143	0x3c074223	0.008255514
144	0x3b8794f9	0.004137632
145	0x3c07f415	0.00829794
146	0xba834aae	-0.0010016763
147	0x3cba71c0	0.022759318
148	0xbcbfbbce	-0.023404982
149	0xbca608c3	-0.02026785
150	0xbcb77f7a	-0.022399653
151	0xbc022f93	-0.007945913
152	0x3bd02c7e	0.00635296
153	0xbc1e91db	-0.009678329
154	0xbbd0b638	-0.0063693784
155	0xbc582322	-0.01319197
156	0xbc2ed3ee	-0.010670645
157	0xbcc5e7a4	-0.024158306
158	0x3ac95014	0.0015358948
159	0x3c067430	0.008206412
160	0xbc291511	-0.010319964
161	0x3ab6c121	0.0013943055
162	0x3cb697d4	0.022289194
163	0x3c8b75d0	0.01702395
164	0xbcd470f1	-0.02593276
165	0xbcaeadb9	-0.021323072
166	0x3c3280c1	0.010894955
167	0xbac6ab06	-0.001515717
168	0x3cb1ca5b	0.021702936
169	0x3c9a436a	0.018830974
170	0xbc9c9bd2	-0.01911727
171	0xbcbaf794	-0.022823133
172	0x3b957800	0.0045614243
173	0x3c0a5f2b	0.008445541
174	0xbbc14cf7	-0.0058990675
175	0x3c83645b	0.016039064
176	0x3cce80e0	0.025207937
177	0xbb60e60c	-0.0034316806
178	0x3c0aea97	0.008478782
179	0xbccf79e6	-0.02532668
180	0xbb5293e3	-0.0032131604
181	0xbcb0524c	-0.021523617
182	0x3cafb168	0.021446899
183	0x3c086636	0.00832515
184	0x3c5c8308	0.013458975
185	0xbc2f830b	-0.010712395
186	0x3c3a8a90	0.011385575
187	0x3c1f3179	0.009716385
188	0xbc44d1ec	-0.01201294
189	0xbb9410a3	-0.004518585
190	0x3c6f9c3f	0.014624654
191	0x3bd48744	0.0064858515
192	0xbaa8e7b0	-0.0012886431
193	0xba844188	-0.0010090331
194	0xbc962a26	-0.018330645
195	0xbb84676c	-0.004040649
196	0x3b26aa97	0.002543127
197	0x3c30e8a9	0.010797658
198	0xbc23b0e9	-0.009990909
199	0x3c11a295	0.00888886
200	0x3b81b386	0.0039581684
201	0x3cc5dd36	0.024153333
202	0x3c22436d	0.009903771
203	0xbcd93b68	-0.026517585
204	0xbbe977c6	-0.007124874
205	0xbb2047e8	-0.0024456922
206	0xbc3fe023	-0.011711153
207	0xbc206bc3	-0.009791317
208	0x3a744073	0.0009317465
209	0xbab7a953	-0.0014012255
210	0xbbea03e1	-0.0071415757
211	0xbc3cbba6	-0.011519348
212	0xbc514055	-0.012771686
213	0x3bfcd3b0	0.007715665
214	0x3c05aaac	0.008158367
215	0x3b8b93f8	0.0042595826
216	0x3c99f588	0.018793836
217	0x3ad23c43	0.0016039688
218	0x3cc97262	0.024590675
219	0xbbbf682d	-0.005841276
220	0x37c5edef	2.3595027e-05
221	0xbc6d4b24	-0.014483247
222	0xbcb0f07b	-0.021599045
223	0xbc3d207c	-0.011543389
224	0x3bcf5302	0.006327034
225	0x3aed0457	0.0018082958
226	0x3c30ee9a	0.010799075
227	0x3c039a37	0.008032373
228	0xbcda64db	-0.02665942
229	0x3cb0281c	0.0215035
230	0xbbfbdee7	-0.007686484
231	0xbcad36e2	-0.021144334
232	0x3c215913	0.009847897
233	0x3bf4f667	0.0074756625
234	0xbc7e44f3	-0.015519368
235	0xb89c89f3	-7.464355e-05
236	0x3cb1394e	0.02163377
237	0x3bdc0a3e	0.006715088
238	0xbc0c160a	-0.008550176
239	0xbbde7e57	-0.006789963
240	0x3c0191bb	0.00790828
241	0x3cc6a4fb	0.02424859
242	0xbc0f313c	-0.008739766
243	0x3cbb825a	0.022889305
244	0xbc394792	-0.011308568
245	0x3c93424b	0.017975947
246	0x3b015572	0.0019734767
247	0xbc4181a2	-0.011810692
248	0x3cb0ebba	0.021596778
249	0x3c99be36	0.018767457
250	0xbbc110de	-0.0058919033
251	0xbcd6395f	-0.026150404
252	0xbc697ea1	-0.014251382
253	0xbb157688	-0.0022806246
254	0xbcbe7aad	-0.023251856
255	0xbca54707	-0.02017547
