pretrained/eegnet.pth (torch, 20192 bytes, 19 tensors)

conv1.weight f4 [16, 1, 1, 4]
000000 b2 15 fa be 91 86 b8 bd 45 39 a5 be 15 ce ab be
       -0.48844677 -0.090100415 -0.32270256 -0.33555666
000010 96 4a e3 be d7 f5 76 3e 25 c6 22 3e 46 c9 0e 3e
       -0.44392842 0.24117218 0.15895899 0.13943967
000020 5d 51 df 3e 63 0d be be 5c ec d2 be 84 3b dd 3e
       0.43616763 -0.37119588 -0.41195953 0.4320947
000030 50 79 ca 3e 08 ca f0 3e 59 2f f7 3e 09 9c fa be
       0.3954568 0.47029138 0.4827831 -0.4894717
000040 d1 bb c8 3e 75 9c 85 3e a9 25 65 be 04 c5 b7 be
       0.39205793 0.2609593 -0.22377647 -0.35892498
000050 61 2b 41 be 22 44 95 3e c0 48 ee 3e a5 b4 68 3e
       -0.18864204 0.29153544 0.4653988 0.2272516
000060 16 14 8f be d3 1f d9 3e 01 89 a6 be f5 42 32 be
       -0.27945012 0.42407092 -0.325264 -0.17408355
000070 40 7b b2 be ec 14 8a 3e 4b 78 30 be d4 c6 1b be
       -0.34859657 0.26969087 -0.17233388 -0.15212566
000080 7a 58 79 3d c5 04 14 bd ca b1 d8 be 3b d8 ee 3e
       0.060875393 -0.03613736 -0.42323142 0.46649346
000090 f7 2f e8 3e 16 85 9e be 48 9d 43 bc d9 61 86 3c
       0.45349094 -0.30960912 -0.011939354 0.01640408
0000a0 fe 28 c4 3e ae 63 4a 3e ee a0 dd 3e 32 ee 8b be
       0.38312525 0.19764587 0.43286842 -0.27330166
0000b0 29 d7 5b be 36 ec 5c 3e 64 3f 27 3e 4a 35 cd 3e
       -0.21468796 0.21574482 0.16332775 0.4007972
0000c0 cc 67 d2 3c 3f 30 6b bd ec e5 99 be f0 e0 9c bc
       0.02568426 -0.057419058 -0.3005823 -0.019150227
0000d0 36 59 d6 be 9b b9 ec 3e b4 91 e4 be d9 4b cd 3e
       -0.41864938 0.46235356 -0.44642413 0.4009693
0000e0 16 30 fc 3e 47 86 9b 3d cd 3f 46 3d 87 36 98 3e
       0.49255437 0.07593971 0.04840069 0.297291
0000f0 6b df bb 3c 58 85 c9 be c7 6f 31 3e 27 3a b4 3d
       0.022933682 -0.39359546 0.17327796 0.08800154

conv1.bias f4 [16]
000000 71 fc 29 3d b7 73 b0 be 9d a7 7b be f2 1f f4 3e
       0.041500513 -0.34463283 -0.24575658 0.47680622
000010 d0 ff 81 3e 40 31 61 be b1 6f b2 be b4 01 b3 3e
       0.25390482 -0.21991444 -0.3485084 0.34962237
000020 20 41 9e be ae b5 ee bc cc 44 2b bd ec b8 0d be
       -0.3090906 -0.029139366 -0.041813657 -0.13840073
000030 a2 66 d8 be 8b fc 47 be 21 f4 e0 be b5 50 b3 3e
       -0.42265803 -0.19529931 -0.43936256 0.35022512

batchnorm1.weight f4 [16]
000000 17 2a 80 3f f9 14 80 3f d7 f7 7f 3f b0 01 80 3f
       1.0012845 1.00064 0.9998755 1.0000515
000010 94 02 80 3f e1 e3 7f 3f a2 1c 80 3f 54 29 80 3f
       1.0000787 0.9995709 1.0008738 1.0012612
000020 9c e4 7f 3f 4a 00 80 3f 0d f5 7f 3f 4c 0e 80 3f
       0.99958205 1.0000088 0.9998329 1.0004363
000030 56 b5 7f 3f 7a 00 80 3f ab 03 80 3f 84 fc 7f 3f
       0.9988607 1.0000145 1.0001119 0.99994683

batchnorm1.bias f4 [16]
000000 73 5a 0c 3a f1 fa 1f 39 38 11 2c b9 a7 da 1e 39
       0.0005354054 0.00015256905 -0.00016409613 0.00015149509
000010 fe 6b 27 39 fb f6 07 39 da d0 50 b9 42 dd c0 38
       0.00015966591 0.0001296661 -0.00019914229 9.196486e-05
000020 0f ea 57 3a f0 f7 f8 b9 47 63 6a 39 52 94 1f 39
       0.00082364766 -0.00047486974 0.00022352963 0.00015218675
000030 3e 10 8e 3a f2 b3 ac b8 f6 35 e4 39 b8 94 e5 38
       0.0010838581 -8.2351165e-05 0.00043527753 0.00010947272

batchnorm1.running_mean f4 [16]
000000 9f 42 06 4b f3 34 a0 4a 3d 6d 10 4b 66 22 19 4b
       8.798879e+06 5.2496575e+06 9.465149e+06 1.0035814e+07
000010 77 13 c3 4a 92 af d0 4a bc b8 db 4a cc f5 af 4a
       6.3922515e+06 6.838217e+06 7.199838e+06 5.765862e+06
000020 b3 a4 d4 4a 9a 68 a8 4a 86 5f eb 4a 2b 78 97 4a
       6.9678975e+06 5.518413e+06 7.712707e+06 4.9633495e+06
000030 59 d5 53 4a 29 b9 04 4b 96 75 d5 4a 7e 87 71 4a
       3.4706782e+06 8.698153e+06 6.994635e+06 3.9572155e+06

batchnorm1.running_var f4 [16]
000000 19 b6 b5 58 5e 86 10 58 30 17 e4 58 8b 7b 04 59
       1.5983497e+15 6.356271e+14 2.0063059e+15 2.3306584e+15
000010 9d 39 75 58 08 60 6a 58 48 1e 7e 58 50 0a 1a 58
       1.0785112e+15 1.0307927e+15 1.11762404e+15 6.774763e+14
000020 a3 01 90 58 d8 d4 5a 58 94 79 b7 58 f6 71 e8 57
       1.2666936e+15 9.624308e+14 1.6138624e+15 5.111523e+14
000030 d5 ff dc 57 f8 b6 f6 58 12 55 87 58 2d 1f a7 57
       4.859827e+14 2.1701256e+15 1.1903956e+15 3.6750468e+14

conv2.weight f4 [4, 1, 2, 32]
000000 99 c5 70 3c d3 9f 0b bc 9b 7a f1 3c 78 f6 32 bd
       0.014695548 -0.008521992 0.029477408 -0.043692082
000010 8a fe ac 3d a5 df ca bd 42 d3 89 bd 7b 12 fc bd
       0.08446987 -0.09905938 -0.06729747 -0.12308212
000020 88 11 c5 3d cf 2f 48 bd 65 db 32 3d 51 c0 7d 3d
       0.096224844 -0.04887372 0.043666262 0.061950985
000030 54 3e da b6 05 c4 d3 bb 3b 18 25 bc d6 78 e6 3d
       -6.5041622e-06 -0.0064625763 -0.010076578 0.112535164
000040 8f f4 c0 3d 0a 71 dc 3d 25 e1 ae bd 59 e8 14 3d
       0.09421646 0.10763748 -0.08539037 0.036354396
000050 6f a2 c2 3c eb f7 f6 3d 5e aa 12 3d 3c 3f ac bd
       0.023759095 0.12059005 0.035807006 -0.084104985
000060 ae 58 c9 bb 4e e9 cf 3d 33 48 37 bc 5e 43 ae bc
       -0.0061446046 0.10151921 -0.011186647 -0.021272358
000070 30 dd f3 bd f6 69 36 3c 4e 95 00 3c 8a ad e1 bd
       -0.119074225 0.0111336615 0.007848097 -0.11019428
000080 53 90 b1 3d 4f 6a 68 3d 58 d6 c0 bd 66 8a a5 3d
       0.08670106 0.05674201 -0.09415883 0.08083038
000090 c0 d9 70 bd 17 a9 8c bd 39 96 bc bd cf e7 32 3d
       -0.058801413 -0.06868189 -0.0920834 0.0436781
0000a0 37 71 f6 bc a2 80 52 bd ca da ac 3d 2a 70 14 bd
       -0.030083282 -0.051392205 0.08440168 -0.03623978
0000b0 57 e6 c3 bd 1c 36 44 bc e8 62 2e 3c 1a e4 a4 3d
       -0.09565418 -0.011975791 0.010643698 0.080513194
0000c0 97 3d 8b bd 6b d5 f0 3d e2 47 7c bd 00 d2 c8 bc
       -0.06798857 0.11759456 -0.06159199 -0.024514198
0000d0 27 73 fb bc 0d b2 d6 bd 9f ad c9 bd fe 5b 18 bd
       -0.030694557 -0.10483179 -0.09847569 -0.037197106
0000e0 b6 ac db bd 54 87 67 bd e6 0e b9 3d 23 ff 95 3c
       -0.10726301 -0.056525543 0.09036045 0.018310135
0000f0 aa 0f 71 3d 3e 35 04 bc 1c 37 94 bd a8 c5 8e 3d
       0.05885283 -0.008069335 -0.07237074 0.06971294
000100 d7 a5 e7 3d 80 e0 cd bd 4b 31 b7 bc 41 b3 c9 3c
       0.11310928 -0.100525856 -0.022362372 0.024621608
000110 0b e5 eb bd 07 0a e7 3d 3c 58 9c 3d c2 c8 0b 3d
       -0.11518296 0.112812094 0.07634017 0.034127004
000120 40 7c 95 bd c2 39 65 bd 9b ef 24 bc 14 72 93 bd
       -0.072990894 -0.055963285 -0.010066892 -0.07199493
000130 46 4a 00 3e 9e 52 b5 3d 1b 88 d6 bd d3 fc 7f bc
       0.12528333 0.088536486 -0.10475179 -0.015624243
000140 59 01 34 3b ea ad 3f 3d 08 11 b6 3d 85 a9 57 3d
       0.0027466624 0.046796717 0.08889967 0.0526519
000150 60 8c cb 3d b0 d2 69 3d 17 a2 b3 3c 7d 23 fd 3d
       0.09938884 0.057085693 0.021927876 0.123602845
000160 97 7a 53 3d dc bb 83 3d 85 7f fc 3b 4c 06 cb 3d
       0.051630583 0.06432316 0.007705631 0.099133104
000170 26 5c 08 bd ac cb b7 bd 0e 9c d3 bd 0a f8 08 bd
       -0.033291005 -0.08974394 -0.103324994 -0.033439673
000180 bf dc b2 bd c3 1f db bd a0 a8 2c bb ac 2e d5 bc
       -0.0873351 -0.106994174 -0.0026345626 -0.026023231
000190 da f8 08 bd 17 1f 47 bc 73 46 b4 3d cc af 7f bc
       -0.03344045 -0.0121534085 0.088024996 -0.015605878
0001a0 e5 7d 39 3d fe e8 19 bd 94 89 81 bd 47 d4 60 bd
       0.045286078 -0.037575714 -0.06325069 -0.054889943
0001b0 fb 38 b2 3d 6d 7e 13 3c f0 2b 8e bd dc dc dc 3d
       0.087022744 0.00900231 -0.06941974 0.10784313
0001c0 af cc 0d bd 29 37 a9 3d b6 29 8c 3b c3 98 5c bc
       -0.03461903 0.08262474 0.0042774333 -0.013464156
0001d0 e8 df 6b bd 9e 0a b2 bb 24 ec 4e bd c4 44 b0 bc
       -0.05758658 -0.0054333946 -0.05051817 -0.021517165
0001e0 e1 9e b8 bd 6b 2d bc 3d 24 fe ca bd 44 7b 9f 3d
       -0.09014679 0.0918835 -0.09911755 0.07787183
0001f0 b0 cc be bc 44 07 e4 bd 98 9b f2 3c 4c 02 e5 3d
       -0.023290962 -0.11134198 0.029615209 0.11182079
000200 96 4a d2 bd 29 74 4b 3d ec aa 79 3c 9a 02 cc 3d
       -0.102681324 0.049671326 0.015238505 0.09961434
000210 c8 0b 7f bd 0d 15 b6 3d b8 5f 2b bd 1a 54 7f bd
       -0.062267095 0.08890734 -0.04183933 -0.062336065
000220 78 1a 01 3e 77 6a 08 bd e6 11 9c 3b c6 db b9 bd
       0.12607753 -0.033304658 0.004762876 -0.090751216
000230 4c 94 fd bd 04 8a 2a 3d 86 1c 13 bd 38 15 bf bd
       -0.12381801 0.04163553 -0.035915874 -0.09330219
000240 0f 2c ee bc f8 c6 8f 3d 0e ef 67 bc 20 38 47 bd
       -0.029073743 0.07020372 -0.014156116 -0.04863751
000250 e9 50 e7 bd 04 dc 75 bd 35 a6 0a 3d 7f 97 e2 3d
       -0.11294729 -0.060024276 0.033849914 0.11064052
000260 30 00 93 bd 48 59 47 3d c0 b8 65 bc 12 01 96 bd
       -0.0717777 0.04866913 -0.014021099 -0.07324423
000270 41 5b 8b bd e6 a9 89 bd c5 59 c6 3d eb 35 86 3c
       -0.06804515 -0.06721859 0.09685091 0.016383132
000280 d1 b2 9d 3a fa d3 54 bd b2 e7 ce 3d 0c 3b d9 3d
       0.0012031441 -0.05195997 0.10102786 0.106069654
000290 f7 6a cf 3b 75 76 7e bd f2 03 22 3d 72 90 b7 3d
       0.00632989 -0.06212469 0.039554544 0.08963098
0002a0 91 c4 39 bd 99 3d d3 bd 23 ab 06 bd 0f 54 ed bd
       -0.045353476 -0.10314483 -0.032878052 -0.115882985
0002b0 e6 ad d6 bd ac 12 9b 3d 50 4e cc bd d8 bb de 3d
       -0.10482387 0.07571921 -0.099758744 0.10875672
0002c0 0c b0 00 bd 6c f5 9e 3d 50 81 c5 bd 97 7f e0 bd
       -0.03141789 0.07761654 -0.09643805 -0.10961836
0002d0 db 4e dd bd aa 95 57 3d 49 eb b0 bd 10 25 09 bd
       -0.10806056 0.052632965 -0.08638627 -0.03348261
0002e0 ea b6 9c 3d 35 26 8e 3d 5f 28 b4 bd f8 6e f6 3c
       0.076520756 0.06940881 -0.08796763 0.03008221
0002f0 f1 f4 db bb 2d 0f bd 3c 68 77 9e bc b8 a4 78 3c
       -0.006712549 0.023078525 -0.019344047 0.015175991
000300 c2 b8 9a 3d 72 54 f4 3d 71 d7 ba 3c a9 9e 90 3d
       0.07554771 0.11930169 0.022807809 0.07061512
000310 c0 58 e3 bd 24 13 16 3d 5f 6d ea 3b 76 8a 4b bd
       -0.11100912 0.036639348 0.0071541513 -0.049692594
000320 88 53 60 3d 4d 4d 16 bd ee bb 6e bd ad 4e d4 3d
       0.05476716 -0.036694814 -0.058284692 0.10366569
000330 3e 15 b2 3d 0b 74 86 3d 93 57 da 3d 08 f2 3e 3c
       0.08695458 0.06565102 0.10661235 0.011654384
000340 3d c3 c7 3d fa 9c c0 3d 88 8f b4 3d 6e ec ed bd
       0.097540356 0.09404941 0.08816439 -0.11617361
000350 07 ee f9 3d e1 1e 44 3d 95 a8 28 bc 0d 58 81 bd
       0.12203603 0.04788101 -0.010294099 -0.063156225
000360 9d 8a dd bc 90 8e 65 bd bd b7 8a 3b a4 ce d5 3d
       -0.027043635 -0.05604416 0.004233329 0.10439804
000370 b7 3e 36 bd 3e 6b e6 bd 18 11 f0 3d dc e9 2c 3d
       -0.044493403 -0.112509236 0.117220104 0.042215213
000380 96 9a bd bd d8 7a d8 3c 12 de be 3d b1 1e 53 bd
       -0.092580006 0.026425764 0.093197 -0.05154294
000390 80 b9 83 3c 89 85 ce bd 25 59 66 3d c2 8f e4 3d
       0.016079664 -0.100840636 0.05623736 0.11160232
0003a0 b1 34 3c 3d 1b a1 d3 bb 23 1a bf bd 9d 7b 86 3d
       0.045948688 -0.0064584143 -0.09331157 0.06566546
0003b0 7b 0d 92 bd 7e 46 fb bd 92 b0 41 bb e9 44 96 bd
       -0.071314774 -0.12269305 -0.0029554707 -0.07337362
0003c0 92 dd a4 3b e3 6f 74 3d d5 51 30 bd 6c eb d9 bd
       0.005031296 0.059677016 -0.04304679 -0.10640606
0003d0 b3 f9 c5 3c 30 82 84 bc 51 4a 67 3d 4f d0 dd 3d
       0.024166917 -0.01617536 0.056467358 0.10830747
0003e0 74 62 11 bd 21 60 5e 3d b3 61 da bc c9 93 ce bd
       -0.035494283 0.054290894 -0.026657915 -0.100867815
0003f0 1d a2 ea bc 51 30 4f bd 92 9d d6 3d 83 ad 6e 3d
       -0.028641755 -0.050583187 0.10479273 0.058270942

conv2.bias f4 [4]
000000 53 42 8e 3b b0 18 eb 3d de 06 a9 3d aa 2c ae 3d
       0.0043414026 0.11479318 0.08253263 0.08504613

batchnorm2.weight f4 [4]
000000 f5 dd 7f 3f 9b 00 80 3f e2 04 80 3f 97 0c 80 3f
       0.99948055 1.0000185 1.000149 1.0003842

batchnorm2.bias f4 [4]
000000 8c bd ec 36 ee 79 33 ba b4 37 90 38 b7 35 95 39
       7.0554142e-06 -0.0006846477 6.8768306e-05 0.00028459515

batchnorm2.running_mean f4 [4]
000000 71 50 47 3d 42 bc 03 3e 03 36 0f 3e 21 b7 d3 3d
       0.0486607 0.12864783 0.13985448 0.103376634

batchnorm2.running_var f4 [4]
000000 14 a1 63 3e 2b ea b4 3e a3 64 4b 3e 31 a1 11 3f
       0.22229415 0.35334906 0.19862609 0.56886584

conv3.weight f4 [4, 4, 8, 4]
000000 88 c8 a9 bc 7d 40 b4 3d 00 f8 a3 bd 03 8d ad bd
       -0.020725504 0.08801363 -0.080062866 -0.084741615
000010 ff 7f ce 3c 17 24 a5 bd 7d 26 82 3d d0 1e 3c bd
       0.025207518 -0.08063524 0.06354997 -0.045927823
000020 f9 66 bb bc 49 0b 23 3c 42 18 f7 bb 48 a5 a1 bc
       -0.02287625 0.009951421 -0.0075407336 -0.019732133
000030 b5 e1 96 bd b4 47 71 3c d8 c9 18 bd 21 e8 82 bd
       -0.07367269 0.014726568 -0.03730187 -0.06391931
000040 c1 c7 30 bd 7e 48 c5 bc 15 99 40 bd d6 1e 86 bc
       -0.04315925 -0.024082419 -0.04702099 -0.016372126
000050 a8 e9 0d 3d c9 fd a9 bc c6 71 48 3d c5 41 47 3c
       0.03464666 -0.020750897 0.048936628 0.012161677
000060 94 14 bf 3b e5 01 fb 3c 2e 28 5c 3d a5 06 6e ba
       0.0058313105 0.030640552 0.053749256 -0.00090799696
000070 4f 50 a0 bd 6c 07 83 bd 88 aa 7e 3d e1 56 6d 3d
       -0.07827818 -0.063979 0.06217435 0.057944182
000080 a6 5f 39 bd a6 c4 eb bc e7 ff 9b 3d 76 a0 2b 3d
       -0.045257233 -0.028780293 0.07617169 0.041901074
000090 a4 59 0e 3d a4 ce 13 bd 59 01 e0 bb 23 82 7e 3d
       0.034753457 -0.03608574 -0.006836098 0.062135827
0000a0 df fc 32 bd 8e e8 22 bd 24 7c af 3c c1 48 c6 bc
       -0.043698188 -0.039772563 0.0214215 -0.024204614
0000b0 47 ec 3f bd 2b f1 cf bc 6f 85 7b 3d 51 3e a6 3d
       -0.04685619 -0.025383553 0.06140655 0.08117355
0000c0 89 cd 81 3d 12 16 2c 3d 5f 23 4f 3d 60 59 13 bd
       0.06338031 0.042013235 0.050570842 -0.035973907
0000d0 18 d2 c0 bc f3 ae 3d 3d c6 ac 49 3d 62 92 19 3d
       -0.02353768 0.046309423 0.049237035 0.037493117
0000e0 b3 b0 c1 3c db e4 98 3a 36 c2 72 3d 7a 38 25 bd
       0.023643827 0.0011664884 0.059267245 -0.040337063
0000f0 19 ed 04 bd 6d e1 94 3c 4c f3 92 3d 40 12 9f bd
       -0.032452676 0.018173898 0.071753114 -0.07767153
000100 d8 2f 14 3c f4 ce a7 3c c8 14 a6 3c 52 dc 5f 3d
       0.00904461 0.020484425 0.020273581 0.054653473
000110 0a 57 59 bd 61 12 2e 3c 5b 4a 9e 3d 19 28 c7 bc
       -0.053061523 0.010624499 0.07729026 -0.024311112
000120 a1 1c 9c 3d d0 37 84 3c a1 29 e7 3c 09 06 7a 3d
       0.07622648 0.016139895 0.028218092 0.06104091
000130 af fe d2 bc 61 67 b0 bd be 2c 52 3d 8c b6 4f bd
       -0.025756208 -0.08613468 0.0513122 -0.0507112
000140 c4 59 95 3d a1 a5 c5 3c 17 aa 79 3d 4f 4d 82 bd
       0.07292512 0.02412683 0.060953226 -0.06362402
000150 3e 24 a9 bd a6 d4 15 3c 86 1b 53 bc 59 75 f0 bc
       -0.08258866 0.009144938 -0.01288498 -0.02935283
000160 0d 9d fb bc 84 d1 71 3d 59 67 93 3c c9 1c 18 3d
       -0.030714536 0.0590377 0.017993616 0.037136827
000170 d4 a1 a5 3d 06 6f b1 bd dc c0 a0 3c b3 56 ab bc
       0.08087507 -0.08663754 0.019623213 -0.020915365
000180 ef 17 8a 3d 15 6c 47 bd 4d 7a a9 3d 10 6d 96 bd
       0.06742846 -0.04868706 0.0827528 -0.07345021
000190 46 67 a7 3a b0 84 5b 3d 28 75 9d 3d 85 d4 80 3d
       0.0012771867 0.053593338 0.076883614 0.06290535
0001a0 13 4f 93 3d 2f 01 de bc d1 37 b5 3d d6 64 4b 3a
       0.071928166 -0.027100174 0.08848537 0.0007758861
0001b0 26 f2 ce 3c 09 c6 16 3c 49 28 8a bd 03 21 85 bd
       0.02526195 0.009202489 -0.06745965 -0.06500437
0001c0 9d 7f 98 bd 40 22 5f bd 17 97 67 3d 14 a1 3e bd
       -0.07446215 -0.054476023 0.056540575 -0.046540335
0001d0 1f eb 07 bd dc 95 a2 bd ce 5e b6 3c 2a 59 2c 3d
       -0.033183213 -0.0793874 0.022262003 0.04207722
0001e0 4d 90 8d 3d b7 27 1e 3d 4e 08 a0 3a 9b fa d9 bb
       0.06912289 0.038612094 0.0012209506 -0.006652189
0001f0 4e 52 b3 bd 32 b7 f5 bc 4e 86 00 3d 81 6a d6 3a
       -0.08755933 -0.02999458 0.031378083 0.0016358645
000200 76 86 48 bd 11 fb 8e bd e0 6a 51 bb ca 92 6f 3d
       -0.048956357 -0.06981481 -0.0031954572 0.0584896
000210 a5 52 32 bd b7 16 fc 3b ad 5b 66 bd fd 8f 92 3d
       -0.043535847 0.0076931375 -0.056239773 0.0715637
000220 fb b7 9b 3d 52 49 b3 bc 03 30 99 3d 54 80 26 bd
       0.07603451 -0.021885548 0.07479861 -0.040649727
000230 8a 97 3d 3d 18 9e 87 bc 1c 99 66 bc e3 96 36 3d
       0.046287097 -0.016554877 -0.01407459 0.04457749
000240 ec 15 21 3d 49 46 a4 bd fe ff 83 bd f6 68 b8 bc
       0.039327547 -0.08021218 -0.06445311 -0.022510987
000250 13 f3 a3 3d 5b 4c 9d bd b9 87 8c 3d 9b 54 23 3c
       0.08005347 -0.07680579 0.068618245 0.009968902
000260 a9 51 8d 3c 3b 65 44 bd 06 4f 4f bd f9 fd 93 3d
       0.017250853 -0.047948103 -0.050612472 0.07226176
000270 e5 75 de bb 96 e7 ff 3c 74 bf 84 3d 57 e9 60 bd
       -0.0067889565 0.031238358 0.06481829 -0.05491003
000280 ae 4f 60 3d 48 0c 37 3c 2a a0 2b 3d 32 e5 73 bd
       0.05476349 0.011172362 0.04190079 -0.05954475
000290 9c 36 6f bd de 0d 8a 3d 67 45 c9 3c fd 36 9c 3d
       -0.05840169 0.06740926 0.024569226 0.07627676
0002a0 b3 25 46 bd 26 c2 ee bc 7f 13 12 3c 97 ec b3 bb
       -0.048375797 -0.029145312 0.008915781 -0.00549085
0002b0 cb be 9e 3d 01 fa 2d bd 2a a6 59 bd 2b 77 2a bd
       0.077512346 -0.04247475 -0.053136982 -0.041617554
0002c0 8d de 76 3d 9a 10 33 bb 87 ff af bd d0 54 ac 3d
       0.060270835 -0.0027323128 -0.0859366 0.08414614
0002d0 8f 80 2b 3d 92 8a aa 3c 01 c1 17 bd 11 fa 87 bd
       0.04187065 0.020818029 -0.037049297 -0.06639493
0002e0 dc be 8d 3b 20 cb 16 bd 3e 1e 77 bb 39 9b bc bc
       0.0043257307 -0.03681481 -0.0037707235 -0.023023235
0002f0 f2 6c 40 3d c9 f7 43 bd 93 ed 8c 3c 16 10 b4 bd
       0.0469789 -0.04784373 0.017203128 -0.08792131
000300 df f8 3d bd be b9 47 3d 00 13 df 39 b2 44 4a 3d
       -0.04637992 0.048761122 0.0004254803 0.04938192
000310 e0 d9 99 3d 6a 84 9d bd 3e 7f 85 3d 11 6f 60 3d
       0.075122595 -0.076912716 0.0651841 0.05479342
000320 e2 5f 0f 3d 81 fa 0b 3d c1 70 4d bd c4 6d 29 3d
       0.03500355 0.034174446 -0.05015636 0.041364446
000330 84 cf b0 bd b9 e9 26 3d d5 5f 3f bd 12 fd 15 3d
       -0.086333305 0.04075024 -0.046722252 0.0366183
000340 f5 fd 63 3d 1f 50 12 bd cb ea 07 bd 93 a6 b1 3d
       0.055662114 -0.03572094 -0.0331829 0.0867435
000350 78 e2 99 bd fe 65 0b 3c a5 88 87 3b 6b e3 c1 bc
       -0.075138986 0.008508204 0.0041361623 -0.023668012
000360 49 c1 91 bd 55 80 5a bd 1d a8 5b 3c 1a ea ca 3c
       -0.07116944 -0.053345043 0.013406781 0.024769831
000370 d3 e9 9b bd bd 01 6a bd 26 7f d0 bb 04 6a 2c 3c
       -0.07612958 -0.057130564 -0.0063628135 0.010523323
000380 74 78 9b bc 93 69 a1 3d 18 3e 5c bc b1 db af 3d
       -0.018978335 0.07881465 -0.013442539 0.08586825
000390 9b 91 fb bc e6 80 a0 bd 3f 58 86 bd 62 37 7b bc
       -0.030709079 -0.078370854 -0.065598 -0.0153330285
0003a0 4f de 23 3d bf 96 8b 3d ba 02 5f 3d 01 c7 15 3c
       0.040006932 0.06815862 0.05444596 0.0091416845
0003b0 56 cf 6a bb b9 d0 5f 3b 5f 26 49 bd d0 49 0a 3d
       -0.0035829148 0.0034151508 -0.04910886 0.0337618
0003c0 c6 a6 b2 bc 25 65 eb bc aa 1a 43 bd 0a 6d 55 bd
       -0.02180804 -0.028734753 -0.04763285 -0.05210594
0003d0 d7 be 81 3d d0 82 2a bd 4d 5b 89 bc cb ce 30 3d
       0.06335228 -0.04162866 -0.016767168 0.043165963
0003e0 b7 da 81 3d b6 1c a8 bd 1c 7f df bc f2 29 5f 3d
       0.06340545 -0.08208601 -0.02728229 0.05448336
0003f0 d2 06 14 3c 73 eb 04 bd 5a 68 76 bd 9f 71 af 3d
       0.009034829 -0.032451104 -0.06015811 0.085665934

conv3.bias f4 [4]
000000 ad 68 a0 3c 31 c8 e6 3c 4e f7 41 3d e2 c9 80 3d
       0.019581163 0.02817163 0.04735499 0.06288506

batchnorm3.weight f4 [4]
000000 cd d0 7f 3f c2 d0 7f 3f c4 df 7f 3f fa e2 7f 3f
       0.9992798 0.99927914 0.99950814 0.99955714

batchnorm3.bias f4 [4]
000000 5d a1 9d 3a 16 66 d3 ba 1f 1c 38 ba 1e c2 8e 3a
       0.001202624 -0.0016128446 -0.00070232333 0.0010891592

batchnorm3.running_mean f4 [4]
000000 9e 83 54 3d a4 d7 d2 bc e0 1e 2c 3f e9 80 a9 3d
       0.051883332 -0.025737591 0.6723461 0.08276541

batchnorm3.running_var f4 [4]
000000 2e 59 6f 3e 34 b5 64 3e 08 de 52 3f 11 29 bf 3e
       0.23373863 0.22334749 0.8237004 0.3733602

fc1.weight f4 [1, 2496]
000000 36 1e 52 3c 1f a3 4d bc f7 da 4e 3c 91 1f 19 3c
       0.012824586 -0.012551098 0.0126254475 0.009345905
000010 8e 3f 6e 3c d0 cf e6 3b d9 44 52 bc ae 4e c4 3b
       0.01454152 0.007043816 -0.012833797 0.0059908247
000020 bc ab 78 3c 8a 38 43 bc 69 ac 78 3c d7 75 bd bb
       0.015177663 -0.011915335 0.015177825 -0.00578187
000030 ea 0b 1c bc 12 01 6a 3c 62 c4 27 bc f2 04 83 3c
       -0.009524325 0.014282482 -0.010239692 0.015993569
000040 99 a3 9f 3b 44 9e 51 3b 69 3d 96 bc 1a fa 77 bc
       0.0048717973 0.0031985203 -0.01833983 -0.015135312
000050 2f f9 01 3c 8e b1 68 bc df 8e 6b 3c ef bf 42 3c
       0.007932945 -0.014202489 0.014377325 0.011886581
000060 a5 ce 9e bc 92 d0 38 bc f0 82 35 3c 4b 01 07 3b
       -0.019385645 -0.011280196 0.011078581 0.0020600136
000070 be 4d 9f bc 99 4b a0 bc 39 6d ea 3a b5 55 b2 39
       -0.01944625 -0.019567298 0.0017885334 0.00034014662
000080 51 6d 91 bc 33 de 96 3c 6b c1 77 bc ff c2 bd bb
       -0.017752321 0.0184165 -0.015121798 -0.0057910676
000090 af b4 cc 3b d2 f6 56 3c 04 8f 70 bc b7 25 82 bc
       0.006247125 0.01312037 -0.014682535 -0.015887124
0000a0 33 2b 8a 3c e5 ab 9a bc c2 3f 1c bc 04 59 ac 3b
       0.016866302 -0.018880794 -0.009536685 0.005259635
0000b0 08 3a 92 3c e1 51 39 bc 2a 94 00 3c 96 5d 41 3b
       0.017849937 -0.011311025 0.007847825 0.0029505244
0000c0 b8 b6 0c bc 3c fe 0a bc 2c b3 4d b9 4c 6b 74 3c
       -0.008588485 -0.008483466 -0.0001961707 0.01491816
0000d0 5b b1 0c bc 6c b3 51 3b dd 98 27 3c 1e 44 35 3c
       -0.008587207 0.0031997813 0.010229317 0.011063604
0000e0 ca 7f cb ba 9f 52 a0 3c 9a 57 88 3c 70 95 22 bc
       -0.0015525755 0.019570647 0.016643334 -0.009923324
0000f0 ca fe 71 bc 9e 04 dc 3a 1a 0c 4b bc 54 df 81 bc
       -0.014770219 0.0016786044 -0.012393022 -0.015853561
000100 2a f1 fa 3b 66 4d 9b bc 72 80 1c 3b 1d 07 0c 3c
       0.0076581435 -0.018957805 0.002388027 0.008546618
000110 33 e8 52 bc de be 8a 3c 42 05 69 bc 55 c9 a0 3c
       -0.012872743 0.016936716 -0.014222445 0.019627253
000120 bc f0 61 3c b1 97 4e bc bd 37 38 bc 60 c4 d6 ba
       0.013790306 -0.012609408 -0.011243758 -0.0016385429
000130 94 43 5e 3c 1a 2c 7c bc 2e 4a 7e 3c b8 0f a3 bc
       0.013565917 -0.015391374 0.0155206155 -0.019904956
000140 17 6d 8d bc b9 b8 e6 3b d6 38 2c 3c 5b 1d 0a bc
       -0.017263932 0.0070410636 0.010511598 -0.00842985
000150 e6 98 24 bc f2 38 97 3c 1e c3 1b 3a fd ab ef 3b
       -0.010046219 0.01845977 0.00059418555 0.007314204
000160 98 ad 58 bc 7f e7 8a 3a 9c 35 5a bc cd 7e 0d 3c
       -0.013224982 0.0010597556 -0.0133184455 0.008636189
000170 8a ec 89 bc ed e9 e2 bb 72 5d c0 bb 16 de 95 bc
       -0.016836423 -0.006924859 -0.0058705145 -0.018294375
000180 61 67 25 3c 5e 3a d8 3b b2 84 b5 3b 54 8d 71 bc
       0.010095448 0.006598755 0.0055395 -0.014743168
000190 0e ca f1 3b d6 9d 49 3c 17 2b 9e bc c5 fb ff bb
       0.007378823 0.012305697 -0.019307656 -0.0078119957
0001a0 06 25 4f 3a f1 5e 36 3b af 74 ab ba 2f d2 50 3c
       0.000790194 0.0027827586 -0.0013081039 0.012745424
0001b0 0f bf 59 bc a3 8d 9b 3c 24 03 78 bc 4c c1 30 ba
       -0.013290181 0.018988436 -0.0151374675 -0.00067426707
0001c0 2f 21 7c 3c c4 d7 63 3c 1c 3c 51 bc 42 af 8c bc
       0.015388771 0.013906423 -0.012770679 -0.017173413
0001d0 23 7a 63 bc 7a e8 96 bc ec b8 a2 3c 67 41 4e bc
       -0.0138841 -0.0184214 0.019863568 -0.012588835
0001e0 88 d1 39 3c 05 fa 7c bc fd c0 99 bb b2 ae cf bb
       0.01134146 -0.015440469 -0.0046921954 -0.006337964
0001f0 29 bb 80 bc 64 e6 5a 3c 3c a5 60 bc 8e 41 99 bc
       -0.015714245 0.0133605935 -0.01371127 -0.018708017
000200 0c fc 0f 3c 7d f9 08 3c 12 a2 87 bc 18 4e b3 ba
       0.00878812 0.008360264 -0.016556773 -0.001367989
000210 36 31 18 3c 98 ea 90 3c 9a d2 14 bc bf ea 64 bc
       0.009289077 0.017689988 -0.009083414 -0.013971983
000220 da cc a0 3c 43 a9 4e ba 8b ff 38 bc e7 83 13 3c
       0.01962893 -0.00078834983 -0.011291395 0.009003616
000230 8e d4 98 3c ce 96 5b 3c b8 f2 95 bc 90 0d 4e bc
       0.018656041 0.013402654 -0.018304214 -0.012576476
000240 ac 70 36 3c 47 c7 89 bc 7a 74 38 3c 07 fc 4c bc
       0.0111352615 -0.016818656 0.011258239 -0.01251126
000250 4d 03 2b 3c e1 71 2e bc 38 44 42 3c 29 42 0c 3c
       0.010437799 -0.010647268 0.011857085 0.008560696
000260 0d df 12 3b ea d7 33 3c 91 75 47 3c ce c5 9f bc
       0.002241078 0.010976771 0.012174026 -0.0195035
000270 80 48 34 3b 1e f0 86 bc 3e 61 3d bb ac 5e 82 bc
       0.0027509034 -0.016471919 -0.0028897072 -0.015914284
000280 be 9c 4a 3c 50 78 05 bc 5c 80 05 3c 94 0d 1b 3c
       0.012366472 -0.0081463605 0.008148279 0.0094636865
000290 ef cd e5 3b 39 40 1d 3b d5 11 37 3c ff 0d 8a 3c
       0.0070130746 0.0023994579 0.011173685 0.016852377
0002a0 e8 91 50 bc a5 8b b1 3b f0 50 92 3b 75 41 1d bc
       -0.012730099 0.0054182583 0.004465215 -0.009598126
0002b0 21 57 1d 3c a8 0e ca bb 62 76 cc 3b 0f a5 87 3c
       0.009603293 -0.006166298 0.0062396983 0.016558198
0002c0 bf 2b 1c bc f8 ce 87 bc 49 2b a2 bc 1a fb 5e 3b
       -0.009531914 -0.016578183 -0.01979603 0.003402418
0002d0 4b cd 8b 3c 24 16 1f 3c 6d 99 13 bc 31 91 73 3b
       0.017065665 0.009709869 -0.0090087475 0.0037165398
0002e0 63 5e d4 3b d5 f7 3e 3c 23 ff d3 3b 90 31 6d bc
       0.0064809783 0.011655767 0.0064696237 -0.014477149
0002f0 53 75 8e bb 66 53 ac bc f7 58 8a 3c 6d a2 9c 3c
       -0.004347482 -0.021035861 0.016888125 0.01912042
000300 7d da d8 bb 4c d8 01 bc d5 d3 84 3c c3 79 81 3c
       -0.0066178427 -0.007925104 0.01621429 0.01580513
000310 1e b6 87 3c 55 59 bf 3b f3 fe 99 bc 78 13 86 bc
       0.016566332 0.0058395066 -0.018798327 -0.016366705
000320 51 81 57 bc 42 ee 82 bc a5 7d 09 3c bc 3b 1d 38
       -0.01315339 -0.01598275 0.008391772 3.748735e-05
000330 80 47 01 3c 6d a2 8b 3c 53 8e 84 bc fc dd 0f bc
       0.007890582 0.017045224 -0.016181147 -0.008780953
000340 1c 94 89 3c 21 7c 9b 3c 1a a6 7a bc 84 43 a5 b9
       0.016794257 0.018980088 -0.015298391 -0.00031521556
000350 e3 ea e2 3b 11 e0 04 bc c2 92 a3 3b 56 78 39 3c
       0.0069249733 -0.008110062 0.00499186 0.011320194
000360 af bb 17 bc 13 b8 77 bc 77 7f 13 3b 13 28 a0 bc
       -0.009261056 -0.01511957 0.0022506395 -0.019550359
000370 b3 10 9a 3c 3a 17 34 bc 44 f3 06 bb 3e 07 0d b9
       0.018806791 -0.010991866 -0.0020591775 -0.00013449506
000380 29 ef 54 bc 8f c2 97 3c 66 16 97 bc 27 73 1f bc
       -0.012996473 0.01852539 -0.018443298 -0.009732044
000390 74 99 f9 bb 38 e6 84 bc 25 c2 34 bb a8 77 38 3b
       -0.00761717 -0.016223058 -0.002758154 0.0028147493
0003a0 7b 51 56 bc ee a9 ab 3b 51 b3 5f 3c 7d 63 15 bb
       -0.01308095 0.005238763 0.013653592 -0.0022794895
0003b0 33 de 9d bb cc 20 04 bc c5 6f 05 3b 38 06 0f 3c
       -0.004817748 -0.00806446 0.002036081 0.00872951
0003c0 2c 86 97 bc 3c 32 99 3b fa 73 75 3c 92 ba 8e 3c
       -0.018496595 0.004675178 0.014981264 0.017422948
0003d0 85 1a 84 bc 61 47 4d bc 24 e9 31 bc d2 9c 08 bb
       -0.016125927 -0.012529225 -0.010858808 -0.0020845425
0003e0 d0 c3 92 bb 52 0f 99 bc 2a aa 98 bc 4a da 38 3c
       -0.004478909 -0.018684063 -0.018635828 0.011282513
0003f0 7a 49 82 bc c7 f9 bf ba 23 0c 76 bc 0f c3 fd 3b
       -0.015904177 -0.0014646583 -0.015017542 0.0077442
