pretrained/eegnet.pth (torch, 20448 bytes, 19 tensors)

conv1.weight f4 [16, 1, 1, 4]
00000000: 283d 803e f313 a83e d1ea 8a3e 1883 f9bd
00000010: 0795 e93d 2351 2fbe 8fd6 d93e ea04 913e
00000020: 7c26 e7be e080 793e b509 fb3e a290 083e
00000030: caf5 cabe 27b3 a43e fa79 de3c 365d 09be
00000040: 5975 5e3e 7a79 c63e 95db 673e 5a43 cabe
00000050: decd 553e e8fc 9dbe fc0f efbe e4a6 7dbe
00000060: b1f8 853e f034 c53e 1441 173e ea80 9d3e
00000070: 2b2f f4be 711c 79be e5e9 91be dbe5 d9be
00000080: 2f05 a0be 4c72 b6be 6076 d6be dafa 933d
00000090: 0e20 6fbe 9f1f ab3c ad32 a3bd af4b 0d3d
000000a0: 4e14 e8be 999b d1be e2ac e7be a3be b23e
000000b0: 530c 8a3c 9c25 dabe f06f 44be 291b b0bb
000000c0: fc70 a9be 9190 ce3e 281a b83e 0145 f53d
000000d0: b7c7 afbd dbee 943e 87fc 053e 1af6 2d3d
000000e0: 9a33 7b3d 19ec debe e6ca 103e d6d3 3a3e
000000f0: ea3b 9e3e 6b13 733e 9fd8 d93e e0ee 87be
0.2504666 0.3282772 0.27132276 -0.12183207 0.11405378 -0.17120795 0.42546508 0.28324062
-0.4514655 0.24365568 0.49030843 0.13336423 -0.39640647 0.32167932 0.027157772 -0.13414463
0.21724452 0.38764554 0.22642358 -0.3950451 0.20879313 -0.30857015 -0.46691883 -0.24770695
0.261663 0.3851695 0.14770919 0.30762416 -0.47692236 -0.24327256 -0.2849876 -0.42558178
-0.31253955 -0.35634077 -0.41887188 0.072255805 -0.23352072 0.020889102 -0.0796865 0.034496006
-0.4532799 -0.40939024 -0.45249087 0.3491107 0.01685158 -0.4260682 -0.19183326 -0.0053743315
-0.33094013 0.4034467 0.35957456 0.11976052 -0.085830145 0.29088482 0.13084613 0.04247103
0.061328508 -0.43539503 0.141399 0.18244871 0.30905086 0.23737876 0.4254808 -0.26549435

conv1.bias f4 [16]
00000000: d38b 283d 4a9a bcbe c4bf db3e e32f bfbc
00000010: 6e24 ddbe 93f6 a53e 530b 733d 7293 13be
00000020: ed1c e53e 1707 87be d6e8 7dbe 2ac0 2fbe
00000030: d1c5 6b3d 1f03 c7be 7122 de3d beb5 f7be
0.04114897 -0.36836463 0.42919743 -0.023338264 -0.43191856 0.32414684 0.05933697 -0.14411715
0.4474863 -0.26372597 -0.24795851 -0.17163149 0.0575617 -0.3886957 0.10846413 -0.48380846

batchnorm1.weight f4 [16]
00000000: ffee 7f3f 7fd1 7f3f 38ce 7f3f d7ed 7f3f
00000010: 749a 7f3f 9109 803f d2e7 7f3f 93fc 7f3f
00000020: 820d 803f 132c 803f 46eb 7f3f a9d9 7f3f
00000030: 9606 803f fd0d 803f c72a 803f 1ef0 7f3f
0.99974054 0.9992904 0.9992404 0.9997229 0.9984505 1.000292 0.99963105 0.9999477
1.0004122 1.001345 0.99968374 0.999415 1.000201 1.0004269 1.0013055 0.99975765

batchnorm1.bias f4 [16]
00000000: e03f 2f39 690d a639 d915 8538 4f5e cf39
00000010: 39b1 5f3a 6afd 293a c147 66ba 3859 b239
00000020: c130 3838 0a2c 9438 8f4c bdb9 bd1d e839
00000030: 5a76 8739 18c8 8bba 86cd 79ba 0b53 293a
0.00016713096 0.0003167198 6.346004e-05 0.00039552382 0.0008533183 0.00064846 -0.0008784496 0.0003401728
4.3914424e-05 7.065393e-05 -0.0003610593 0.00044272645 0.00025837385 -0.0010664491 -0.00095292216 0.0006459213

batchnorm1.running_mean f4 [16]
00000000: 57bc 154b 60de 194b 3362 394b d7be 0e4b
00000010: e60c 274b c41a 374b beac 274b 7e93 734b
00000020: 2167 3d4b 3085 a64a 9141 754b 3cfd c44a
00000030: c61b 1e4b fe80 8c4a 1f61 d44a 284a 444b
9.813079e+06 1.0083936e+07 1.2149299e+07 9.354967e+06 1.0947814e+07 1.199994e+07 1.0988734e+07 1.5963006e+07
1.2412705e+07 5.456536e+06 1.6073105e+07 6.454942e+06 1.0361798e+07 4.604031e+06 6.9592475e+06 1.286404e+07

batchnorm1.running_var f4 [16]
00000000: d831 d058 49b5 d958 581b 2559 d343 c458
00000010: 76a5 f458 2f82 2e59 711f e658 71fc 6459
00000020: e217 2a59 3229 0758 b3af 8859 87d5 6258
00000030: 2cc6 e358 5d20 b557 458d 5e58 37fa 3c59
1.8313e+15 1.9149811e+15 2.9045897e+15 1.7263647e+15 2.1519319e+15 3.0699865e+15 2.0241817e+15 4.028366e+15
2.9923128e+15 5.94444e+14 4.8092225e+15 9.976269e+14 2.0035222e+15 3.983012e+14 9.787933e+14 3.3245256e+15

conv2.weight f4 [4, 1, 2, 32]
00000000: 4acf 8abd 2aec 96bd da55 bbbd f5e3 e43c
00000010: 1ee9 5d3d 753f 00bd af8e 1cbd 9cdf 0e3b
00000020: 3414 d0bd 245f f2bd 65e2 a4bd 29ac b8bd
00000030: 6d47 943c 7378 cf3d 8329 b73d c175 9dbd
00000040: f456 8e3d 6857 e03d 9631 d9bc 7fb4 26bd
00000050: 7691 f1bd ed8f 0fbc f3e9 45bd 8f0c 013d
00000060: 1871 ebbd 9aad 48bc 74a8 b03c 4070 01bd
00000070: f6a0 a1bc f114 f23d db9d 5d3d d086 bebd
00000080: 1fa0 6bbd 2e61 683d b3ba 5b3d b60e d9bd
00000090: 21f6 afbd 0bb9 54bd 093c 7dbc c1a0 e63b
000000a0: b85f f73c 4369 71bd e681 90bd e48f 8d3d
000000b0: 79a1 c9bd fe9f bcbc 8aca e7bd b200 c5bd
000000c0: 59d0 3a3d 110d e5bb a60a d53d cddc fb3d
000000d0: fcfe d5bd ac5c 8abd b389 e23c 8e96 86bc
000000e0: f0c7 ebbd 6a98 99bd b257 8abd 052d 4c3c
000000f0: 58ff 563d 8ead 9b3d 5510 d73d 5f98 88bd
00000100: 9349 c13d 4550 93bd ac68 dcbd 9589 5cbd
00000110: c891 6a3d 6693 aa3c 8e66 debd 6196 093d
00000120: 8187 9fbb 34e0 b93d 09d3 90bd cd7e d4bd
00000130: 8e9d 02bc aa91 4dbd 6b20 afbc 2590 09bd
00000140: e6be f93d 50cd 84bc ffe4 f6bd a47e 95bd
00000150: 6e43 58bb e7dd 913d 0f78 fd3c f620 fbbd
00000160: 6a89 9b3c 713e b83d 4886 21bd f0d0 703d
00000170: 4f1b d63d 3c75 d83d 9f7f ae3c 3266 f4bd
00000180: 4321 dbbd e074 bd3d b5c2 24bd 057d db3d
00000190: a489 a43d 2d7e e5bd ab60 673d 7ebc d4bd
000001a0: b8a2 b9bd 4713 b43d fc45 e63d 6c1f 773d
000001b0: 98c4 6c3d e8fd 693c d1d3 a43d a9b6 f0bd
000001c0: a4d9 793d cc1e 6d3c baef 1abd bfa8 95bd
000001d0: 1395 3f3d 273c dfbc 2c2a 5f3c 6572 d3bc
000001e0: 7c5a 6dbb 40f8 36bd 6565 f3bd 3982 f43c
000001f0: 2ee6 94bc f46b 19bd 78b7 a63d e673 70bd
00000200: 0de5 95bc c244 ecbd 53dd 43bd cd80 b33d
00000210: 274d ad3b 7e6e 8a3d 1812 d33d a222 fb3c
00000220: 8f3d b93d b985 eb3c 0944 963d 3ca5 debd
00000230: 2e52 bc3d 1669 293d 87d5 9b3c 6582 fbbd
00000240: 2639 903d fccb 893d f9e5 c0bd 26cb db3d
00000250: 7911 ed3d db50 43bc 1e80 23bd b7d8 febb
00000260: e6c0 d8bd 0ed9 e5bd ae8d 97bc 54db 35bd
00000270: e6fc df3d 7d44 933d 898f 14bd 303f ffbd
00000280: 6745 1f3d ec8c 26bc b9c9 86bd 0456 e43d
00000290: 7f1f a13d f499 42bd 8d8d da3d 78cf debd
000002a0: a904 d4bd ede4 6e3d 3796 9b3d d848 d6bc
000002b0: 0625 c4bc dec5 f8bd c2f7 293d 1d37 80bb
000002c0: 1caa c0bd 4401 c5bd a9bb 903d 2a98 d5bd
000002d0: 5b49 e23c 7266 ea3d fcc2 14bd 747b 913d
000002e0: e1f0 633d f9d5 e4bc 3d96 9dbd 693c 99bd
000002f0: 1bea fabd e7ec 8e3c 5872 e63c 65ab 07bd
00000300: 03a2 893d e4b7 0bbc 530e 1d3d fdcf f83d
00000310: 3c5c ef3d 954d cc3d afa9 54bd f383 243b
00000320: 02e1 1abd cacb 133d ffb6 963d aaab aa3c
00000330: bed3 24bd 84ea ab3c fedb bdbd e79f e0bd
00000340: d57a b4bc fe92 46bc 7586 dcbc e084 633d
00000350: 376a 1d3d 01ba ec3c c932 f93c f434 f7bb
00000360: 5f1a bc3c d57c afbd 9b45 a3bd ee4b 723c
00000370: 9ec2 a03d 74f2 b23b 781b e93d 9234 cf3d
00000380: 2cad febd f8f4 69bd 71e4 333d 6f91 b7bb
00000390: 5d23 2d3d f304 8cbd e574 893d 1f6c 92bd
000003a0: 6a63 143c d023 cbbd 872b 11bd 82a2 a43d
000003b0: 6a84 853d 69ba b7bd d225 933d 7063 96bc
000003c0: cdf2 c4bd 8095 e73d 4506 2d3d c8b1 553c
000003d0: d958 223d 42d5 623d 3e03 e7bd ca30 923d
000003e0: c628 bb3d 287b 7f3c d97a 10bd 3746 923c
000003f0: 4e5c 0f3c ac72 b03c 4431 9ebd c6b2 a23d
-0.067778185 -0.073692635 -0.09147234 0.02794073 0.054177396 -0.031310517 -0.03822201 0.0021800762
-0.101601034 -0.11834553 -0.08050994 -0.09017212 0.018100465 0.10130396 0.089434646 -0.076884754
0.06950179 0.109541714 -0.026512902 -0.04069948 -0.117953226 -0.008762342 -0.048318814 0.031506117
-0.1149618 -0.012248421 0.0215647 -0.03160119 -0.019730072 0.118204005 0.05410562 -0.09303057
-0.05752575 0.056733303 0.053644847 -0.10598509 -0.08591867 -0.051934283 -0.015456208 0.0070382063
0.03019701 -0.058938276 -0.07056026 0.069122106 -0.098452516 -0.023025509 -0.11317928 -0.09619273
0.045608852 -0.006990083 0.10402422 0.12297974 -0.10449025 -0.06755957 0.02765355 -0.016429212
-0.115127444 -0.07499774 -0.06755008 0.012461905 0.05248961 0.07601462 0.10501162 -0.066696875
0.09437861 -0.071930446 -0.10762152 -0.053842146 0.057267934 0.020822238 -0.108594045 0.033590678
-0.0048684482 0.090759665 -0.07071502 -0.10375748 -0.007972134 -0.050187744 -0.021377763 -0.033584733
0.12194614 -0.016211182 -0.12055396 -0.072995454 -0.0032999176 0.07122403 0.030941037 -0.12262146
0.018986423 0.08996285 -0.0394347 0.05879301 0.104544275 0.10569236 0.021301089 -0.11933555
-0.106997035 0.09250808 -0.04022475 0.10717205 0.08034065 -0.11205707 0.056488674 -0.103875145
-0.09064239 0.08792739 0.11243817 0.0603327 0.057804674 0.014281727 0.08048213 -0.1175359
0.060998574 0.014472675 -0.037826277 -0.073075764 0.046773028 -0.027250363 0.013620894 -0.025811384
-0.0036217263 -0.044670343 -0.11884574 0.029847251 -0.018176164 -0.037456468 0.08140463 -0.05870428
-0.018297696 -0.11536552 -0.047818493 0.08764801 0.0052887383 0.06759356 0.103061855 0.030656163
0.090449445 0.028750287 0.073371954 -0.1087136 0.09195362 0.041359983 0.019022716 -0.1228073
0.0704215 0.0672836 -0.09418864 0.10732107 0.11575598 -0.011921133 -0.039917104 -0.0077772993
-0.105836675 -0.112230405 -0.018500175 -0.04439862 0.109369084 0.071907975 -0.0362697 -0.12463224
0.038884547 -0.010165434 -0.06581444 0.11149219 0.078673355 -0.047510102 0.1067153 -0.10879415
-0.10352451 0.05832379 0.075970106 -0.026157781 -0.023943435 -0.12147115 0.041496046 -0.00391282
-0.09407446 -0.09619382 0.07067043 -0.104294136 0.02762287 0.11445321 -0.036318764 0.07103625
0.055649642 -0.027934061 -0.07694671 -0.074822254 -0.12251683 0.017446948 0.028130695 -0.03312244
0.067203544 -0.00852773 0.03834374 0.121490456 0.11687514 0.09975735 -0.051919635 0.0025103062
-0.03781224 0.03608302 0.073591225 0.020833809 -0.040240996 0.02098585 -0.09270476 -0.10967999
-0.022031227 -0.012120007 -0.026919583 0.05554664 0.038431372 0.028897287 0.030419724 -0.0075441543
0.022961793 -0.08568732 -0.079722606 0.014788611 0.0784962 0.0054610316 0.113821924 0.10117449
-0.12435374 -0.057118386 0.04391903 -0.005602054 0.042270053 -0.068368815 0.06711749 -0.07149529
0.009056905 -0.0991894 -0.0354419 0.080388084 0.065193966 -0.08971102 0.07184948 -0.018357962
-0.09616623 0.11307812 0.042242307 0.013042875 0.039635513 0.05537916 -0.11279915 0.07138212
0.09138636 0.015593328 -0.035273407 0.017855747 0.0087500345 0.021539055 -0.077242404 0.079442546

conv2.bias f4 [4]
00000000: def6 fa3b f063 e53b 1ab0 39bd b30b dd3d
0.0076588234 0.007000439 -0.04533396 0.10793247

batchnorm2.weight f4 [4]
00000000: 6df2 7f3f 3fde 7f3f 1b0d 803f 0802 803f
0.9997929 0.99948496 1.0004 1.000062

batchnorm2.bias f4 [4]
00000000: a068 a039 e874 5d39 079c b43a cddd 20b8
0.0003059553 0.00021119753 0.001377941 -3.835354e-05

batchnorm2.running_mean f4 [4]
00000000: 53cd ec3d 6f01 d43c 74a9 89bc e0eb d53d
0.115626 0.02587959 -0.016804434 0.1044538

batchnorm2.running_var f4 [4]
00000000: 288b 453e b89d f23d 8d41 223e 3414 a03e
0.19291365 0.11846489 0.15845318 0.31265414

conv3.weight f4 [4, 4, 8, 4]
00000000: 5dc0 81bd 5bf7 f4bc c32f 74bd 50ce 873d
00000010: bf8d 11bd 3bda 293a 2d8e dabb 29ca 873d
00000020: 43a2 97bd 393f 37bd bf42 aebd d7cb 94bc
00000030: c8da 9abd c324 98ba d807 0f3d fcc1 193c
00000040: 0e0a 123c 1209 96bc 2991 80bd ae40 54bc
00000050: 4dad 943d 544f 8f3c 0c4d 883c d294 d3bc
00000060: 336e 743d 0f57 713d 0d96 9f3c 510a 813d
00000070: a6fb cc3b b0ce cc3a bc82 ca3c 65e0 adbd
00000080: c721 673d b096 3cbd 509d 1dbd 5f9d adbb
00000090: dac1 86bd 007e 64bd a7d2 933d 82dd 65bc
000000a0: b606 033d 0f15 8b3c 11f1 b03d 1f69 2bbd
000000b0: 89a3 3abd 883b ae3d 2bd7 6dbd 515e b0bd
000000c0: a5a7 6fbc 21a7 523d b6f0 233d 6980 6fbd
000000d0: a58c 8bbd 0773 eb3c 3bbd 6cbd 0605 493d
000000e0: 334d 9ebc aa86 10bd 5717 80bc baca 943d
000000f0: 9c96 55bd 4d4e 8abd 5415 143d 1a42 1b3d
00000100: 6d03 8bbc 82fd 593d ff97 aebc 1ecb 17bd
00000110: fdaa 89bd fd80 35bd 8a9e 48bd ccaa be3c
00000120: f404 8dbc a9d4 803d be7d 32bd a866 4f3d
00000130: 67df 923d fb00 a4bc 8707 48bd 1ee5 333d
00000140: c6aa acbd 14fd 6f3d 4163 8a3d 7878 b8bb
00000150: 9e5a 62bd e29c 3a3c 325f 833d d3ad 463c
00000160: 159d 843c 8a54 1d3d 7d98 4f3d 8bab 9f3c
00000170: d333 46bd e9e6 163b 98c8 1bbd 9670 343d
00000180: 622b 3abd 6139 9e3d 975b 183d 59d4 b4bd
00000190: 60f8 18bd 64e8 5ebc bcd5 eabc aa23 46bb
000001a0: 6ec9 46bd 81fd 793d 47dd 213d 802d 18bc
000001b0: 5db6 22bd 6481 8cbd e629 55bd 38f6 4cbd
000001c0: bd9b a93d 2dfb d4b8 3174 50bd 5aba f7bb
000001d0: bca4 8dbb ea74 a93c b290 e73c ee82 613d
000001e0: d160 35bd 8c0b a1bc 07b9 9bbd 8716 03bd
000001f0: a961 9fbd 40ba f6bb f98c 5abd fa99 f8bc
00000200: 5b61 a93d cee2 a33d cc77 3c3c a339 383d
00000210: d81d 6e3d 4672 a13b 7321 9a3c 4543 95bb
00000220: e7c9 8fbd 0c3a 903d d78d 85bd 8ecf d2bc
00000230: 22f4 96bd f3f2 59bd fcd6 b23d 5f47 02bc
00000240: aa17 e53c 6418 b23c d1e2 8d3d f26d 9a3c
00000250: 4835 2e3b 5459 27bd 9600 873c 7b31 9d3c
00000260: e2c3 79bd adaf 83bd 2fa5 1cbd 1cf0 9b3d
00000270: c1b4 113d ffd6 4b3d c3c1 713d 2372 7aba
00000280: b8bd 71bd 2572 ad3d 0b8f 6e3c ad3b 02bd
00000290: 6457 153d b9a0 7cbd 2c1f 443b 1356 a93d
000002a0: c6d0 ef3c 7d08 abbd e07a 9b3d a8c1 9f3c
000002b0: d7e7 bfbc 81f0 8d3d 8e28 1e3d d9c5 523d
000002c0: 6aa9 2e3d 6ffa 4bbd 6f96 82bd 2b45 833d
000002d0: 24c9 bfbb 902d 923d 5700 333d 0dc5 adbd
000002e0: 695f 463d fc7b 353d 6fe4 aebd 0c17 ae3b
000002f0: 2ae4 91bd 2de8 323d f67e 423d 0101 df3c
00000300: 849d 623d 19e2 48bd fd11 4abb a82e c4bc
00000310: 211e 8a3d e35c 823d b26d fcbc 3f71 99bd
00000320: 1343 5dbb 31e9 8c3d 6cd0 9abc 1818 073d
00000330: c25e 82bd ef07 70bd a82d 9bbd 220e 9cbd
00000340: e8bd 0fbd 961c 1bbd a54a 0a3d 78a5 953d
00000350: 7e07 373c 1950 133d 6f5e 66bd 4b59 1dbd
00000360: d5bf a8bd 42bf a93d 187c 213c ff28 c4bc
00000370: 8ba4 a6bd 2053 7e3c d48e b3bd 19dc 733d
00000380: 1ece a9bd a8fe 9a3c 11a6 603d c941 92bd
00000390: 55a3 833d 7b66 ac3d dcd9 793d a523 a33d
000003a0: 4e7b 27bd d167 76bc 0b3d a33d 25d4 2b3d
000003b0: 93f6 72bd b80f b43d 5bd2 64bc 1e12 e4bc
000003c0: 2697 543c 10fc ae3d 1f5e 36bd 011d f43b
000003d0: 0348 2bbc c0c8 d8bc 49a5 263d 42fb af3b
000003e0: a425 94bd 74d4 fcba a276 653d 830a 2bbd
000003f0: 5569 a03d 3a7f 94bd 73c5 f43c c3cb 603d
-0.063355185 -0.029903105 -0.05961586 0.06631148 -0.03553557 0.0006479357 -0.0066697807 0.06630356
-0.07403996 -0.04473803 -0.085088246 -0.018163605 -0.075612605 -0.0011607636 0.03491959 0.009384628
0.00891353 -0.018314872 -0.06277687 -0.012954874 0.07259617 0.017493881 0.016638301 -0.025827799
0.059675407 0.058920916 0.01948073 0.06300796 0.006255585 0.0015625563 0.024720542 -0.084900655
0.056428697 -0.046042144 -0.038480103 -0.005298301 -0.06579943 -0.055784225 0.07217913 -0.014029862
0.031988822 0.016977815 0.0863973 -0.0418483 -0.045566116 0.085074484 -0.05806653 -0.086117394
-0.014627372 0.051428918 0.04002448 -0.05847207 -0.06813935 0.028741373 -0.05779765 0.049077056
-0.01932392 -0.035284676 -0.01563613 0.072652295 -0.052145585 -0.06753216 0.036153153 0.037904836
-0.016969407 0.05322028 -0.021312712 -0.037058942 -0.067220666 -0.044312466 -0.04897932 0.023274802
-0.017214276 0.06290562 -0.04357695 0.05063501 0.07171517 -0.020019999 -0.048835304 0.043919675
-0.0843101 0.058590963 0.067572124 -0.0056295954 -0.0552622 0.011389943 0.064146414 0.012126404
0.016188184 0.0384107 0.050682534 0.019490978 -0.048389267 0.0023025817 -0.038033098 0.044052683
-0.04545153 0.07725788 0.037196722 -0.088295646 -0.037346244 -0.013605211 -0.02866637 -0.003023366
-0.048531942 0.061032776 0.039517667 -0.009288192 -0.039724696 -0.06860617 -0.05204191 -0.0500395
0.08281658 -0.00010155733 -0.05089206 -0.0075600566 -0.0043226164 0.020685632 0.028267238 0.055056505
-0.044281784 -0.019658826 -0.076036505 -0.032003906 -0.07782299 -0.007529527 -0.0533571 -0.03034686
0.08270522 0.08002244 0.011503171 0.04497684 0.05813393 0.0049269525 0.018814778 -0.0045551383
-0.07020932 0.070423216 -0.065211944 -0.025733735 -0.073707834 -0.05321021 0.08732411 -0.0079515865
0.027965385 0.021740146 0.069280274 0.018851254 0.002658205 -0.040856674 0.016479772 0.019188633
-0.060977824 -0.06429992 -0.03824347 0.076141566 0.03557277 0.049765583 0.059022676 -0.0009553751
-0.05901882 0.08469037 0.014560471 -0.031795193 0.036460295 -0.061676715 0.0029925806 0.082683705
0.029274356 -0.083512284 0.07591796 0.019501522 -0.02342598 0.06930638 0.038612895 0.051458213
0.042642035 -0.04979938 -0.06376349 0.06409677 -0.0058528353 0.071375966 0.043701496 -0.0848485
0.048430834 0.044307694 -0.08539664 0.005312806 -0.07123597 0.04367845 0.04748436 0.027222158
0.055326 -0.04904375 -0.0030833476 -0.023948029 0.06744028 0.06365373 -0.030814026 -0.07492303
-0.0033761903 0.06880415 -0.018898211 0.032981962 -0.0636573 -0.058601316 -0.075770676 -0.07619883
-0.035093218 -0.03786906 0.033762593 0.07306951 0.01117122 0.03596506 -0.056242403 -0.038415235
-0.08239714 0.08288433 0.009856246 -0.02394533 -0.08136853 0.015522748 -0.08767477 0.059536073
-0.08291267 0.018920258 0.054845873 -0.07141454 0.064276375 0.08417984 0.060998783 0.07965783
-0.040889077 -0.0150394 0.079706274 0.041950364 -0.059317183 0.087920606 -0.013966168 -0.02784067
0.01297549 0.08544171 -0.044523355 0.0074497466 -0.010454181 -0.026462913 0.040684972 0.0053705284
-0.07233742 -0.001928939 0.05602134 -0.04175807 0.078325905 -0.07250829 0.029879307 0.054881822

conv3.bias f4 [4]
00000000: c93a a6bd 615f 683d 3ea9 7e3b 8e6c 3e3c
-0.08116681 0.056731585 0.00388582 0.011622561

batchnorm3.weight f4 [4]
00000000: 1fd3 7f3f 95de 7f3f 95ea 7f3f 32a8 7f3f
0.9993152 0.9994901 0.9996732 0.9986602

batchnorm3.bias f4 [4]
00000000: d12a f3b8 90f5 9fb9 52e4 57ba 7cda 0eba
-0.00011595118 -0.00030509802 -0.00082356215 -0.0005449427

batchnorm3.running_mean f4 [4]
00000000: 5f86 8ebd 1c51 fb3d b3ed 9cbd cb6e 6f3e
-0.06959223 0.1227133 -0.07662525 0.23382108

batchnorm3.running_var f4 [4]
00000000: 79fb 223e e7a5 493e 0efe 1a3e 31c7 973e
0.15916242 0.19692193 0.15135977 0.29644158

fc1.weight f4 [1, 2496]
00000000: ae98 4e3c b60a 253c 7fd4 98ba c402 9ebc
00000010: aea7 8d3c 26a9 d7bb afc8 32bc 8bfb d93b
00000020: 1a9d 5e3c 414c 6f3b 7e5e 30bc fb67 91bc
00000030: 98c7 133c a70a e73b eb56 423c ad56 a63c
00000040: ee7d 34bc 0687 d33b 0b15 a53c ff9b 1637
00000050: f093 ddbb 07ab 75bc 7865 063a 5cf4 1cbc
00000060: ebe9 58bc 55eb 9cbc 7aa6 093c bc38 26bb
00000070: 2472 173c 2506 363c d9bc 9abc 2641 d9bb
00000080: 0f3c 963c 6559 4cbb 4433 633c a000 8ebc
00000090: 6f52 983c 06b3 073c b381 64bc 66b1 ab3b
000000a0: 8deb 503c 8cc4 353c 6586 923b b919 eabb
000000b0: e55b c8bb 5eec 6abc 7dd2 a13c 20a7 683b
000000c0: 809c 8b3b 683e 38bc a529 80bc 1bb3 0ebb
000000d0: 79e3 283c 50db 7c3c e626 abba 07ce 153c
000000e0: c553 42bb c6e4 a5bb 2d6e aa3c 8f3c a93b
000000f0: c385 a33c e508 a0bc 278a fe3a e53f d2bb
00000100: 37fc 813c 80ad 2d3c 8411 573b ea5c 503c
00000110: 620c 3bbc 20c9 98bb ef22 2a3c e5ec 36bc
00000120: 2a11 a63b 5710 db3b ce26 86bc 3228 43bc
00000130: 95fb 78bc 1190 99bc 6c76 febb 2921 d83b
00000140: 5e06 013c 56bf 433c c00f 373b 5639 4ebc
00000150: f826 9abc d490 8e3c 9945 4c3b 69de 7b3c
00000160: cc6f 9bbc 02e8 2ebc f8b6 cbb9 8288 873c
00000170: e47d 88bc ddf9 31bc d053 76bc 9411 2b3c
00000180: 6115 ec3a 7461 e6bb dce2 623c 29a8 6cbc
00000190: 2d91 d6ba f6e4 09bc dee6 8cbb 0b87 eb39
000001a0: 92df d237 6986 a53c 9a67 8fbc 58cc f5bb
000001b0: 90bb 80ba c622 00bc 7caa 9d3c efbb 323c
000001c0: 5967 813c 9262 783c 1088 1fba 1ce4 573c
000001d0: 065e aeba d50d 763c 8e72 423b 63f3 063c
000001e0: a369 103c 8db1 e3bb 5931 903c ff2f 843c
000001f0: fc88 93bb 010f b6bb 6b13 91bc e7dd 303c
00000200: 4188 74bc ee64 96bc 72a7 8e3c d10e 9f3b
00000210: d092 933c e474 89bc 9885 35bc 430a a5bb
00000220: 7cbb 4f3c 707b 76bc c77d 88bc 487a b5bb
00000230: 39c7 22bc 956a a23c 3091 2a3c 6153 5abc
00000240: 5fb0 08bc 6bff 44ba 8bc4 46bc fd14 74bc
00000250: a283 963c 35b6 4fbc f61c 3e3c da0d b5bb
00000260: e5de 70bc 5faf 0fbc 53a1 0dbc 4d8e 54bc
00000270: 3ad1 42bc 1500 9cb8 09be 23bc 00d1 893c
00000280: a7aa 96bc 97d9 1bbb a0fe 633c 20e0 52bc
00000290: c3cb 8abb b418 84bc b651 9abc 8df4 243c
000002a0: 8bd2 bb3b ab66 093b 4546 853c 43b1 1738
000002b0: f92d 83bc 1879 9bbc b08e 4d3b 47e6 3cbc
000002c0: 1855 9b3c 0bfb 0abb 675b 913c cebe 40bb
000002d0: 2b11 11bc 72eb 9ebc 1127 9e3c 8738 8bbc
000002e0: 05a6 643c 26d2 f5bb c480 71bc f7c2 d4bb
000002f0: 5f1f 253c a9fc 813c e5e7 85bc 24ba 72bc
00000300: 61b9 e73b 7ec7 1b3c cbf5 50bc f61b 0f3c
00000310: b8da 25bb 2721 8cbc 00eb 363c 3f3b 85bc
00000320: 223c 18ba 4318 84bb df75 0fbc d092 52bb
00000330: 2919 91bc 0a18 913c c69d 76bc 3da2 4a3c
00000340: 465e 773a 146e 08ba 39a4 9cba 58eb 03bc
00000350: 03dc 5abb a31e 783c 657b 19bc fac8 163c
00000360: 2131 82bc 9b17 1fbc b045 703c 565f 003c
00000370: 9f31 92bc 5638 65bc 0775 553c ffe9 7eba
00000380: 3d33 993c c636 9fbc 5ffa a83b c978 a2bc
00000390: e876 093c a678 d9bb 9749 ebba 8103 13bb
000003a0: a1f0 2b3b fa8b 56bc 46e1 2fbc 843c 193c
000003b0: 700f 36bc f140 c73b 63fb 18bb 7dfc 4f3c
000003c0: f688 9abb c771 673c 98bf cab9 6384 35bc
000003d0: 0924 863b 6927 47bc d504 ac3b 2219 1abc
000003e0: 6e99 433b 9f94 79bb 9b33 97bb d675 8abc
000003f0: 685a cbbb cc56 893c 553d 353c 95d3 07bc
0.012609644 0.0100733545 -0.0011660008 -0.019288428 0.01729187 -0.0065814434 -0.0109121045 0.0066523007
0.013587261 0.0036513957 -0.010764716 -0.017749777 0.009019755 0.0070508304 0.011861543 0.020305002
-0.011016352 0.006455305 0.020151636 8.977017e-06 -0.0067620203 -0.014994389 0.00051268144 -0.009579744
-0.013239364 -0.019155184 0.0084015075 -0.0025363406 0.009243522 0.011109863 -0.018888878 -0.0066300808
0.018339185 -0.0031181213 0.013867203 -0.017334282 0.018593995 0.008282429 -0.013946938 0.0052396534
0.012751472 0.011094224 0.0044715875 -0.0071441797 -0.0061144703 -0.014338581 0.019753689 0.0035500005
0.0042605996 -0.011245348 -0.015644858 -0.0021774236 0.01030814 0.015433148 -0.0013057857 0.009143359
-0.0029651981 -0.0050626723 0.020804489 0.00516469 0.019961243 -0.019535491 0.0019419835 -0.006416308
0.015867336 0.010600448 0.0032816837 0.012717465 -0.0114165265 -0.004662648 0.010384305 -0.0111648785
0.005067964 0.0066852975 -0.016375925 -0.011911439 -0.015196701 -0.018745454 -0.007765582 0.00659575
0.007875053 0.0119474735 0.0027932972 -0.012586912 -0.01881741 0.017403044 0.0031169413 0.015372851
-0.018974207 -0.010675432 -0.000388555 0.016544584 -0.016661592 -0.010862795 -0.015034631 0.010441203
0.0018011743 -0.0070306603 0.013848033 -0.014444389 -0.001637017 -0.008416405 -0.0042999825 0.00044923308
2.5138059e-05 0.020205693 -0.017505456 -0.0075011663 -0.0009821523 -0.007820791 0.019246332 0.010909065
0.01579635 0.01516022 -0.00060856435 0.013176944 -0.0013303168 0.015017946 0.002967033 0.008236739
0.008814248 -0.006948656 0.017601656 0.016136168 -0.004502414 -0.005555988 -0.017709455 0.010795093
-0.014925064 -0.018358674 0.017413829 0.004854061 0.018014342 -0.01677937 -0.0110792145 -0.0050366237
0.012678977 -0.015044078 -0.016661538 -0.0055382587 -0.009935194 0.019826213 0.010410592 -0.013325543
-0.008342831 -0.0007514867 -0.01213182 -0.014897582 0.018373314 -0.012677719 0.0116035845 -0.005525333
-0.01470158 -0.008769839 -0.00864442 -0.01297338 -0.011890704 -7.438675e-05 -0.009994038 0.016823292
-0.01839192 -0.0023780817 0.013915688 -0.012870818 -0.004235716 -0.01612506 -0.018837791 0.010068071
0.005731886 0.0020965736 0.016268859 3.6166293e-05 -0.016013132 -0.01897864 0.0031365566 -0.011529512
0.018961474 -0.0021206762 0.01774378 -0.0029410603 -0.008854191 -0.019399378 0.019305738 -0.016994728
0.013955598 -0.0075018583 -0.014740173 -0.006492968 0.01007828 0.015867548 -0.016345927 -0.014814887
0.0070716594 0.009508012 -0.012753914 0.008734694 -0.0025307368 -0.017105652 0.011164427 -0.016263602
-0.00058073003 -0.0040312125 -0.00875613 -0.0032130964 -0.017712193 0.017711658 -0.015052265 0.012367782
0.000943635 -0.0005204391 -0.0011950798 -0.008051716 -0.0033395297 0.015144023 -0.009367798 0.00920319
-0.015892567 -0.009710218 0.014665052 0.00783523 -0.017845927 -0.013990482 0.01302839 -0.0009724199
0.01870119 -0.019435298 0.0051567997 -0.019832985 0.008390166 -0.006636697 -0.0017951009 -0.0022432508
0.0026235955 -0.013094896 -0.010734862 0.009352807 -0.011112079 0.0060807397 -0.0023343198 0.012694475
-0.004716034 0.014126248 -0.0003867119 -0.011078927 0.004093651 -0.012155392 0.0052495995 -0.009405406
0.002984609 -0.003808297 -0.004614306 -0.016901892 -0.0062058456 0.01676502 0.011061986 -0.008290191
