pretrained/eegnet_trained.pth (torch, 20192 bytes, 19 tensors)

conv1.weight f4 [16, 1, 1, 4]
0	0xbe8299ef	-0.25508067
1	0x3d3281e5	0.04358091
2	0x3da6ca53	0.08144059
3	0xbe9e72ac	-0.30946863
4	0x3b9c66bd	0.0047729895
5	0x3ecb3c54	0.39694464
6	0xbe9ecde7	-0.31016466
7	0xbe1027d4	-0.14077693
8	0xbe1ada16	-0.15122256
9	0xbe40010e	-0.18750402
10	0x3ec62b36	0.38704842
11	0xbec030b3	-0.37537155
12	0x3e5f7d10	0.21825051
13	0xbe919bcb	-0.28439173
14	0xbefc6211	-0.4929357
15	0xbe92f619	-0.28703383
16	0x3ebcbd28	0.36863065
17	0xbec0f57b	-0.37687287
18	0xbe3c4f0c	-0.18389529
19	0x3d93bd6a	0.07213862
20	0x3ec7756c	0.38956773
21	0x3e14b59b	0.14522402
22	0xbe9c51c3	-0.3053113
23	0x3d563bdf	0.05230319
24	0x3e938b65	0.28817287
25	0x3e60396b	0.21896903
26	0xbe5b82e4	-0.2143665
27	0x3ef2c1ad	0.47413388
28	0xbeab4ad2	-0.3345552
29	0x3e478799	0.1948532
30	0xbd824643	-0.063610576
31	0xbea886e7	-0.32915422
32	0x3c87f40e	0.016595867
33	0x3ee23c9d	0.4418687
34	0x3e250d68	0.16118395
35	0x3ed7e1ed	0.42164555
36	0x3d0c1d0e	0.034207396
37	0x3e41700f	0.18890403
38	0xbd126060	-0.03573644
39	0xbecf6f4c	-0.405146
40	0xbed7a4c3	-0.4211789
41	0x3e149327	0.14509259
42	0x3ed2fed7	0.41210052
43	0xbe8fe365	-0.28103176
44	0x3ed9c162	0.42530352
45	0xbea42e47	-0.32066557
46	0xbee20e74	-0.44151652
47	0x3e337a3e	0.175271
48	0xbebf3ed4	-0.37352622
49	0x3effe069	0.499759
50	0x3dcc51f6	0.0997657
51	0x3e7d4993	0.24735098
52	0x3bb710da	0.0055867257
53	0x3bdee999	0.0068027494
54	0xbe7341e0	-0.23755598
55	0x3eeea433	0.4660965
56	0x3c349dbf	0.011023938
57	0xbee9a563	-0.45633993
58	0xbec13049	-0.3773215
59	0x3dcfcb90	0.10146248
60	0x3ea8b382	0.32949454
61	0xbe8f535f	-0.27993295
62	0xbdd41400	-0.10355377
63	0x3de4d1c6	0.111728236

conv1.bias f4 [16]
0	0x3e1c6acb	0.15275113
1	0x3e6a7bce	0.2289879
2	0x3cb9025e	0.022584137
3	0xbef6745f	-0.4813566
4	0xbea1b2dd	-0.31581774
5	0xbeac28bc	-0.33624828
6	0x3e98e8b1	0.2986503
7	0xbef24fc3	-0.47326478
8	0x3defd3b7	0.11710303
9	0x3e556b31	0.20841672
10	0x3ebc926b	0.36830458
11	0xbe77c22d	-0.24195166
12	0x3e4aafcb	0.19793622
13	0x3ec5e560	0.38651562
14	0xbef87ae6	-0.48531264
15	0x3e3ae507	0.1825143

batchnorm1.weight f4 [16]
0	0x3f7ff252	0.99979126
1	0x3f8015ad	1.0006615
2	0x3f7fb6d5	0.99888355
3	0x3f801240	1.000557
4	0x3f802123	1.0010113
5	0x3f8007c0	1.0002365
6	0x3f80062f	1.0001887
7	0x3f8011f0	1.0005474
8	0x3f7ff3f5	0.99981624
9	0x3f7ff4db	0.99982995
10	0x3f7fed26	0.99971235
11	0x3f802011	1.0009786
12	0x3f8004de	1.0001485
13	0x3f7ff535	0.9998353
14	0x3f800935	1.000281
15	0x3f800d9d	1.0004154

batchnorm1.bias f4 [16]
0	0x38f4b7bf	0.00011669052
1	0x3a15fb78	0.00057213707
2	0x3a614a82	0.00085941714
3	0xba1a16cd	-0.00058780314
4	0x36b5aadc	5.414111e-06
5	0xb9a8305d	-0.0003207949
6	0x389fb304	7.615055e-05
7	0xba14d115	-0.00056769076
8	0x39b18470	0.00033858744
9	0x389d9b04	7.515217e-05
10	0xba55b9d4	-0.0008152996
11	0xb9ce0159	-0.00039292386
12	0x397833ba	0.00023670393
13	0x3a0a7c31	0.0005282788
14	0x3a152d48	0.00056906464
15	0xb9d52db9	-0.00040660592

batchnorm1.running_mean f4 [16]
0	0x4abb78ee	6.143095e+06
1	0x4aaecf54	5.72817e+06
2	0x4aefd7d8	7.85918e+06
3	0x4b0a1a35	9.050677e+06
4	0x4aeea046	7.819299e+06
5	0x4af4031e	7.995791e+06
6	0x4b0c3f65	9.191269e+06
7	0x4aef336b	7.8381335e+06
8	0x4ae02a70	7.345464e+06
9	0x4a976d07	4.9619235e+06
10	0x4b0f2e7f	9.383551e+06
11	0x4b1a4b51	1.0111825e+07
12	0x4ae5ba3c	7.52771e+06
13	0x4ab8e6c0	6.058848e+06
14	0x4acd97ef	6.7368875e+06
15	0x4ace2c16	6.755851e+06

batchnorm1.running_var f4 [16]
0	0x58135e06	6.4812815e+14
1	0x58424218	8.543565e+14
2	0x5888410f	1.198504e+15
3	0x58de3f29	1.9549028e+15
4	0x58a8d5fc	1.4850961e+15
5	0x58b62123	1.6020275e+15
6	0x58af8b14	1.544095e+15
7	0x587e216a	1.11767786e+15
8	0x58551092	9.370686e+14
9	0x57d966ad	4.7807002e+14
10	0x58b1ba6a	1.5633136e+15
11	0x59067980	2.3657023e+15
12	0x589b2218	1.3645659e+15
13	0x581b778a	6.837509e+14
14	0x588359e6	1.1553771e+15
15	0x587a7a24	1.10161e+15

conv2.weight f4 [4, 1, 2, 32]
0	0x3da5e120	0.0809958
1	0xbd864a6f	-0.06557166
2	0x3cba2b33	0.022725677
3	0x3d39a82d	0.0453264
4	0x3de3218b	0.11090382
5	0x3d05e64a	0.032690324
6	0xbde4f96f	-0.11180388
7	0x399ecd5e	0.0003028912
8	0x3d9e369e	0.07725261
9	0x3db1de80	0.08685017
10	0x3cd96098	0.026535317
11	0x3c54c2c3	0.012985888
12	0xbcf2611d	-0.029587323
13	0x3d1d7902	0.03844548
14	0x3dd2e272	0.10297097
15	0xbd080444	-0.033207193
16	0xbdd4ea4a	-0.103962496
17	0x3db0c2fa	0.08630939
18	0xbdea4f0e	-0.1144086
19	0x3dcec112	0.10095419
20	0x39d47270	0.00040521054
21	0xbdaacec9	-0.083402224
22	0xbcf84725	-0.030307362
23	0xbcd90d7c	-0.026495688
24	0x3d9a5d09	0.07537276
25	0xbb632e44	-0.0034665028
26	0xbded7e77	-0.11596387
27	0xbdaefeb4	-0.085446745
28	0xbdef626c	-0.11688694
29	0xbd865bf7	-0.0656051
30	0x3dea7c02	0.11449434
31	0xbd7ea956	-0.06217321
32	0xbdf733df	-0.120704405
33	0xbdc8aa86	-0.0979815
34	0xbde27a0f	-0.11058437
35	0xbd0aa4d4	-0.0338486
36	0x3d9f6926	0.07783727
37	0xbd56b7b7	-0.052421298
38	0x3d354b84	0.04426147
39	0x3d3e5fee	0.046478204
40	0xbde42fd6	-0.111419365
41	0x3dc70f1f	0.09719681
42	0xbd253816	-0.04033669
43	0x3dcdd136	0.100496694
44	0xbbdba235	-0.006702686
45	0xbda8c502	-0.08240701
46	0x3dd2fa02	0.103015915
47	0x3d061a86	0.03274014
48	0xbdcb79fe	-0.099353775
49	0xbdfa466b	-0.122204624
50	0x3df24e7d	0.11831377
51	0x3c1fe0c0	0.009758174
52	0x3db0e2ef	0.08637034
53	0x3ddc7643	0.10764744
54	0xbd39f9a7	-0.045404103
55	0x3df4d53a	0.11954732
56	0xbdcea73b	-0.100904904
57	0x3dd247a9	0.10267574
58	0x3dab3fd0	0.08361781
59	0x3de256d7	0.1105172
60	0x3d9e4139	0.07727284
61	0xbdaa83da	-0.0832593
62	0xbd9a5e88	-0.07537562
63	0x3dcc3ac9	0.0997215
64	0xbc9c4215	-0.01907448
65	0xbdcaa0d0	-0.09893954
66	0x3cd90e53	0.026496088
67	0x3cea6e35	0.028617004
68	0x3d55283d	0.052040327
69	0xbdce1283	-0.100621246
70	0x3d8bc345	0.06824354
71	0xbd068079	-0.032837365
72	0x3da4843c	0.08033034
73	0xbcb1a928	-0.021687105
74	0xbdc32f5a	-0.09530516
75	0xbdac2697	-0.08405798
76	0x3d4fc779	0.05072734
77	0x3d9ca1c7	0.07648044
78	0xbde35ffc	-0.11102292
79	0xbcd2ebf4	-0.025747277
80	0x3def2ac7	0.11678081
81	0x3cba05e6	0.02270789
82	0xbde16a11	-0.11006559
83	0x3d3deed0	0.046370327
84	0x3d7a416c	0.061097547
85	0xbd0dc6af	-0.034613308
86	0xbd5dacf8	-0.054120034
87	0xbd9cfa8c	-0.076649755
88	0x3c9ccf53	0.019141829
89	0x3dd2a3b2	0.10285129
90	0xbc4060dd	-0.011741844
91	0xbd7df7a1	-0.062003735
92	0xbd136847	-0.03598812
93	0xbd3bb64b	-0.045828145
94	0xbc4af514	-0.012387533
95	0xbde0e693	-0.109814785
96	0xbd911ccd	-0.070855714
97	0xbddab6c6	-0.106793925
98	0x3cdadc52	0.026716385
99	0xbd83c4c7	-0.06434017
100	0xbd310ef2	-0.043227144
101	0xbdc3577a	-0.09538169
102	0x3c0aae72	0.008464443
103	0xbdbbcb47	-0.091696315
104	0xbdf22abb	-0.118245564
105	0x3da47f6d	0.08032117
106	0x3c4689a6	0.012117779
107	0x3dbae4c3	0.09125664
108	0xbda0f6bb	-0.0785956
109	0xbd4eacd5	-0.050457794
110	0x3c6c9fac	0.014442366
111	0xbbc07f26	-0.0058745323
112	0x3daf6631	0.08564413
113	0xbc8bbd02	-0.0170579
114	0x3d15eeb1	0.036604587
115	0xbdc0bb39	-0.0941071
116	0x3b934884	0.0044947285
117	0x3d1832e1	0.037157897
118	0x3dc45be0	0.09587836
119	0x3ce1a665	0.027545163
120	0xbc7258b2	-0.014791654
121	0x3d1fb864	0.038994208
122	0x3dbc7c9b	0.09203454
123	0xbdcc4d7f	-0.09975719
124	0xbd48b863	-0.04900397
125	0xbce672e4	-0.028130956
126	0x3cd0820a	0.025452632
127	0xbde3838d	-0.11109076
128	0xbd7a1e04	-0.06106378
129	0x3dbb85ba	0.09156366
130	0x3dad51d4	0.08462873
131	0x3d46c265	0.048525233
132	0x3d90bff5	0.07067863
133	0xbca141b8	-0.019684657
134	0x3dcdd2df	0.10049986
135	0xbdeac09f	-0.11462521
136	0xbd112b14	-0.035441473
137	0x3d802495	0.062569775
138	0xbdc509e6	-0.096210286
139	0x3d644734	0.055731967
140	0xbdf86ee1	-0.121305235
141	0x3d5ef547	0.054433133
142	0xbdf3dc98	-0.11907309
143	0xbd036f22	-0.032088406
144	0xbd8b13be	-0.06790875
145	0xbba66da9	-0.0050789905
146	0xbdca76e9	-0.098859616
147	0x399548cc	0.00028473733
148	0xbcdc7521	-0.02691132
149	0xbd33e891	-0.043922964
150	0x3df83d77	0.121210985
151	0x3d9ad512	0.07560171
152	0xbdb4efb3	-0.088347815
153	0x3ca39cef	0.019972293
154	0x3db967f0	0.09053028
155	0xbd5413ae	-0.05177658
156	0x3dccca6a	0.09999545
157	0xbde92201	-0.11383439
158	0x3d32b398	0.043628305
159	0xbd860a0d	-0.06544886
160	0xbc227ce7	-0.009917474
161	0x3dac95f8	0.08427042
162	0xbc8ff701	-0.017573835
163	0x3dc7ab3c	0.09749457
164	0x3cf446e3	0.029818958
165	0xbd34189b	-0.043968778
166	0x3d1c3c9a	0.03814373
167	0x3dc645c1	0.09681273
168	0x3d378a7f	0.044809815
169	0xbd0cf90a	-0.03441719
170	0xbbb07e9f	-0.005386188
171	0x3c8e1d6f	0.01734802
172	0xbd82bcfc	-0.06383702
173	0xbcd631d9	-0.026146816
174	0xbdc40dfb	-0.09572979
175	0x3de4fe6c	0.111813396
176	0x3d593b67	0.053035166
177	0xbcbd8e43	-0.023139125
178	0xbd97047f	-0.073739044
179	0xbbaaf32a	-0.0052169757
180	0x3dbf2dbd	0.09334896
181	0xbd981a49	-0.074268885
182	0xbc96678e	-0.018359926
183	0xbd0cc86d	-0.03437083
184	0xbd6dd3cb	-0.05806331
185	0xbd024e48	-0.031812936
186	0xbd44f9d8	-0.048089832
187	0xbdd90f61	-0.105986364
188	0x3d0da50d	0.034581233
189	0x3d713516	0.058888517
190	0xbdd950dd	-0.106111266
191	0x3d79fbc9	0.061031137
192	0xbc6bbae0	-0.014387816
193	0xbd6bf121	-0.057603005
194	0xbc19148c	-0.009343278
195	0x3d9918a1	0.07475401
196	0xbcf11d1e	-0.02943283
197	0x3cc2c7f4	0.023776986
198	0x3d8dd3f5	0.06925193
199	0xbd55205b	-0.05203281
200	0xbd91895d	-0.07106278
201	0x3d8d2405	0.06891636
202	0xbdb4c854	-0.08827272
203	0xbb5df0fa	-0.0033865557
204	0x3dd7cd1d	0.10537169
205	0x3dcbb1fa	0.09946056
206	0x3bc53154	0.0060178433
207	0x3c8ffded	0.017577136
208	0xbdeb2798	-0.11482161
209	0x3de77aad	0.113026954
210	0x3d9428eb	0.07234367
211	0xbcf5cf6e	-0.030006137
212	0x3dad68c4	0.08467248
213	0xbd8dca78	-0.069233835
214	0xbd4478eb	-0.04796688
215	0xbd5e23d4	-0.054233387
216	0xbc872ce9	-0.016500907
217	0x3dfed8dd	0.12443707
218	0x3caec2e2	0.021333162
219	0xbddcdf0e	-0.10784732
220	0xbca8e5d1	-0.020617398
221	0xbdb27aee	-0.08714853
222	0x3c09940a	0.008397112
223	0x3daa95b6	0.08329336
224	0x3de3b603	0.111187
225	0xbc9ba372	-0.018998835
226	0xbdc6e5fe	-0.09711836
227	0x3de53d5e	0.111933455
228	0x3cbf1625	0.023325989
229	0xbc7ec251	-0.015549258
230	0x3c84d7ea	0.016216237
231	0xbd9b4fe8	-0.075836
232	0xbdb42fe9	-0.08798201
233	0x3aee4779	0.001817926
234	0x3d694cb2	0.056957908
235	0x3b25ad7e	0.0025280411
236	0x3d0e9a7a	0.03481529
237	0xbd97a267	-0.07404023
238	0x3dac96c2	0.08427192
239	0xbdf48a80	-0.11940479
240	0x3db1f079	0.08688445
241	0x3dad797b	0.08470436
242	0x3d5f6f24	0.05454935
243	0x3db9c4b4	0.09070721
244	0xbd95bda5	-0.073115624
245	0xbd12ba9a	-0.03582249
246	0xbddbfb94	-0.10741344
247	0xbdd27e20	-0.10277963
248	0x3d7ed193	0.062211584
249	0x3de008d1	0.109391816
250	0xbdd8fc19	-0.10594959
251	0xbc6d8cfd	-0.014498946
252	0x3dc77b96	0.09740369
253	0xbca7c0a4	-0.0204776
254	0xbcc2b751	-0.023769053
255	0xbc3e9080	-0.011631131

conv2.bias f4 [4]
0	0x3b17d14a	0.0023165517
1	0x3dff8d29	0.12478096
2	0x3d888f20	0.06667924
3	0xbdafe1c4	-0.08587983

batchnorm2.weight f4 [4]
0	0x3f7fc7c9	0.9991422
1	0x3f800221	1.000065
2	0x3f7fe67d	0.9996107
3	0x3f80171a	1.000705

batchnorm2.bias f4 [4]
0	0xb9baa18f	-0.00035597055
1	0xba0f45ea	-0.0005465435
2	0xb957e061	-0.00020587585
3	0x3acd3e10	0.0015658755

batchnorm2.running_mean f4 [4]
0	0x3d153ea2	0.036436684
1	0x3e37a1e6	0.17932853
2	0x3dbffee4	0.093747884
3	0xbd650b83	-0.05591918

batchnorm2.running_var f4 [4]
0	0x3eaa065c	0.33207977
1	0x3e4dfe3b	0.20116512
2	0x3e499761	0.19686653
3	0x3e3ea715	0.18618424

conv3.weight f4 [4, 4, 8, 4]
0	0xbd5ce792	-0.05393178
1	0x3ccdc314	0.025117435
2	0xbbc15870	-0.005900435
3	0xbd5cdd49	-0.05392197
4	0xbb2ffe4b	-0.0026854451
5	0x3d88e7f2	0.06684865
6	0xbc098a61	-0.0083948085
7	0xbd878edd	-0.06619046
8	0x3db18fd1	0.08670009
9	0x3c324684	0.01088107
10	0x3d3c03c2	0.04590202
11	0x3bc13592	0.0058962787
12	0xbd8bfdb4	-0.068354994
13	0x3d9f638e	0.077826604
14	0xbd096f19	-0.033553217
15	0x3d4bfe2f	0.049802955
16	0xbcd6a24e	-0.02620044
17	0x3ca92820	0.020649016
18	0xbc44a5fb	-0.012002463
19	0xbc011840	-0.007879317
20	0x3d1594da	0.03651891
21	0x3cf6e156	0.030136745
22	0x3b3dad47	0.0028942393
23	0x3d653884	0.0559621
24	0xbb7839e9	-0.0037876314
25	0x3d680eae	0.056654625
26	0x3cf41e12	0.029799495
27	0xbd841973	-0.064501666
28	0x3db14286	0.086552665
29	0x3b20543b	0.0024464268
30	0x3d388055	0.045044262
31	0x3d650b91	0.055919234
32	0x3c5dbec8	0.013534255
33	0xbc8fb4e4	-0.01754231
34	0xbc9347f8	-0.017978653
35	0xbd184e60	-0.03718412
36	0xbcde2191	-0.027115615
37	0xbd60f07e	-0.05491685
38	0x3cc022fa	0.023454178
39	0x3d854256	0.06506793
40	0x3d37c0f8	0.044861764
41	0x3da97f5f	0.08276247
42	0xbd4f065c	-0.050543174
43	0xbbbc3fbf	-0.005744904
44	0xbd6dc78d	-0.058051635
45	0xbd78bc7e	-0.060726635
46	0x3acc4da6	0.0015587106
47	0xbc1ce401	-0.009575845
48	0x3d2c7982	0.042108066
49	0x3da2f01e	0.07955955
50	0x3d8316ba	0.06400819
51	0xbd9a8989	-0.07545764
52	0x3bc4e418	0.006008636
53	0xbccaa0bc	-0.024734847
54	0xbc36bd8c	-0.01115359
55	0x3da2ce80	0.07949543
56	0x3b745765	0.0037283537
57	0x3ca4f70d	0.020137334
58	0xbd96169c	-0.07328531
59	0x3bfa4f55	0.0076388516
60	0x3c6bbcde	0.014388291
61	0xbdb2e8a7	-0.08735781
62	0xbd510e35	-0.05103894
63	0x3cf8b384	0.030359037
64	0xbd1b4279	-0.03790519
65	0xbc25a9e8	-0.01011131
66	0xbd210705	-0.039313335
67	0x3d8a6b19	0.067587085
68	0xbd52d180	-0.051469326
69	0xbd59d365	-0.053180117
70	0xbda8e264	-0.082463056
71	0xbda4a306	-0.08038907
72	0xbd6b7c53	-0.05749161
73	0x3da2ee8b	0.07955655
74	0x3ca6193a	0.0202757
75	0x3b070733	0.0020603656
76	0x3d9acb35	0.0755829
77	0x3cb7228d	0.022355342
78	0x3cc8b68c	0.024501108
79	0x3d022720	0.031775594
80	0x3d543306	0.051806472
81	0x3d4dceaa	0.05024592
82	0x3cb609d9	0.022221493
83	0x3ba1984c	0.0049314853
84	0xbd5bd323	-0.053668153
85	0xbd476ed5	-0.048689682
86	0x3a497572	0.0007685042
87	0xbd1b3da4	-0.037900582
88	0x3dac9a21	0.08427835
89	0x3d1246b3	0.035711955
90	0x3d877c78	0.066155374
91	0xbd6cbec8	-0.05779913
92	0x3d0c1c73	0.03420682
93	0x3da038f2	0.078233615
94	0x3d7a4f23	0.061110627
95	0x3d24c11f	0.040223237
96	0x3da9468f	0.08265411
97	0xbcb5153c	-0.022104852
98	0x3d85c9b9	0.06532616
99	0xbce939e8	-0.028469995
100	0x3d320a7e	0.043467037
101	0xbd22241a	-0.03958521
102	0xbd9b8f16	-0.07595651
103	0x3d951aaa	0.072804764
104	0x3b5797f8	0.0032896977
105	0xbba1b907	-0.004935387
106	0xbd88cf38	-0.06680149
107	0xbd39b5dc	-0.04533945
108	0xbcc9b0d9	-0.02462046
109	0x3d882de6	0.066493794
110	0xbb6113dd	-0.0034344115
111	0xbcec9793	-0.02888087
112	0x3d91868e	0.071057424
113	0xbbcf6592	-0.006329247
114	0x3c511531	0.0127614
115	0xbd2789a0	-0.040902734
116	0x3cf58fda	0.02997582
117	0x3d0b4672	0.03400273
118	0xbd93e3ce	-0.07221185
119	0xbcbfba33	-0.023404216
120	0x3c80549f	0.01566535
121	0xbd510bac	-0.05103652
122	0xbc146105	-0.009056334
123	0xbd4da90e	-0.05021005
124	0xba9bb18b	-0.0011878473
125	0xbd48711a	-0.048935987
126	0xbc760110	-0.015014902
127	0x3b36e53e	0.0027907635
128	0x3b6b47c0	0.003590092
129	0xbdb0cd60	-0.08632922
130	0xbd1d1f51	-0.038359944
131	0xbd87176a	-0.06596263
132	0x3d190050	0.037353814
133	0x3bc480c6	0.0059967963
134	0x3da73c5a	0.08165808
135	0xbd989a97	-0.07451361
136	0x3d730952	0.05933506
137	0x3d4f6cf4	0.050641015
138	0x3d420bf4	0.04737468
139	0x3ca5e09d	0.020248706
140	0x3ce06502	0.027391914
141	0x3cf80300	0.030274868
142	0x3b13a159	0.002252659
143	0xbd8e16eb	-0.06937965
144	0x3cf32815	0.029682199
145	0xbd214379	-0.039370988
146	0xbd1b7f13	-0.037962984
147	0x3bd5b2a4	0.0065215398
148	0x3d87bb6e	0.06627546
149	0xbc190610	-0.009339824
150	0x3d4a92c9	0.04945639
151	0x3c71689b	0.014734413
152	0x3d1f82d7	0.038943138
153	0x3dae0345	0.08496717
154	0xba793755	-0.00095068413
155	0xbdb481dd	-0.08813832
156	0x3bebd3f0	0.007196896
157	0xbd75c748	-0.060004503
158	0x3db3f3dc	0.08786747
159	0x3c7deb86	0.015498048
160	0x3d8e516d	0.069491245
161	0x3c2874b0	0.010281727
162	0x3b1c0ea0	0.0023812428
163	0xbd7d9683	-0.061911117
164	0x3d7efa0f	0.062250193
165	0x3c5ff8c9	0.013670155
166	0x3d6e29a8	0.058145195
167	0xbd31a0bb	-0.043366175
168	0xbb4ac68c	-0.0030941097
169	0x3d107ba2	0.035274155
170	0xbb9bb0d5	-0.0047513046
171	0xbd945bce	-0.07244073
172	0x3bfeebd5	0.007779578
173	0x3db2fa4d	0.08739147
174	0xbd5c4790	-0.053779185
175	0x3d48e4ca	0.049046315
176	0xbd810ca5	-0.0630124
177	0x3d4926bf	0.049109217
178	0xbc2f630c	-0.010704767
179	0x3d569595	0.052388746
180	0xbd43ee67	-0.04783478
181	0x3cd43166	0.025902461
182	0xb8b40072	-8.583152e-05
183	0xbd2dde1b	-0.042448144
184	0x3d9b8356	0.0759341
185	0x3cbbf5b2	0.022944305
186	0x3bb1b584	0.0054232497
187	0x3d87c755	0.066298164
188	0xbb8b1828	-0.004244823
189	0xbb877725	-0.004134076
190	0x3cd8acad	0.026449526
191	0x3d5b745d	0.05357777
192	0x3cf9f690	0.030513078
193	0xbc9ba4a8	-0.018999413
194	0x3d1cc46a	0.038273253
195	0xbd12d454	-0.035847023
196	0xbd9f0f13	-0.07766547
197	0xbd8e0d99	-0.06936187
198	0xbd24904c	-0.040176675
199	0x3dabcaf5	0.0838832
200	0x3c8aae94	0.016928948
201	0x3c46d500	0.012135744
202	0x3d04432d	0.032290626
203	0xbd9d7da9	-0.076899834
204	0x3cb85b33	0.022504425
205	0x3cbe1283	0.023202186
206	0xbd84c1a6	-0.06482248
207	0x3d9d783c	0.076889485
208	0xbd21c09a	-0.03949032
209	0xbd6e9a34	-0.05825253
210	0xbd782117	-0.060578432
211	0xbd61b0b5	-0.05510016
212	0x3d41fb6e	0.047358923
213	0x3d7de747	0.06198814
214	0xbd929111	-0.071565755
215	0x3da49ef8	0.080381334
216	0xbcbc0f68	-0.022956565
217	0x3d9242fd	0.07141683
218	0x3bbc27a9	0.0057420325
219	0x3d98b6bc	0.07456729
220	0xbca491f2	-0.020089123
221	0x3da39a1f	0.07988381
222	0x3d9a3429	0.0752948
223	0xbda71955	-0.081591286
224	0xbc326b20	-0.010889798
225	0x3d276aa2	0.040873177
226	0xbcb663a8	-0.022264317
227	0xbc704128	-0.014663972
228	0x3c715a4f	0.014731004
229	0x3cf2a6b9	0.029620515
230	0x3d429280	0.047502995
231	0xbdb25480	-0.08707523
232	0xbd3c5376	-0.045978032
233	0xbd98c58c	-0.07459554
234	0x3c995cb9	0.018720971
235	0x39247440	0.00015683565
236	0xbdaeebf3	-0.085410975
237	0xbc2abe42	-0.010421338
238	0xbbe5f656	-0.007017891
239	0x3d238152	0.03991825
240	0xbdaccc3c	-0.08437392
241	0x3b0ea139	0.0021763577
242	0x3dad90a3	0.08474853
243	0x3c7b1222	0.015324147
244	0x3cb08fa3	0.021552866
245	0x3d6dc714	0.058051184
246	0xbd3b2fbe	-0.045699827
247	0xbd0f3754	-0.034964874
248	0x3cf35414	0.029703178
249	0x3c8a5b88	0.016889349
250	0xbcd791e8	-0.02631469
251	0x3d92c522	0.07166506
252	0x3daf7f9d	0.08569262
253	0xbba13b2b	-0.0049203834
254	0xbd632360	-0.055453658
255	0x3c5649a9	0.013079085

conv3.bias f4 [4]
0	0x3bf56539	0.0074888733
1	0x3cb2ed75	0.021841744
2	0xbb01c6be	-0.0019802297
3	0xbcd44b9e	-0.025914963

batchnorm3.weight f4 [4]
0	0x3f7f9aef	0.99845785
1	0x3f7fe202	0.99954236
2	0x3f7fb118	0.998796
3	0x3f8002f1	1.0000898

batchnorm3.bias f4 [4]
0	0xba816221	-0.0009871164
1	0x3a886fd3	0.0010409303
2	0xbaae4a50	-0.0013297293
3	0x3a35881a	0.0006924883

batchnorm3.running_mean f4 [4]
0	0x3e85c706	0.26128405
1	0x3e5c4e7e	0.21514317
2	0xbd84a10c	-0.0647603
3	0x3e4a1469	0.19734348

batchnorm3.running_var f4 [4]
0	0x3e9ec5b2	0.31010205
1	0x3ea9cdd4	0.33164847
2	0x3e61ecec	0.22063035
3	0x3ee43125	0.44568744

fc1.weight f4 [1, 2496]
0	0x3c82dfc8	0.015975848
1	0x3c061015	0.008182545
2	0x3c6326bc	0.013864215
3	0xbc3eec2a	-0.011652986
4	0x3c989709	0.018626707
5	0xbc55c83b	-0.013048227
6	0x3b942d51	0.0045220037
7	0xb9164442	-0.00014330543
8	0xbca6508e	-0.020302083
9	0x3ae888f6	0.0017741013
10	0xbc99398d	-0.0187042
11	0x3c25466f	0.010087593
12	0xbc6566c2	-0.01400155
13	0x3c502892	0.012704985
14	0xbc09c502	-0.008408787
15	0xbc917ade	-0.017758783
16	0x3c202d99	0.009776496
17	0xbbab89f0	-0.0052349493
18	0x3aaef0d8	0.0013346924
19	0x3c3232bd	0.010876355
20	0x3c715521	0.014729769
21	0xbae98fc3	-0.0017819334
22	0xbc0bd918	-0.008535646
23	0x3c84de78	0.016219363
24	0x3be643d1	0.0070271273
25	0x3c185c25	0.009299313
26	0x3bd5519e	0.0065099737
27	0xbc00abcd	-0.0078534605
28	0x3b8683a4	0.0041050483
29	0xbb1378f2	-0.002250251
30	0xbc6c6158	-0.014427505
31	0x3c55e7b8	0.013055734
32	0xbbd8b4cb	-0.006613349
33	0xbc67b5fc	-0.01414251
34	0x3bee529d	0.007273032
35	0xbc081ce6	-0.008307671
36	0x3c872504	0.016497143
37	0xbc8ac10e	-0.016937759
38	0x3aedd3a8	0.0018144744
39	0xbc0a41cc	-0.008438539
40	0xbc47da00	-0.012197971
41	0x3bfa9f7f	0.007648408
42	0xbc1cebf4	-0.00957774
43	0x3c315a4e	0.010824753
44	0x3c948be5	0.018133113
45	0x3b26443f	0.0025370268
46	0xbc098607	-0.008393771
47	0x3c4783e8	0.012177445
48	0x39b09294	0.00033678545
49	0xbc8aa55d	-0.016924554
50	0x3c163391	0.009167568
51	0xbc30eb59	-0.010798299
52	0x3bf5d483	0.00750214
53	0x3c325fbf	0.010887085
54	0xbb21d38a	-0.0024692737
55	0x3bbe0dae	0.0057999706
56	0x3bdf98c0	0.006823629
57	0xbc7311e3	-0.0148358075
58	0x3b4baa29	0.0031076765
59	0xbbad4b6d	-0.0052885325
60	0x3c1e9c34	0.009680796
61	0xbb2ed725	-0.002667853
62	0xbb4b0bec	-0.0030982448
63	0xbc58acea	-0.01322482
64	0xbc9af1c4	-0.018914111
65	0xbc15f8c9	-0.009153553
66	0x3c9c9534	0.019114114
67	0xbc9d1205	-0.019173631
68	0xbc81f44b	-0.015863558
69	0x3c80fea1	0.015746417
70	0x3c7207b4	0.014772344
71	0x3c916aec	0.01775118
72	0xbc1621d8	-0.009163342
73	0x3a6923ae	0.00088935613
74	0xbc947510	-0.018122226
75	0xbc77f798	-0.015134715
76	0xbaa7b98c	-0.0012796386
77	0xbbdef9f3	-0.0068046986
78	0x3c88034e	0.016603138
79	0xbb700fd6	-0.0036630533
80	0xbc52a911	-0.012857691
81	0x3b7b5702	0.0038351421
82	0x3bf66c7a	0.0075202556
83	0x3c178ef8	0.009250395
84	0xbc35c2cc	-0.0110938065
85	0x3c1b79fd	0.0094895335
86	0x3c6fb891	0.014631406
87	0x3c2b581b	0.010458018
88	0xbc88218b	-0.016617557
89	0x3c90a0fb	0.017654886
90	0x3c762edb	0.01502582
91	0x3bf27e81	0.0074003343
92	0xbc9f851d	-0.019472653
93	0xbbb9b8c6	-0.0056677787
94	0xbc74f9bd	-0.01495212
95	0xbb5d9d58	-0.0033815708
96	0x39a52c2c	0.00031504163
97	0xbb8d7b0f	-0.0043176482
98	0x3c07b4b3	0.008282828
99	0xbbc81084	-0.0061054844
100	0x3bdfa70a	0.0068253325
101	0xbc56819f	-0.0130924275
102	0xbc9d5cc9	-0.019209282
103	0x3b9eab60	0.004842207
104	0xbc37365d	-0.011182395
105	0xbb47d7f8	-0.0030493718
106	0x3c722511	0.014779345
107	0xbc85cc4d	-0.01633277
108	0x3c570041	0.013122619
109	0xbc01f88c	-0.007932793
110	0xbc88d95b	-0.016705206
111	0x3c250dd7	0.0100741
112	0xbbe91cca	-0.0071140276
113	0x3c157882	0.00912297
114	0xbc962916	-0.018330138
115	0x3c013634	0.007886458
116	0xbc4ee3f3	-0.0126275895
117	0x3c4a4431	0.01234536
118	0x3ad976c9	0.0016591187
119	0x3c80ca45	0.01572145
120	0x3c32714c	0.01089127
121	0x3c728e0e	0.014804376
122	0x3c014c67	0.007891751
123	0x3c02bbd4	0.007979352
124	0xbb3534a1	-0.0027649777
125	0x3a30e95b	0.000674864
126	0x3c04e822	0.008111985
127	0xbb64dc35	-0.0034921293
128	0xbb798420	-0.0038073137
129	0x3c89e600	0.016833305
130	0x3c1714bf	0.009221255
131	0xbb0b6fed	-0.002127643
132	0xbc516b52	-0.012781935
133	0xbb096790	-0.002096627
134	0xbbc7941a	-0.006090653
135	0xba7c2d43	-0.00096197816
136	0xbc6670d0	-0.0140649825
137	0xbbc5a2c0	-0.006031364
138	0xbc8c2647	-0.017108096
139	0x3a3c2a52	0.0007177937
140	0x3c77ead0	0.015131667
141	0xbb88b5ed	-0.004172078
142	0xbc7f67c0	-0.015588701
143	0x3c8c394d	0.017117167
144	0x3c6d3cc0	0.014479816
145	0xbba59065	-0.0050526136
146	0x3bf4528e	0.0074561303
147	0xbc864fc8	-0.016395465
148	0xbc8dc15e	-0.017304119
149	0x3c5b1f76	0.0133742
150	0x3c86831a	0.016419936
151	0x3ca5ca20	0.020237982
152	0xbc94b395	-0.018152038
153	0xbae2725a	-0.0017276511
154	0xbc860d81	-0.016363861
155	0xbc99c9cf	-0.018772988
156	0x3bda7c4e	0.0066676503
157	0x3ca37c03	0.019956594
158	0xbb50431d	-0.0031778284
159	0x3a458098	0.00075341156
160	0xbc5840b6	-0.013199022
161	0x3c24ee1b	0.010066534
162	0x3c6db05a	0.0145073775
163	0xbac0e1e2	-0.0014715756
164	0x3c96c2de	0.018403467
165	0x3c948580	0.018130064
166	0x3a116bd0	0.00055473763
167	0x3c2b7b42	0.010466399
168	0xbc6dcd57	-0.014514289
169	0xbc1d1705	-0.009588008
170	0xbbf9471c	-0.007607354
171	0x3c94774c	0.018123291
172	0x3c771a77	0.015081993
173	0x3c7fd1e5	0.015614008
174	0x3a96ada1	0.0011495837
175	0x3c0fb4a1	0.008771093
176	0x3c7f02cd	0.015564633
177	0x3b4ee01e	0.003156669
178	0xbc826b84	-0.015920408
179	0x3bafc5c4	0.0053641517
180	0x397eb116	0.00024289297
181	0xbc33fbc9	-0.010985323
182	0xbc47d9bd	-0.012197909
183	0x3b092763	0.0020928017
184	0xb9242be0	-0.00015656604
185	0xbc3a23c2	-0.011361064
186	0xbc05b96e	-0.008161886
187	0xbc97f2d2	-0.018548403
188	0xbb83ae24	-0.004018562
189	0x3bd56078	0.006511744
190	0xbb984fc1	-0.0046481793
191	0x3c90e071	0.017685147
192	0xbb8e7c51	-0.0043483158
193	0x3c99df1e	0.018783148
194	0x3c81f92b	0.015865883
195	0xbc268003	-0.010162356
196	0xbc89e70e	-0.016833808
197	0xbc756c22	-0.014979394
198	0xbc6823a6	-0.0141686555
199	0x3c88c7fd	0.016696924
200	0xbab1673e	-0.0013534797
201	0xbbe6a6c0	-0.007038921
202	0x3b83c5ac	0.004021367
203	0xb9c71038	-0.00037968322
204	0x3c901e63	0.017592615
205	0xbc4de1fa	-0.012566084
206	0x3c0dbc52	0.008650856
207	0xbae868cd	-0.0017731428
208	0x3c7979db	0.0152268065
209	0xba289bd0	-0.0006431909
210	0x3b8a67f9	0.0042238203
211	0xbc97fdfb	-0.018553725
212	0x3ae0ea16	0.0017159607
213	0xbbfb5549	-0.007670079
214	0xbc977e3b	-0.018492809
215	0x3c8f3737	0.017482383
216	0xbbd2b4ec	-0.006430259
217	0x3acb0b92	0.0015491119
218	0x3c1313d2	0.0089768935
219	0xbb00f8ef	-0.0019679626
220	0xbc868b16	-0.016423743
221	0xbc93e4fb	-0.018053522
222	0x3c1e143f	0.009648382
223	0xbc4244d9	-0.011857235
224	0x3bb9465d	0.00565414
225	0x397a6e01	0.00023882838
226	0x3b81a7a0	0.00395675
227	0xbb428680	-0.002968222
228	0x3c952d55	0.018210093
229	0xbc765179	-0.015034073
230	0x3c8a5aed	0.01688906
231	0xbc881abb	-0.016614309
232	0x3c2030f3	0.009777295
233	0x3c06fc3c	0.008238848
234	0x3ad3b1b9	0.0016150988
235	0xbc8d80d5	-0.017273346
236	0xbc50203f	-0.012703001
237	0xba6707da	-0.00088131207
238	0xbbca2ec9	-0.006170128
239	0x3c659db0	0.014014646
240	0xbb2bfec3	-0.002624438
241	0x3bfb90e0	0.0076771826
242	0xbbf4ba96	-0.007468532
243	0xbb9bbfd9	-0.0047530946
244	0xbc0df2ce	-0.008663846
245	0xbc1788cc	-0.0092489235
246	0x3c58e12a	0.013237277
247	0xbc093a49	-0.008375713
248	0x3c981456	0.018564384
249	0x3c24b8c2	0.010053815
250	0x3b6337ea	0.0034670779
251	0x3b5924a9	0.0033133423
252	0x3ba78d8a	0.0051133083
253	0x3a899553	0.0010496773
254	0x3c0b4f05	0.008502726
255	0x3c816c71	0.01579878
