pretrained/eegnet.pth (torch, 20448 bytes, 19 tensors)

conv1.weight f4 [16, 1, 1, 4]
0	0x3ec40282	0.38283163
1	0x3ed43606	0.41447467
2	0xbdf0c4f6	-0.11756317
3	0x3eeb08dd	0.459052
4	0xbde10e0f	-0.109890096
5	0x3dcf7959	0.10130567
6	0xbe79474c	-0.24343604
7	0x3e963190	0.29334688
8	0x3ee1e8af	0.44122836
9	0xbebbc4b1	-0.366735
10	0x3ede3d7a	0.43406278
11	0x3dc0fb94	0.09422985
12	0x3ebcda70	0.36885405
13	0x3d88d3a2	0.06680991
14	0x3e777e22	0.2416921
15	0xbd919098	-0.07107657
16	0x3ec59e89	0.38597515
17	0x3d975b38	0.073904455
18	0xbe6f0ca1	-0.23344661
19	0x3e014aec	0.12626237
20	0xbe6aa4c0	-0.2291441
21	0xbd707ee9	-0.05871478
22	0xbe4fb38c	-0.20283335
23	0x3eaa5c83	0.33273706
24	0xbec9bf86	-0.39403933
25	0xbe6d155d	-0.2315268
26	0xbe102a10	-0.14078546
27	0xbe99eeec	-0.30065095
28	0x3d43544d	0.047687817
29	0xbefca8d7	-0.49347565
30	0x3ee77a1e	0.45210356
31	0xbed965a6	-0.42460364
32	0x3ec51de9	0.38499382
33	0x3dac3543	0.08408596
34	0xbe272d9c	-0.16325992
35	0x3e9e24cb	0.30887446
36	0x3d9edc59	0.07756872
37	0x3ecefb59	0.40426138
38	0x3d5c207e	0.053741924
39	0xbe21a0a0	-0.1578393
40	0x3e0a11fe	0.13483426
41	0xbe0a5bae	-0.13511536
42	0x3e56f11f	0.20990418
43	0x3ee4d170	0.44691038
44	0x3e940874	0.289127
45	0xbe5f77a2	-0.2182298
46	0x3e93f521	0.28897956
47	0x3db74a8a	0.08949764
48	0x3e8236c5	0.2543241
49	0xbe9c1c45	-0.30490318
50	0xbefd38d4	-0.4945742
51	0xbe460d8f	-0.1934111
52	0xbec45cb3	-0.38351974
53	0x3ed230a6	0.4105274
54	0x3e131005	0.1436158
55	0x3e5401e6	0.20703849
56	0x3e216d3b	0.15764324
57	0xbc168868	-0.009187795
58	0x3ec83b70	0.39107847
59	0xbeb63093	-0.35583934
60	0x3d03bef8	0.032164544
61	0xbeae92d8	-0.34096408
62	0x3e1ea38b	0.15492074
63	0xbe303b8e	-0.17210218

conv1.bias f4 [16]
0	0x3e1d0f80	0.15337944
1	0xbdd489aa	-0.1037782
2	0x3ed468d5	0.4148623
3	0xbe97bbf7	-0.29635593
4	0xbe98a5e8	-0.29814076
5	0xbe98cefa	-0.2984541
6	0x3ee63798	0.4496429
7	0x3e2aa06e	0.16662762
8	0x3ef645aa	0.48100024
9	0xbed3323b	-0.4124926
10	0xbefdb25e	-0.49550146
11	0xbec84928	-0.39118314
12	0xbeac2c6a	-0.33627635
13	0x3e4f349b	0.20234911
14	0x3e373e65	0.17894895
15	0x3ed4b743	0.41546068

batchnorm1.weight f4 [16]
0	0x3f800c1e	1.0003698
1	0x3f800ab5	1.0003268
2	0x3f801d94	1.0009027
3	0x3f801565	1.0006529
4	0x3f801827	1.0007371
5	0x3f8007ea	1.0002415
6	0x3f802522	1.0011332
7	0x3f801128	1.0005236
8	0x3f7fb1e4	0.99880815
9	0x3f7fdc5a	0.99945605
10	0x3f80174d	1.0007111
11	0x3f8019e1	1.0007898
12	0x3f7fdf7d	0.9995039
13	0x3f7fb55d	0.99886113
14	0x3f7fb6c5	0.9988826
15	0x3f801722	1.000706

batchnorm1.bias f4 [16]
0	0xba5bd893	-0.0008386459
1	0xba5ce99f	-0.0008427146
2	0xba540adf	-0.0008088778
3	0x3a1bb29e	0.0005939397
4	0xb82966ab	-4.0388357e-05
5	0xb937b98d	-0.00017521363
6	0xb9ac8a87	-0.00032909607
7	0x39b5111b	0.00034535755
8	0x368ca0bd	4.1910375e-06
9	0xb9fac76d	-0.000478323
10	0x3a06fc57	0.0005149296
11	0x3a14c118	0.0005674525
12	0x39b28483	0.00034049535
13	0x3a9903cd	0.0011674106
14	0x3a21ee6b	0.00061771896
15	0x392c1850	0.00016412255

batchnorm1.running_mean f4 [16]
0	0x4b35a5bd	1.1904445e+07
1	0x4ad4c561	6.9720805e+06
2	0x4b4ab3c1	1.3284289e+07
3	0x4b04755f	8.680799e+06
4	0x4b058e89	8.752777e+06
5	0x4af0ab23	7.8862255e+06
6	0x4b1856a3	9.983651e+06
7	0x4b31774c	1.1630412e+07
8	0x4b103945	9.451845e+06
9	0x4a9ae7bc	5.075934e+06
10	0x4b12f558	9.631064e+06
11	0x4b06774f	8.812367e+06
12	0x4b2fcce6	1.1521254e+07
13	0x4b0962c7	9.003719e+06
14	0x4b0b55cf	9.131471e+06
15	0x4aa60330	5.439896e+06

batchnorm1.running_var f4 [16]
0	0x58f2de95	2.1363024e+15
1	0x587e3cae	1.1181463e+15
2	0x59355754	3.1901868e+15
3	0x589f3137	1.4002698e+15
4	0x5891e08c	1.2831489e+15
5	0x589ffac5	1.4071952e+15
6	0x58a3d4e0	1.4410775e+15
7	0x59283388	2.9590285e+15
8	0x58983bec	1.339065e+15
9	0x57ef7453	5.2656578e+14
10	0x58b0d612	1.5554678e+15
11	0x589aba19	1.3609926e+15
12	0x592d9c1e	3.0541765e+15
13	0x58cff7c2	1.8293041e+15
14	0x58ce8ea9	1.8168969e+15
15	0x581baca8	6.846634e+14

conv2.weight f4 [4, 1, 2, 32]
0	0xbd84cc2e	-0.06484257
1	0xbdaf56e2	-0.085614935
2	0x3d86ceec	0.06582436
3	0xbd51314d	-0.051072408
4	0x3d9a3655	0.07529894
5	0xbcf76acc	-0.030202292
6	0x3d9276fd	0.071516015
7	0xbdc65de0	-0.09685874
8	0xbd8041be	-0.06262539
9	0x3d1e79d6	0.03869041
10	0x3cdda55a	0.027056385
11	0xbcffc0d2	-0.031219874
12	0x3d99e02e	0.07513462
13	0x3daf3857	0.08555668
14	0xbdb89a13	-0.09013762
15	0xbd87e721	-0.06635881
16	0x3dea7f4a	0.1145006
17	0xbd2cce2b	-0.042188805
18	0xbd3555d1	-0.044271294
19	0xbdf749ca	-0.12074621
20	0xbd926132	-0.07147445
21	0x3d004e69	0.031324778
22	0xbc85b84a	-0.016323227
23	0xbdb92ada	-0.090413764
24	0x3b62ec16	0.0034625581
25	0xbdad6a59	-0.0846755
26	0xbdd74710	-0.10511601
27	0xbd8a9a31	-0.06767691
28	0xbddd5dbb	-0.10808893
29	0xbda0464b	-0.07825907
30	0x3e0140e2	0.12622407
31	0x3ccb35cf	0.024805931
32	0x3d1d29a8	0.038369805
33	0xbdeef949	-0.11668641
34	0xbda89b16	-0.08232705
35	0xbd2bd7cd	-0.04195385
36	0x3c9cb02f	0.01912698
37	0xbde233e5	-0.11045054
38	0xbd5e9623	-0.0543424
39	0xbd9a3ab6	-0.075307295
40	0xb9311a7b	-0.000168899
41	0xbd40ce21	-0.04707158
42	0xbc17c74a	-0.009263823
43	0xbdae8962	-0.085222974
44	0xbdb0550e	-0.08609973
45	0xbd9516e5	-0.072797574
46	0xbd2cbbcf	-0.042171296
47	0xbdc7f2c8	-0.09763104
48	0x3dd936f5	0.10606185
49	0xbcc08ef9	-0.023505675
50	0x3ddf00d6	0.10888831
51	0x3d24dfcb	0.040252488
52	0xbdd5d898	-0.104417026
53	0x3db3d181	0.08780194
54	0xbd08b83d	-0.03337883
55	0xbd418430	-0.047245204
56	0xbdd40bc1	-0.103538044
57	0xbdff15c0	-0.1245532
58	0x3d0ffa7d	0.035150994
59	0xbce5dfa9	-0.028060751
60	0x3d447b1d	0.047968972
61	0xbdd353be	-0.10318707
62	0x3dbd1179	0.09231848
63	0xbdbca456	-0.09211032
64	0xbcb239b1	-0.021756025
65	0x3cd3c3b9	0.025850164
66	0x3d8391b8	0.06424278
67	0x3dce12f7	0.10062211
68	0x3de8b31f	0.1136229
69	0xbdcb69bc	-0.099322766
70	0x3d000fce	0.031265073
71	0xbd5cd1e1	-0.053911094
72	0xbc626ad0	-0.013819411
73	0xbdbfd40d	-0.09366617
74	0x3de8fa64	0.11375883
75	0xbdbc36b8	-0.09190124
76	0x3d8846f4	0.06654158
77	0x3d325d63	0.04354609
78	0x3d247d45	0.04015853
79	0xbd8b70e6	-0.06808643
80	0x3de7c8df	0.1131761
81	0x3cde5a9a	0.027142812
82	0x3c813571	0.015772553
83	0xbde2305f	-0.11044382
84	0x3d560957	0.052255
85	0xbc9ad5ec	-0.018900834
86	0xbd6ade33	-0.057340812
87	0x3ddbe90c	0.107378095
88	0x3ce4ff9f	0.02795392
89	0xbd8d5274	-0.06900492
90	0xbd812526	-0.063059136
91	0xbbbcea08	-0.0057652034
92	0x3d8f5dd8	0.07000321
93	0xbd02071a	-0.031745054
94	0xbd91b474	-0.07114497
95	0xbd2eca35	-0.04267331
96	0xbdbdfc0f	-0.09276592
97	0x3d397bce	0.045284085
98	0x3dc7c3fc	0.09754178
99	0xbdef3fc5	-0.11682085
100	0x3cf52aaf	0.02992758
101	0x3d86108e	0.06546126
102	0x3cc095b6	0.023508888
103	0xbd330b4d	-0.04371195
104	0x3d87360b	0.06602105
105	0x3d8809c9	0.06642491
106	0x3d4244a0	0.047428727
107	0xbcaebbf5	-0.02132986
108	0xbd05181c	-0.032493696
109	0x3c64d389	0.01396645
110	0xbcafd7d5	-0.021465221
111	0xbd15cc70	-0.03657192
112	0x3da51a9c	0.08061716
113	0x3ddd871d	0.108167864
114	0xbc3e0d71	-0.011599884
115	0xbcde9efe	-0.027175423
116	0x3b2e9ef6	0.002664504
117	0xbbd93585	-0.0066286945
118	0x3cfce9ae	0.030873146
119	0x3d12d148	0.035844117
120	0xbde6e6ef	-0.11274516
121	0xbd39f3fc	-0.045398697
122	0x3dd8f42f	0.10593449
123	0x3d49fe81	0.04931498
124	0xbbb846e2	-0.0056236843
125	0xbd992f7b	-0.07479759
126	0xbd9ba9c3	-0.07600739
127	0xbde48e77	-0.111599855
128	0xbd26cc99	-0.040722463
129	0x3d2d6ffa	0.042343117
130	0x3da3a03d	0.079895474
131	0x3d6c5677	0.057699647
132	0xbde26f29	-0.11056358
133	0xbd9a3f3e	-0.07531594
134	0xbca338d7	-0.019924564
135	0x3df733be	0.12070416
136	0x3c920b60	0.01782769
137	0xbd05b07a	-0.032639004
138	0x3d52d789	0.05147508
139	0xbd43e95a	-0.047829963
140	0xbda5f4ce	-0.081033334
141	0x3dbac96c	0.091204494
142	0xbd688f8a	-0.056777515
143	0xbcca5e7c	-0.024703257
144	0xbdfdc684	-0.123913795
145	0x3dac6a24	0.08418682
146	0x3dc342f1	0.095342524
147	0x3d3d9404	0.046283737
148	0xbdb0d776	-0.08634846
149	0xbdfae413	-0.12250533
150	0xbdce292b	-0.10066446
151	0x3dc09bcf	0.09404718
152	0x3d791060	0.060806632
153	0x3dd900a3	0.105958246
154	0x3d87aba3	0.06624534
155	0x3d04aa3a	0.032388903
156	0xba0159e9	-0.0004934357
157	0xbdc13c38	-0.09435314
158	0xbdda20a3	-0.10650756
159	0xbdee8597	-0.11646574
160	0x3d516553	0.05112202
161	0xbd7b0451	-0.061283413
162	0xbcccd67a	-0.025004614
163	0xbd92f5b7	-0.07175773
164	0xbcb9b11b	-0.022667458
165	0xbdb43cf0	-0.088006854
166	0xbda774f6	-0.081766054
167	0x3d2937df	0.04131305
168	0xbd18e6b7	-0.0373294
169	0x3d9db897	0.07701223
170	0xbd24b706	-0.040213607
171	0xbdbc0fde	-0.09182714
172	0xbcb65ad6	-0.02226011
173	0xbd797b53	-0.060908627
174	0xbd1ec2ea	-0.038760103
175	0xbdf463fe	-0.119331345
176	0x3d8ed283	0.06973746
177	0xbdb27b57	-0.087149315
178	0x3d809769	0.06278879
179	0x3d685bb4	0.05672808
180	0x3db705dc	0.089366645
181	0xbdc42f16	-0.095792934
182	0x3db8667f	0.090039246
183	0xbd704df1	-0.05866808
184	0x3d3fa8ca	0.04679183
185	0x3df1256d	0.117747165
186	0xbc8dc76e	-0.01730701
187	0xba2e4be1	-0.000664888
188	0xbce8f455	-0.02843682
189	0xbdd4f880	-0.1039896
190	0x3d76cfd3	0.06025679
191	0xbdfd412e	-0.12365948
192	0x3d9e7c58	0.077385604
193	0x3dbf36e4	0.093366414
194	0x3df1f5cf	0.118144624
195	0xbcf0cfba	-0.029395927
196	0xbdd1d1d7	-0.10245102
197	0x3ce96762	0.02849168
198	0x3d8e3ee0	0.06945586
199	0xbdfe044b	-0.124031626
200	0xbce52eee	-0.02797648
201	0xbd987fc6	-0.07446246
202	0xbc2a4785	-0.010393028
203	0xbd79b82f	-0.060966667
204	0xbd4f2f94	-0.050582483
205	0xbd20d05e	-0.039261214
206	0xbdf243c0	-0.118293285
207	0x3dd2da0e	0.10295497
208	0x3dd74cd0	0.10512698
209	0xbc9d009a	-0.019165326
210	0xbc5ffb60	-0.013670772
211	0xbd4f2c40	-0.05057931
212	0xbde628ee	-0.112382755
213	0xbdf81983	-0.12114241
214	0x3d4048b1	0.046944324
215	0xbd8bd945	-0.0682855
216	0xbda44d17	-0.08022516
217	0xbc1f16a6	-0.00970999
218	0xbd2acba5	-0.041698117
219	0xbd261e68	-0.04055634
220	0x3b7fbec6	0.0039023622
221	0xbcdaa9a6	-0.026692223
222	0xbd31581e	-0.043296926
223	0xbd76af41	-0.06022573
224	0xbdcfa42c	-0.10138735
225	0x3dd77464	0.105202466
226	0xbd4a9820	-0.049461484
227	0x3d0b0466	0.03393974
228	0xbd2db301	-0.04240704
229	0x3c37a16f	0.011207922
230	0x3df0eee4	0.11764315
231	0x3d70b223	0.058763634
232	0xbddb6c99	-0.10714073
233	0x3d5003c2	0.050784834
234	0x3df55451	0.11978973
235	0x3d0b21e4	0.033967867
236	0x3dada971	0.08479584
237	0x3dfe35ec	0.124126285
238	0xbc965b0c	-0.018353961
239	0x3cdaa842	0.02669156
240	0xbdb076fd	-0.08616445
241	0xbccd223b	-0.025040736
242	0x3dbf23b1	0.093329795
243	0x3d84d1dd	0.06485341
244	0xbda0566c	-0.07828984
245	0xbdcb79c7	-0.099353366
246	0xbdad0671	-0.08448494
247	0xbdfaad3c	-0.12240073
248	0xbdc395a1	-0.09550024
249	0xbcf5de88	-0.030013338
250	0x3daecd27	0.085352235
251	0x3cb26a3a	0.021779168
252	0xbdc149d8	-0.09437913
253	0xbdcc7451	-0.09983123
254	0x3d7f817d	0.06237935
255	0xbdbf4986	-0.09340195

conv2.bias f4 [4]
0	0xbc730a24	-0.014833961
1	0x3d720f11	0.0590964
2	0xbd6fcd38	-0.05854532
3	0xbc5c9956	-0.0134642925

batchnorm2.weight f4 [4]
0	0x3f801f42	1.0009539
1	0x3f7fd1d3	0.9992954
2	0x3f7ff302	0.99980175
3	0x3f800054	1.00001

batchnorm2.bias f4 [4]
0	0x3a9b9839	0.0011870927
1	0x3a94acb9	0.0011342979
2	0xb9ffd58c	-0.00048796495
3	0x39a4af11	0.00031410952

batchnorm2.running_mean f4 [4]
0	0x3e300896	0.17190775
1	0x3d80bd65	0.06286124
2	0x3c37f6fa	0.011228317
3	0x3db979e5	0.09056453

batchnorm2.running_var f4 [4]
0	0x3e8fa0b3	0.2805229
1	0x3e157f6b	0.14599387
2	0x3e1a6fa6	0.15081653
3	0x3e5c27fb	0.21499626

conv3.weight f4 [4, 4, 8, 4]
0	0xbbfc1b94	-0.0076937173
1	0xbcab4dfd	-0.020911211
2	0xbd3790b4	-0.044815734
3	0xbda15e1a	-0.078792766
4	0xbd915cdb	-0.07097789
5	0xbd3f54ac	-0.04671161
6	0x3db04550	0.0860697
7	0xbd2c0bb6	-0.042003356
8	0xbd74112f	-0.0595867
9	0x3cb0748b	0.021539947
10	0x3ccaa730	0.024737924
11	0x3d489dde	0.04897868
12	0x3d8919e3	0.066943906
13	0x3d4876cb	0.048941415
14	0xbdb3f0b5	-0.087861456
15	0x3bfe81d9	0.007766944
16	0x3d5bcaa9	0.05366007
17	0xbc038cf3	-0.00802921
18	0xbd54f3b6	-0.051990233
19	0x3daca474	0.084298044
20	0xbd0aadc6	-0.03385713
21	0xbd50fff7	-0.051025357
22	0xbda4be68	-0.080441296
23	0x3b5b5aa4	0.0033470774
24	0x3d1e4a3e	0.03864502
25	0x3ca06879	0.019581066
26	0x3c8f99b1	0.01752934
27	0xbd8a6865	-0.06758193
28	0xbda76cd3	-0.081750534
29	0x3b22b7b8	0.0024828743
30	0x3da6b2bc	0.081395596
31	0x3d53a3ee	0.051670007
32	0xbd52ca94	-0.051462725
33	0xbc3bfb9c	-0.011473563
34	0xbd8571c9	-0.065158434
35	0xbd2ea7eb	-0.042640608
36	0x3c859de9	0.016310649
37	0x3d454843	0.048164617
38	0x3d9568d5	0.07295386
39	0xbda69439	-0.0813374
40	0x3d71e8b5	0.059059817
41	0xbd7e2fc6	-0.06205728
42	0x3d0710a1	0.032974843
43	0x3d998f0d	0.07497988
44	0x3abf8002	0.0014610293
45	0x3da5604e	0.08075009
46	0xbd997ec6	-0.07494883
47	0xbd081e87	-0.03323224
48	0x3d5389a7	0.051644947
49	0xbc9976ed	-0.018733466
50	0xbc8fc9ee	-0.017552342
51	0xbd1660ca	-0.0367134
52	0x3d789433	0.06068821
53	0x3d30ca51	0.043161694
54	0x3ce64ef4	0.02811382
55	0xbd4c8ed2	-0.04994089
56	0xbd936b11	-0.07198156
57	0x3c176cc6	0.009242242
58	0x3cd5975a	0.026073147
59	0xbd274df4	-0.040845826
60	0xbccd7124	-0.025078364
61	0x3d732018	0.05935678
62	0x3bd407b4	0.006470645
63	0x3b88ca3b	0.0041744984
64	0xbcb23222	-0.02175242
65	0xbda3ede3	-0.08004358
66	0xbdaa346c	-0.0831078
67	0xbd2d0f58	-0.04225096
68	0xbd33cd03	-0.043896686
69	0x3ce780ba	0.028259624
70	0xbccd3c14	-0.025053062
71	0xbd0b5db3	-0.034024905
72	0x3daf0f4a	0.08547838
73	0x3d0242b7	0.031801905
74	0x3d82a8be	0.06379841
75	0xbd2f8641	-0.042852644
76	0xbd142b0f	-0.036173876
77	0x3d03f47b	0.032215577
78	0xbd72a806	-0.05924227
79	0xbd6bef04	-0.05760099
80	0xbb844c45	-0.0040374123
81	0xbd022a1f	-0.03177845
82	0xbd8765cf	-0.06611215
83	0x3d548c54	0.05189164
84	0x3d8f9513	0.070108555
85	0x3c632781	0.013864399
86	0xbc82b08a	-0.015953321
87	0xbda8c48c	-0.08240613
88	0xbd036245	-0.03207614
89	0x3cba4099	0.02273588
90	0x3d2a528b	0.041582625
91	0xbc3afa06	-0.011412149
92	0xbd0d2023	-0.034454476
93	0x3d4c31a5	0.049852032
94	0xbd8f83ad	-0.07007537
95	0x3d665342	0.056231745
96	0xbd0c7464	-0.034290686
97	0x3ab15113	0.001352819
98	0xbc8f16d4	-0.01746694
99	0x3c2f92a0	0.0107161105
100	0xbcd42c9b	-0.025900176
101	0x3d855271	0.06509865
102	0xbac79ed0	-0.0015229825
103	0x3d8e809d	0.06958125
104	0x3dadaff6	0.084808275
105	0xbd30918d	-0.043107558
106	0xbd83c28f	-0.064335935
107	0x3d9224a2	0.071358934
108	0x3d8da41f	0.06916069
109	0xbd89a43a	-0.06720777
110	0xbbd0c6df	-0.0063713635
111	0xbdb1b030	-0.08676183
112	0xbd945257	-0.072422676
113	0x3c8c478c	0.01712396
114	0x3cbf4427	0.023347927
115	0x3c992f4c	0.01869931
116	0xbcc982d5	-0.024598518
117	0x3da53629	0.08066971
118	0x3c3c1e06	0.0114817675
119	0xbd599851	-0.053123776
120	0xbbbdf951	-0.005797543
121	0x3ca718e5	0.020397613
122	0x3cfbd38c	0.030740522
123	0xbd7e28d2	-0.062050648
124	0x3d0a78c1	0.033806566
125	0xbd3967c5	-0.045264978
126	0xbd96d072	-0.073639765
127	0xbd44c658	-0.048040718
128	0x3dae93a5	0.08524255
129	0x3d9abeec	0.07555947
130	0x3da21999	0.079150386
131	0x3d548550	0.05188495
132	0x3d88d71e	0.06681655
133	0xbc417a23	-0.011808905
134	0xbd483327	-0.048876908
135	0x3d332c8d	0.04374366
136	0xbd386869	-0.04502145
137	0xbd70458c	-0.058660075
138	0xbce01c7d	-0.027357334
139	0x3ca083a4	0.019594021
140	0x3d3a961d	0.045553315
141	0xbd0f427d	-0.034975518
142	0xbd587d94	-0.052854136
143	0x3c3bf2d9	0.011471474
144	0xbd529a48	-0.051416665
145	0xbd68b440	-0.056812525
146	0x3d3fdd48	0.04684189
147	0xbc65677e	-0.014001725
148	0x3da6327e	0.08115099
149	0x3dafbd8a	0.085810736
150	0x3cd6a9d7	0.026204033
151	0x3cf9fac0	0.030515075
152	0x3c9f4df8	0.019446358
153	0x394e7ab0	0.00019691396
154	0xbbecfb91	-0.0072321375
155	0x39f6ecc6	0.00047097186
156	0x3d074f45	0.03303458
157	0x3da86062	0.082215086
158	0xbcbcaffe	-0.023033138
159	0xbd1b99c6	-0.037988447
160	0xbcaf5899	-0.021404551
161	0xbd2ee8e0	-0.042702556
162	0x3c763e0a	0.01502944
163	0x3d871f21	0.06597734
164	0x3d8c8ac1	0.06862403
165	0x3d23020f	0.039796885
166	0xbd877b02	-0.06615259
167	0xbd43363d	-0.047659148
168	0xbc9d85a6	-0.019228768
169	0xbc859b43	-0.016309386
170	0x3be8227c	0.007084189
171	0xbda73ac0	-0.081655025
172	0x3ce248b4	0.027622558
173	0xbd89d35a	-0.06729765
174	0xbd66a1ef	-0.056306776
175	0xbd97fd64	-0.07421377
176	0x3d9ca970	0.07649505
177	0xbdadff33	-0.08495941
178	0x3d869ee4	0.06573275
179	0xbb681743	-0.0035414256
180	0xbc2f4d92	-0.010699647
181	0x3d6141f5	0.054994542
182	0xbc07fd69	-0.008300164
183	0x3d639d5a	0.055569984
184	0x3d811f39	0.063047834
185	0xbd9e2791	-0.077223904
186	0x3d09c1a3	0.033631932
187	0x3c85c6d9	0.01633017
188	0x3c917a45	0.017758498
189	0x3c3ea58f	0.011636152
190	0x3cbca654	0.02302853
191	0xbd32b0d8	-0.043625683
192	0xbc39474f	-0.011308505
193	0x3dabfd76	0.08397953
194	0x3d733c49	0.059383664
195	0xbb599ea5	-0.0033206132
196	0xbdaaa1e3	-0.08331659
197	0x3b403830	0.0029330365
198	0xbd76e9f0	-0.060281694
199	0x3d9377fe	0.07200621
200	0xbd5a998b	-0.053369086
201	0xbbbe5605	-0.005808594
202	0xbc9771f7	-0.01848696
203	0x3c8ba9df	0.017048774
204	0x3da98464	0.08277205
205	0x3c02c351	0.007981137
206	0x3d4e8d3b	0.050427657
207	0x3d8c9262	0.06863858
208	0x3d930084	0.07177833
209	0xbcf78bf7	-0.030218108
210	0xbca27fd2	-0.01983634
211	0x3d33882c	0.043831035
212	0xbcc04e2d	-0.023474777
213	0x3d2c0144	0.041993394
214	0xbc9bed4c	-0.01903405
215	0xbd7573ef	-0.059925016
216	0x3d127777	0.03575846
217	0x3c5aa7aa	0.013345638
218	0x3d1c6fcb	0.03819255
219	0x3db17d62	0.08666493
220	0x3d76784f	0.06017333
221	0x3dab431c	0.083624095
222	0x3b907492	0.0044084275
223	0xbd9bf278	-0.076146066
224	0xbd7dfae0	-0.06200683
225	0xbd60e390	-0.05490452
226	0xbd9f85e3	-0.07789209
227	0xbd357892	-0.044304438
228	0xbda71e51	-0.08160079
229	0xbda7e5b6	-0.08198111
230	0xbd5a53d2	-0.053302594
231	0xbdb38ff4	-0.08767691
232	0xbd5987f3	-0.053108167
233	0x3d0e8ee5	0.034804244
234	0x3d9805fc	0.074230164
235	0xbcd61277	-0.026131852
236	0xbcd2a693	-0.025714194
237	0x3d423ca8	0.047421128
238	0xbd33e638	-0.043920726
239	0xbd2e2b08	-0.042521507
240	0x3d6055dc	0.054769382
241	0xbd9e2252	-0.0772139
242	0x3c2793c1	0.010228098
243	0x3d9f3081	0.07772923
244	0x3c76a905	0.015054946
245	0x3cc6b067	0.024254037
246	0xbd5340df	-0.051575538
247	0xba90976b	-0.0011031454
248	0x3b80f867	0.003935862
249	0x3ca9e616	0.020739596
250	0x3d09b042	0.03361536
251	0x3d9db740	0.07700968
252	0xbd89b27b	-0.067234956
253	0x3b35b245	0.0027724665
254	0xbd3785da	-0.044805385
255	0xbd907e49	-0.07055337

conv3.bias f4 [4]
0	0xbda8d7e1	-0.08244301
1	0x3d06c345	0.032901067
2	0xbd2f3992	-0.042779513
3	0x3d3a9b7a	0.04555843

batchnorm3.weight f4 [4]
0	0x3f7fdeca	0.99949324
1	0x3f7fcdfa	0.9992367
2	0x3f7fc9af	0.9991712
3	0x3f7fe47b	0.9995801

batchnorm3.bias f4 [4]
0	0xba8ae562	-0.0010596926
1	0x395d6504	0.00021113834
2	0x3a3da0e4	0.00072337524
3	0xb93812f5	-0.0001755467

batchnorm3.running_mean f4 [4]
0	0xbdba36d7	-0.09092491
1	0x3dff4b58	0.124655426
2	0xbc96b6f2	-0.018397782
3	0xbd471cab	-0.048611324

batchnorm3.running_var f4 [4]
0	0x3e105263	0.14093928
1	0x3e31c4bf	0.17360209
2	0x3e26f472	0.16304186
3	0x3e19ba26	0.15012416

fc1.weight f4 [1, 2496]
0	0x3c5b0de9	0.013370016
1	0x3c029649	0.007970401
2	0x3c984177	0.018585904
3	0x3ca2df12	0.019881759
4	0x3b91be1d	0.004447712
5	0xbc6880d8	-0.014190875
6	0x3c92aa7f	0.017903564
7	0xbc215d6a	-0.009848932
8	0xbc205824	-0.009786639
9	0x3c829735	0.015941242
10	0x3c76397c	0.015028354
11	0x3bb761f1	0.0055963923
12	0x3a814b20	0.0009864308
13	0xbc88ed86	-0.016714823
14	0xbb228afe	-0.0024802084
15	0x3c9d4de5	0.019202182
16	0x3ba4595e	0.005015536
17	0x3af95b0c	0.0019024326
18	0xbb992b58	-0.0046743564
19	0xbbec8ccd	-0.007218933
20	0x3c480701	0.012208701
21	0x3a775949	0.0009435607
22	0x3c5a1e06	0.013312822
23	0xbb83e759	-0.0040253815
24	0x3c08ed8d	0.008357418
25	0x3c0cfaf2	0.008604752
26	0x3b3a6d45	0.0028446477
27	0x3c4f97d6	0.012670478
28	0x3c5b5295	0.013386388
29	0x3c99dfe5	0.018783519
30	0x3c80cc5e	0.01572245
31	0xbbaaf09c	-0.005216671
32	0xbc87bd2d	-0.016569698
33	0x3b5ac38e	0.003338072
34	0xb9135e2f	-0.00014054099
35	0xbbae9920	-0.0053283125
36	0xbb5e4bee	-0.003391977
37	0x3a527ec8	0.0008029756
38	0x3c69e74f	0.01427634
39	0x3bc16e5a	0.0059030475
40	0xbbf17c6a	-0.0073695676
41	0xbc0cdf5f	-0.008598178
42	0xbba073c9	-0.004896615
43	0xbbf77330	-0.007551573
44	0x3c910880	0.017704248
45	0x3c30ea92	0.010798113
46	0x3c96e7b3	0.01842103
47	0x3895a235	7.135087e-05
48	0x3b8921f3	0.0041849553
49	0x3bf3a0f7	0.00743496
50	0xbc9b4bc0	-0.018957019
51	0x3b0faa25	0.0021921482
52	0xbaa6d190	-0.0012727249
53	0xbc36b6f2	-0.011152016
54	0xbc82cef7	-0.01596783
55	0x3c912b74	0.017720915
56	0x3c88d248	0.016701832
57	0x3c164d52	0.009173708
58	0x3ca0cafa	0.019628037
59	0xbc03682a	-0.00802044
60	0xbb51583a	-0.0031943456
61	0x3c06f52d	0.008237165
62	0xbb43dabe	-0.002988502
63	0xbb52196c	-0.003205861
64	0xbc821995	-0.01588134
65	0x3bc6824a	0.006058012
66	0xbc444df0	-0.011981472
67	0x3a4c988e	0.0007804715
68	0x3c9e91e4	0.019356675
69	0xbbd1841f	-0.006393924
70	0xbbc5d0c9	-0.006036852
71	0x3c3c4b0c	0.011492502
72	0xbbec659f	-0.0072142626
73	0xbad32b79	-0.0016110978
74	0x3c987bfe	0.018613812
75	0xbc0d0648	-0.008607455
76	0xbc6a35b9	-0.014295035
77	0xbc37a607	-0.011209018
78	0xbbc525e1	-0.0060164784
79	0xbc0c7739	-0.008573347
80	0xbc24ebf9	-0.010066026
81	0x3bf944f6	0.0076070977
82	0x3b84f923	0.0040580197
83	0xbbc90c4b	-0.0061354986
84	0xbc80c555	-0.015719095
85	0xbbc73022	-0.006078736
86	0xbc0faf42	-0.008769812
87	0xbbd6f54c	-0.0065600034
88	0xbc96da17	-0.01841454
89	0x3b54f311	0.0032493512
90	0xbc766d39	-0.015040689
91	0xbc83a32e	-0.016069021
92	0xbc89c093	-0.01681546
93	0x3c039654	0.0080314465
94	0xbc4324d9	-0.011910641
95	0xbc0b78b3	-0.008512664
96	0x3c84ca67	0.016209794
97	0x3c29d969	0.010366776
98	0x3c454b8a	0.012041936
99	0xbc9afaef	-0.018918483
100	0xbc67b9f7	-0.014143459
101	0xbbe08b01	-0.006852508
102	0x3c8560da	0.016281534
103	0x3ae5c5a2	0.0017530213
104	0xbc74c2b2	-0.014938997
105	0x394806ad	0.00019075973
106	0xbc7e42dc	-0.01551887
107	0xbb8a5a92	-0.0042222226
108	0xbba778aa	-0.00511082
109	0x3c8cc587	0.017184032
110	0x3bc7199c	0.006076051
111	0xbb500497	-0.0031741017
112	0x3b689676	0.0035490072
113	0xbba2ca29	-0.004967947
114	0x3bfa7a5a	0.00764398
115	0x3c06fb53	0.008238631
116	0x3bb3a09c	0.0054817926
117	0xbbee4fa9	-0.00727268
118	0x3c8b8531	0.017031284
119	0xbb4a12c3	-0.0030833937
120	0xbc021a6b	-0.007940869
121	0x3c4ddb53	0.012564498
122	0x3c86ba28	0.016446188
123	0x3c9ffea1	0.019530596
124	0x3bbf2568	0.0058333166
125	0xbbd4ec15	-0.0064978697
126	0x3c245bfe	0.010031698
127	0x3c8b3120	0.016991198
128	0xbc9f04d8	-0.01941149
129	0xbb1c10a7	-0.0023813637
130	0xbc68a067	-0.014198399
131	0x3b64acf0	0.0034893118
132	0x3c0f5169	0.008747437
133	0xbb782684	-0.0037864754
134	0xbab22a0e	-0.0013592856
135	0x3c1cb2c1	0.009564103
136	0xbb6650da	-0.0035143406
137	0xbc859963	-0.016308492
138	0x3c88ed95	0.01671485
139	0xbc1ff909	-0.009763964
140	0xbabaf62c	-0.0014264039
141	0x3b16c31a	0.0023004473
142	0xba53bc0f	-0.0008077034
143	0xbc95c922	-0.018284384
144	0x3c1b3e0e	0.009475244
145	0xbc0ca063	-0.008583161
146	0xbc28afde	-0.010295836
147	0x3bc00993	0.0058605163
148	0xbc1b7a6b	-0.009489636
149	0xbc0f98e4	-0.008764479
150	0xbbdb41a9	-0.006691177
151	0xbbf44b8f	-0.0074552963
152	0xbc0a87f3	-0.008455264
153	0xbba0d543	-0.0049082353
154	0x3bbd4160	0.0057756156
155	0xbc819adf	-0.015820919
156	0xbc43b08d	-0.011943948
157	0x394f9909	0.00019798068
158	0x3b44d511	0.0030034224
159	0x3c3692c3	0.011143389
160	0xbc6bfe77	-0.014403931
161	0x3bd0858d	0.0063635767
162	0x3c3318c6	0.010931199
163	0x3c3a802c	0.011383098
164	0xbc9b96a5	-0.018992731
165	0xbc04eb98	-0.008112811
166	0xbc918bbd	-0.017766828
167	0xbc577829	-0.013151207
168	0x3c371222	0.011173757
169	0xbb4aa2d7	-0.0030919814
170	0x3c146558	0.009057365
171	0xbc3b50dd	-0.0114328535
172	0x3b4b22b8	0.0030996036
173	0xbc3e1c7f	-0.011603474
174	0x3c24875a	0.010042036
175	0xbc057a04	-0.008146767
176	0xbb8f7ea1	-0.004379109
177	0xbc89f211	-0.01683906
178	0x39715379	0.00023014647
179	0x3c98de5b	0.018660715
180	0x3c27e697	0.010247848
181	0xbc3059e5	-0.01076362
182	0x3a2be45a	0.00065571594
183	0xbadad981	-0.0016696901
184	0xbc815123	-0.01578576
185	0x3c84804c	0.016174458
186	0x3a15fa01	0.00057211524
187	0x3b8d8320	0.00431861
188	0xbbf66b17	-0.0075200903
189	0xbc0f7322	-0.008755477
190	0x3b5dc661	0.0033840167
191	0x3be2500f	0.0069065164
192	0x3b8f4dcb	0.0043732873
193	0xbc1e7097	-0.009670398
194	0x3c9f0a2e	0.019414034
195	0xbb3bde6b	-0.0028666507
196	0xbc4702d8	-0.012146674
197	0xbc14a175	-0.0090716975
198	0x3ca4b765	0.02010698
199	0xb9e6f283	-0.00044049704
200	0xbb326a09	-0.0027223846
201	0xbc0babf8	-0.008524887
202	0xbbaebd56	-0.005332629
203	0xbc891e18	-0.016737983
204	0xbc86432b	-0.01638945
205	0x3c3a18bf	0.011358439
206	0x3c8ad8d6	0.016949099
207	0x3c98fd56	0.018675487
208	0xbc73b05b	-0.014873589
209	0x3c2bab29	0.0104778195
210	0xbc50982b	-0.012731592
211	0x3c4e1d82	0.012580277
212	0x3c694559	0.014237725
213	0x3c7d8f5f	0.015476077
214	0x3c68e415	0.014214535
215	0x3c4d4dbb	0.012530739
216	0x3a8c8c21	0.0010722914
217	0x3c135dc4	0.008994523
218	0xbbe3794f	-0.0069419513
219	0x3c067453	0.008206445
220	0xbbcbbeb7	-0.0062178033
221	0xb8edbc20	-0.00011336082
222	0xbc89febe	-0.016845103
223	0xbbb5f69e	-0.0055530807
224	0xbc28cb22	-0.010302337
225	0xbbf2032b	-0.0073856316
226	0xbc569d6c	-0.013099056
227	0xbc94fff7	-0.01818846
228	0x3a80db87	0.0009831049
229	0x3c548976	0.012972226
230	0x3c97b813	0.01852039
231	0x3c376fa2	0.011196049
232	0xbc27ee62	-0.010249706
233	0xbca73b61	-0.020414056
234	0x3beee910	0.007290967
235	0x3c342153	0.010994273
236	0xbc8da236	-0.017289262
237	0x3bf1b229	0.0073759747
238	0x3c8cbeb1	0.017180772
239	0x3a97a888	0.0011570612
240	0xbc41360f	-0.011792674
241	0x3c84cf17	0.01621203
242	0x3c0967bf	0.008386551
243	0x3c546aee	0.012964947
244	0xbc638e4f	-0.0138889095
245	0x3c3ab31c	0.011395242
246	0xbc64a93f	-0.013956367
247	0x3ca1364f	0.019679217
248	0xbc0f4701	-0.008744956
249	0x3c42a045	0.011879032
250	0x3b67a478	0.0035345834
251	0x3bad1181	0.0052816276
252	0xbb71e517	-0.003691023
253	0x3c00d22a	0.007862607
254	0xbc094e51	-0.0083804885
255	0xbc9d395d	-0.019192392
