pretrained/eegnet_trained.pth (torch, 10400 bytes, 19 tensors)

conv1.weight f4 [16, 1, 1, 4]
000000 0d 13 d5 be 72 b7 ef bd 52 ce 07 3e 96 32 fa 3c
       -0.41616097 -0.11704911 0.13262299 0.0305417
000010 44 20 98 3e 68 8d 83 be 3b 32 53 be 14 8d 55 3e
       0.29712117 -0.25693822 -0.2062463 0.20854598
000020 9e db b3 be c7 e4 e2 3e 7f ed a1 be a6 57 65 3e
       -0.35128492 0.44315168 -0.31626508 0.22396716
000030 d9 27 57 be bb 5e 0d be 58 31 db 3e 51 47 e2 bd
       -0.21011294 -0.13805668 0.42811084 -0.11048759
000040 0f 58 3e be bc 81 f1 3e 02 ff 41 3e 2b f5 c1 be
       -0.18588279 0.47169292 0.18944934 -0.3788236
000050 24 e8 64 3e e1 a0 e2 3e 2a 43 a5 bb 68 38 ef 3e
       0.2235418 0.44263366 -0.005043407 0.46722722
000060 e4 96 94 3e 23 05 f9 3e 26 f5 2a 3e 12 46 98 be
       0.2902137 0.48636732 0.16695079 -0.2974096
000070 43 4c cc be 4d 5a df 3e e0 bf d4 bd 77 b7 af 3c
       -0.39901933 0.43623582 -0.1038816 0.021449788
000080 fb 28 f1 be 8e ad 0c 3e 00 57 df be 7c d3 39 3b
       -0.47101578 0.13738081 -0.43621063 0.0028354814
000090 15 7c a6 3d c2 52 a3 be a8 ea d9 3e 55 f8 ba be
       0.081291355 -0.31899077 0.4256184 -0.36517587
0000a0 0c 84 35 bc 8f d4 9a 3e fb 16 b6 be 98 22 a6 be
       -0.011078846 0.30240294 -0.35564408 -0.32448268
0000b0 fd 98 80 3e fb 91 e9 3e 04 9d 4c bd 77 e1 d6 3d
       0.2511672 0.45619187 -0.04995443 0.10492223
0000c0 9c 60 9c bd aa 62 1e be fb 61 fd be 14 29 5e be
       -0.07635614 -0.15467325 -0.49488816 -0.21695358
0000d0 05 f8 a2 3e eb 84 3a 3e a9 20 b7 be 36 a5 6e 3e
       0.3182985 0.18214767 -0.35767105 0.2330521
0000e0 7d bb 39 3e ec 84 a8 3e 3c 7d 8e 3e 80 7a b5 3c
       0.18137927 0.3291391 0.2782992 0.02215314
0000f0 27 1f 6c be 3c c7 37 3e a7 7f 88 be 3e aa 51 3d
       -0.23058759 0.17947096 -0.2665989 0.051187746

conv1.bias f4 [16]
000000 44 da 52 3c a7 5f 68 bd fb e2 9f be a0 ad cd be
       0.012869421 -0.056731846 -0.3122786 -0.40171528
000010 a1 c1 b0 be db da e7 3c dd 50 4e 3c d1 8f b9 3e
       -0.34522727 0.0283026 0.0125925215 0.36242536
000020 65 57 3b bd 11 20 af 3e 4d 50 f6 be 35 67 7c 3d
       -0.045737643 0.34204152 -0.4810814 0.061621863
000030 91 77 25 3e 2a 03 d9 3e 43 a5 fa be 07 fd 92 3e
       0.16158892 0.42385226 -0.4895421 0.2870867

batchnorm1.weight f4 [16]
000000 f7 71 80 3f 5f 65 80 3f be de 7f 3f 1f 00 80 3f
       1.0034779 1.0030936 0.9994925 1.0000037
000010 c6 31 80 3f 31 e2 7d 3f c5 fa 7e 3f 4e ec 7f 3f
       1.001519 0.99173266 0.99601394 0.9996995
000020 1d bf 7d 3f 36 74 82 3f 9b 30 81 3f 4b fc 7f 3f
       0.9911974 1.0191715 1.0092958 0.99994344
000030 ad 29 81 3f 5d b1 83 3f a9 e6 81 3f 5b 35 80 3f
       1.0090843 1.0288502 1.0148517 1.0016283

batchnorm1.bias f4 [16]
000000 49 a2 98 bc bb c9 66 bc 29 40 59 bc ce dc c4 b9
       -0.018632071 -0.014086182 -0.013259926 -0.00037548546
000010 8f ed e2 bb d7 a5 63 3a bb 62 d6 3b c3 93 e6 b9
       -0.006925292 0.0008684075 0.0065425313 -0.0004397911
000020 6e af 20 bc da eb ec bc 28 c9 be bc fe 90 71 b9
       -0.009807451 -0.028921057 -0.023289278 -0.00023037565
000030 8e b0 c0 bc 21 c4 07 bd d8 8e 86 bc 06 b6 0b ba
       -0.023521688 -0.033146027 -0.016425535 -0.0005329553

batchnorm1.running_mean f4 [16]
000000 f5 c2 35 4a cc eb 9d 4a 4e fc 59 4a 09 82 67 4a
       2.9779812e+06 5.174758e+06 3.5714755e+06 3.7930262e+06
000010 60 be fd 4a 7e 7d c8 4a 6e 75 29 4b 2f 9a 4a 4a
       8.314672e+06 6.569663e+06 1.1105646e+07 3.3194358e+06
000020 31 89 91 4a 26 af fa 4a d4 48 f5 4a 23 4c ba 4a
       4.7689205e+06 8.214419e+06 8.037482e+06 6.1045935e+06
000030 91 ee ca 4a f1 62 bd 4a 56 a5 8e 4a 8a 24 12 4a
       6.6496725e+06 6.2058165e+06 4.674219e+06 2.3944025e+06

batchnorm1.running_var f4 [16]
000000 e0 90 35 57 1c d0 be 57 35 26 0b 57 57 c9 1f 57
       1.9963384e+14 4.1960206e+14 1.5299621e+14 1.756871e+14
000010 26 dd 83 58 c2 6b b2 57 67 9c c6 58 f3 6c 26 57
       1.1598868e+15 3.9235177e+14 1.7470004e+15 1.8298686e+14
000020 78 49 8e 57 c9 f0 aa 58 e3 b2 3c 58 9c bf b1 57
       3.128924e+14 1.5036091e+15 8.29906e+14 3.9087303e+14
000030 09 78 c7 57 17 1b df 57 50 4c 6e 57 23 92 85 56
       4.3863672e+14 4.906149e+14 2.6201153e+14 7.343135e+13

conv2.weight f4 [4, 1, 2, 32]
000000 e3 a0 26 3d 54 ce 82 bc b2 ae c8 3d d3 6b e2 bd
       0.040680777 -0.015967526 0.097989455 -0.11055722
000010 0a cc 1b 3d 5a bc f6 3d 0e 75 28 bd ce a8 ee 3d
       0.038036384 0.12047644 -0.041127257 0.11653291
000020 1a 65 9c 3b 54 61 75 3c 05 05 b3 bc 61 a9 f5 3d
       0.0047727944 0.014976818 -0.02185298 0.11995197
000030 a2 e0 e7 3d 9e 62 f4 3d 28 47 53 bd 45 07 2e bd
       0.11322142 0.11932872 -0.05158153 -0.0424874
000040 b0 d5 83 bd fe 37 bf bb 33 85 a3 3d 7e 66 17 bb
       -0.06437242 -0.005835532 0.0798439 -0.0023101862
000050 19 0e fb 3d 47 ae ce bd 33 ff f2 bd 0c ea 01 3e
       0.12258548 -0.100918345 -0.11865082 0.12686938
000060 05 c8 e1 3d 0c 69 b6 3c a5 12 cd bd d9 fc e0 3d
       0.11024479 0.022266887 -0.10013322 0.10985727
000070 af 09 a7 3d 77 90 66 bd cd 4c e4 bc 4b be f0 3c
       0.08156144 -0.056290116 -0.027868653 0.029387614
000080 7e 17 8c 3d 21 56 f7 3d a2 dc a4 3d 8d 81 d3 3d
       0.06840418 0.12076975 0.08049895 0.10327444
000090 77 26 18 bd 94 35 d8 3d 55 37 45 bd c8 cb 11 3e
       -0.037146058 0.10557094 -0.04814847 0.14237893
0000a0 cc ee 8a 3d 0c bc 30 bd b2 39 bc 3c 6d 0f 85 3d
       0.06783828 -0.043148085 0.02297673 0.06497083
0000b0 1f 6f 96 bd ba e6 7f bd 09 5d c0 3d 8c 3f 01 3e
       -0.073454134 -0.062475897 0.09392745 0.12621897
0000c0 4c c2 c1 bd 0e 90 8e 3c b0 78 03 3e 33 33 77 3c
       -0.09460887 0.017402675 0.12839007 0.01508789
0000d0 72 2d b3 bd 86 f5 03 bd 44 5f b2 3d 81 ff 60 3d
       -0.087489024 -0.03221657 0.08709577 0.054931168
0000e0 93 df e0 bd 04 c3 66 bd 5f 2e e6 bc c0 d2 ac 3c
       -0.109801434 -0.056338325 -0.028098283 0.021096587
0000f0 60 4a 93 3d a7 17 ad 3d 90 97 25 3d 05 6f e6 3c
       0.0719192 0.08451777 0.040427744 0.02812911
000100 ff 21 f0 3d f9 7d f2 3d 06 9d a6 3d 5f 08 b2 3d
       0.11725234 0.118404336 0.081354186 0.08693003
000110 00 1e 03 bd 32 b4 df 3c ca 8b 95 3d fc 82 5e 3d
       -0.032011032 0.027307604 0.07302053 0.054324135
000120 2f c5 77 3d e5 bf c7 bd 05 da d6 bd 99 12 97 3c
       0.060490783 -0.09753398 -0.10490803 0.018441485
000130 8c 8a ab 3d 42 b3 de bd 9f 12 85 3c 1c 30 a9 3d
       0.08376035 -0.108740345 0.01624423 0.08261129
000140 43 23 06 bd f0 6e 62 bd 2e 06 e2 3c 65 12 ed bd
       -0.032748472 -0.05528158 0.027590837 -0.11575774
000150 22 3d dc 3d 4b b3 f9 3d 8d 25 9e bb a8 ed e7 bc
       0.10753848 0.121924005 -0.0048262537 -0.028311566
000160 17 2b cc bd 6a c4 63 3d ff 50 db bc 44 bc 0d 3d
       -0.09969156 0.055607237 -0.02677202 0.034603372
000170 45 9c 18 bd fb 93 8d 3d 8f 70 c2 bd 42 d6 46 bd
       -0.037258405 0.06912991 -0.09494125 -0.048544176
000180 9b 0b 37 bc f2 09 9c bd 1f 13 d2 bd 89 2f cf bd
       -0.011172201 -0.076190844 -0.10257553 -0.101164885
000190 13 b4 bf 3c ba 65 f5 3d 86 a9 da bd a9 10 a6 bd
       0.023401296 0.119822934 -0.10676865 -0.081086464
0001a0 4d 6b e9 3c 7c bb b3 3d 70 69 fb 3c d2 bd 9d bc
       0.028493548 0.08775994 0.030689925 -0.019255552
0001b0 5d 27 11 3d 96 aa f4 bc b0 31 9f bd 4d b4 74 3d
       0.03543793 -0.029866498 -0.07773149 0.05974226
0001c0 37 5b 90 bd 29 57 a7 bd d6 71 9c 3d 27 4d fd bb
       -0.07048648 -0.08170921 0.076389 -0.0077301445
0001d0 e3 b1 85 3d c2 d6 a1 3d b9 a9 6b bd 1e f3 b0 3d
       0.0652807 0.0790229 -0.057534907 0.08640121
0001e0 2d b0 7f bd f1 9c 22 bd 8a 86 87 3d 10 25 b0 bd
       -0.062423874 -0.039700452 0.06617458 -0.08600819
0001f0 73 c0 f5 3d d8 f1 95 3d d3 1c e7 3c f7 99 99 bd
       0.119995974 0.07321519 0.028211987 -0.075000696
000200 de b6 e8 3d cb 2c 80 bd 19 6d b5 bd 50 6c 67 3d
       0.11363004 -0.062585436 -0.08858699 0.05649978
000210 c3 b4 a6 3c 23 ba ac bd ab 37 de 3d 08 f9 c9 3d
       0.020349866 -0.0843394 0.108504616 0.09861952
000220 d6 f0 fa 3c f3 da 1d 3c 55 ea a9 3c 4e ae b2 3d
       0.030632418 0.009634721 0.020741621 0.08724652
000230 92 d6 3b bd 0c a3 a1 3d 0c 31 23 3c 36 50 42 3d
       -0.045858927 0.07892427 0.009960424 0.047439776
000240 78 f2 f1 bd 3d 09 e7 bd e0 f5 54 bc 3d 36 cc bd
       -0.11813825 -0.11281059 -0.012998074 -0.09971283
000250 92 93 c8 bd 2b 28 10 3d b1 77 8d 3d c6 ca f9 bc
       -0.09793772 0.035194557 0.06907595 -0.030492198
000260 2c 13 6c 3d 00 71 e8 3d 32 8a 88 bd 82 73 bc bc
       0.05763547 0.11349678 -0.06666984 -0.023004297
000270 ae c3 93 bd b5 88 80 3c f9 b2 cf bd f1 bd cf 3d
       -0.07215057 0.015690187 -0.10141558 0.1014365
000280 b6 c3 aa 3d 09 13 d9 bd 5b 09 99 bd a4 d6 f0 3d
       0.0833811 -0.10599334 -0.074724875 0.117596895
000290 02 71 02 bd 17 46 84 bd ee 37 7e 3d ff ef 37 3d
       -0.031846054 -0.06458681 0.062065057 0.044906612
0002a0 ea 7e a5 3c ff f3 a8 3b 3a df 74 3d c0 58 8e 3d
       0.020202119 0.0051560397 0.059783198 0.069505215
0002b0 b0 37 01 3c 26 62 f5 3d e9 96 f4 bd fc c8 87 3d
       0.007886812 0.11981611 -0.11942846 0.066301316
0002c0 7a 43 b6 3c 90 63 bf bd 58 c1 05 bd 75 4e f5 bd
       0.022248972 -0.09345162 -0.03265509 -0.11977855
0002d0 75 04 50 3d 5a 8b f7 bc 58 5e b2 3b 6e 27 db bd
       0.0507855 -0.030217815 0.0054433756 -0.1070088
0002e0 ff 85 c6 3d fd d5 79 3d ec 7b ad bd de 15 3e bd
       0.096935265 0.06099509 -0.08470902 -0.046407573
0002f0 79 8e e7 3d ee c2 85 bd 78 94 4f bd 1e 10 d2 3c
       0.113064714 -0.065313205 -0.0506787 0.02564245
000300 7f e3 a0 bc d4 34 05 be 48 6e f1 3a 2a 11 d1 bd
       -0.019639729 -0.13008434 0.0018419707 -0.10208352
000310 05 71 d1 bd 65 b4 03 3d e0 28 c5 3d e8 7d d0 bd
       -0.10226635 0.03215446 0.09626937 -0.10180265
000320 44 ef a1 bd 77 61 4e 3d 7a f6 60 3d fe 2b bc bd
       -0.079069644 0.05038592 0.05492256 -0.09188078
000330 d8 08 8d bd 4a 65 c6 3d e4 87 0c be e1 b2 57 3d
       -0.068864524 0.09687288 -0.13723713 0.052660827
000340 72 48 af bd 9f 38 6e bd 59 04 0e bd 7c de 9d 3d
       -0.0855874 -0.058159467 -0.034672115 0.07708451
000350 3a e5 3d 3d 3b c5 88 3d 4c da 07 be ea ef 25 bc
       0.046361186 0.06678244 -0.13266867 -0.010128001
000360 21 39 d2 bd 39 ca 26 3d c3 e4 01 be e2 e2 a7 bc
       -0.10264803 0.0407202 -0.12684922 -0.020493928
000370 97 23 9f 3d fd 9a ae 3d f1 19 1e bd b2 f5 c4 bd
       0.0777046 0.085256554 -0.03859896 -0.09617175
000380 38 8c bd bd b5 e7 bb 3c 81 bb d7 bc 6c 2e e8 bb
       -0.0925526 0.022937635 -0.026334526 -0.007085612
000390 ef 38 67 bd 52 18 7d bd 1d 15 cb 3d 53 6b 80 3c
       -0.05645078 -0.06179077 0.099161364 0.015676176
0003a0 31 eb 59 bd a6 b9 c6 bc 54 57 9c 3d 6a 33 ce bb
       -0.05320281 -0.024258446 0.07633844 -0.00629275
0003b0 04 aa 72 bd 51 9e 55 bd 10 1c fa bd dd cd c1 bd
       -0.05924417 -0.052152935 -0.12212384 -0.094630934
0003c0 7d 5b e1 3c 58 08 b5 bd b7 78 45 bd 49 1c aa bb
       0.027509445 -0.08839482 -0.048210826 -0.00519136
0003d0 7c 89 df bd a7 d9 aa 3c a6 0b b0 bd 08 96 b6 bd
       -0.10914895 0.020855738 -0.08595972 -0.08915335
0003e0 3a da 05 bc 52 35 fb 3c 35 bd c9 3d ae 2b 5e 3d
       -0.008169705 0.030665074 0.098505415 0.054240875
0003f0 f3 f8 9e 3d d5 7a 60 3b 30 51 6f 3d 2f 3b 8d bd
       0.07762327 0.00342529 0.058427036 -0.06896054

conv2.bias f4 [4]
000000 0f b1 b3 3c ae d2 11 be 07 60 39 3d 94 6c 20 3d
       0.021935014 -0.14240524 0.045257594 0.03916605

batchnorm2.weight f4 [4]
000000 c0 81 82 3f 20 24 7e 3f a5 53 7e 3f 70 44 83 3f
       1.0195847 0.9927387 0.9934638 1.025526

batchnorm2.bias f4 [4]
000000 00 1c 88 bc ae d2 dc bc 7e bf 3c 3c 95 8b 34 3d
       -0.016614914 -0.026955929 0.011520265 0.04407843

batchnorm2.running_mean f4 [4]
000000 16 2d 9a 3d ff 99 e6 bc 07 09 7e 3d 96 e8 3d 3d
       0.07528131 -0.028149603 0.062020328 0.04636439

batchnorm2.running_var f4 [4]
000000 63 08 d3 3e d9 9c 90 3e 1b 1e 8b 3e c3 50 6a 3e
       0.41217336 0.28244665 0.27171406 0.2288237

conv3.weight f4 [4, 4, 8, 4]
000000 b9 70 a7 bd 47 9c f7 3c ee 17 ad 3c e8 68 37 bd
       -0.08175797 0.030225886 0.021129575 -0.04477778
000010 30 5b 54 bd f9 97 73 bd ff 7e 4e 3d 06 c9 ba bc
       -0.051844776 -0.059471104 0.05041408 -0.022800934
000020 f0 cc c0 bb b9 1e 94 bd ad 08 6b 3c 53 64 bf 3d
       -0.0058838055 -0.072324224 0.01434533 0.09345307
000030 2d 92 4b 3d 2d 73 44 bc 0e a0 99 bc d1 b1 70 bd
       0.04969995 -0.011990351 -0.018753078 -0.05876333
000040 a5 b3 cd 3c 68 6b c0 bc b8 3d 19 3d ae 70 65 3d
       0.025110075 -0.023488715 0.037412375 0.056015663
000050 0a 61 61 3d 57 6b 9a 3c cf b0 9c 3c 2b 60 aa 3a
       0.055024184 0.018850012 0.019127278 0.0012998631
000060 84 b9 6a bc 99 1e 8e 3c 8a f1 bd bb 38 89 6d bd
       -0.014326457 0.017348574 -0.005796616 -0.05799219
000070 59 c3 3c bd 87 4a b8 bd 01 1a 5f bd 30 07 86 3d
       -0.046084736 -0.0899859 -0.05446816 0.0654434
000080 3e 45 74 bd a4 e1 bc 3b ed df 3a bc da a1 81 bd
       -0.059636347 0.005764203 -0.011405927 -0.06329699
000090 4a 80 05 3d 07 ad d2 bc a3 a7 5d bd a0 b5 84 3c
       0.03259305 -0.025717271 -0.05411495 0.016199887
0000a0 f8 0c 96 3d ca 8a b6 3c 91 83 b5 3d 70 04 b0 3d
       0.07326692 0.022282977 0.08862985 0.085945964
0000b0 73 a5 d8 3b 42 c7 88 bd ad dd 1f bc 56 c7 80 bd
       0.00661152 -0.066786304 -0.0097574415 -0.0628802
0000c0 b3 96 3c 3c 42 71 ee bc 3d 48 87 3d fa 8e e5 3b
       0.011510539 -0.02910674 0.06605575 0.0070055695
0000d0 2a 73 40 bd b8 d2 81 bd ec 1b 51 bd f9 ac 6e bc
       -0.04698483 -0.063390195 -0.05105202 -0.014567607
0000e0 1d 42 56 3d f1 f3 54 bc 5c cc 9e bb 57 b9 7c bd
       0.052309144 -0.012997613 -0.004846139 -0.06170019
0000f0 5f 69 62 bd d5 13 40 3d f0 de 87 3d 46 b8 85 bd
       -0.05527627 0.046893913 0.06634319 -0.06529288
000100 87 20 39 3d eb c2 11 bd 86 eb 80 bc e8 7b 92 bd
       0.045197036 -0.03558628 -0.015737306 -0.071525395
000110 28 90 1b 3c 31 04 c5 3b ba 13 ef 3c fd a2 90 bc
       0.009494819 0.0060124625 0.029184211 -0.017655844
000120 f0 17 72 bd ed 53 39 bd cc 98 99 bc 8d 8c 8c bd
       -0.05910486 -0.045246053 -0.018749617 -0.068627454
000130 83 80 12 bc 23 90 d1 3c 2a 0d 1f bd f4 79 5c bd
       -0.008941772 0.025581425 -0.038830914 -0.05382724
000140 2e 3c a6 bd dc f8 2b bd 95 4b 02 3d 92 2d 46 3d
       -0.08116947 -0.041985378 0.031810362 0.048383303
000150 d9 e2 55 bc 08 77 d0 bc a5 ed 0f bd 6b 6f 86 3d
       -0.013054573 -0.025447384 -0.035138745 0.0656422
000160 8d ec 66 3d 9f 03 4b 3d 68 6c b9 bc 9b 29 73 bd
       0.056377936 0.049564 -0.0226347 -0.05936585
000170 33 98 57 3d c2 0d 22 ba 8c 61 47 bd 67 04 0c bd
       0.052635383 -0.00061818596 -0.048677012 -0.034183886
000180 b6 1b 8e bd a8 fd 99 bd 65 8d 7b 3d 97 46 fa 3b
       -0.06938879 -0.07519084 0.06141414 0.0076378095
000190 88 2b 09 3d ac a9 b9 3b 7e 0e 82 3d 48 a2 6e 3c
       0.03348878 0.0056659784 0.063504204 0.014565058
0001a0 d9 45 cc 3c 67 cd 2b 3d 13 81 45 bd 7d a8 aa 3d
       0.02493565 0.041943934 -0.048218798 0.08332918
0001b0 cb 9f a2 3d f9 a5 8d 3d 90 d4 a7 3d 4b 90 8d bd
       0.07940634 0.069164224 0.0819484 -0.06912287
0001c0 d1 2e 8b 3d a3 46 a3 bc dd c5 71 3c 1e 27 56 bd
       0.06796039 -0.019931143 0.014756647 -0.0522834
0001d0 11 1b bb 3d 8e ac b6 bc 90 ac d8 3d 97 59 50 bc
       0.09136022 -0.022299077 0.10579789 -0.012716672
0001e0 89 d0 56 3d 17 c6 b3 3d a8 3d 8c 3b 6a 60 a6 3d
       0.05244497 0.08778017 0.004279811 0.08123858
0001f0 7f 68 3c 3d 19 45 2a bd ce d5 74 bb da 37 01 3d
       0.045998093 -0.041569803 -0.0037358883 0.031547405
000200 6c b8 9c 3d 88 7d b2 bd c8 17 cd 3c 00 ba ab 3c
       0.07652363 -0.087153494 0.025035754 0.020962715
000210 8e 68 c1 3c a3 21 81 3c a6 bc 93 3c 80 ce 25 bd
       0.023609426 0.01576311 0.01803429 -0.040480137
000220 14 e8 31 3b 67 ac a0 bb e7 52 5b 3d 4d 32 e4 ba
       0.0027146386 -0.0049033645 0.05354586 -0.001741001
000230 97 a2 a3 bc a7 25 62 3d d3 be 32 bd 43 c8 e5 3b
       -0.01997499 0.05521169 -0.043639015 0.0070123984
000240 80 67 4d bd b8 c4 6e 3d 51 7f 01 bb 35 e6 f2 bc
       -0.050147533 0.058293074 -0.0019759724 -0.029650787
000250 db bf 95 3d 1d 57 ae 3d e9 29 91 3d 86 df 4e 3c
       0.07311984 0.08512709 0.07088072 0.012626534
000260 ed 17 c0 bd 60 61 88 3a 88 28 0d 3b 66 72 8d 3d
       -0.093795635 0.0010404997 0.002153905 0.069065854
000270 66 60 d5 3c d6 58 89 bd 38 12 a3 3c e1 72 ad bc
       0.026046943 -0.06706397 0.019906148 -0.021172943
000280 cb 70 1c bd 97 74 b8 ba c9 34 9f 3d f9 a7 ad bd
       -0.038193505 -0.0014072832 0.0777374 -0.08479304
000290 a5 48 a5 3d 84 11 7f bc 7e 15 89 bd bb 76 04 bd
       0.080704965 -0.015568141 -0.066935524 -0.032339793
0002a0 6f f8 c5 3d df 01 7a bd 03 38 dd bb 21 5e 13 bd
       0.096665256 -0.06103694 -0.006751062 -0.03597844
0002b0 98 7c e5 bb 21 e7 99 3d 5e f0 59 3b 1f 8f e4 3c
       -0.007003378 0.075147875 0.0033254842 0.027900277
0002c0 e9 29 42 bd f6 5d be 3c dc 05 57 bd 1d fc 05 3c
       -0.04740325 0.023238163 -0.052495822 0.008177784
0002d0 ed b7 42 bd 6f 59 0c bd ec 2d a2 3d 32 40 c1 bb
       -0.047538687 -0.034264978 0.07918915 -0.0058975453
0002e0 60 ae 7e 3d 42 5f 32 3c e6 e8 2c bc 98 46 81 bc
       0.062178016 0.010886969 -0.010553574 -0.015780732
0002f0 96 4f 9b 3d a5 50 72 bd 01 0e ba 3b c8 e2 f0 bc
       0.07583539 -0.05915894 0.005677939 -0.029405013
000300 61 41 99 bc ce ff 16 bd df cd 4b ba ad 5a 22 3b
       -0.018707933 -0.036865048 -0.00077745126 0.0024773285
000310 ee f0 59 bd 11 c8 6c bd 5e d8 b4 bc f0 1d 9f bd
       -0.053208284 -0.057807986 -0.022075828 -0.07769382
000320 11 d3 23 bd a7 35 ad 3d 5e 78 01 3d 2b a2 55 3d
       -0.03999621 0.08457499 0.03160893 0.05215661
000330 ea d4 1f bc c1 f0 8d bc 9f a4 de bb be 48 24 bd
       -0.0097553525 -0.017326714 -0.0067945267 -0.040108435
000340 1a 81 53 bd 65 bd 0f bc bd 7c ae bc 0c c5 87 bd
       -0.051636793 -0.0087731825 -0.021299714 -0.066293806
000350 82 ec 30 bd f2 4a 88 3d c7 f8 ce bc 27 c3 e4 bc
       -0.0431943 0.0665492 -0.02526511 -0.027925087
000360 c7 86 8a bd de f1 23 3d 4f 68 9b 3d 71 41 91 bd
       -0.06763988 0.040025584 0.07588255 -0.0709256
000370 6e 99 88 3d 72 0e 7d bd 37 0e 11 bd 29 97 ae bd
       0.066698894 -0.061781354 -0.035413947 -0.08524925
000380 8c 4d 44 bb f5 4f 20 bd e1 58 a3 3b 6d 5f 26 bd
       -0.0029953448 -0.039138753 0.0049849604 -0.04061835
000390 f1 ef 14 bd 2c 45 42 3d f6 d1 b1 bd 55 49 e6 3b
       -0.03636164 0.04742925 -0.08682625 0.007027785
0003a0 40 09 31 bd ae 87 a6 3d a7 87 36 3c b0 b7 b5 bd
       -0.043221712 0.081313476 0.0111407405 -0.08872926
0003b0 f1 17 cb 3c 32 31 30 bc b2 e7 08 3c 9c c7 8e bd
       0.02479169 -0.010753917 0.008356022 -0.06971666
0003c0 9d eb ba bd b3 59 68 3d cd 55 e2 bc 19 5a 34 bd
       -0.09126971 0.05672617 -0.027628804 -0.044031236
0003d0 93 38 0f bd c5 09 c9 3b 00 eb 97 bc aa 60 66 bd
       -0.034966063 0.006135198 -0.018544674 -0.05624453
0003e0 8e 0b 29 bc 9d dd 81 3c 64 3b 0a bc c4 32 3e bd
       -0.010317696 0.015852744 -0.008437011 -0.046435133
0003f0 b0 8a 7c 3c 3a af 46 3c 17 1f 28 3d 3c 18 a8 3d
       0.015413925 0.012126738 0.041045275 0.08207747

conv3.bias f4 [4]
000000 86 04 db 3d 08 92 10 3d e0 6b 6f 3d 05 35 5b bd
       0.10694222 0.035295516 0.058452487 -0.05351736

batchnorm3.weight f4 [4]
000000 21 8f 81 3f eb 5e 80 3f 37 b6 7d 3f c8 73 82 3f
       1.0121804 1.0028967 0.9910616 1.0191584

batchnorm3.bias f4 [4]
000000 a8 94 06 3d b0 0e f1 bc 4e f3 69 3b 83 67 77 3c
       0.032856613 -0.029425949 0.0035698 0.015100363

batchnorm3.running_mean f4 [4]
000000 f8 9d 30 3e df fc ed bd 5f 02 e4 3d 43 72 02 bd
       0.1724776 -0.11620497 0.11133265 -0.03184725

batchnorm3.running_var f4 [4]
000000 a3 8d 81 3e 14 0e 52 3e 22 41 b6 3e 09 f7 7b 3e
       0.25303373 0.20513183 0.35596567 0.24605955

fc1.weight f4 [1, 56]
000000 14 59 c8 bd 56 e1 ee bd a9 42 56 bd 7f f7 69 3d
       -0.09782615 -0.11664073 -0.052309666 0.057120796
000010 de 2f e9 bd 53 41 a8 bd 9b 88 4e bd 1c b9 3f 3d
       -0.11386083 -0.082155846 -0.050423246 0.046807393
000020 39 90 02 be a8 75 72 3b a4 f1 f2 3d 8e ad c9 3d
       -0.12750329 0.0036996398 0.118624955 0.09847556
000030 3c ef aa 3c db 77 d3 bd e5 b5 c0 bd 81 6f cf 3d
       0.020866029 -0.10325595 -0.09409694 0.101286896
000040 9b a5 02 bc 00 54 ba bd 24 71 d8 bd 00 e0 d5 3c
       -0.007974054 -0.09098053 -0.10568455 0.026107788
000050 7d 2c 18 3d 37 2e ac 3d 62 85 49 bd a7 6d c3 3d
       0.037151802 0.08407252 -0.04919947 0.09542399
000060 88 55 a3 3d db c8 98 3d 40 05 6a 3d 28 44 d2 3d
       0.07975298 0.07460185 0.057133913 0.10266906
000070 98 1d a5 3d 89 c6 83 3d 2a 59 51 bd 20 d2 b2 bd
       0.08062285 0.06434352 -0.051110424 -0.087314844
000080 8a de d6 bd de cb c8 bb 80 d5 c9 3d d9 97 0f 3e
       -0.10491665 -0.0061278185 0.09855175 0.14022769
000090 95 f6 20 bd cb 28 6b 3d 1f ac c8 bd 1e 44 c8 bd
       -0.03929766 0.05741195 -0.097984545 -0.09778617
0000a0 2d 0d cf 3c 80 a9 79 3d a0 0e ca 3d 28 b7 5d bd
       0.025274837 0.060952663 0.09866071 -0.05412975
0000b0 a5 bd 6b 3d a3 0f f0 3d 19 38 e4 bd e5 bb f9 3d
       0.057553906 0.117217325 -0.11143512 0.12194041
0000c0 a3 ea db bc 68 b3 72 3d c4 10 b3 bc c3 d0 cf 3c
       -0.026845282 0.059253126 -0.02185858 0.0253681
0000d0 e6 41 ca bd 4f ee 76 bd 65 c7 f6 bd cc ff 8f bd
       -0.098758504 -0.060285863 -0.1204975 -0.07031211
