pretrained/eegnet_trained.pth (torch, 20448 bytes, 19 tensors)

conv1.weight f4 [16, 1, 1, 4]
00000000: 94de e83e b6bd f1be 7ac2 8bbd c9f0 afbe
00000010: ea3b 643e b82e 17be f4fb 03bd 7cd5 4dbe
00000020: 2a6a c2be e8b0 9e3e 7ed8 fdbe 2f18 113e
00000030: 36cc adbe 3558 873e d37e afbe 4a39 0e3e
00000040: e782 f0be bdf1 413e 16c7 b9bc 5ba7 fd3e
00000050: bc0d bebe c793 81be 4850 9fbe af0a 143e
00000060: baf4 da3e 75eb 9fbd 9e54 7f3d 8bba a8be
00000070: 4b8b e53c 07a8 e4be 616e 4d3d 6b50 dcbe
00000080: b517 65be e956 903e cfaa 8f3e 7403 de3d
00000090: da04 e13e 6608 053e d037 38be b05a 0f3d
000000a0: a5a7 f63e d329 fcbd d096 02bf dd50 54be
000000b0: 9773 f4be 6c67 9f3e b06a 27bb 8253 cabe
000000c0: 48c8 d03e ba69 9f3d 78d6 f6be da0b 99be
000000d0: 43dd dabe e165 053f bc91 7cbe 3ab8 f2be
000000e0: b6bf e13e 9ded 5c3c 9485 193e a788 ab3d
000000f0: 1cd2 ef3e 118f 8f3e f291 f83e c4b2 d3be
0.45482314 -0.4721505 -0.06824203 -0.34363392 0.2228848 -0.14763916 -0.032222703 -0.20100969
-0.37971622 0.30994344 -0.49579233 0.14169382 -0.33944863 0.26434484 -0.34276447 0.13889042
-0.4697487 0.18939872 -0.02267794 0.49541745 -0.37119853 -0.25308058 -0.31115937 0.144572
0.42764837 -0.07808582 0.062336557 -0.3295482 0.028020522 -0.44659445 0.050154094 -0.43030104
-0.22372325 0.28191307 0.28060004 0.108405024 0.43949014 0.12991485 -0.17990041 0.034998596
0.48174778 -0.12312665 -0.5101137 -0.20733972 -0.47744438 0.31133592 -0.0025545768 -0.39516836
0.40777802 0.077838376 -0.48210502 -0.29891855 -0.42746934 0.5210858 -0.24664968 -0.4740618
0.44091576 0.013484386 0.14992362 0.08375674 0.46839988 0.28038839 0.48548847 -0.41347325

conv1.bias f4 [16]
00000000: 3bcc 8cbe 7dd1 cbbe 11cf a23e 2cbf 6ebe
00000010: 659d ebbe a3a8 73bb 8301 8f3e 121a 393e
00000020: 79bb e83e 04df 233e fc3f 3ebe f520 c53e
00000030: 5368 e83e aaf7 673e 6d0b cc3e c193 583e
-0.27499565 -0.39808264 0.31798604 -0.23315114 -0.4601852 -0.0037179373 0.2793084 0.18076351
0.4545553 0.16003042 -0.18579096 0.38501707 0.45392093 0.2265307 0.39852467 0.21150114

batchnorm1.weight f4 [16]
00000000: 6fbb 813f 3826 823f 4d8c 813f 7125 803f
00000010: a9c6 803f 1c1a 823f 131b 813f c927 803f
00000020: fae8 833f a536 813f 06c5 823f bd2f 803f
00000030: f4aa 813f f2ee 853f ef3a 803f ba29 803f
1.0135325 1.0167913 1.0120941 1.0011426 1.0060626 1.0164218 1.0086387 1.0012141
1.0305474 1.0094801 1.0216377 1.0014569 1.0130296 1.0463545 1.0017985 1.0012734

batchnorm1.bias f4 [16]
00000000: 7aa1 bcbb 4e61 1fbc 3ec5 3abb 3d45 d039
00000010: b371 bfbb d90f 4a3c bc4a 86b9 66d3 d039
00000020: c9e1 0e3d b2d3 3f3c 98a7 a73c d95a e439
00000030: 7c3a 3f3c faba c63c c3e7 eb3b b484 e139
-0.005756554 -0.009727789 -0.0028498913 0.00039724438 -0.0058424114 0.01233288 -0.00025614153 0.00039830356
0.034883294 0.011708187 0.020465657 0.00043555236 0.011671659 0.02425908 0.007199259 0.00043014216

batchnorm1.running_mean f4 [16]
00000000: f64c 1c4b 7917 8f4a f3fe 154b 0534 f34a
00000010: c532 fb4a 7361 ee4a c5f2 f54a 10a3 dd4a
00000020: 33e2 b44a a088 ec4a 9b7e 314b 06da 004b
00000030: abaf 284b f336 1f4b 046a f24a 01b7 4d4b
1.0243318e+07 4.6888285e+06 9.830131e+06 7.9692825e+06 8.2312665e+06 7.8112575e+06 8.0592345e+06 7.2626e+06
5.9271935e+06 7.750736e+06 1.1632283e+07 8.444422e+06 1.1055019e+07 1.0434291e+07 7.943426e+06 1.3481729e+07

batchnorm1.running_var f4 [16]
00000000: 811d 2d59 cefb 1358 ce45 1e59 8716 cc58
00000010: 6cb9 0059 2c0f 9858 82b4 eb58 e3aa 9d58
00000020: 5c0a 2058 4f4e 9d58 935d 4b59 bd3e 9c58
00000030: 0066 3859 55f5 de58 2e26 9558 84b5 5759
3.0454757e+15 6.508388e+14 2.7843623e+15 1.795177e+15 2.264542e+15 1.3375274e+15 2.073284e+15 1.3868582e+15
7.038654e+14 1.3836773e+15 3.5776441e+15 1.3743462e+15 3.2439716e+15 1.9611622e+15 1.3119297e+15 3.7947937e+15

conv2.weight f4 [4, 1, 2, 32]
00000000: 6b7f a5bb 06f3 9bbb 8cd3 843c 8617 6ebd
00000010: c08a 503d 26c4 3ebd 3907 143e ee6e 0d3e
00000020: fa48 123e b10b 9c3d 1ba5 13bd 9297 9c3d
00000030: 5578 b5bb 61df d63a ca8e 57bd 8d4a 0e3e
00000040: ef7f 833d 75db 6e3d b358 67bc 8c74 94bb
00000050: 6ec8 d53c 7a68 933d 251b 433d a05e 323a
00000060: e08c 96bd 797e 97bd 56e0 97ba c1b8 093e
00000070: f1a6 6ebd 6f5d 063e 228f 9c3d 50ee b5bd
00000080: c35a 063e 450d a7bd ecbe a0bd 19e5 35bc
00000090: 99e1 ef3d 0859 a83c cd3c 6abc 6b7e 013e
000000a0: c84b 0e3e 7da6 063e 08c3 19bd 4646 e6bc
000000b0: ff52 0e3e 50fc a3ba c44a 213d f233 113e
000000c0: ffb0 b7bd dd33 b4bd 4ab5 013e 0cd9 f13c
000000d0: 09db 5e3d bc31 103e 69c0 0b3b eaf2 9bbc
000000e0: d747 fa3c 64cf 59bd e6fe 943c e510 b1bd
000000f0: 7733 dd3d f6e0 923d 507d c33d c016 c23b
00000100: a9ec b53d b080 ec3d ccd9 9d3d d356 373c
00000110: a8d6 ba3d 49a1 0bbd 09d9 eb3c ff2c 2d3d
00000120: 359d d23c 242b 7a3b dfa7 3cbc c467 c53d
00000130: 336c 33bc 5919 18bc 4f66 a43d ab97 e3bd
00000140: 4a3d 8239 ab29 953d 05da 15bd 4e36 c6bd
00000150: b681 62bd 505e 963b f4f9 47bd e84c cdba
00000160: fd39 09bd 3443 1abd bf60 d83d 5ae9 15bd
00000170: 8811 a33c fc45 3ebd e0ff 033e 6d01 cc3d
00000180: 2799 d03d 4496 aabd 588b c5bc fd6a 68bd
00000190: 543f fdbd 6fc7 783d fc39 9d3d 177b f63d
000001a0: a026 d3bd 6c09 74bd 0e28 173b 1d43 c63d
000001b0: 8ecc 023c 8a96 b53d 3673 983d 88ed 1d3d
000001c0: ded7 d6bd 646f 773d 4da5 943d 8f6c 51bd
000001d0: 616a 3bbd e1b6 43bd bbb0 7e3c c00e f33d
000001e0: e66c 193d e8bf fd3c 0779 67bd 23d9 773d
000001f0: 7a16 e53d 25e8 e53d 7d94 ee3c 47c6 033e
00000200: af19 f93d 73b4 b9bd b3e2 e03d 6ed0 953d
00000210: 0787 65bd 7731 66bd 466c b03d e404 9e3d
00000220: 98bb d3bd 08dd 8a3d 9d73 debc 62f5 073d
00000230: c312 2e3d 5e01 463d 592d c7bd f27c b43d
00000240: 7e1d 45bd 904e 49bd 4fab 9ebd c7c0 c2bd
00000250: b484 9a3d 5e20 b93d 5561 e53d d8c6 dabb
00000260: 0f28 72bc 32ed cdbd 6042 85bd 2f4b aebc
00000270: ea11 923d 964f ec3d 47bb 9abd ba21 9bbd
00000280: 1fa6 b03d 1e76 c2bd b819 85bd 65e8 7bbd
00000290: bb75 b53b 0ca8 893d 2fce a6bd 2daa cd3d
000002a0: b7f6 603d 7d35 be3d 5d42 223c 5894 68bc
000002b0: e01e 42bd ad73 763c 1262 43bd 3387 ec3d
000002c0: 7327 563d 1f5e d23d a3bd de3d 0a76 0abc
000002d0: ac83 843d 3eeb 723d 1176 c03d 17af 913d
000002e0: ac40 bc3d 0ede 08bd dd66 fdbc a5c0 5fbd
000002f0: 2d99 ed3d bb5f b53c 9172 00bd 0d62 493c
00000300: f0de ea3d fd14 ce3d c293 00bc 9e60 493d
00000310: fd36 023e 4aa3 393d 9587 b8bd 1136 debc
00000320: 16ce f63d 91ea b0bc 0ad3 a53d e6a4 123e
00000330: 17cb ad3d 5aa8 b0bd 2285 95bd c284 993d
00000340: 266e 9a3d 60b5 1a3e 948f 073e e968 c33d
00000350: 6219 25bd 43be 78bd 6ebb 153e 4929 143e
00000360: 6f91 48bc f722 aaba 2f1e b8bd 7e23 24bd
00000370: ad8f 2c3d b7fd f93d 5934 c73d de4a 413a
00000380: e6c6 7ebd ad6f c93d f423 abbd f17a dbbd
00000390: ac9b bc3c 1c13 6ebc 2646 a23d e55d c8bb
000003a0: 6ec2 883c 954b de3d f008 1fbd 212e c73d
000003b0: 64e4 1c3c 6441 70bd 982b 073d 0bdf 47bc
000003c0: 1e1a 98bd b6b3 053e d3c1 dd3c 8095 debd
000003d0: 3506 b9bd 0f18 373c 5e42 663d 2ecb 733d
000003e0: b242 f53d 70b5 a13d 6102 04bd dbc6 b93d
000003f0: abe2 87bd fa33 87bd 7d61 79bd a092 023e
-0.00505059 -0.0047591953 0.016214155 -0.058127902 0.050913572 -0.04657378 0.1445588 0.13811848
0.14285651 0.076194175 -0.03604613 0.07646097 -0.0055380263 0.0016393476 -0.05262641 0.13895626
0.06420886 0.05831476 -0.014120269 -0.004530495 0.026096549 0.07197662 0.04763331 0.00068042614
-0.073510885 -0.073971696 -0.0011587243 0.13449384 -0.058264676 0.1312158 0.07644488 -0.08883345
0.1312056 -0.08156828 -0.078489155 -0.011101984 0.11712951 0.020550266 -0.014296723 0.12645881
0.13896096 0.13149448 -0.037539512 -0.02810968 0.13898848 -0.0012511108 0.039377943 0.14179972
-0.08969306 -0.08798955 0.12666813 0.029522441 0.054408107 0.14081472 0.0021324402 -0.019036729
0.030551834 -0.0531763 0.018187951 -0.086458005 0.10800832 0.07171814 0.09545386 0.005923122
0.0888303 0.11547983 0.07707557 0.011190134 0.09122974 -0.03408936 0.028790014 0.04227924
0.025709728 0.0038172686 -0.011514633 0.09638932 -0.01095109 -0.009283387 0.08027326 -0.11112913
0.00024841196 0.07283338 -0.036584873 -0.096783265 -0.055299483 0.0045888796 -0.04882236 -0.0015663179
-0.033502568 -0.037661746 0.10565328 -0.036599495 0.01990582 -0.04645346 0.12890577 0.099612094
0.101854615 -0.08329442 -0.024114296 -0.056742657 -0.123655945 0.06073707 0.07677075 0.12035196
-0.103101015 -0.059579298 0.0023064646 0.096807696 0.00798334 0.08866604 0.0744385 0.038556606
-0.10490392 0.060408965 0.07258091 -0.05112892 -0.045755748 -0.04778183 0.0155450655 0.11868048
0.03745737 0.030975297 -0.056511905 0.060509812 0.11185928 0.11225919 0.02912354 0.12868606
0.12163102 -0.09067621 0.109807394 0.073151454 -0.056036975 -0.056199517 0.086144015 0.077157766
-0.10338515 0.067804396 -0.027154738 0.033193 0.04249836 0.048341148 -0.09725446 0.08812894
-0.04812383 -0.04914719 -0.07747518 -0.095094256 0.07544842 0.09039377 0.11200205 -0.006676536
-0.0147800585 -0.10055007 -0.06506801 -0.021276085 0.07132323 0.11538617 -0.075552516 -0.07574792
0.08625435 -0.09495185 -0.06499046 -0.061500926 0.005537716 0.067215055 -0.08144795 0.10042224
0.054922786 0.09287546 0.009903518 -0.014195524 -0.047392726 0.015042228 -0.04770095 0.11549225
0.052283715 0.102718584 0.10876014 -0.008450994 0.06470427 0.059306376 0.093975194 0.07113474
0.09192023 -0.033414893 -0.030932838 -0.05462708 0.116014816 0.022140374 -0.03135926 0.0122914435
0.11468303 0.10062597 -0.007847728 0.049164407 0.12716289 0.04532174 -0.09010235 -0.02712539
0.120510265 -0.021596225 0.08096893 0.14320716 0.08486002 -0.086258605 -0.07300784 0.07496025
0.075405404 0.15108252 0.13238364 0.095414944 -0.04030741 -0.060728323 0.1462228 0.14468874
-0.012241705 -0.0012980391 -0.08990132 -0.04007291 0.042129207 0.122065954 0.097267814 0.0007373522
-0.062201403 0.098357536 -0.08356467 -0.107168086 0.023023449 -0.014530923 0.07923536 -0.0061147087
0.016694274 0.1085426 -0.038826883 0.09725595 0.009575937 -0.05865611 0.03300056 -0.012199174
-0.074268565 0.13056836 0.027069962 -0.108683586 -0.09034387 0.01117517 0.056215636 0.05951994
0.11975612 0.078959346 -0.03222883 0.09071132 -0.0663503 -0.066017106 -0.060883988 0.12751245

conv2.bias f4 [4]
00000000: 6576 803d b209 e63d e99c 783c 623c f0bc
0.06272582 0.11232318 0.015174129 -0.029325668

batchnorm2.weight f4 [4]
00000000: f85f 863f 1bfb 823f 0cfe 813f dc55 873f
1.0498037 1.0232881 1.0155654 1.0573077

batchnorm2.bias f4 [4]
00000000: 275a 00b9 ba8f 003d ab65 0ebc 4e1c b43b
-0.00012240616 0.03138707 -0.008691232 0.0054965382

batchnorm2.running_mean f4 [4]
00000000: 1dfc 863d 5379 b63d 8dbf 1f3d c97b 39bc
0.065910555 0.089098595 0.039001036 -0.011321017

batchnorm2.running_var f4 [4]
00000000: 20dd c73e cd7d d23e 96e0 a83e 50cd 9d3e
0.39035892 0.41111603 0.32983845 0.30820704

conv3.weight f4 [4, 4, 8, 4]
00000000: ebec ae3c a910 70bd 4083 cbbc e462 a2bd
00000010: b292 aebc ce07 933c 0677 953b 6ad9 04bd
00000020: e6e4 06bd 6aee 7bbd 210c 1dbb 5a45 41bd
00000030: c2ba a13d 536d c93d 1e5d d03d 6d03 b43d
00000040: bd8e a63d 64d0 d73d 7ba8 c83d 5a9b 71bc
00000050: be6d 4f3d 04a2 493d ee71 50bd a1bd c5bc
00000060: 81ca ab3b 5faf 933d e593 a73d c671 323d
00000070: 8e63 10ba d392 0a3c 5ec9 b03d 3bff a43d
00000080: a0ba 32bd a054 4dbd b1ae 843c 84a7 8a3d
00000090: c1bd 5ebb 3146 113d 8e9c ab3d eaa7 63bd
000000a0: 321a 9cbd beff f93c c6c6 56bd 0a59 88bd
000000b0: 3070 1c3c 9660 e6bc 03e9 b53c 37e3 e13d
000000c0: 7ac4 033d 5ecd 5bbd bee9 97bc 39a4 933d
000000d0: 8860 973d 8f3b 903d 1a5f 8dbd ae0f 97bd
000000e0: 9fb2 b23c ae8b 3b3d e74f 403d 7afc 56b9
000000f0: 4612 31bd a8d0 f13c 731f 50bd 9dec 24bb
00000100: c479 ddbc 2ece d83c b665 16bd c7fd 06bd
00000110: 31f2 2dbd 2e5f f33c b202 73bd 8405 6b3d
00000120: 3fa1 763c 1380 363d ba6a 953d 1017 82bc
00000130: 4e65 e83d 55ed 313b a8df 563d 9735 5abd
00000140: cdf0 12bd 910b 85bc f3e0 ddbc 4ed0 22bc
00000150: b767 8a3d 7a07 a1bd b375 3bbd f125 e63c
00000160: c34e c13b 2057 aa3d 8ceb af3c 4add c23d
00000170: 184e 8a3c 1a9b b43c 1703 94bd fd4f 043d
00000180: 77e0 3b3d a713 793d 02ec e5bc 96d9 abbd
00000190: dbda 3bbd bef2 683d ba78 d2bc 4e9b 503d
000001a0: 8354 dc3c e8f7 48bd f5d9 2cbd b061 13bd
000001b0: 7c33 37bd 43fd bc3d 9f02 eb3c ada6 083d
000001c0: 9fb5 953d d527 e03c 19cb f53b e13a 823d
000001d0: d465 873d 778c 98bd f4b4 c3bc 4fbd 8e3d
000001e0: 11fa 9f3d a3cf cc3c 1fd6 c43d d06e 82bc
000001f0: d977 3dbd 8429 a03d a91c 9fbd c404 21bd
00000200: 0ea6 b23d 58a9 3b3d 4601 b03d 3717 f63c
00000210: e5e8 4e3d 4bd1 883c cce6 a03d a7d6 dd3b
00000220: 8b43 133d c7f5 103d be62 84bd 7e69 2d3c
00000230: 8d4e 983d bc31 913c b643 23bd e968 79bd
00000240: 05f0 883d 25d1 8e3d a8d8 13bd b823 7abb
00000250: b137 89bd bdc3 4d3d b476 c03a 2d04 843d
00000260: a4b5 b23c 80eb 513d 8a86 8cbd 09e6 2f3d
00000270: 2143 7ebd df9c f73c f1fb bd3d d94c b33d
00000280: 37df 8d3c 6350 943c ee9a 68bd dfb6 773d
00000290: 2302 6f3a ed41 a6bb cd26 89bd f961 863d
000002a0: 8396 513d 5e97 743d fc76 a73d 8ff2 803d
000002b0: 825a b73d 271e 1e3d 2a1a 5d3d 356b 873d
000002c0: 276f 873d 4e32 b6bc 5fec 15bd 01db 7f3d
000002d0: 2d9a de3c bf7a b63d ea53 b33d 96c1 41bc
000002e0: 32b5 913c 1480 0b3d b6c5 a1bd aa48 96bd
000002f0: 4c2e 733c b229 1ebd 791a 7dbc dce1 ed3c
00000300: 379d 9cbd 6703 9c3c e658 4e3c d651 0dbc
00000310: ae6f 0ebd a8d8 77bd 900b b63d c439 443c
00000320: a66e 22bd b10c 5b3b 8bf4 0dbd edf3 633c
00000330: 9c2b 68bd a523 9c3d bf9c 8abb 6b00 b63d
00000340: 3b56 e03c 0d40 543d d1a8 3f3c bdfa 9e3d
00000350: 06bd 7a3c 266b dbbc c6db 2bbd 2983 7cbd
00000360: 53c5 3ebc e0c5 6abd 9b39 99bd 2089 ccba
00000370: e611 c33d 1579 373c 371d 2e3c 451e 853d
00000380: 7db7 58bd d988 a33d 3f2d 4e3d 18fc 99bd
00000390: d040 04bd ff14 26bc b302 49bd 025c 493d
000003a0: 7417 0abd 11e1 28bb fcb0 353d 44a2 a33d
000003b0: 8255 123d 56b2 8bb8 040e 363d 37fa e6b7
000003c0: 2c8c d33d 70c0 0bbd 4e7b 413d 0a3d aa3d
000003d0: 14a9 293c 09fb 2f3d 51fb 4e3c db17 92bb
000003e0: ab69 6dbd 9902 363d fc1e a63d ee4c 27bb
000003f0: 93d4 a93d 5a42 663d e9fd 183d 5ef5 893d
0.021353206 -0.05860964 -0.024842858 -0.07929018 -0.021310184 0.017948058 0.004561308 -0.032433905
-0.03293314 -0.061506666 -0.0023963528 -0.04718528 0.07896949 0.09835305 0.10174011 0.08789716
0.08132694 0.10537794 0.0979776 -0.014746511 0.050641768 0.049226776 -0.0508899 -0.024138274
0.005242646 0.07211184 0.081825055 0.043565534 -0.0005507999 0.008457857 0.08632158 0.08056494
-0.04363501 -0.050129533 0.01619658 0.06770232 -0.0033987614 0.03546733 0.0837947 -0.055580057
-0.07622184 0.030517455 -0.05243566 -0.06657608 0.009548232 -0.028122228 0.022205835 0.11029666
0.032169797 -0.05366265 -0.018544074 0.07209057 0.07391459 0.0704261 -0.06902905 -0.073760375
0.021813689 0.045787506 0.0469512 -0.00020502685 -0.043230318 0.02951844 -0.050811242 -0.0025165447
-0.027035601 0.026465502 -0.036718093 -0.032956865 -0.0424673 0.029708471 -0.059328742 0.057378307
0.0150530925 0.044555735 0.07295747 -0.015880138 0.11347447 0.0027149518 0.05245939 -0.053273764
-0.035874177 -0.016240867 -0.027084803 -0.009937359 0.06758063 -0.07862754 -0.045766544 0.028094264
0.0058992817 0.08317399 0.021474622 0.09514864 0.016882941 0.022046614 -0.07227152 0.032302845
0.045868363 0.060809758 -0.028066639 -0.083911106 -0.045863014 0.056872122 -0.025692333 0.05092936
0.026895767 -0.049064547 -0.042200048 -0.035981834 -0.044726834 0.09227993 0.028687773 0.03336208
0.07310032 0.027362743 0.007501018 0.063588865 0.06611219 -0.074486665 -0.023889996 0.069697015
0.07811368 0.025001353 0.09611153 -0.01592198 -0.046256874 0.078204185 -0.07769138 -0.039311185
0.08723079 0.045815796 0.08593993 0.030040367 0.050515074 0.016701361 0.07856521 0.0067699733
0.035953086 0.03539064 -0.06464146 0.010584233 0.07436857 0.01772391 -0.039859496 -0.060891066
0.06686405 0.06973485 -0.03609529 -0.0038168263 -0.067000754 0.0502355 0.0014683814 0.06446109
0.021815129 0.05124998 -0.06861599 0.042943988 -0.062075738 0.03022617 0.0927657 0.08754892
0.017318351 0.018104738 -0.056788377 0.060477134 0.0009117445 -0.005073777 -0.06696854 0.065616556
0.05116893 0.059714667 0.08176991 0.062962644 0.0895281 0.038602974 0.05398003 0.06612245
0.066129975 -0.022240784 -0.036602374 0.062464718 0.027173126 0.08910131 0.0875624 -0.01182594
0.017786596 0.03405769 -0.078990385 -0.07338078 0.014842581 -0.038613982 -0.015448206 0.029038362
-0.07647174 0.019044591 0.012594437 -0.008625468 -0.034774475 -0.060509354 0.08888924 0.011976663
-0.039656304 0.0033424313 -0.034657042 0.013913137 -0.056682214 0.07623986 -0.0042301114 0.088867985
0.027384868 0.051818896 0.011697964 0.07762668 0.015303856 -0.02678449 -0.04195764 -0.06164852
-0.011643725 -0.057317615 -0.074816905 -0.0015604831 0.09524898 0.011198302 0.010627083 0.06499914
-0.052909363 0.07985086 0.05033612 -0.07518786 -0.032288373 -0.010136842 -0.04907484 0.04916001
-0.033713773 -0.0025768916 0.04435824 0.07989934 0.035726078 -6.661254e-05 0.04444696 -2.7534652e-05
0.1032947 -0.03411907 0.047236733 0.083124235 0.010355253 0.042964015 0.012633161 -0.00445841
-0.0579621 0.04443607 0.081113786 -0.0025528031 0.082924984 0.05621562 0.037351523 0.06736253

conv3.bias f4 [4]
00000000: b6d3 a13d 50c0 da3d 223c 26bd b6e0 903d
0.07901709 0.10681212 -0.04058469 0.0707411

batchnorm3.weight f4 [4]
00000000: 23f3 843f e7d9 833f b991 823f 8ecf 813f
1.03867 1.0300874 1.0200721 1.0141466

batchnorm3.bias f4 [4]
00000000: 25ff 4a3c 71ae a53c 1dc1 663c 8321 73bc
0.012389933 0.020224782 0.014084128 -0.014839533

batchnorm3.running_mean f4 [4]
00000000: 76eb 563e 6f28 6e3e 8bef 613c f9c3 603e
0.20988259 0.23257612 0.013790022 0.21949758

batchnorm3.running_var f4 [4]
00000000: 83ed 183f ca5a be3e 95fd 893e 7555 0a3f
0.59737414 0.37178642 0.2695128 0.5403665

fc1.weight f4 [1, 2496]
00000000: 8f82 d23c e9a6 853c 04bf 5e3c b787 a1bc
00000010: 9960 eabb 4220 37bc de46 85bc 0273 0e3b
00000020: fd78 703c cb65 173c fb5f 7e3a b9e0 a13c
00000030: 111e 953c bf30 9dbb 5393 603c df8d 9f39
00000040: d8ad 97bc e1a6 2abc 55e8 0dbc f798 bf39
00000050: 28f8 243c c782 82bc 70cc 613c 75b7 073c
00000060: d232 6abc 2e94 69bc 504b 4f3c 82c5 2cbb
00000070: 0015 deb9 9560 64bc 88db c33b 3540 76bc
00000080: a5e3 9c3b bf84 13ba 4f9e 31bc c31c 453b
00000090: f494 153b b11c 91bc 824b 0fbb 169c 38bc
000000a0: a40f e93b f412 be3b 7f33 5ebc e7bd 9b3c
000000b0: 40f0 c43c 3fd4 e43c d876 b43c 6ed0 34bc
000000c0: e65e b23c a192 ccbb 5e6e f5bb 28cd b03b
000000d0: 8e0d fd3a ec97 443c 43e6 31bb 1bf8 933a
000000e0: 308d 643c 8dfa 143c ed76 2bbb 4e85 543c
000000f0: 982d f7bb 0c41 24bc fe96 e7bb 8106 5c3a
00000100: 036f 57bb 9610 cfbb 9c46 85bb 92a5 98bc
00000110: 53e1 abbb f8e8 1bbc b94d bcba 428f 17bc
00000120: cb80 05bc 4400 6d3b 6a71 873c 3dd7 4bbc
00000130: b75f bbbc 58a0 043c 70af d13a 3443 adbc
00000140: 220b ea3b 47ce 313c 2f6d 843c 7b3f 35bc
00000150: a090 e03b e93c 99bc 9f6f d5bb 748c 623b
00000160: 11d0 fd3a a3e2 fbbc be9f 1dbc b9b5 993b
00000170: 7a15 60bc 701d 44bc 70ed dc3c 0622 bc3c
00000180: 1d59 7f3c bda9 12bc e5ec 9d3b 3e1f 9c3c
00000190: ac2e 34ba 01f3 79bc 1ebc c8bc e26d febb
000001a0: ba18 423c 5a94 8ebc 7e85 073b 3734 783c
000001b0: 08da 643b f5b0 093c b248 31bc e067 933c
000001c0: f397 bf3c 7b24 923c 9dc7 7f3c 8fab 39bb
000001d0: c953 f239 507b 12bc 5551 913b 7c98 82bc
000001e0: e7fe 04bc ebc4 c73c 520d b23c 4f78 af3c
000001f0: ad93 39bc 497e b93b 199a d5bc 1872 153b
00000200: 7108 98bc f653 5dbc e38b 67bb db1b 97b9
00000210: 4e5a 75bc eef0 5f3c 34fc a7bc ccdf 3c3c
00000220: 21de f83a ebd7 5d3c 25ff 61bc 7dba daba
00000230: 7323 38bc 2044 6bbb 1c7d 9ebc 4de8 61bc
00000240: c830 23bb 166f 1fbc abbf 89bc 86db febb
00000250: c8e2 bb3c 3437 723c 8126 c1bc 8f21 c33b
00000260: d818 02bc a14e c13c 4c1c 223c d31e 9c3c
00000270: 5c6b 1abc 4eba 873c b25c 323c 7c9c cdbc
00000280: 6951 383c e350 913c f0c0 dc3b d77d 933c
00000290: 5db8 80bc 6524 033b 5914 9abc e172 dc3a
000002a0: fe4a 633c 7f5b f53b f1a2 883a 5827 cf3c
000002b0: 308f b2bb f969 f03b 74d2 a33c d0f2 4fbb
000002c0: c85c ba3c c312 263c 735c 163c 48b7 c43c
000002d0: 0b0d 813c 7d4a 7d3b 269c 4d3c 8f3d 503c
000002e0: 46a8 503c 91de 1fbc c74e 8b3c 7aad 7a3c
000002f0: 2d44 62bb 8e1b 01bb ebbe b5bc a4a2 18ba
00000300: 23f0 8c3b b6dc 0e3c cc9e 5a3c 31fc 5bbb
00000310: b19c 2fbc fe52 c03c 121f 863c f014 93bb
00000320: d343 83bc 18d8 043c d703 053b 6786 7c3c
00000330: aa3f 2abc f3f1 2cbc 2688 01bc 74d9 13bc
00000340: 7626 f53b 6a51 ae3b 777f 93bb 99e0 7c3a
00000350: 0235 b23a 8a08 bc3c 34dd e93b 4834 8abc
00000360: 89e5 b23c 26b1 723c e6b5 ae3b bfe3 453b
00000370: ebae 893c 76a5 853c 1b38 723c ee7b 903c
00000380: 001e fcbb 7345 3cbb 95c6 2cbc 7185 d83b
00000390: d6d1 89bc e8b8 e6bb c0be b4bb dbf0 4cbc
000003a0: d302 873c c3f2 163c 2d61 8c3b 939c 703c
000003b0: c237 9cbb 0914 5f3c 997c 45bc f05a a03c
000003c0: 2c42 713c cb61 0bbc def3 28bb 1f06 8d3b
000003d0: b169 c5bb 408e 863c efe3 d93c ceec 13bc
000003e0: 4a0a 6d3c 2410 73bc ceb0 b4bc e47b b0bc
000003f0: 41e5 a0bb d518 623c a98a c43b 9300 63bc
0.02569702 0.01631494 0.013595346 -0.019718034 -0.0071526286 -0.011177124 -0.016269144 0.002173603
0.014677283 0.009240578 0.0009703633 0.019760476 0.018202813 -0.0047970708 0.013707 0.00030432545
-0.018515512 -0.010415764 -0.008661349 0.00036544327 0.010068931 -0.0159315 0.013781652 0.008283486
-0.014294343 -0.01425652 0.012652233 -0.002636284 -0.00042358786 -0.013939043 0.005977098 -0.015029957
0.0047878795 -0.00056273857 -0.010840966 0.0030076958 0.0022824379 -0.017713876 -0.0021865075 -0.011267683
0.00711246 0.005800599 -0.013562082 0.019011451 0.024040341 0.027933238 0.022029325 -0.011036022
0.021773767 -0.0062430655 -0.0074899634 0.0053955503 0.0019306408 0.011999112 -0.0027145303 0.0011289151
0.013949677 0.009092939 -0.0026163415 0.012971235 -0.007543277 -0.010025274 -0.00706756 0.0008393303
-0.0032872565 -0.006319116 -0.004067255 -0.018633638 -0.0052453666 -0.009515993 -0.0014366425 -0.009250464
-0.008148382 0.0036163488 0.016533572 -0.0124414535 -0.022872789 0.00809487 0.0015997719 -0.021150209
0.0071424404 0.010852403 0.016165344 -0.011062498 0.006853178 -0.018705802 -0.0065135504 0.003456858
0.0019364377 -0.030747717 -0.009620605 0.0046908525 -0.013676995 -0.011969909 0.026968688 0.022965442
0.015585211 -0.008951602 0.0048195 0.019057866 -0.000687341 -0.015255691 -0.024503764 -0.007764564
0.011846716 -0.017404724 0.0020678933 0.015149168 0.0034919996 0.008404006 -0.010820555 0.017993867
0.023387885 0.01783966 0.015611556 -0.0028331017 0.00046220262 -0.008940533 0.0044347444 -0.01594185
-0.008117414 0.02438589 0.021734867 0.021419672 -0.011326713 0.0056608063 -0.026074456 0.00228036
-0.018558713 -0.013508787 -0.0035331182 -0.00028821718 -0.014975144 0.013668282 -0.020506002 0.011527967
0.0018987098 0.013540248 -0.013793741 -0.0016687658 -0.0112389205 -0.003589876 -0.019346766 -0.013788295
-0.0024900902 -0.009731075 -0.016815027 -0.007777634 0.022935286 0.014783669 -0.02357793 0.005954928
-0.0079404935 0.023597063 0.009894442 0.019057667 -0.0094250105 0.01656833 0.010886358 -0.025099032
0.011249878 0.017738765 0.006736867 0.018004341 -0.015712911 0.0020010707 -0.01880853 0.0016818905
0.01387286 0.007487714 0.0010424537 0.025287315 -0.005449198 0.0073368517 0.019997813 -0.003173042
0.02274932 0.010136309 0.009177315 0.024013177 0.01575329 0.0038649135 0.012549436 0.012709989
0.012735432 -0.009757654 0.017005337 0.015300149 -0.00345255 -0.0019700262 -0.022185763 -0.0005822575
0.0043010875 0.008719614 0.013343524 -0.0033567066 -0.0107185105 0.023477074 0.016372237 -0.00448858
-0.016023552 0.008108161 0.0020296478 0.015412903 -0.010391155 -0.010555732 -0.0079059955 -0.009024013
0.0074813915 0.005319764 -0.004501279 0.0009646505 0.001359612 0.02295329 0.007136965 -0.016870633
0.021837967 0.014812743 0.0053317426 0.0030195562 0.01680704 0.01631425 0.014783884 0.01763722
-0.007694006 -0.0028727918 -0.0105453925 0.0066077043 -0.01682369 -0.0070410855 -0.0055159032 -0.012508596
0.016480839 0.009213152 0.004284045 0.014685768 -0.004767389 0.013615617 -0.012053632 0.019574612
0.014725249 -0.008507202 -0.0025780122 0.004303708 -0.0060245623 0.016425252 0.026597945 -0.009028627
0.014467785 -0.014835391 -0.022056963 -0.02154345 -0.0049101417 0.013799866 0.005997975 -0.013855117
