pretrained/eegnet_trained.pth (torch, 10656 bytes, 19 tensors)

conv1.weight f4 [16, 1, 1, 4]
00000000: 3844 13bd 8c7c 063a f639 fcbe ef4f f0be
00000010: 417d 92bc 02a3 adbd 454f 6fbd 56ee 903e
00000020: 7e5b b1be 7c37 80be d771 a9be e216 a53d
00000030: 18e8 533e a5ef aabe 01b6 843c a370 ebbe
00000040: 4d99 153d 26bc a43e a2e3 63be 22f7 c4bc
00000050: 8df2 34be 572b 9abd 5d07 f03e 94fc bcbe
00000060: fa57 a9be f248 2ebd 70cb a03d 712c 7b3e
00000070: ef95 e73e e783 acbe 1c81 853e 4fe5 97be
00000080: 4191 923e 0ad4 b33e 39c9 65be 34bf c1be
00000090: 701d c43e 4d1f 96bd 7550 ecbc 84a1 b93d
000000a0: bbb9 67be 8867 9c3d 0f55 a63e 197f c63d
000000b0: c76a 95be e6e1 f6be aadf 84be 1304 a33e
000000c0: e8e4 4ebe b9a4 9ebe 1ac8 dbbe ed4f af3d
000000d0: 01e8 5c3d 2c69 a4be 7563 1f3e 02ff e33e
000000e0: a392 a7be 3923 003f f385 6a3c d4a2 3abb
000000f0: 068f 923e 9591 4abe 6e9a bd3e f6d7 53bd
-0.03595373 0.0005130253 -0.4926297 -0.46935984 -0.017881991 -0.08478357 -0.058425207 0.28306836
-0.34640115 -0.2504233 -0.33094665 0.08061005 0.20694005 -0.3338596 0.016200067 -0.45984372
0.036523152 0.32174796 -0.22254804 -0.024043623 -0.17670651 -0.07527798 0.46880618 -0.36911452
-0.33074933 -0.042550035 0.078513026 0.24528672 0.45231578 -0.33694384 0.26075065 -0.29667136
0.28626445 0.3512271 -0.22440042 -0.3784119 0.3830371 -0.07330189 -0.028846959 0.0906401
-0.22629444 0.076369345 0.3248677 0.09692211 -0.29183027 -0.48219222 -0.25951892 0.31839046
-0.20204508 -0.30985048 -0.42926103 0.085601665 0.053932194 -0.3211149 0.15565284 0.44530493
-0.32729062 0.50053746 0.014314163 -0.00284784 0.28624743 -0.19782098 0.37031883 -0.05171963

conv1.bias f4 [16]
00000000: 679c ba3e e127 7dbe 6119 833e ab5b 5f3e
00000010: e874 c43e bf2f 293d ffbc 893d c31f eb3e
00000020: 00d6 ecbe 92a9 893e 0546 30bc d424 de3e
00000030: 05bd b93e faee ebbe 16b6 d23e 0035 babe
0.3644745 -0.24722244 0.256053 0.21812312 0.38370442 0.0413053 0.06725501 0.4592267
-0.4625702 0.26887184 -0.010758881 0.43387473 0.36277023 -0.46080762 0.41154546 -0.3636856

batchnorm1.weight f4 [16]
00000000: 2871 813f bb8d 823f 7df3 813f 06c7 7f3f
00000010: 6696 813f 53d5 833f a22b 7e3f 29c8 7f3f
00000020: ba4a 7e3f 3e5d 833f 8b3a 773f 80e3 7f3f
00000030: 54e7 813f bb3c 813f 4415 843f 07d6 7f3f
1.0112658 1.0199503 1.0152432 0.9991306 1.0124023 1.0299476 0.9928533 0.99914795
0.99332774 1.026283 0.96573704 0.9995651 1.0148721 1.0096658 1.031899 0.99935955

batchnorm1.bias f4 [16]
00000000: d9e0 80bc 7a44 b2bc ceb3 9a3b abb1 83b9
00000010: 9590 42bd d966 843c c867 6c3c c943 29ba
00000020: 4187 3f3c 3eb8 34bd c892 8b3c fa56 00ba
00000030: d504 95bc 213d 623c 367a 83bc 0e15 2bba
-0.015732216 -0.021761168 0.0047211414 -0.0002511864 -0.047501165 0.016162323 0.01442904 -0.0006456939
0.011689962 -0.04412102 0.017037764 -0.0004895773 -0.01819078 0.01380852 -0.016049486 -0.000652627

batchnorm1.running_mean f4 [16]
00000000: ea85 344b 5247 cf49 d65f ad4a b378 344b
00000010: e93d 864a 7fa7 124b b53f 7c4a e82c 3c4b
00000020: 3822 534b 6d47 aa4a 042c 6a4a acc8 b64a
00000030: bf2e 9b4a 467a 4b4a 769b ab4a f6a0 c94a
1.1830762e+07 1.6980262e+06 5.681131e+06 1.1827379e+07 4.3988365e+06 9.611135e+06 4.1328452e+06 1.2332264e+07
1.3836856e+07 5.5797025e+06 3.836673e+06 5.989462e+06 5.0850235e+06 3.3337775e+06 5.623227e+06 6.606971e+06

batchnorm1.running_var f4 [16]
00000000: 6ce6 e958 e687 1755 8df1 0958 2cd8 2359
00000010: f692 ca56 82e1 8658 064d 0858 f893 2359
00000020: fe1b 0f59 76a4 dd57 41db 6457 4548 d357
00000030: dd83 8e57 1543 1f56 2b8a 0b58 125a 1e58
2.0574069e+15 1.0413121e+13 6.066822e+14 2.8823815e+15 1.1136627e+14 1.1864249e+15 5.994576e+14 2.8776947e+15
2.5176062e+15 4.8739685e+14 2.5163034e+14 4.646147e+14 3.13394e+14 4.3777616e+13 6.137022e+14 6.9643874e+14

conv2.weight f4 [4, 1, 2, 32]
00000000: 057a a53d b6d8 8d3d 92fc 93bd edbd 1abe
00000010: c261 1abd 0011 b6bd 7b64 a6bd bb44 9ebd
00000020: f25d 3cbd 5b6a 8bbc 6ffc 433d cd56 58bd
00000030: 78ae e0bb 7069 09be 1a42 dd3d 193d 8fbd
00000040: e704 0bbe 6f91 01bd f5b7 093d 33af a73d
00000050: 5114 e7bd 0b7a 0cbe 2800 423c 2914 543d
00000060: b471 03be 1f31 ba3c cc1c 28bd 09a6 d4bd
00000070: ee2a dfbd dc94 50bd 641e c7bd a35c b8bd
00000080: bfc7 2f3c a292 793d 0570 fd3d 2e3d 013d
00000090: 1678 e23c 41e3 a3bd f97b 37bd 56e9 2a3d
000000a0: 9edb f53c e979 3dbd e3ca d4bc 8666 e63d
000000b0: c57f 8d3d 04cc 9dbd cd40 e73c 7f75 15bc
000000c0: f3f2 d93d 5dbb cd3d 52ad 9a3d 950e a43d
000000d0: 10cd 2a3d cccb 023e a636 a33d 54fe dc3d
000000e0: 9722 e2bc ffed b83d b734 c83d f574 943d
000000f0: 9175 01bd d74f e33a dec3 a13d cff0 ad3d
00000100: 7a6c 34bd afc3 af3d 4606 61bd 897e e53d
00000110: cfb2 6ebd cf66 a03d 5453 c93d be77 54bd
00000120: de6e c1bd 77b0 2fbd 5772 033e b014 a03d
00000130: a667 003e da29 a3bb fac4 79bd 2bb5 a0bd
00000140: aeb5 f1bc ebdb 6dbd c5d2 96bc 94da f33d
00000150: 88db 92bd 5908 3bbd 8a50 cdbc cba3 b6bd
00000160: b1e2 bc3d 9873 dabd 2a3d 723d 6032 dc3d
00000170: f1ee 013e df10 013e 89cb 123d 0d0f 76bd
00000180: 7392 6cbd 8430 893c bffe ef3c c478 36bd
00000190: 9250 023d f6a8 f33d 2d35 0d3e 9c3b 0ebd
000001a0: 1b34 69bd c0f1 783d b420 cabc 2381 a13d
000001b0: f982 0dbd 6e77 4d3d ac80 be3d 9734 90bd
000001c0: da4f 19bd e3db b3bc ac15 9b3d bb02 b03c
000001d0: 79a3 d8bd ff41 74bd d8c6 9cbc fc30 083d
000001e0: 8874 9a3d d45e b13d 5299 b03d 7e14 823c
000001f0: 21e6 d33d bea1 80bc 3bd3 e93d e979 0b3e
00000200: e27a 55bd 1780 8d3d a318 78bb 1380 413d
00000210: fa04 9b3d 9bb5 4cbd 45a2 aa3d d76f 073e
00000220: e70b b23d 3a9a 8f3d fe1b 0cbd 5eac de3c
00000230: a1a4 d93d ac91 ebbd 5cbc 0cbd 7de3 863d
00000240: 32ea 9e3c f779 e9bd 3e2c 263c 578d f6bd
00000250: 3835 35bd eddf 833d b61e babc 8621 88bd
00000260: e6a0 b63b e7e5 813d 7fcc 0dbd 7c64 ac3d
00000270: efea 893d 96b1 8d3d 04c1 bbbb 5ea4 96bd
00000280: b09a cdbd eaf9 86bd 613d 7b3d 3891 20bd
00000290: 2c17 e7bd f7ad abbc 0915 dd3d a2ef 65bd
000002a0: e5cc 92bd 2e25 90bb 8703 a03d 27b1 1f3d
000002b0: 0f8d c4bd cc31 01bd 3c3d 16bd 03dd c7bc
000002c0: c293 dd3d c60d b33d 2599 e13d 846a 43bd
000002d0: 62cd 92bc dc57 29bd 99d6 ddbc bc3c 70bd
000002e0: d497 a83c c390 01bd f038 0fbd 307a aabd
000002f0: 1d86 d5bc 9e3d 88bd f694 ad3c d133 f1bd
00000300: 083b afbd 6ace c83d 84c3 0abc 4a98 dc3d
00000310: 345c b83d c3de d53c c4db bf3c 195f 87bd
00000320: 1afd 07be 1998 f1bd c5b7 96bc d6de 243d
00000330: 8297 5a3d 7893 9bbd ff4a c5bd e8b1 393d
00000340: b210 09be 6763 10be fbe2 58bd e69b a63d
00000350: 765c 843d ba61 0a3c dafe c5bd 5a36 153d
00000360: 1076 c73d d57f 8c3b d75a 8a3d 0473 6ebd
00000370: f8a8 d1bc 61a1 ccbd 2f38 963b afef c03d
00000380: b43b e6bd af05 4b3d ff63 e8bd 5aa1 83bd
00000390: fe8f 6f3d d915 a5bc 441c d4bd f288 f5bc
000003a0: 59a5 1e3c 05dc dbbb b7ec 2f3d e926 e5bd
000003b0: ee8b 21bd 6213 193d 82d4 0b3c 92ef 353d
000003c0: 4978 963a d81e d8bc dc37 babd 6dea d5bd
000003d0: 6971 dfbd 2b7b 18be 784b c4bd aafb 53bd
000003e0: 2c58 d5bd 4a6f 1ebe f5b9 94bd 0948 e9bd
000003f0: 0030 6bbd d767 7b3d 5442 86bd d0e7 09bd
0.08079914 0.069261 -0.07225908 -0.15111513 -0.037690885 -0.08889961 -0.08124634 -0.07727953
-0.04598803 -0.017018488 0.04784816 -0.052817155 -0.006856736 -0.13419127 0.108036235 -0.06994075
-0.13576089 -0.031632837 0.0336227 0.081877135 -0.11283172 -0.1371843 0.011840858 0.05177704
-0.12836343 0.0227285 -0.041043088 -0.10383231 -0.1089686 -0.050923213 -0.097225934 -0.09002044
0.0107287755 0.060930856 0.12374882 0.031552486 0.027645152 -0.080023296 -0.044795964 0.041726433
0.030011948 -0.04625884 -0.02597565 0.112500235 0.06909136 -0.077049285 0.028229142 -0.0091222515
0.10642042 0.10045502 0.075525895 0.08010594 0.04169947 0.12773055 0.07969408 0.10790697
-0.027604384 0.09029769 0.097756796 0.0724887 -0.03160626 0.001734252 0.07898687 0.08493196
-0.044048764 0.085822456 -0.054937623 0.11205775 -0.058275994 0.07832109 0.09830347 -0.051872008
-0.09444974 -0.0428929 0.12836586 0.07816446 0.12539539 -0.0049793543 -0.060978867 -0.07847055
-0.029505577 -0.05807106 -0.01841105 0.11906925 -0.071707785 -0.045662258 -0.025062818 -0.0891796
0.092229255 -0.10666579 0.05914036 0.10751796 0.12688805 0.12604092 0.035838638 -0.060072947
-0.057756852 0.016746767 0.029296277 -0.044548765 0.03181512 0.11897461 0.13789816 -0.034724817
-0.056934457 0.060777426 -0.024673797 0.07885959 -0.034548733 0.050162725 0.09301886 -0.07041281
-0.037429668 -0.021955436 0.07572493 0.021485677 -0.10578055 -0.05963325 -0.019137785 0.03324984
0.07541758 0.08660665 0.086229935 0.015878912 0.10346628 -0.015702125 0.11417242 0.13620724
-0.052119143 0.06909197 -0.0037856482 0.04724128 0.075693086 -0.04997788 0.08331732 0.13226257
0.086936764 0.07011838 -0.034206383 0.0271818 0.106271036 -0.11502394 -0.03435932 0.06586359
0.019398782 -0.11400216 0.010142384 -0.12038677 -0.044240206 0.06439195 -0.022719722 -0.06647019
0.00557338 0.063426785 -0.03461885 0.084176034 0.06734263 0.069186375 -0.0057297964 -0.07355569
-0.1003927 -0.06590636 0.061337832 -0.03920099 -0.112837166 -0.020956976 0.10795028 -0.056136735
-0.07167987 -0.0043989634 0.07813173 0.038987305 -0.09597217 -0.03154163 -0.03667949 -0.024397379
0.10819198 0.087428614 0.11015538 -0.047709003 -0.0179202 -0.041343555 -0.027079867 -0.05865167
0.02058021 -0.031632196 -0.03496641 -0.08324087 -0.026064927 -0.066523775 0.021189194 -0.11777461
-0.08556181 0.09804995 -0.008469466 0.10771234 0.09001961 0.026107198 0.023420222 -0.06609935
-0.13280144 -0.117965885 -0.018398175 0.040251575 0.053367145 -0.07596487 -0.09633445 0.04533568
-0.13385275 -0.14100419 -0.05295084 0.08135204 0.06462948 0.008446151 -0.0966775 0.036428787
0.097393155 0.0042876997 0.067556076 -0.058215156 -0.025593266 -0.09991718 0.0045843343 0.09420716
-0.11241856 0.049565967 -0.11347198 -0.0642726 0.05848693 -0.02015202 -0.10356954 -0.029972527
0.009682977 -0.006709578 0.04295036 -0.11189062 -0.039440088 0.037372 0.0085345525 0.044417925
0.001147994 -0.026381895 -0.090926856 -0.10445104 -0.10910303 -0.14890735 -0.09584707 -0.051753677
-0.10417208 -0.15472141 -0.07262031 -0.11390693 -0.057418823 0.061378326 -0.0655562 -0.03366834

conv2.bias f4 [4]
00000000: c9b9 7abc 9f18 e4bd 9365 c63d d753 173e
-0.015303084 -0.111375086 0.096873425 0.14778076

batchnorm2.weight f4 [4]
00000000: 5bfa 823f ff5a 813f b93c 803f 1b33 823f
1.0232652 1.0105895 1.0018531 1.0171846

batchnorm2.bias f4 [4]
00000000: 29c3 f33c 37ec b1bb 5b64 013c 3d3e d73c
0.029756146 -0.0054297703 0.007897462 0.026274795

batchnorm2.running_mean f4 [4]
00000000: bb3c b73d 564f 05bd e892 e83d 19a5 5b3e
0.0894713 -0.032546364 0.11356145 0.21449699

batchnorm2.running_var f4 [4]
00000000: db37 293f e3b2 8f3e e804 853e 467e c93e
0.66100854 0.28066167 0.25980306 0.3935415

conv3.weight f4 [4, 4, 8, 4]
00000000: 4cf6 6fbc e560 9fbd 1a69 eebc 8b6e 263d
00000010: 17a4 3fbc ac92 3a3d 9c2a bc3b 09a1 9ebd
00000020: aeed 18bd 7764 a13c 3b28 083d 0b96 ea3b
00000030: b25b 753d 8fab 48bd 4d95 b33d 86c5 ca3c
00000040: 2513 c43c 5aaa 1c3c 69c6 f53c b84d d63d
00000050: 4137 0bbd 5230 43bc 2ebd bcbc 0840 193d
00000060: 76ba 803d cbd9 a3bd 70c5 1c3c 67b0 9a3d
00000070: ba3a 97bd c92b 57bc 823c c83b 72fa dfbc
00000080: f39b 8d3b eb80 973c 44e4 9ebd eca4 cc3c
00000090: 490b 1abd 871e e23c d9ad ac3c 2568 dfbc
000000a0: 0067 e5bc 25fd 853d 6fa7 0a3d 3a04 553b
000000b0: 32a6 7f3c fd1c ab3d 0e65 87bd 3998 17bb
000000c0: 74a7 993d 0a4b c93c 3bf0 9f3d 7efe b23c
000000d0: 276d 9abd 562e 6e3d 8a6d 1cbc ece3 a1bd
000000e0: 3fbf 70bd 3c78 67bd 1b8e 89bd 4e87 8fbd
000000f0: 3e13 16bd 02d3 69bd 4f61 6cbd 7e5b 86bd
00000100: 5616 a8bd e4fa d23c 69d7 09bc c707 a4bd
00000110: 25b2 0fbd fe10 0c3c 911b f9bb 193e b8bc
00000120: 7a2a 01bc 32aa 923c 2607 46bd eb2a 483d
00000130: 2275 3a3a a1bc 7bba 71b3 62bc 9c96 9bbc
00000140: 41cf 78bd 1f15 8b3b b68f 86bc a7ca b23b
00000150: 6241 973d f502 90bd eba5 60bc 2ebe c8bb
00000160: 6ba8 1e3d 2f74 aabc e414 acbc 196a 383d
00000170: 99aa 933d 2493 503b 4d28 cabd f45e 3dbd
00000180: 3f16 91bd 92be 1b3d e23e 3a3c 5d39 093d
00000190: 2fbd 5bbd 7098 80bc 6756 543c 0a00 393c
000001a0: bffe 01bd 1408 94bd 4367 a13d 0f68 743c
000001b0: 9a0f ac3c de06 c43d f664 be3d ba0d e83c
000001c0: 7213 563d b99e 713d 4415 ddbb e0ae 37bd
000001d0: 2907 0c3d 7189 693d d472 933d 7743 68bd
000001e0: aa88 85bd de43 87bb f25c acbd 1480 43bc
000001f0: b3fa 84bd 52f4 963d 3623 1bbd 948a c0bd
00000200: 22fc 4d3d ca99 303d 6c38 95bd 61d8 73bd
00000210: 27a3 6dbc 63b0 f93d 2bd5 ea3d 72c4 07bd
00000220: f591 9abc 4a0c 9a3d 1acf 1b3d 9ff8 34bd
00000230: dc20 e1bc ad4a 503d 7590 b7bc e70a 23bd
00000240: a315 34bd bba9 aabc 7ccc bc3c 938c d73c
00000250: c2ce d3bd c4a4 ffbc 3635 88bd 8f6a 0bbd
00000260: ad24 bdbb 6b4f 753d 713a 63bd ae39 ca3c
00000270: 83cd 453c 841c 0dbd adb6 83bd 3e79 9ebc
00000280: 886f 053d c7fe d73c 57c3 2ebd c111 85bd
00000290: f463 32bb 6b75 9d3d 87b7 5bbb e294 61bd
000002a0: 3230 84bd dd99 a43b cd54 cebc 1377 73ba
000002b0: 366d 6d3d 48b4 72bd f6a1 cbbd 2f52 32bc
000002c0: ed4e 84bd ad44 823d 3215 d13c 051a 02bd
000002d0: 5e3d 91bb 9cc9 853d 0e47 25bd 4c1e 4ebd
000002e0: 6d7c 483d 7f46 d23b d433 563d b453 33bd
000002f0: 6acb 163d 4e04 b13d 6157 803d d324 4d3d
00000300: 3a74 51bd 59d8 a5bd b64a db3c fc46 9a3c
00000310: 3812 ef3c d703 02bd ac3f c23c 5dd7 af3c
00000320: 2e67 b7bd 8c88 acbd 6cb3 55bd 5d48 a2bd
00000330: 2ff5 b4bd 6fa7 ddbb 025f 3c3d 3b81 89bd
00000340: 4c0d 1a3d e0cb 5d3b 29a8 49bd 628e 903d
00000350: 4db5 043d b0f9 14bd 074a 813d f1c0 ae3d
00000360: cc56 3cbb f1a7 3e3d e4c2 fd3c b448 fb3b
00000370: 1ab4 a4bc b843 fcbc a0e8 5c3d 5e86 9a3b
00000380: bdc9 303d 71f7 98bd 6145 4bbd 171a 6fbd
00000390: 3999 2abd 2942 38ba 572a 783d 753c cdbb
000003a0: bdb5 87bd 884a 00b9 38e6 8abd 7ca1 6b3d
000003b0: c636 6a3b 7707 2abc cde1 8a3d 31ec 9bbb
000003c0: 47f3 a5bd 9056 85bd 51ed b53d 54d8 f33c
000003d0: 132c 5dbd facb 8cbd 45b6 afbd abb9 663d
000003e0: 246d 91bd 4a79 6d3d 66b1 90bd c7a8 d4bb
000003f0: 414d 84bd 09d3 bf3c c143 c03d a9a5 6c3c
-0.014646124 -0.07782153 -0.02910285 0.040632766 -0.011696837 0.045550033 0.005742384 -0.07745559
-0.037336044 0.019701226 0.03324149 0.007159 0.0599019 -0.048991736 0.08768711 0.02475239
0.02393491 0.009562099 0.030001836 0.104640424 -0.03398824 -0.011913376 -0.023039427 0.03741458
0.062855646 -0.08000525 0.009568557 0.07553177 -0.07384248 -0.013132998 0.0061107287 -0.027341101
0.004321569 0.01849409 -0.07758382 0.024980985 -0.03760842 0.027602447 0.02107899 -0.02727134
-0.028003216 0.06542424 0.033851083 0.003250374 0.015603589 0.083551385 -0.066110715 -0.0023131503
0.07502642 0.024571914 0.07809492 0.021849867 -0.075403504 0.05814966 -0.0095476005 -0.07904801
-0.058776136 -0.05651115 -0.067165576 -0.07008229 -0.036639445 -0.057086 -0.05770999 -0.065604195
-0.08207385 0.0257544 -0.008413174 -0.08009296 -0.035082 0.008548973 -0.007602163 -0.022490548
-0.007883662 0.017903421 -0.04834666 0.048869055 0.0007112791 -0.0009602998 -0.0138367275 -0.018992715
-0.060744528 0.004244461 -0.016425949 0.005456287 0.07385518 -0.07031814 -0.013711433 -0.006126187
0.038734835 -0.020807354 -0.021006055 0.045023058 0.07210273 0.0031825984 -0.09870968 -0.046233132
-0.07084321 0.03802354 0.0113675315 0.03350197 -0.053647216 -0.015697688 0.012960053 0.011291513
-0.031737085 -0.07228103 0.07881024 0.014917388 0.021003533 0.09571622 0.092966005 0.028326858
0.05226464 0.05898926 -0.00674692 -0.04484451 0.034186516 0.05701584 0.07199636 -0.056704964
-0.06520207 -0.0041279634 -0.084161654 -0.011932392 -0.064931296 0.07370819 -0.037875377 -0.09401432
0.05028928 0.043115415 -0.07286152 -0.059532527 -0.014504231 0.12191846 0.1146644 -0.03314633
-0.018868426 0.07521875 0.038039304 -0.044182416 -0.027481489 0.050852466 -0.02240775 -0.03980532
-0.043965947 -0.020832887 0.023046724 0.026312148 -0.1034217 -0.031206496 -0.06650774 -0.03403717
-0.0057721944 0.059890192 -0.055475656 0.024685707 0.012072924 -0.034451023 -0.06431327 -0.019344922
0.032577068 0.026366604 -0.04266676 -0.06497527 -0.0027220221 0.07688411 -0.003352614 -0.055073626
-0.06454505 0.0050232247 -0.02518692 -0.0009287458 0.05796548 -0.05925396 -0.09943001 -0.010883852
-0.064603664 0.06360755 0.025522802 -0.031763095 -0.0044323644 0.065325946 -0.040350966 -0.050321862
0.048946787 0.006417095 0.05229552 -0.043780997 0.036815085 0.08643399 0.06266666 0.050083946
-0.051136233 -0.08097906 0.026769023 0.018832676 0.029183492 -0.031741943 0.023712002 0.021464998
-0.08955227 -0.08424482 -0.052173063 -0.079239585 -0.088358276 -0.0067643444 0.045989044 -0.06714102
0.037610337 0.0033843443 -0.049232636 0.07058407 0.032399464 -0.036370933 0.06312948 0.085328944
-0.0028738258 0.04654688 0.03097672 0.007668579 -0.02010541 -0.03079401 0.053932786 0.004715725
0.043161143 -0.07469071 -0.04962671 -0.05837449 -0.04165003 -0.00070289016 0.060587253 -0.0062633106
-0.06626461 -0.00012234796 -0.06782192 0.05752705 0.0035738214 -0.010377756 0.06781349 -0.004758381
-0.08103042 -0.06510651 0.08883155 0.02976624 -0.05399711 -0.06874843 -0.08579687 0.05632941
-0.07100895 0.057977 -0.07065086 -0.0064898464 -0.064600475 0.02341606 0.09387923 0.014443793

conv3.bias f4 [4]
00000000: 348d b6bc 1550 083d e512 083d 2e60 cc3c
-0.022284128 0.033279497 0.033221144 0.024948206

batchnorm3.weight f4 [4]
00000000: 424c 823f 7e30 833f f36b 843f bdb5 803f
1.0179522 1.0249174 1.0345443 1.0055462

batchnorm3.bias f4 [4]
00000000: d1ba 5f3c 7bc9 913c 8fdc 0f3d 3672 b63c
0.01365538 0.017796269 0.03512245 0.022271257

batchnorm3.running_mean f4 [4]
00000000: f536 653d 3c05 29be e85f 283d 3d16 903e
0.055960614 -0.16505903 0.04110709 0.28141966

batchnorm3.running_var f4 [4]
00000000: f037 903e 2605 5f3e a812 a93e e325 843e
0.28167677 0.21779308 0.33022046 0.25810155

fc1.weight f4 [1, 56]
00000000: b278 abbd a6ef 0fbd 969c 613c 0ae7 b0bd
00000010: 632c eeba 92a9 86bd 6cd9 fabd aaa1 6b3d
00000020: 79c1 f23d 899c ecbd 619e c03d 428f c8bc
00000030: dc56 133b da94 5dbd d9fa eabd 09e4 db3d
00000040: 89f1 28bc d423 223c 8c9b 0a3e b684 a43d
00000050: 8483 483d aca3 98bd 233d 1fbe 7870 1ebd
00000060: 5ebd 1dbd f6d4 db3d 5e42 cfb8 930a e13b
00000070: 4015 1c3d ef1f fcbc 64fd c43d 3dfd c53d
00000080: 0d61 2d3d d50d 9b3c b979 913c 9945 14be
00000090: 9619 3d3c a4a8 7dbd e525 9a3c 31ec f4bd
000000a0: a55e 23bd d832 673d 9d35 8b3d 5f97 fabd
000000b0: f8a2 c03d 2fe1 123e 5866 9e3d 26f6 95bd
000000c0: a95a a6bd 0f3f babd 405f ea3c 8a3f d5bd
000000d0: 6025 36bd 67e9 dfbc e996 6bbd 7b48 5a3d
-0.0837263 -0.035140656 0.013770243 -0.08637817 -0.0018171187 -0.06575312 -0.12248501 0.05752722
0.11853308 -0.11553294 0.094052084 -0.024482373 0.0022482192 -0.054097034 -0.11473627 0.10736854
-0.010311493 0.009896237 0.13535899 0.08033125 0.048953548 -0.07453093 -0.15550666 -0.038681477
-0.038510673 0.107339785 -9.882891e-05 0.0068677156 0.038106203 -0.030776946 0.09618643 0.09667442
0.042328883 0.018927494 0.017758237 -0.14479674 0.011541745 -0.061928406 0.018816898 -0.119591124
-0.039885182 0.056444973 0.06797335 -0.12235903 0.09406084 0.14343713 0.07734364 -0.0732234
-0.08122761 -0.09094059 0.028609872 -0.1041251 -0.044469237 -0.027332975 -0.057516966 0.05329178
