pretrained/lstm_trained.pth (torch, 5889 bytes, 11 tensors)

lstm.weight_ih_l0 f4 [8, 4]
0	0x3f23502f	0.63794225
1	0xbf1bb2aa	-0.60819495
2	0xbe191a77	-0.14951502
3	0x3f2c75ea	0.6736742
4	0xbf1a8b29	-0.6036859
5	0xbea0b447	-0.3138754
6	0x3e265927	0.16244946
7	0x3f11d6f5	0.56968623
8	0xbe979b58	-0.29610705
9	0x3ece34ae	0.40274566
10	0x3d7e2afe	0.06205272
11	0x3e619f77	0.22033487
12	0x3f212100	0.6294098
13	0xbea5191f	-0.32245728
14	0x3d77f4b6	0.06053611
15	0xb8cf2eaa	-9.879221e-05
16	0xbe072bf9	-0.13200368
17	0xbebfe8ac	-0.37482202
18	0x3f343f6f	0.7040929
19	0x3f061428	0.52374506
20	0xbf09d513	-0.5384075
21	0xbf0e68c6	-0.5562862
22	0xbe893601	-0.26799014
23	0xbe22074e	-0.15823099
24	0xbe48e347	-0.1961795
25	0x3efe529a	0.49672395
26	0xbf3481d6	-0.70510614
27	0xbeee1bb5	-0.46505514
28	0x3e75e2f4	0.24012357
29	0xbebc3444	-0.36758626
30	0xbf2deffa	-0.679443
31	0xbe382516	-0.17982897

lstm.weight_hh_l0 f4 [8, 2]
0	0xbe7b0c56	-0.24516425
1	0x3ebf9216	0.37416142
2	0xbe5c96e5	-0.21541937
3	0xbf2a23d2	-0.6646091
4	0x3e1389bb	0.14408009
5	0x3d2ba2bb	0.04190324
6	0x3ef919e2	0.4865256
7	0x3eba9543	0.36442003
8	0x3f29f05e	0.66382396
9	0x3e2065de	0.15663859
10	0xbeb13812	-0.3461309
11	0xbe052cb6	-0.13005337
12	0x3e5b1054	0.21392947
13	0x3ebd436b	0.36965498
14	0xbe0f92ae	-0.14020798
15	0xbe0a923e	-0.1353235

lstm.bias_ih_l0 f4 [8]
0	0xbe53b345	-0.20673855
1	0xbe39b0cd	-0.1813385
2	0x3c836950	0.016041428
3	0xbed56a5d	-0.4168271
4	0xbd57489c	-0.05255948
5	0x3f341b70	0.70354366
6	0x3ee73ba4	0.4516269
7	0x3df2f489	0.11863048

lstm.bias_hh_l0 f4 [8]
0	0xbef024cd	-0.46903077
1	0xbe120155	-0.1425832
2	0xbea62ba5	-0.32455173
3	0x3ef5c388	0.4800074
4	0x3ebbdeb8	0.36693358
5	0xbebe2d0d	-0.37143746
6	0x3e3f56f7	0.18685518
7	0xbf1702a9	-0.58988434

lstm.weight_ih_l1 f4 [8, 2]
0	0xbde78b22	-0.11305834
1	0x3f04a997	0.51821274
2	0xbe02769e	-0.12740561
3	0xbe7fa9b7	-0.24967085
4	0x3f0c4d07	0.54805034
5	0xbe951e02	-0.29124457
6	0x3f303f4e	0.68846595
7	0x3e0aa6be	0.1354017
8	0x3f2bb4aa	0.67072546
9	0x3c30bae1	0.010786743
10	0x3dd9b812	0.10630812
11	0x3ebac584	0.36478817
12	0xbdb130b7	-0.0865187
13	0x3d85daa5	0.06535844
14	0x3d2d9c19	0.042385194
15	0x3e9bfe21	0.30467322

lstm.weight_hh_l1 f4 [8, 2]
0	0xbebfb26c	-0.37440813
1	0x3f13e5b6	0.57772386
2	0xbf1e4967	-0.61830753
3	0xbe09bee5	-0.13451727
4	0x3efccbea	0.49374324
5	0x3d8926df	0.06696867
6	0xbeade5bf	-0.33964345
7	0xbf292538	-0.66072416
8	0xbe9028dd	-0.28156176
9	0x3ea0da7e	0.31416696
10	0x3e1c8f8a	0.15289131
11	0xbe133841	-0.14376928
12	0x3f376e78	0.71652937
13	0x3d23b1da	0.039964534
14	0x3e94fd7c	0.29099643
15	0x3f2500b8	0.6445422

lstm.bias_ih_l1 f4 [8]
0	0x3f06a8aa	0.5260111
1	0xbf2b8d24	-0.6701224
2	0xbf16f9e4	-0.5897505
3	0x3f03bd6c	0.5146091
4	0xbe863eaa	-0.26219684
5	0xbe87ed06	-0.26548022
6	0xbec0a7d3	-0.3762804
7	0xbf00d35e	-0.5032252

lstm.bias_hh_l1 f4 [8]
0	0x3c62cd37	0.013842872
1	0xbee20b76	-0.4414937
2	0xbebf8e4a	-0.37413245
3	0xbf0f8bf3	-0.5607292
4	0x3e6b30c4	0.22967821
5	0x3eee92ef	0.46596476
6	0xbe95dfde	-0.2927236
7	0xbf11e804	-0.5699465

fc_1.weight f4 [128, 2]
0	0x3e63b845	0.22238262
1	0xbe8ddc3b	-0.27707085
2	0xbf060e5b	-0.52365655
3	0x3e8cfc5a	0.2753628
4	0x3cf6665d	0.030078107
5	0x3e972959	0.29523733
6	0x3f0d8285	0.5527728
7	0xbe9cabce	-0.30599827
8	0xbf06b887	-0.52625316
9	0x3e54a8d4	0.20767528
10	0xbdf1a20e	-0.117984876
11	0x3ef58932	0.47956234
12	0xbed0fe27	-0.40818903
13	0x3e5251a7	0.2053896
14	0x3c1a5a95	0.0094210105
15	0xbf1de236	-0.61673295
16	0xbd94d41b	-0.072670184
17	0x3f277d88	0.6542592
18	0x3edda78d	0.43291894
19	0xbd15145e	-0.036396377
20	0x3efe2dd9	0.49644354
21	0xbf2e9614	-0.6819775
22	0x3cca360d	0.024683977
23	0xbe240a63	-0.16019587
24	0x3e030f85	0.12798889
25	0xbeea473a	-0.45757467
26	0x3dac92cb	0.08426436
27	0xbf2b8b5e	-0.6700953
28	0x3eadfe4e	0.33983082
29	0xbee38a1f	-0.44441316
30	0xbf2f7ca7	-0.6854958
31	0xbe6aa9f5	-0.22916396
32	0x3e2b598b	0.16733377
33	0xbefbee7b	-0.49205384
34	0xbe9267c1	-0.28594783
35	0x3e18a0a4	0.1490503
36	0x3eaf7b96	0.34273976
37	0x3f272dd2	0.6530429
38	0xbe7c24dc	-0.24623436
39	0x3e9d4fa1	0.30724815
40	0xbf26d95a	-0.651754
41	0x3ed05525	0.4068996
42	0x3f17befc	0.59275794
43	0xbec5b022	-0.3861094
44	0xbdbe54cb	-0.09293517
45	0x3e217392	0.15766743
46	0xbea6fa2f	-0.3261275
47	0xbe881ee5	-0.2658607
48	0xbdf37272	-0.11887063
49	0x3f1330c6	0.574963
50	0x3f2e261b	0.68026894
51	0xbe958367	-0.29201815
52	0x3c571f33	0.013129997
53	0x3ed1865d	0.40922824
54	0x3e9e8c36	0.30966347
55	0x3f1deaeb	0.6168658
56	0x3edc4325	0.43019977
57	0xbf27db1b	-0.65568703
58	0xbe88654e	-0.2663979
59	0xbf29c001	-0.663086
60	0xbf04dd68	-0.5190034
61	0xbe730d64	-0.23735577
62	0xbead9757	-0.33904526
63	0xbeea1914	-0.45722258
64	0xbeca401d	-0.3950204
65	0xbf2b67a2	-0.66955006
66	0x3ed61ef6	0.41820496
67	0xbe2f5079	-0.17120542
68	0xbd470c20	-0.048595548
69	0xbe1958c3	-0.14975266
70	0xbeb3fae3	-0.3515235
71	0x3f039be0	0.5140972
72	0x3da1f211	0.07907499
73	0xbf212dca	-0.62960494
74	0x3ef7a94c	0.4837135
75	0x3f2873ea	0.6580187
76	0x3ec02589	0.37528637
77	0x3f317f78	0.69335127
78	0xbe688b9b	-0.22709505
79	0xbe033e76	-0.12816796
80	0x3d826149	0.06366212
81	0x3f21218b	0.6294181
82	0xbe6bb422	-0.23017934
83	0xbc3c0d38	-0.011477761
84	0xbef06a7e	-0.46956247
85	0x3f2b24a2	0.6685277
86	0xbe4a960a	-0.19783798
87	0x3e172438	0.1475991
88	0x3e96b5ee	0.29435676
89	0xbdb5d8e1	-0.08879257
90	0x3ef5bc43	0.47995195
91	0x3ee70be1	0.4512625
92	0x3f078072	0.52930367
93	0x3e0b0a16	0.13578066
94	0xbe15f08b	-0.14642541
95	0x3f1c3fca	0.61034834
96	0x3e833a16	0.25630254
97	0x3f29afc3	0.66283816
98	0x3e390a6e	0.18070385
99	0x3e53af7e	0.20672414
100	0xbd2dcbe5	-0.042430777
101	0xbe08d98e	-0.1336424
102	0xbf139ea3	-0.57663935
103	0xbeeeba00	-0.46626282
104	0xbf05c72d	-0.52257043
105	0xbedd1c5a	-0.43185693
106	0xbd7a1c2a	-0.061062016
107	0xbf25ac5d	-0.6471613
108	0xbde3a02f	-0.11114537
109	0xbf0f1b7d	-0.5590132
110	0x3dac0064	0.08398512
111	0xbe251d3b	-0.16124432
112	0x3f1faf1d	0.62376577
113	0xbf00efc5	-0.5036586
114	0x3d9c09bb	0.076190434
115	0x3e110ab7	0.14164244
116	0xbd8837c9	-0.06651265
117	0xbb813705	-0.0039433264
118	0x3ef76365	0.4831802
119	0x3cbbfe78	0.022948489
120	0xbf082e77	-0.531959
121	0x3e23bc35	0.15989764
122	0xbd4478f2	-0.047966905
123	0xbdcf1749	-0.10111863
124	0xbd0c203c	-0.03421043
125	0x3df713a1	0.12064291
126	0x3f18e876	0.5972971
127	0xbed586e2	-0.4170447
128	0xbf26e34c	-0.6519058
129	0x3e558eab	0.20855205
130	0x3ef3c5c1	0.47611812
131	0xbed1a581	-0.40946582
132	0xbf0e6e57	-0.55637115
133	0xbe26ae7d	-0.162775
134	0x3eb1476f	0.34624812
135	0xbe260a33	-0.16214828
136	0xbde52bac	-0.111899704
137	0x3f054414	0.52057004
138	0xbf00939d	-0.5022524
139	0xbeac0188	-0.33594918
140	0xbf119bc5	-0.5687831
141	0x3f08085a	0.53137743
142	0xbd32c026	-0.04364028
143	0x3e0a17d9	0.1348566
144	0x3d97fb68	0.07420999
145	0xbd5f832c	-0.054568455
146	0x3ef9b2ee	0.48769325
147	0x3ebcc126	0.3686611
148	0xbea8fefb	-0.33007035
149	0x3f1f8c7b	0.6232373
150	0xbdad49fa	-0.084613755
151	0x3f2c9967	0.67421573
152	0x3d527387	0.051379707
153	0x3c9b6930	0.018971056
154	0xbda9bc3f	-0.08287858
155	0xbed0b19e	-0.4076051
156	0xbebe0c3f	-0.37118718
157	0xbf1fca64	-0.624182
158	0x3f02e62d	0.5113247
159	0x3db75b7f	0.08952998
160	0xbe987fea	-0.2978509
161	0x3eb68bf5	0.35653654
162	0xbe399847	-0.18124495
163	0x3c3fe476	0.011712184
164	0x3c516e06	0.012782579
165	0x3ec2d45d	0.38052645
166	0x3ee5c48a	0.4487651
167	0x3e870a87	0.2637522
168	0x3eac864c	0.3369621
169	0x3e329987	0.17441379
170	0xbeb53bd1	-0.353972
171	0xbf1752ed	-0.5911091
172	0xbecef126	-0.40418357
173	0x3e995c9d	0.2995347
174	0x3ee7f8f8	0.45307136
175	0xbe6c4836	-0.23074421
176	0x3ea7dbda	0.3278492
177	0x3e7d0106	0.24707422
178	0x3c3420e8	0.010994174
179	0x3e2b6a9e	0.1673989
180	0xbf3725da	-0.7154213
181	0xbe9371e3	-0.28797826
182	0x3e3e0e59	0.1856016
183	0xbf097dbe	-0.5370749
184	0xbf0e2d2f	-0.55537695
185	0x3d5f091b	0.054452043
186	0x3f2465a7	0.6421761
187	0xbdd042bb	-0.10168978
188	0x3dd57610	0.10422909
189	0x3edb3144	0.42811024
190	0xbe1f6ed2	-0.15569618
191	0x3e4e332f	0.20136712
192	0x3ec0f4cf	0.37686774
193	0xbe5797a3	-0.21053939
194	0x3ede0b00	0.43367767
195	0xbf3067cf	-0.689084
196	0xbe64203b	-0.2227792
197	0x3f235ef2	0.6381675
198	0x3e2d57f7	0.16928087
199	0x3e9e6299	0.309346
200	0x3ece102d	0.40246716
201	0x3f32083f	0.6954383
202	0x3e0d3697	0.13790356
203	0x3ec68e26	0.38780326
204	0xbf24cde2	-0.6437665
205	0x3efb9955	0.4914042
206	0xbe0c082b	-0.13674991
207	0x3ecb15c5	0.39665046
208	0xbf2c5053	-0.67310065
209	0x3dacb70b	0.0843335
210	0x3ea5e362	0.32400042
211	0x3f1e57cb	0.6185271
212	0xbe0419a0	-0.129004
213	0xbe7f6b90	-0.24943376
214	0xbe2aedc1	-0.16692258
215	0xbeab36b0	-0.3344016
216	0x3f20b401	0.62774664
217	0xbf1b4758	-0.60655737
218	0xbd6d33cc	-0.057910725
219	0xbed1da61	-0.40986922
220	0x3ecbdbd1	0.39816144
221	0x3f0c1240	0.5471535
222	0x3de89f8f	0.113585584
223	0xbee81bfc	-0.4533385
224	0x3f214ece	0.6301087
225	0xbf115c02	-0.5678102
226	0xbee193e5	-0.44058147
227	0xbf347a0b	-0.7049872
228	0xbd1a76cc	-0.03771095
229	0x3dc7a99d	0.09749148
230	0x3f179aa6	0.5922035
231	0xbea58ca4	-0.32333863
232	0xbf262731	-0.6490355
233	0x3f21d721	0.63218886
234	0x3e9c3d60	0.30515575
235	0xbf0e1570	-0.5550146
236	0xbe73fe9c	-0.23827595
237	0xbf31d9ec	-0.6947315
238	0xbe6289cd	-0.2212288
239	0xbe71fc2b	-0.2363135
240	0x3e92af61	0.28649428
241	0x3e726ced	0.23674364
242	0x3eb4da4b	0.35322794
243	0x3f285ba1	0.65764815
244	0x3d804642	0.062634006
245	0x3ec5cb05	0.38631454
246	0x3c584cd5	0.013201912
247	0xbf35b034	-0.7097199
248	0x3e6f80c6	0.23388967
249	0x3e52788b	0.20553796
250	0x3ec9e8a3	0.394353
251	0x3f271cac	0.65278125
252	0xbea0a24d	-0.31373826
253	0x3e0e3eee	0.13891193
254	0x3f053fb8	0.5205035
255	0x3eeecebe	0.46642107

fc_1.bias f4 [128]
0	0xbf1b84cd	-0.6074951
1	0xbdaee19e	-0.08539127
2	0x3e03a200	0.12854767
3	0x3e72a5ff	0.23696135
4	0x3ebd9ffe	0.37036127
5	0xbed52ec3	-0.4163724
6	0xbe83707b	-0.25671753
7	0x3e183db9	0.14867295
8	0xbec6f459	-0.38858297
9	0x3c5de872	0.013544189
10	0x3ea071a0	0.3133669
11	0xbeeb8f86	-0.46007937
12	0x3eb0939f	0.34487626
13	0xbefe9bda	-0.4972828
14	0x3e046805	0.12930305
15	0xbf18b2c6	-0.59647787
16	0x3f2a35e4	0.6648848
17	0x3ebd825b	0.37013516
18	0x3e8023b2	0.25027233
19	0xbf219518	-0.63118124
20	0xbeb234e3	-0.34805974
21	0x3e725b10	0.2366755
22	0x3edc3f97	0.43017265
23	0xbea93209	-0.33045986
24	0x3d571df7	0.05251881
25	0xbf2e2b64	-0.6803496
26	0x3e6f367d	0.2336063
27	0x3eb9af3a	0.362665
28	0x3e906c36	0.28207558
29	0x3eae1992	0.34003884
30	0x3df72cee	0.120691165
31	0xbd954988	-0.072894156
32	0xbde11e5a	-0.10992117
33	0x3ea2cf19	0.31798628
34	0x3d9354c9	0.07193906
35	0x3f1819c3	0.5941431
36	0xbeef2082	-0.4670449
37	0x3ed04f0c	0.40685308
38	0x3f1561f1	0.5835257
39	0x3f0db05c	0.5534723
40	0x3eb27ad1	0.34859326
41	0x3e8f0265	0.27931514
42	0x3e569805	0.20956428
43	0xbe9917f2	-0.2990108
44	0x3ebcb7f2	0.3685909
45	0xbd976011	-0.0739137
46	0xbdd002ca	-0.10156782
47	0x3eacbeda	0.33739358
48	0x3dae4b7a	0.0851049
49	0xbe62a025	-0.22131403
50	0x3f31bc7a	0.6942822
51	0xbdc18764	-0.09449652
52	0xbb306dbd	-0.0026920878
53	0xbec2950e	-0.38004345
54	0xbc1aca9e	-0.009447722
55	0xbd498871	-0.049202386
56	0x3ed3c5c8	0.41361833
57	0x3e854d89	0.26035717
58	0x3ef0db30	0.47042227
59	0x3ed76622	0.4207011
60	0xbec823c1	-0.39089778
61	0xbdea87a4	-0.11451653
62	0xbd886757	-0.066603355
63	0x3ec3024b	0.38087687
64	0xbf1f547d	-0.62238294
65	0xbf1f9903	-0.6234285
66	0x3eb2de27	0.34935114
67	0x3f01cfc6	0.5070766
68	0x3eb95751	0.3619943
69	0x3dde5094	0.10855213
70	0x3ef9443b	0.48684868
71	0xbf15af69	-0.5847078
72	0x3e8396ae	0.25700897
73	0x3f0420f9	0.5161281
74	0xbf3036ca	-0.688336
75	0xbe29e406	-0.1659089
76	0xbe9216ae	-0.28532928
77	0x3f074b9c	0.52849746
78	0x3f2e38c4	0.6805537
79	0x3dd72087	0.10504251
80	0x3e511a38	0.20420158
81	0x3f13998f	0.57656187
82	0x3bbce7b2	0.005764925
83	0x3e358831	0.17727734
84	0xbdf951eb	-0.12173828
85	0xbea130d1	-0.31482556
86	0x3ebaf888	0.3651774
87	0xbf1c565d	-0.6106928
88	0x3efbbae0	0.49166012
89	0xbdf0c4d0	-0.11756289
90	0x3e29a659	0.16567363
91	0xbdcbcaa3	-0.09950759
92	0xbe438f7e	-0.19097707
93	0x3efab8dd	0.48969164
94	0x3e66e92f	0.2254989
95	0x3e8ddb8c	0.27706563
96	0x3de497de	0.11161779
97	0xbf2f79b7	-0.685451
98	0x3e1accb0	0.15117145
99	0xbf151b37	-0.5824465
100	0x3e4972dd	0.19672723
101	0xbe2b38d1	-0.16720892
102	0xbe2b28bb	-0.16714756
103	0xbed397dc	-0.41326797
104	0x3e8e0dc7	0.27744886
105	0x3e521364	0.2051521
106	0x3e34fc6b	0.17674415
107	0xbf1b4431	-0.60650927
108	0xbee3e8b0	-0.44513464
109	0x3dcbe60a	0.09955986
110	0x3ee9ca50	0.45662165
111	0xbf10a70f	-0.5650491
112	0xbe1fbb18	-0.15598714
113	0xbef88e92	-0.48546273
114	0x3e60a715	0.21938737
115	0x3ee3a3a7	0.44460794
116	0xbd292a7c	-0.041300282
117	0x3f05342a	0.5203272
118	0x3f174bce	0.59100044
119	0x3e00a2b9	0.12562074
120	0xbf08995c	-0.5335901
121	0x3cacae6c	0.021079265
122	0xbf32a6f8	-0.69786024
123	0x3e039cd9	0.12852801
124	0x3ea32fd9	0.31872442
125	0xbdb54bc4	-0.08852342
126	0xbd027171	-0.031846467
127	0xbdcaf050	-0.09909117

fc.weight f4 [1, 128]
0	0x3d50da19	0.050989244
1	0x3cad4d79	0.021155106
2	0x3c56c01c	0.013107326
3	0xbd80012f	-0.06250226
4	0xbd8746da	-0.06605311
5	0x3d852df5	0.06502906
6	0x3d699646	0.057028078
7	0xbcff9ce7	-0.031202747
8	0xbd84d31a	-0.06485577
9	0x3cdaa55b	0.026690176
10	0x3d0a5a35	0.033777434
11	0xbd4bfecc	-0.04980354
12	0xb9fae46c	-0.00047853903
13	0xbc06bce4	-0.008223746
14	0x3d88df35	0.06683198
15	0xbc8b4c42	-0.017004136
16	0x3a36499d	0.0006953718
17	0xbdba964f	-0.091107
18	0xbd76e361	-0.06027544
19	0xbc47d108	-0.012195833
20	0x3bf69c57	0.0075259614
21	0xbd8da2a2	-0.06915785
22	0xbda5294b	-0.08064517
23	0x3d7d0638	0.06177351
24	0xbdab17be	-0.08354138
25	0x38279248	3.9952138e-05
26	0x3d10d702	0.035361297
27	0x3c7dba7d	0.015486357
28	0xbdb772c1	-0.089574344
29	0xbda4071b	-0.08009168
30	0x3cafc554	0.021456398
31	0x3d9efb00	0.07762718
32	0x3cca3683	0.024684196
33	0x3c2d76f4	0.010587443
34	0x3cc6898e	0.024235513
35	0xbdceedbf	-0.1010394
36	0x3c7bd0ef	0.015369638
37	0xbd9b5942	-0.07585384
38	0x3d92b6ac	0.07163748
39	0x3d61fc30	0.055172145
40	0xbdbc2257	-0.09186237
41	0xbdd5e7d5	-0.10444609
42	0xbc950139	-0.01818906
43	0xbd14c5bb	-0.036321383
44	0x3d89ffde	0.06738256
45	0x3c755c59	0.014975631
46	0x3dc6a4b6	0.09699385
47	0xbd0e29f7	-0.03470799
48	0x3d1a826e	0.037722044
49	0x3da81ca6	0.08208589
50	0xbdab05c3	-0.08350708
51	0x3d56ab03	0.052409183
52	0x3c849be9	0.016187625
53	0xbd40f4bc	-0.047108397
54	0x3d6f8d04	0.058484092
55	0x38af8242	8.368913e-05
56	0xbd16a4fb	-0.03677843
57	0x3c0313d7	0.008000336
58	0xbdd1656e	-0.10224424
59	0xbd052f54	-0.03251584
60	0x3d349a99	0.04409275
61	0xbd4b139e	-0.049579255
62	0xbd841eb3	-0.06451168
63	0x3d6e8761	0.058234576
64	0xbd33de8d	-0.043913413
65	0xbcdacba1	-0.026708426
66	0xbdb3dff1	-0.08782948
67	0xbcadc9f2	-0.02121446
68	0xbd9d22cd	-0.07672653
69	0xbdac186e	-0.08403097
70	0xbdd368bf	-0.10322713
71	0xbda3fc2d	-0.08007083
72	0xbd8783cd	-0.06616936
73	0xbd55059c	-0.052007303
74	0x3d66b9b3	0.05632944
75	0x3d942649	0.07233865
76	0x3d4b96c9	0.049704347
77	0xbdc7391c	-0.097276896
78	0x3d86b38d	0.06577215
79	0xbdbbf31a	-0.09177227
80	0xbd23c283	-0.039980423
81	0x3cf78df6	0.03021906
82	0x3d0bdb5c	0.034144744
83	0xbd4beafe	-0.049784653
84	0xbc598581	-0.013276459
85	0xbcf49659	-0.029856848
86	0xbdc597e5	-0.09648112
87	0x3af6c5a0	0.0018827207
88	0x3d53321c	0.05156146
89	0x3ce61e9a	0.028090764
90	0xbd999874	-0.07499781
91	0x3d0b9fbb	0.034087878
92	0x3cb9b14f	0.022667555
93	0xbc2a4b00	-0.010393858
94	0xbcfe0a6d	-0.03101083
95	0xbd4d60fe	-0.050141327
96	0x3d82f577	0.06394475
97	0xbd8471ed	-0.06467042
98	0x3d396cab	0.04526965
99	0xbd88debd	-0.06683109
100	0xbdad815a	-0.084719375
101	0x3d99bc51	0.07506622
102	0x3ce15dac	0.027510487
103	0xbd13933f	-0.036029097
104	0xbca4d550	-0.020121247
105	0x3d89cedf	0.06728911
106	0xbd712c7c	-0.058880314
107	0xbd7c22ba	-0.061556555
108	0x3c510cc2	0.012759389
109	0x3d8a0b84	0.06740478
110	0xbc50dd32	-0.01274805
111	0xbd015f20	-0.03158486
112	0xbd2bf1e9	-0.04197875
113	0xbcb2b3b5	-0.021814207
114	0xbdc80df3	-0.097682856
115	0xbdc9cf33	-0.09853973
116	0x3db01115	0.08597008
117	0xbd70f394	-0.058826044
118	0xbc45325b	-0.012035931
119	0x3d2fea6f	0.042948183
120	0xbd257993	-0.040399145
121	0xbd33f9b8	-0.043939322
122	0xba968faf	-0.0011486913
123	0x3d2ecdd5	0.042676765
124	0x3d426c80	0.047466755
125	0x3d30d446	0.04317119
126	0xbcaf507e	-0.021400686
127	0xbd7ee729	-0.06223217
