pretrained/lstm_trained.pth (torch, 4251 bytes, 7 tensors)

lstm.weight_ih_l0 f4 [8, 4]
000000 b8 69 f7 be 7f 91 55 be e1 f8 35 3e fc 43 84 be
       -0.48322845 -0.20856284 0.17770721 -0.25833118
000010 3d 27 1d bf 92 0c 25 bf 98 35 40 3e de c2 8a 3e
       -0.61388 -0.64472306 0.18770444 0.27101797
000020 a4 ff b1 3d 8e 52 33 3f 9f 62 4e be f1 03 6a 3e
       0.08691338 0.70047843 -0.20154808 0.22853066
000030 a8 71 e3 3e 65 c2 15 3f aa 7d 20 3e 12 19 f2 3e
       0.4442265 0.5849975 0.15672937 0.47284752
000040 46 4c 32 3d 35 56 14 3f 16 02 a0 be 63 34 60 bd
       0.04352977 0.5794404 -0.3125159 -0.05473746
000050 20 b2 35 3e 0c 8d e1 be 75 91 9f 3e 32 e1 34 3e
       0.1774373 -0.44052923 0.31165662 0.1766403
000060 14 43 a6 be 5f bd 4a be c7 81 15 bf 30 82 30 bf
       -0.32473052 -0.19798802 -0.5840115 -0.6894865
000070 9a 92 96 bd 4e 77 fe be 45 6a 32 3f 06 3f 19 bf
       -0.07352181 -0.49700397 0.69693404 -0.5986179

lstm.weight_hh_l0 f4 [8, 2]
000000 a8 9b 1b bf 08 7c a4 3c 62 e8 22 3e a9 cd 2c 3f
       -0.6078439 0.020078674 0.1590896 0.6750131
000010 87 ab 72 be a8 7b a8 3e 46 ee fa be 48 a3 34 3e
       -0.23698245 0.32906842 -0.49009913 0.17640412
000020 9c 53 f7 3e 12 8d 0a 3e ad 93 b9 be bb d1 f3 3b
       0.48305976 0.13530377 -0.3624548 0.0074407733
000030 cd dc 01 3e 32 e8 ad 3e 9a 16 8e 3e fa 94 c2 3e
       0.12681885 0.33966213 0.2775162 0.38004285

lstm.bias_ih_l0 f4 [8]
000000 29 e0 10 bf 9c 5b e4 bd 3a 7e e4 3e ac 35 af 3e
       -0.5659204 -0.111502856 0.44627553 0.34220636
000010 b9 a0 b1 3e e2 ba af 3d 5a 93 96 be 0d 38 b9 3e
       0.34692934 0.08580567 -0.29409295 0.36175576

lstm.bias_hh_l0 f4 [8]
000000 44 ef 0d 3f 2b 69 62 3e 31 01 0b 3f c3 a5 f8 be
       0.55443215 0.22110431 0.5429869 -0.48563966
000010 a6 17 f3 be be c3 73 3e 3b 9c cd 3d 57 51 4e be
       -0.4747898 0.23805138 0.10039564 -0.20148216

fc_1.weight f4 [128, 2]
000000 d6 8b 6f bd 7f d2 4a bc 56 55 2f bf 04 97 20 bf
       -0.058482967 -0.012379288 -0.6848959 -0.6273043
000010 4e cd 84 be df 35 27 3f b7 93 af 3d f8 60 bd 3e
       -0.25937885 0.65316576 0.08573096 0.36988044
000020 2e d1 8c 3e 68 c5 d9 be ea 28 56 3e 6b 84 ea 3d
       0.2750334 -0.42533422 0.20914045 0.11451038
000030 2b 75 f0 be b7 33 30 3f 92 49 12 3f 73 9c 5a 3e
       -0.46964392 0.6882891 0.5714351 0.21348743
000040 9e 0b da be 06 70 ac be d7 23 30 3f 60 b5 d2 bd
       -0.42586988 -0.33679217 0.6880469 -0.10288501
000050 f6 cc 8b be 61 f1 bf 3c 98 17 32 3d b8 15 d3 3e
       -0.2730481 0.023430528 0.043479532 0.41227508
000060 a9 4f 3d be 79 6f f1 be 63 b1 9a bd c9 2c 18 3e
       -0.18487419 -0.4715536 -0.07553365 0.14860834
000070 c0 46 58 be 3d c2 92 3e a8 98 30 3f ff c4 34 bf
       -0.21120739 0.28663817 0.68982935 -0.7061309
000080 a6 1d 10 3e 26 e0 64 3d c6 d9 2c 3e 15 80 bd 3e
       0.1407381 0.055877827 0.16879949 0.3701178
000090 50 a2 af bd d5 c0 2b bf 55 91 19 3f d9 41 1f 3f
       -0.085758805 -0.67091113 0.59987384 0.6220985
0000a0 14 81 01 3e 2b 24 4b bc d3 a3 2a 3f 91 d3 a4 be
       0.12646896 -0.01239876 0.66656226 -0.32192662
0000b0 24 78 e1 3e f9 9e 24 bf 80 9f 34 3e 53 c8 c7 3c
       0.44036973 -0.64305073 0.1763897 0.024387514
0000c0 ed 0e a0 3e 25 67 c0 3e 14 fa 1c bf b5 53 02 bf
       0.31261387 0.37578693 -0.6131909 -0.50908977
0000d0 89 ae 15 bf bb e5 ea be be 1e 04 bf b3 f1 dc be
       -0.58469445 -0.45878395 -0.5160941 -0.43153152
0000e0 08 3b cc bd 4c 7e dd 3e 92 f8 07 3e 18 a3 79 3d
       -0.09972197 0.4326042 0.13278416 0.060946554
0000f0 06 bf 24 bf 7a 77 22 be 27 ba cf be 6a 3f 97 3e
       -0.6435398 -0.15865889 -0.4057171 0.2954057
000100 58 1f cc 3e 00 c2 c4 be f6 88 34 3f 14 2a 8a 3e
       0.39867663 -0.3842926 0.70521486 0.26985228
000110 8e d4 ef be fc 09 06 3f e0 77 33 3f 2e 18 23 bf
       -0.46841854 0.52358985 0.7010479 -0.6370877
000120 0b de 30 3f 5d 56 ba be 62 a1 1a be bc 65 d7 bd
       0.6908881 -0.36394015 -0.15100625 -0.10517451
000130 ac 8f 5b bd 3d 65 6c be 3b c6 cc 3c b4 c1 4a 3e
       -0.053603813 -0.23085494 0.024996867 0.19800454
000140 f7 27 84 3d 44 7f 20 3f ba a2 04 3f ec 32 31 bf
       0.06452935 0.6269419 0.518108 -0.69218326
000150 36 bb 62 3d df 46 49 3e ec 67 91 be 02 ab 20 3e
       0.05535432 0.19655941 -0.283996 0.15690234
000160 43 1a 05 3f 9a 5c d6 be 2b b3 c5 be a4 59 1f 3f
       0.519932 -0.41867524 -0.38613257 0.62246156
000170 1e 3a cf 3e 05 9c c2 3e 25 d6 03 bf 04 f4 f0 be
       0.40474027 0.38009658 -0.51498634 -0.4706117
000180 75 0d 08 bf 50 3f 1b bf 4a f2 c5 be a6 b4 23 3e
       -0.53145534 -0.6064348 -0.38661414 0.1598688
000190 64 18 e4 be d1 b7 00 3f 11 9e 0a bd 0c 12 47 be
       -0.4454986 0.5028048 -0.03384215 -0.19440478
0001a0 57 73 75 be db 12 02 bd 2d b1 de 3e b4 50 86 be
       -0.2396978 -0.031756263 0.4349455 -0.26233447
0001b0 bd 38 fe be 2a 65 3e 3d 8d f1 ad 3e 67 4d 96 be
       -0.49652663 0.046483196 0.3397335 -0.29355928
0001c0 b0 7b e9 bd 54 01 2d 3f d9 d1 29 3f c0 25 ed 3d
       -0.11400545 0.6758015 0.6633583 0.11579466
0001d0 d5 35 16 bf 73 97 10 bf 85 02 24 3f 18 6f 63 3e
       -0.5867589 -0.56481093 0.64066344 0.22210348
0001e0 f1 98 a5 be d5 18 bc 3e 96 d0 ed 3e 64 e8 68 3d
       -0.32343248 0.36737695 0.464482 0.05686225
0001f0 4d 52 9e be 14 f0 04 3e 56 ba 7a 3e 4f bb bb be
       -0.30922166 0.12982208 0.24485144 -0.36666343
000200 70 3f 68 be b9 29 15 3f 33 9d 82 3e 92 66 05 3f
       -0.2268045 0.5826679 0.25510558 0.52109635
000210 c8 19 26 3f 81 9e f9 3d ea 2c 6b bd 64 aa 15 3d
       0.6488309 0.12188435 -0.05741588 0.03653945
000220 ef f0 1a be 1f 78 52 be 5c 1b d0 3e 9c 9a b7 3e
       -0.15130971 -0.20553635 0.40645874 0.35860145
000230 92 1c 9c 3d 28 2e 4f be 4c 31 a3 be ea 97 d1 be
       0.07622637 -0.20232451 -0.31873548 -0.40936214
000240 74 fe f5 be e4 50 d4 3e 1a 1e 65 bd cb 9b a7 be
       -0.48045695 0.41467965 -0.05593691 -0.32736048
000250 bf a3 bf 3e 9f 78 20 be 00 6c 00 3e d7 3b b5 bd
       0.37429616 -0.15671013 0.12541199 -0.08849304
000260 e2 0b 99 3e 6c e4 00 bf a9 78 26 3f 2f 02 c0 3e
       0.29891878 -0.50348544 0.6502786 0.37501666
000270 94 79 f6 be b3 62 45 b9 8e 8f bd be a7 c0 ca be
       -0.48139632 -0.00018824152 -0.37023586 -0.39600107
000280 66 38 38 bd d5 73 d5 3e ec a5 fb be ab ff 6f be
       -0.04497566 0.41689935 -0.49150026 -0.23437373
000290 49 84 0c bf c1 4e 2a 3f 7b 2b 28 3f a0 fc f8 3e
       -0.5488935 0.6652642 0.65691346 0.48630238
0002a0 27 1e 0c 3f 5a 4d 93 3e 75 63 c8 be ab fd d8 be
       0.5473351 0.28769952 -0.3913838 -0.42381033
0002b0 22 43 31 3f 82 89 ec 3e 89 75 aa 3e 65 67 97 3e
       0.6924306 0.4619866 0.33292797 0.2957107
0002c0 15 47 d5 be 47 cc c3 3d 54 84 12 3f 7d 0a 02 3f
       -0.41655794 0.09560447 0.57233167 0.50797254
0002d0 7d 12 a6 3e 94 57 f7 3e 11 14 ae b9 6c bd f1 bc
       0.3243598 0.48309004 -0.00033202817 -0.029509269
0002e0 b8 ef 27 bd c2 60 9c 3e d2 01 2c be b8 d0 80 3e
       -0.041000098 0.3054257 -0.1679757 0.2515924
0002f0 44 4e 18 be 59 86 03 bf ed 06 df be 6e dd 1d be
       -0.14873606 -0.51376873 -0.4355997 -0.154165
000300 e0 b7 5a 3e 33 fe 4d 3d a0 f6 15 3f 2f 9b 14 3e
       0.21359205 0.05029125 0.58579445 0.14512323
000310 a8 8a 94 bd a6 6a b1 be 8b 23 1e be 38 d6 30 3f
       -0.07253009 -0.3465168 -0.15443246 0.6907687
000320 f1 2f 1a 3f 1e 89 20 bf 9c 48 c8 3e a9 49 31 bf
       0.602294 -0.62709224 0.39117897 -0.6925302
000330 19 d7 ae 3e 19 f5 b4 3e 8e 42 dc 3e 54 6b b7 3c
       0.3414848 0.35343245 0.43019527 0.022390045
000340 32 5d d6 3e 49 46 10 3e 14 fb 15 be 9d 80 fa 3e
       0.41867977 0.14089312 -0.1464656 0.4892625
000350 22 36 06 3f ea 19 25 be 97 ab 16 3f b4 e6 27 3f
       0.5242635 -0.16123167 0.58855575 0.655864
000360 82 87 34 3f 52 e8 00 be 0b 97 32 3f a2 be d2 3d
       0.7051927 -0.12588623 0.69761723 0.102902666
000370 b0 82 e2 bd 3c f9 ce 3d 0c d5 14 bf 16 00 1c 3e
       -0.11060083 0.101061314 -0.58137584 0.15234408
000380 5b fe fd bd a6 72 29 3f 4f 2a cb be 08 a1 0b bf
       -0.1240203 0.66190565 -0.39680716 -0.5454259
000390 27 bb 1d 3f 88 20 9e 3e 86 1d 4b 3e 8c 71 0b bf
       0.61613697 0.30884194 0.19835481 -0.54470134
0003a0 3a f9 c9 3e 61 ae 32 3f 9c 14 a1 bd fe 95 9a be
       0.39447957 0.6979733 -0.07865259 -0.3019256
0003b0 6d dd a6 3d 8d 10 db be fb 83 23 bd 82 b5 b1 3e
       0.08147702 -0.42786065 -0.03992079 0.34708792
0003c0 c8 69 04 bf 6c 64 af be 12 6b c6 be 8b 54 13 3f
       -0.5172391 -0.34256303 -0.38753563 0.5755088
0003d0 a7 3a 6a b9 f7 a3 0e bf 0c 68 d0 3d 91 e9 1e bf
       -0.00022337829 -0.5571894 0.10176095 -0.62075144
0003e0 53 3d 33 bf 2d fe 18 bf cf f1 04 3f 0a 2f 0a bf
       -0.7001545 -0.5976284 0.5193147 -0.53978026
0003f0 2d 5d fa 3d 39 47 8e 3e d9 4e d1 be d2 aa a4 3e
       0.12224803 0.27788714 -0.40880468 0.32161576

fc_1.bias f4 [128]
000000 97 bd 14 bf f0 4a 8d 3e 1d 93 13 3f 57 cb 01 3f
       -0.5810179 0.27596235 0.5764635 0.50700897
000010 8d 3e 20 3f 38 93 ff 3d 08 fa 16 bf 50 3a 7d bd
       0.62595445 0.124792516 -0.5897527 -0.06182319
000020 a7 9e cf be 18 f7 d2 bd c9 40 03 bf 8d 7c fa be
       -0.4055073 -0.10301036 -0.5127073 -0.4892315
000030 6d 8b c7 be e3 62 02 3f ff c5 06 3f d3 fb 32 3e
       -0.3897356 0.5093214 0.5264587 0.17478876
000040 47 a6 0d 3e bc d9 0e be 41 b7 aa be b3 e2 91 3e
       0.13832961 -0.13950247 -0.33342937 0.2849327
000050 a2 e7 6e be 75 11 21 3f 3f a4 e1 be 8e 3c 98 be
       -0.23330548 0.6291726 -0.44070622 -0.297337
000060 07 2f cb be 30 dd aa 3e 91 d0 1f bf a2 ee df 3e
       -0.39684317 0.33371878 -0.6242762 0.4373675
000070 b1 c3 99 be 85 24 06 3f 31 8e 3d 3e 41 23 86 be
       -0.30032113 0.52399474 0.18511273 -0.26198772
000080 5a c3 ad be 5c 8c ec be 57 df 27 be 00 fd b1 bd
       -0.33938104 -0.46200836 -0.16393791 -0.08690834
000090 5f 8f 6c be 85 bb 17 be 7f 5c 31 3f 92 6e 07 3f
       -0.23101567 -0.14817627 0.6928176 0.5290309
0000a0 31 a7 64 be a7 4c b4 3e 7c f7 32 bf 81 ba c5 be
       -0.22329403 0.3521473 -0.6990888 -0.38618854
0000b0 66 d9 97 bd 21 0f 09 bf fa 3f 82 be bc 4f 2a 3e
       -0.07414512 -0.5353871 -0.25439435 0.16631979
0000c0 fe 72 e6 3e 3c bf 5e be 17 e6 16 3e 0d 68 98 be
       0.45009607 -0.21752638 0.1473621 -0.29766884
0000d0 12 c3 a3 3c 83 13 4d be d4 78 3b 3e e4 7c b1 be
       0.019990478 -0.20026974 0.18307811 -0.34665596
0000e0 88 5f e0 3e 3b 34 de 3e d3 fb da 3e c5 03 f6 bd
       0.43822885 0.43399224 0.42770252 -0.12012438
0000f0 44 4b a4 3e ed af dc be 7b 31 0b bf 69 cf ab be
       0.32088673 -0.4310297 -0.54372376 -0.3355668
000100 7d de c5 be eb da be be 2b 9a c3 3e e2 fc 86 3e
       -0.38646308 -0.37276396 0.38203558 0.2636481
000110 f4 ca c7 be 95 5a b0 bd f8 36 00 bf 41 e4 84 3e
       -0.39022028 -0.08611027 -0.50083876 0.25955394
000120 96 7c 02 bf 4c 72 00 3e fc 7f d9 3e 16 17 60 be
       -0.50971353 0.12543601 0.42480457 -0.21883807
000130 1a b8 16 3f c4 50 15 bf 2a b4 e6 3d ac 6b d4 be
       0.58874667 -0.58326364 0.11264832 -0.41488397
000140 64 ed 65 be 86 03 20 3d 2c 78 1c bf 16 ae fa be
       -0.22453839 0.03906586 -0.6112087 -0.48960942
000150 51 e1 0d bf d8 83 97 be d0 6e 1a bf b3 ee 27 bf
       -0.5542193 -0.29592776 -0.60325336 -0.655986
000160 a6 25 78 3e 8c 6f 13 bf 40 1e 8c 3e b8 53 0e 3f
       0.24233112 -0.5759208 0.2736683 0.55596495
000170 a4 d7 75 3e a5 22 1c 3f 65 ed 04 3d 0a 17 9d be
       0.24008042 0.60990363 0.03245296 -0.3068164
000180 d1 92 c9 ba 5e bf ba 3e 95 cf e7 bc c1 06 2c be
       -0.0015378838 0.36474127 -0.028297225 -0.16799451
000190 fb ac d8 3e 28 f1 11 bf ac 1c bc 3e a0 26 02 3f
       0.42319474 -0.570086 0.36740625 0.5084019
0001a0 64 a3 95 bd 26 32 fc bd 43 87 0a 3f 54 a2 79 be
       -0.07306555 -0.123142526 0.54112643 -0.2437833
0001b0 c3 4e 1b bf 03 b7 ed 3d a4 ef 0b be 5c e3 13 3e
       -0.60667056 0.11607172 -0.13665634 0.144422
0001c0 a9 4a 75 be 8e 19 59 be 29 ff d6 3e cc 3f a5 3e
       -0.23954262 -0.21201155 0.41991547 0.32275236
0001d0 61 85 fc be 5a 9e 19 bf b6 6a ae be 9a 68 08 3f
       -0.4932051 -0.6000725 -0.3406579 0.5328461
0001e0 a8 40 fa 3e 95 39 da be bc b4 eb bd 24 a8 73 be
       0.48877454 -0.42622057 -0.11509082 -0.2379461
0001f0 33 ba 0e bf 67 0c db 3e f5 55 08 3f dc d3 b2 be
       -0.5575287 0.427829 0.5325616 -0.3492726

fc.weight f4 [1, 128]
000000 65 2f 75 3b a4 76 05 bd c7 94 5e bd 58 0e 43 bd
       0.0037412283 -0.032583848 -0.054341104 -0.0476211
000010 d9 ed 57 bd bb f8 2e 3d 89 ad 7e bd 80 63 dc bc
       -0.052717064 0.042717677 -0.062177215 -0.026902914
000020 45 70 73 bd cd 92 9f bd 51 f1 94 3d b3 64 ac bc
       -0.05943324 -0.07791672 0.0727259 -0.02104411
000030 48 72 8d 3d dc 40 c6 3d cd 5f 2e 3d 64 4f ba 3b
       0.06906563 0.0968034 0.04257183 0.0056857336
000040 e6 bb 1d 3d 79 68 ff bc 9b a0 41 bd eb d5 7f bd
       0.038509272 -0.031177746 -0.047272306 -0.062459867
000050 1b e2 40 3c fc fa 93 3d 9e 83 75 bd 65 3a a0 3d
       0.011772658 0.07225606 -0.059939973 0.07823638
000060 25 7f 0d bd 91 cd 0d bc 44 ee 97 bd b3 12 cd 3d
       -0.034545083 -0.008654968 -0.074184924 0.10013332
000070 34 a0 c6 3c d1 63 e8 3c 3f 28 98 3c ec 78 e5 bc
       0.024246313 0.028367909 0.018573878 -0.028011762
000080 70 ac 8d bd 5d b4 f5 3c 88 db 72 3d 1e 82 07 3d
       -0.069176555 0.02999323 0.059291393 0.033083074
000090 6a f7 19 3d b8 97 1e 3d f8 8b 1d bd c1 a1 4b 3d
       0.037589468 0.03871891 -0.038463563 0.049714807
0000a0 4c c9 95 3d 54 09 74 bd 8f 23 4d 3d 68 05 a2 3d
       0.07313785 -0.05957921 0.05008274 0.079111874
0000b0 2a 17 95 3d 59 52 31 3d c3 03 da bc 97 30 aa 3d
       0.07279809 0.043291423 -0.026613122 0.08310049
0000c0 94 c5 27 3d 32 2e 54 bd a3 a4 24 3c 85 df a5 3d
       0.04095991 -0.051801868 0.010049018 0.080992736
0000d0 e5 ab b7 bc 56 91 3c bd 41 d7 16 bd dd 7d c2 ba
       -0.022420833 -0.04603704 -0.036826376 -0.0014838536
0000e0 9f 9a 7e 3d f9 f4 12 bd 58 b2 3b 3d 9b 63 60 bd
       0.062159177 -0.035878155 0.04582438 -0.05478249
0000f0 2f 47 25 3b ac 96 a2 3d 30 90 3f 3d 82 bf 6b bd
       0.002521943 0.07938895 0.046768367 -0.057555683
000100 46 c2 33 3b 3f cc ac 3d c8 1d 7e 3d 36 da 0a bd
       0.0027429028 0.08437394 0.06204012 -0.03389951
000110 5b b9 06 3d 07 a0 0d 3d c6 e2 e5 3c ea 6f 80 bd
       0.032891612 0.034576442 0.028062236 -0.06271346
000120 49 c6 3c bc 54 e3 af 3c b0 69 8f 3d e0 49 87 bd
       -0.011521884 0.021470703 0.0700258 -0.066058874
000130 5b 6a a8 39 4e 0a c4 bc c0 9e 53 3d ac 14 a8 3d
       0.00032122698 -0.023930695 0.051665068 0.08207068
000140 91 b8 94 bd 25 56 af bc ba 3e cd bc 40 cd 9a 3d
       -0.07261766 -0.021403382 -0.025054324 0.075586796
000150 b1 fb 92 bc 4c 94 3f bd fb f5 bf 3c 40 69 00 bd
       -0.017942281 -0.046772286 0.023432722 -0.031350374
000160 af 8a bc 3d 39 ed ff 3c 96 72 0f 3c fc 35 98 bd
       0.09206139 0.031241046 0.008755347 -0.07432172
000170 59 9e 62 3d 23 73 ef bc 7e 9f 4e 3d b8 22 69 bd
       0.055326793 -0.029229706 0.050445072 -0.056917876
000180 7f 03 05 bd c0 22 bb 3d 7b 29 5e 3c 48 47 20 3d
       -0.032474037 0.091374874 0.013559694 0.03913048
000190 88 6e 1a bd 28 3f 3d 3d 9d 00 17 bd 35 f0 d4 bb
       -0.037703067 0.04620281 -0.03686582 -0.0064983615
0001a0 5d c0 82 bc 03 ed 98 bd ad 32 6a bd ae 59 c2 3c
       -0.015960867 -0.074670814 -0.057177234 0.023724403
0001b0 ff a6 80 3b b9 d0 c5 bc dc 8c 97 3d 49 ed 48 bd
       0.0039261575 -0.024147378 0.07399914 -0.049054418
0001c0 55 1e 71 3d 41 b6 87 bd f9 66 4f 3d 6b 28 c5 3d
       0.058866818 -0.06626559 0.05063531 0.0962685
0001d0 34 b4 97 3d 77 98 a7 3d 85 03 93 3d 90 f9 9c 3d
       0.07407418 0.08183377 0.07178406 0.07664788
0001e0 4b 1f a9 bc 10 b6 aa bc 57 8b a3 bd 01 80 8c 3d
       -0.020644804 -0.020838767 -0.07985561 0.06860352
0001f0 e7 ab 99 3d 2f 5d 5f 3b 56 04 bb 3c c8 46 6f bd
       0.07503491 0.0034082641 0.022829216 -0.05841711
