pretrained/lstm_trained.pth (torch, 4251 bytes, 7 tensors)

lstm.weight_ih_l0 f4 [8, 4]
000000 1f 21 3e 3e 09 f4 d3 3e e9 c3 79 3e 4f 7f e0 3e
       0.18567322 0.41397122 0.2439114 0.4384713
000010 bb 1f b5 be 29 be 34 bf fd 24 28 bf 26 31 10 bf
       -0.3537577 -0.7060266 -0.6568144 -0.56324995
000020 69 3e 2c bf 4b 12 98 bd 95 e5 25 bf 7d 4d 10 3e
       -0.6728273 -0.07425364 -0.6480344 0.1409206
000030 f3 0e 65 bd 03 e1 be be 38 8c 54 be 70 4d 87 be
       -0.05592246 -0.37281045 -0.20756614 -0.26426268
000040 eb 49 34 bf 54 3e b0 3e bd 93 32 3f 13 66 59 be
       -0.7042529 0.34422553 0.6975668 -0.21230344
000050 4d ad 58 be 53 15 25 3f d6 26 02 3f 28 19 f2 3e
       -0.21159859 0.64485663 0.5084051 0.47284818
000060 40 0c ab 3d 4f 20 bd 3d de 79 02 3e ab 7c ad be
       0.08351946 0.09234678 0.12741801 -0.33884177
000070 43 f5 00 bf bd cf 18 bf 2b c4 2a 3e ff 95 13 3f
       -0.5037424 -0.59691983 0.16676395 0.5765075

lstm.weight_hh_l0 f4 [8, 2]
000000 b6 ed 1b 3f b1 05 f2 3e e6 ff 47 3e 4e 6e a3 be
       0.60909593 0.47269967 0.19531211 -0.31920093
000010 70 c9 0b 3e e1 5a 34 bf 9b 7b 88 3d 75 d4 60 3d
       0.13651061 -0.7045117 0.06664201 0.054890115
000020 23 d0 8a 3d 1b d7 cc 3e ec 14 a5 be 48 4f f9 be
       0.0677798 0.40007862 -0.32242525 -0.486933
000030 94 14 a7 bd 2c 10 af 3e 15 f7 ae 3e d4 de e7 be
       -0.08158222 0.34192026 0.34172884 -0.45287192

lstm.bias_ih_l0 f4 [8]
000000 43 9b 87 3e 5e 7d a4 be 42 09 af be eb 0a 26 bf
       0.26485643 -0.32126898 -0.3418675 -0.6486041
000010 25 a9 d4 be c8 8d e0 3e 6f f8 25 be 77 fc e6 be
       -0.41535297 0.4385817 -0.16208051 -0.4511449

lstm.bias_hh_l0 f4 [8]
000000 e9 8e 02 3f cd 54 1d 3f f4 a0 a2 be 5e 2d 7c 3e
       0.50999314 0.6145752 -0.31763422 0.24626681
000010 0a be ef bb a9 8a 0d bf ff dc 2a 3f bf fd 49 bd
       -0.0073163556 -0.55289704 0.66743463 -0.049314257

fc_1.weight f4 [128, 2]
000000 e7 cf 03 3f f1 28 f2 3e 56 58 93 3e 8d 6e 34 3f
       0.5148911 0.4729686 0.28778332 0.7048119
000010 04 46 33 3f 4d a5 83 3d dc de 0a bf 0c f8 0d 3f
       0.7002871 0.06428013 -0.54246306 0.55456614
000020 fc 5f 33 bf 42 89 de 3d b8 02 b9 be 20 c9 86 3d
       -0.70068336 0.108660236 -0.36134887 0.0658133
000030 ce 38 f0 3d 90 eb 79 3d 85 9e 63 3e a1 d1 18 3f
       0.11729585 0.061015666 0.22228439 0.5969487
000040 06 25 98 3e 1d ef 21 bf 58 3f fa 3d ed 0a 9e be
       0.29715747 -0.6325548 0.12219113 -0.3086771
000050 44 8b cc be 58 7d b9 3e 54 8a 74 3e 68 0f eb be
       -0.3995 0.36228442 0.23880893 -0.45910192
000060 13 f1 b7 3b e2 68 b7 be 57 2d c2 3e b3 2c b5 3e
       0.005613455 -0.35822207 0.37925217 0.35385665
000070 96 f9 9f 3e a1 ab aa be 91 7e 0a bf 2b 12 d2 3e
       0.31245106 -0.33334067 -0.54099375 0.41029486
000080 95 66 1c bf ff 2d cc 3d 3c e9 64 3e 82 5a 58 3e
       -0.6109403 0.099697106 0.22354597 0.21128276
000090 93 00 f0 3e 72 d1 22 be a6 79 28 3f bb dd 7f be
       0.46875438 -0.1590021 0.6581062 -0.24986927
0000a0 b1 04 ce 3e 10 87 60 be 45 a5 dc 3d 19 bd 1d 3f
       0.40237954 -0.21926522 0.1077371 0.61616665
0000b0 59 cd a4 3e 8f bf 10 bf d8 32 b4 3b ca 8f 7e 3e
       0.32187918 -0.56542295 0.005499225 0.24859539
0000c0 6b d4 9a be d3 17 3b 3f b8 41 c2 3e ef b2 7e 3d
       -0.30240187 0.7308323 0.37940764 0.062182363
0000d0 68 ad f6 3e 75 39 a3 3d 86 6f 0d 3f 33 ae f0 3d
       0.48179173 0.079699434 0.55248296 0.11751976
0000e0 03 9f f9 bc cd 9c d5 be 4d f5 2c 3f 70 cf 3a bd
       -0.03047133 -0.41721192 0.675618 -0.045607984
0000f0 87 97 30 bf 6c 14 1f 3f 68 43 33 be 44 eb d9 be
       -0.6898121 0.62140536 -0.17506182 -0.42562306
000100 09 65 55 bd 76 64 be be 21 3d 70 be b2 5e 56 be
       -0.052098308 -0.3718602 -0.23460819 -0.20934561
000110 83 ea 7b 3e 9f 55 c1 3e f1 f6 bd 3d fe dc 2e bf
       0.24601178 0.37760636 0.09275616 -0.6830596
000120 f8 2c 18 bf 0a 0e b5 be 2c bf d4 be 84 41 a6 3d
       -0.59443617 -0.35362273 -0.41552103 0.08117965
000130 4d 70 28 bc 10 77 8b 3e 9d 31 94 3e f5 68 b1 bd
       -0.010280681 0.27239275 0.28944102 -0.08662597
000140 88 81 2a 3f 3d 36 20 bf 50 36 ca be 45 e4 55 be
       0.666039 -0.6258276 -0.39494562 -0.20887859
000150 c3 41 fc bd 86 a2 f0 3e c2 e7 30 3e 78 57 48 3e
       -0.123172306 0.46998996 0.17275909 0.19564617
000160 fa 4d 20 3f 72 6b 08 3f e0 0d f6 3d b4 71 f7 3e
       0.6261898 0.5328895 0.12014365 0.48328936
000170 77 0a f4 3e 21 bd 12 bf 3c 8e a3 3e 2e 69 29 bf
       0.47664234 -0.5731984 0.31944454 -0.66176116
000180 06 5f 12 be ac f6 67 be e7 89 a9 be 19 91 33 bf
       -0.14294061 -0.22652692 -0.33113024 -0.70143276
000190 c9 43 2c bf fd 70 1e bf 08 a3 a3 3e 2c be 96 be
       -0.6729093 -0.61891156 0.3196032 -0.29441965
0001a0 ef 11 88 3e 46 9b 30 3e 3a a8 8d be 7e 5b 9e bc
       0.26576182 0.17246732 -0.2766741 -0.019330736
0001b0 e7 b4 1b 3e cf 52 f0 3e f1 1e 49 be 60 48 02 bf
       0.15205728 0.46938178 -0.1964071 -0.50891685
0001c0 e1 7c e4 bd d2 7e 0f 3f 5c ab d3 bd 32 e0 98 bd
       -0.11156631 0.5605289 -0.103354186 -0.07464637
0001d0 88 44 8a bd 2d 74 ed 3d 7d b2 31 3f 32 ba 45 3e
       -0.067513525 0.115944244 0.69412977 0.19309309
0001e0 de 9d 9b 3e ca a7 4f bb e8 54 dd 3e c2 d9 68 be
       0.3039388 -0.0031685703 0.4322884 -0.22739318
0001f0 cc 4f 60 bd 5a 0b e3 be 3f 7b c3 3d 41 bb f9 3e
       -0.0547636 -0.44344598 0.09544992 0.48775676
000200 09 8f d7 3e 55 a9 14 bf a1 76 f2 be 25 4f 10 3f
       0.42101315 -0.5807088 -0.47356132 0.56370765
000210 50 f3 71 3e df 0b 34 3f 93 ce 44 be e7 25 9f bc
       0.23627973 0.70330614 -0.19219427 -0.019427253
000220 9b b9 f6 be ba 2e 9d 3e 6f a9 a8 3e a4 51 ff 3e
       -0.4818848 0.30699712 0.32941768 0.49866974
000230 80 da 02 bf c6 8c 3f be 2b 1c 10 be 52 35 ec 3e
       -0.51114655 -0.18706045 -0.14073245 0.4613443
000240 f8 ba 0c 3e 9a c4 de 3e a8 6e 1c bf 6c 01 01 bc
       0.13743198 0.4350937 -0.6110635 -0.007873874
000250 65 1a a6 3e 98 a7 2e 3f fb 80 2f 3f cb 86 21 3e
       0.32442012 0.6822448 0.68556184 0.15774076
000260 29 8e 40 3e ec fb d4 be 07 3e fd 3e 20 2c 5f be
       0.1880423 -0.4159845 0.49461386 -0.21794176
000270 d7 cd c0 3e a9 79 19 bf b8 01 90 3d b7 7b 25 be
       0.37657043 -0.59951264 0.07031578 -0.16160475
000280 df b1 b1 3e 07 9d 64 3d 67 66 27 3f e8 6d 35 bf
       0.34706017 0.055813815 0.6539063 -0.7087083
000290 fa 5b d8 3e a5 6a bf 3d 99 70 d0 be 59 9b 26 be
       0.42257673 0.09346513 -0.40710905 -0.16270198
0002a0 65 cc 01 be c9 80 f1 3c ad 7e 0a 3f ae 52 88 be
       -0.12675627 0.029480355 0.5409954 -0.2662558
0002b0 e0 17 1a be 63 24 37 3f 5c a5 19 bf a4 66 1c 3f
       -0.1504817 0.71539897 -0.60017943 0.6109412
0002c0 f6 c7 9d be c3 8d b0 3e 1f 9d b3 be 1b 24 ec 3e
       -0.3081662 0.34483156 -0.3508081 0.46121296
0002d0 d4 2c 2a 3f 6e 81 40 be b2 2f 0c bf e2 9f 12 bf
       0.6647465 -0.18799374 -0.5476028 -0.5727521
0002e0 a0 86 16 be 76 ba 96 3d ea e5 34 be be 49 b3 be
       -0.14699793 0.07359783 -0.1766583 -0.35017198
0002f0 3a 7d f7 3e aa 95 bd be 6d 15 ac 3e 12 de be 3e
       0.48337728 -0.37028247 0.33610097 0.372788
000300 1f 85 9e bd 0a 38 a4 be c6 64 32 bf 17 69 ce 3d
       -0.077402346 -0.32074004 -0.6968502 0.10078638
000310 1f da 80 be 89 c7 b3 be 67 8f 55 3e 92 40 ff 3e
       -0.25166413 -0.3511317 0.20855485 0.4985395
000320 20 fe ed 3e 58 ad 02 3f 5a 2e 95 3e b1 e5 dc 3d
       0.46482944 0.5104575 0.29136926 0.10785998
000330 4d 29 fe be c3 2b d3 be 78 88 7d bd bf 53 fe be
       -0.49640885 -0.41244325 -0.061897725 -0.49673268
000340 66 e1 27 be fd af e3 3e 5f cc e6 be dd 38 15 bf
       -0.16394576 0.44470206 -0.45077798 -0.5828989
000350 1b 75 2e bf 7f 7a 7a 3e fd a9 2f 3e 9d aa 43 3d
       -0.6814744 0.24460791 0.17154689 0.04777013
000360 d2 2b 7a 3d 5a ee 08 bf 75 31 30 bf f1 b6 21 bf
       0.061076947 -0.53488696 -0.68825465 -0.6316977
000370 c4 ec e6 3e 8c 1d 02 bf d6 38 65 bd 30 c2 ff 3b
       0.45102513 -0.50826335 -0.055962406 0.0078051314
000380 35 e4 10 3f 14 05 2c 3f 9c fa 28 3f 45 5a d5 be
       0.56598216 0.6719525 0.660074 -0.41670433
000390 aa 11 08 3f 4a af c8 3e 09 72 4f be c2 71 a8 bd
       0.53151953 0.39196235 -0.20258345 -0.082248226
0003a0 8e 6e 22 bd 54 99 d3 be 60 b0 83 bd ec 6c 8f 3d
       -0.039656214 -0.41327918 -0.06430125 0.07003197
0003b0 8b 0e ee be 9d 90 2b be 04 db 18 3f 09 a5 28 3e
       -0.4649547 -0.16754384 0.5970919 0.16469206
0003c0 ac 24 84 be 63 da 03 3f ad f2 ee 3d b4 5c 00 3f
       -0.25809228 0.51505107 0.116673805 0.50141454
0003d0 8e b3 fe 3e 77 dd 0d bf da cd a1 3e cb 9f 22 3e
       0.49746364 -0.55416054 0.31602365 0.15881269
0003e0 eb f8 58 bd 3e 16 26 3d 9e 4b fe bd 65 ea d7 3e
       -0.05297176 0.040548556 -0.124167666 0.42171016
0003f0 70 a9 93 3e 18 e4 a8 bd a9 be 45 3e f9 1b 15 bf
       0.28840208 -0.082466304 0.19311012 -0.5824581

fc_1.bias f4 [128]
000000 0a f3 98 be 55 1e 2f bf 8c 8a 22 3f c8 0c e9 bd
       -0.29872924 -0.6840566 0.63492656 -0.11379391
000010 7e a5 5b 3e 8b 5f 9e 3d d8 42 86 3e c1 02 c0 bd
       0.21449849 0.07733067 0.26222873 -0.09375525
000020 a0 16 46 3e 2d 6d ef be 0c a8 1d be 43 df bf be
       0.19344568 -0.46762982 -0.15396136 -0.37475023
000030 9f 7d 25 3f f1 67 d8 be 69 bc 81 3e d8 23 0c 3a
       0.6464481 -0.422668 0.25339058 0.00053459173
000040 39 24 f3 bd f0 4c df be 24 ac 10 bf 43 0a db 3e
       -0.11872143 -0.43613386 -0.56512666 0.42781267
000050 cc e6 0c 3e d5 c1 c8 bb ea 3b 01 bf 45 42 25 be
       0.13759917 -0.006126622 -0.50482047 -0.16138561
000060 77 03 fe be d6 08 1f 3f 71 7c 13 bf 91 3d b6 bd
       -0.49612018 0.6212286 -0.5761176 -0.088984616
000070 cf 7e b8 3e 56 48 c9 3e e5 95 8b 3d 6e 8c 78 be
       0.36034247 0.39313 0.068156995 -0.2427232
000080 08 7d f5 be ae 0d 2c 3f 72 6b 71 bd d7 34 b0 3e
       -0.47946954 0.67208374 -0.05894036 0.34415314
000090 80 23 c4 3e 3e a7 37 3f e0 5a 32 3e 1f 97 1c 3f
       0.38308334 0.71739566 0.17417479 0.6116809
0000a0 4b 54 19 3f 7b f0 85 3d ef 2c 2d bf 02 66 11 bf
       0.59894246 0.06540009 -0.6764669 -0.56796277
0000b0 1e 41 58 3e e5 f0 fd bc 9a 71 03 3f d4 20 32 bf
       0.2111859 -0.030998657 0.5134522 -0.6958134
0000c0 ad e6 2c bf 30 2f 6d 3e da f3 ce 3e 26 74 12 3d
       -0.67539483 0.23162532 0.4042042 0.0357553
0000d0 74 bb 15 3e 38 99 34 bf 64 2c eb 3e c0 78 26 bf
       0.14622289 -0.70546293 0.45932305 -0.65028
0000e0 45 2f 98 3e 56 6c 33 bf 80 4d c0 3e 2d 30 2e bf
       0.29723564 -0.7008718 0.37559128 -0.6804226
0000f0 a6 e1 29 3f c7 b9 fb 3e 0c a4 c5 3e f0 4f 4d bd
       0.6635994 0.49165174 0.3860172 -0.050125062
000100 88 9f 05 3f b5 0b b7 bd bc 3b dc be fe 6a 2d ba
       0.5219655 -0.0893778 -0.43014324 -0.00066153693
000110 ec ea 05 3f c1 db ce be 31 ef 19 be 0c 72 bb be
       0.5231159 -0.40402034 -0.1503265 -0.36610448
000120 38 10 4e bc 8c 8b 30 bf b8 96 9e 3d f7 86 e3 3d
       -0.012577109 -0.6896293 0.07743591 0.11109727
000130 08 6e a4 be a0 58 b8 bd 0f 99 e8 bc 40 97 e2 be
       -0.32115197 -0.09001279 -0.028393297 -0.4425602
000140 0c 43 04 be 11 65 e3 3e 7a 2e 21 3e 90 74 ae 3e
       -0.12916201 0.44413045 0.15740386 0.34073305
000150 29 bd be 3e d6 82 2f bf 05 ad 68 3e 72 cb 18 3f
       0.37253693 -0.68559015 0.22722252 0.5968543
000160 98 28 03 3f f1 36 41 be b0 1b 83 3e 47 79 1b 3e
       0.51233816 -0.18868615 0.2560706 0.15182982
000170 32 46 2e bf de 49 23 3f 4b f5 7d be fb e0 d2 be
       -0.6807586 0.6378459 -0.24800603 -0.4118727
000180 c0 59 1a bf 9e 76 f3 3e cb 38 2d bf 3f 9a 30 bf
       -0.602932 0.47551435 -0.67664784 -0.6898536
000190 9a 25 2c bf 6e 44 19 3f 88 03 18 bf da 88 2c 3f
       -0.67244875 0.5987004 -0.5938039 0.6739632
0001a0 b5 98 ba 3e 79 e0 37 be 30 d7 c7 be 99 fb 84 3e
       0.3644463 -0.17956723 -0.39031363 0.25973204
0001b0 90 0b ff 3e 8e a9 a3 be d4 d9 58 be ad b7 e4 3e
       0.4981351 -0.31965297 -0.21176845 0.44671384
0001c0 d1 df 36 3f fb f5 df bc 1c e4 a8 3e bc d0 04 3f
       0.71435267 -0.027338972 0.32986534 0.51881003
0001d0 97 c8 f1 3e 69 ec 8f bd 17 3e 37 3f 48 9b f6 3e
       0.4722335 -0.070275135 0.71579117 0.48165345
0001e0 21 0c 07 3f 9f ce d6 be 51 6e ce 3d 31 03 f4 be
       0.5275288 -0.41954514 0.10079635 -0.47658685
0001f0 98 40 0f bf 63 f5 4f be 46 2f 3c be 5b 4d 6a 3e
       -0.5595794 -0.20308451 -0.18377408 0.22881071

fc.weight f4 [1, 128]
000000 57 de d2 bc a0 8c aa 3d b3 40 be bd 10 93 1e bd
       -0.025740786 0.08327603 -0.09289684 -0.03871447
000010 76 7c 73 3d 13 71 0b 3d 75 df 10 bd 99 0d ea bb
       0.059444867 0.034043383 -0.035369355 -0.0071427342
000020 ee 5a 70 bd 6b 3a 8d bd 08 32 69 bc c1 61 8f 3d
       -0.058680467 -0.06895908 -0.01423312 0.07001067
000030 af 43 6b 3d 08 cd e8 bb e0 ac f5 bb 76 9d 5e 3d
       0.057437595 -0.0071045198 -0.007497415 0.054349385
000040 54 b4 0e 3d ca 6f 9c 3d 9d e2 59 3c 43 b3 00 3d
       0.034839943 0.076385096 0.013298658 0.031420957
000050 d5 15 d0 bd 32 ec 85 3d c9 36 90 3d 67 8a 3c 3d
       -0.10160414 0.06539191 0.070416994 0.04603043
000060 e0 a2 17 3d 92 85 d7 bd b8 25 9c bd fb 08 04 3d
       0.037020564 -0.105235234 -0.07624382 0.032235127
000070 29 97 65 3d b1 3b 2d 3d 08 4c c5 3c bb 7e 6b bd
       0.05605236 0.042293254 0.024084106 -0.057493906
000080 4c c7 2c bb f0 0b 12 3d b8 f0 ae 3d 43 d7 67 bd
       -0.0026363907 0.035655916 0.08542007 -0.056601774
000090 3d 72 85 3d b6 f3 44 bc cd 98 89 bd 2b 9b be bd
       0.0651593 -0.012020996 -0.067185976 -0.0930694
0000a0 9f 84 5a 3d 03 31 74 bd ca 7c 2d bd ac de 90 3d
       0.053349134 -0.059617054 -0.042355336 0.07073721
0000b0 cc 76 88 3d fb e4 8a 3d c0 d6 17 3d dd 62 83 bd
       0.06663284 0.06781956 0.037070036 -0.06415341
0000c0 86 e2 3a bd 3a c8 6c bd 50 4d fc 3b 25 8b df 39
       -0.045626186 -0.05780814 0.007699646 0.00042637545
0000d0 26 5e 27 bd 2c 55 07 bd 53 35 63 3d e8 e6 7e 3c
       -0.04086127 -0.03304021 0.055470776 0.015557982
0000e0 ac a1 87 bd 98 db 96 bd 1f 6c 5d bd d1 bc 85 bd
       -0.06622633 -0.07366103 -0.05405819 -0.065301545
0000f0 8b d1 ae bd 1b 86 34 3d fc fb b5 bd 8a 63 7c 3c
       -0.08536061 0.044073205 -0.08885953 0.015404591
000100 f4 12 90 bd 26 51 00 3d 10 41 68 3d c7 43 77 3d
       -0.07034865 0.03132739 0.056702673 0.060367372
000110 71 31 2a bd 09 0f 78 bd 9b 19 6f bd 3b f5 03 bd
       -0.041551057 -0.060561214 -0.05837403 -0.032216292
000120 3f d3 3a 3d 48 97 77 3b 35 b5 8c bd 4d 96 76 3c
       0.045611616 0.003777938 -0.068705 0.015050483
000130 35 03 15 3d db 57 85 bd 4f fc 92 bd c2 b2 52 bd
       0.03638001 -0.06510898 -0.0717703 -0.051440008
000140 09 4d bc bd 3d 46 9e bd 17 c0 d4 3a a0 ce a2 3c
       -0.09194381 -0.07728241 0.0016231564 0.019873917
000150 c8 56 96 bd d3 03 a6 3d ad ed 81 3d 41 b8 c4 3c
       -0.07340771 0.08106198 0.06344161 0.02401364
000160 a1 41 f6 bc 58 d7 01 bd d6 2a a7 bd f1 ad 67 3d
       -0.030060591 -0.03169951 -0.08162467 0.056562368
000170 a2 8f df bb 12 9b a5 bd d8 e4 8e bd 9c 09 7d bd
       -0.0068225423 -0.08086218 -0.06977242 -0.061776742
000180 07 c7 f0 3b 23 1c 39 3b ee 98 03 bd 56 c8 e9 bd
       0.0073479447 0.002824553 -0.032128267 -0.11415164
000190 15 a9 b5 3d 44 04 9b 3c 66 a4 97 3d 90 05 48 bd
       0.088701405 0.018922932 0.074044034 -0.04883343
0001a0 25 b2 58 bd c6 31 61 3d e5 14 a6 3d fe f8 c4 bd
       -0.052904267 0.05497911 0.08109454 -0.09617804
0001b0 23 cb 33 3d 6f ae 20 bd ba 09 04 3d 71 a5 b2 bd
       0.0438949 -0.039228853 0.03223584 -0.08722962
0001c0 a6 ac 2e bd 6b ab 6d bd b0 1e 3d bd 37 a5 9f 3c
       -0.04264512 -0.058024805 -0.046171844 0.01948796
0001d0 ef a7 d6 bd 59 b0 1e bd 83 6e 69 bd 6f 3d 6d bb
       -0.104812495 -0.038742397 -0.056990158 -0.0036199947
0001e0 4e 77 41 bd d2 38 bd 3d 3a 74 5a 3b a3 df 84 3b
       -0.04723292 0.09239353 0.0033333437 0.00405498
0001f0 2f c0 a3 bd 9a a0 be bc ad 5b 60 bd ee 0a f9 bc
       -0.079956405 -0.02326994 -0.05477493 -0.03040072
