pretrained/lstm_trained.pth (torch, 4763 bytes, 11 tensors)

lstm.weight_ih_l0 f4 [8, 4]
00000000: 5867 79be 98e0 f43e 45d5 a03e 81df aebe
00000010: 0056 a0bd 0dc4 94be 2098 e4be 4b21 2a3e
00000020: 4457 2b3f 81a2 b7be 251b 0ebf ac8f abbe
00000030: 27d9 18bf 3e1e 193f f298 1f3f df8a 183f
00000040: c2b0 06bf 30ec 03bf 5baa 33bf 884c 31bf
00000050: 7a3a 89bc d8b2 0e3f 359e 1e3f 3b7b 5cbe
00000060: dd6e e73e aeb6 2c3e 3ce1 0b3f a3d7 7ebe
00000070: 8aa2 d43e 4bcb a83d 299c 29bf 5313 29bf
-0.24355829 0.478276 0.31412712 -0.34154895 -0.07828903 -0.29055825 -0.44647312 0.16614263
0.6693003 -0.35866168 -0.5551017 -0.3350805 -0.5970635 0.5981177 0.6234275 0.595869
-0.5261346 -0.5153227 -0.70181817 -0.692574 -0.016751517 0.55741644 0.61960155 -0.21531384
0.4520177 0.16866562 0.54640555 -0.24886946 0.41530257 0.082419 -0.66253906 -0.6604511

lstm.weight_hh_l0 f4 [8, 2]
00000000: ccc8 ce3d 98c9 23bf 4f69 473d a5a4 1a3f
00000010: 6a4f c03e fe92 d83e 5682 4dbd a6f7 b4bd
00000020: d17d 29bf 94c9 fbbe 546c 143f cff7 8b3e
00000030: dea3 a93e a429 033f fc2a 8ebe 55cf babe
0.10096893 -0.6397948 0.048684414 0.6040748 0.37560588 0.42299646 -0.050173126 -0.08836298
-0.66207606 -0.4917723 0.57977796 0.273375 0.33132833 0.51235414 -0.2776717 -0.36486307

lstm.bias_ih_l0 f4 [8]
00000000: e877 a3bd f63a 0fbf 7942 da3e ccd9 013c
00000010: 3860 c4be a794 0fbf 2530 03be 1b9f fbbe
-0.07981855 -0.5594934 0.4262884 0.007925462 -0.3835466 -0.560862 -0.12811334 -0.49144825

lstm.bias_hh_l0 f4 [8]
00000000: 9e23 983c 753a a6be 9b65 d8be d839 24bf
00000010: 6e9a 0c3f d32e 32bf fd97 2ebf b5c6 1e3d
0.018571671 -0.32466474 -0.4226502 -0.6415076 0.5492314 -0.696027 -0.68200666 0.03876372

lstm.weight_ih_l1 f4 [8, 2]
00000000: a79c 70be dc67 b5be 62ee 5b3e 1e9c 3c3f
00000010: 1d08 293e a9e5 bdbe 8dcf 733d 2d05 22bf
00000020: 77d7 dd3e f8a3 1fbf 2eca 723e 0a16 0b3f
00000030: 017c 0abe 2f92 4a3e 585b d7be 24a4 adbe
-0.23497258 -0.354308 0.21477655 0.73675716 0.16507001 -0.3708928 0.059524108 -0.6328915
0.4332845 -0.6235957 0.23709938 0.54330504 -0.13523866 0.19782327 -0.42061877 -0.33914292

lstm.weight_hh_l1 f4 [8, 2]
00000000: 8ee0 20bf 2ace 2cbe 9f03 1ebf 9cd6 193f
00000010: 881a 2e3f 4c3f 22be 55ea dfbe e79b 213d
00000020: 33be 68be 3afe 23bf fbfc d93e efe6 343f
00000030: effe 0d3f 2654 16bf 8879 6a3e 57ab c0be
-0.62842643 -0.1687552 -0.61724275 0.6009309 0.68009233 -0.15844458 -0.4373347 0.03945532
-0.22728805 -0.64059794 0.4257582 0.70664877 0.5546712 -0.5872215 0.22897923 -0.37630722

lstm.bias_ih_l1 f4 [8]
00000000: 5b75 533e b190 243f 7f21 e53c cdf1 b53e
00000010: db84 e3be 8907 163f 4744 563d bc04 6ebe
0.20650236 0.6428328 0.027970074 0.35536042 -0.44437298 0.5860525 0.052311208 -0.23243994

lstm.bias_hh_l1 f4 [8]
00000000: 07de a3bd 5afd 06bf 69d8 a9bd 147d cf3e
00000010: 96d6 ec3e fd57 c8be 6965 a73e 2771 1d3e
-0.08001333 -0.52730334 -0.0829323 0.40525115 0.46257466 -0.3912963 0.32694557 0.15375195

fc_1.weight f4 [128, 2]
00000000: acf7 383e 5c4a 313f 8638 70be f96b d4be
00000010: 0fae 7abe 7307 1b3f 44f6 aabe b22a 9ebd
00000020: bb02 00be bfa5 943d 3757 253f 8270 2dbf
00000030: 7e75 383e cdfb 4b3e 3106 293e 0d01 103f
00000040: 4894 0bbf b060 e53e 10bd 2a3e d549 c83e
00000050: 4d1b 32bf a3ad db3d 352f c23e b4f7 87be
00000060: a58c 3c3f d270 c5be 8783 0ebc 2e06 3c3f
00000070: 2d35 9fbe cf2b 2c3e 0715 18bf 6181 f83e
00000080: aded b03d e06f ec3e 5cb5 2bbf 1a21 0c3f
00000090: 790c c03e ab51 79bd 847c 21bf 6973 85be
000000a0: 65c8 3bbe 3414 4b3e c19f d6bd 8af0 d8bd
000000b0: bae0 a0bd 1463 efbe 4ea5 21bf cfe6 1a3f
000000c0: ea72 87be 5bc4 f03e 353f 55bd c278 c63d
000000d0: 5c60 4b3e 80aa ccbe 3dd9 393e e063 ec3d
000000e0: e73f 343f 9225 49be 9e10 18bf c73d 8fbe
000000f0: 0ec4 043f 6865 c33e 0fc9 ddbe 7e89 bc3e
00000100: e8f6 963e e208 453f ddec f73e 2357 27bf
00000110: a7b1 e1be d8da 7abe 25b7 c63e 9f38 3dbf
00000120: 566a b0be 6e39 70bc 8707 7ebe 6e70 d5be
00000130: 2e7f 2bbe d0cb 443e 6eea 0abf 53d0 c1be
00000140: 0fbe 2abf a1d1 3a3f f2d1 633e 34db 0abf
00000150: 8216 3fbb 85ec d1be 97f2 d6be eb01 763e
00000160: 4bdf e7bd 95ba 863e 50da 26bf 2e41 883e
00000170: 8189 1fbe 1ce8 01bf 5cc8 88be 0c5f 96be
00000180: 18d5 193e 035d a7be a488 c03e e7c5 0c3f
00000190: 7fe9 0fbf 7dcb 10be 1ede 6e3e f586 413f
000001a0: f4d7 023f 7e5e f7bd 5913 cc3d 7d9a 9cbe
000001b0: d59c 30bf a036 f23e 407b 11be ff39 ccbd
000001c0: a148 ff3e bd9f 1dbf 612c b1be 3b3d 173f
000001d0: 10e1 023e 38e7 abbe f0ae 94be 8206 2abe
000001e0: cfe3 2fbe ab12 033e f041 f9be df4e 9e3e
000001f0: 37ff e1be 15a8 fe3e 8977 16bf 98be fb3c
00000200: 923a eebd 025d 123f c88e 37bd f91f 463e
00000210: 85ae cf3d 9ed7 083f 3622 a9be ea61 9fbe
00000220: c315 91be e882 ff3e 5142 d63d 870e 2c3f
00000230: 6e43 62be 4c8c 183e 2554 0dbe a208 7e3e
00000240: 8ee3 b8bd f642 1dbe 6b07 1ebf d677 14be
00000250: ac21 0a3f b088 28bd 1b5f 1f3e f600 df3e
00000260: 17ba 0cbd 9cde 1e3f e23c 23be e008 dc3e
00000270: 9de8 74bd f2ba 2abe a519 f9be 1ba9 e83e
00000280: f0af 823e 4e26 c73e a85a d2be e504 75be
00000290: d7ba f8be 9f73 3a3f 9aa0 84bd 06a1 0bbf
000002a0: 5548 abbe 5a08 043f f452 05bf 9d7e cb3e
000002b0: c057 023f e97f 98be ad36 e33e c991 083f
000002c0: 5d88 b9bb da4d acbe 90a7 b7be 7f3e cdbd
000002d0: 5ead 0dbf 3429 30bf b36f 85be 2377 b2be
000002e0: 2aee 983c 8f05 b8be b7ae a93e 746c 203e
000002f0: 3073 9ebd b5ea 60bd 0db1 d33e 7c0b 53be
00000300: 253d c5bd 3ce7 143d 65bb 193f 62de 423f
00000310: 2838 c6bd 0d36 aa3e bf77 823d 05ec 39be
00000320: a71b cabe 2b5c 083e df94 28be fd17 88be
00000330: fdab 753e a2e0 23bf fb9f 183d 8542 cdbc
00000340: 475d b93e f41c 30bd d50c 07bf 6ff2 1e3e
00000350: b817 3e3e a246 4c3e b969 123f fd93 b1be
00000360: 281a 4f3d 7018 3bbf 10f4 af3e 458e 89bc
00000370: b4c1 bdbe c5a8 403f 9667 33bf 81e1 21bf
00000380: 5bfd 36bf 01ac 523d 3d60 e6be 9ac2 973e
00000390: c1ac 20be b726 91be 9876 ab3e 82bd 8bbe
000003a0: eeb9 e43e b3b3 053e f3c4 55be 4eb6 103e
000003b0: f629 1e3d 8a08 893e cb84 aa3d ae38 4a3f
000003c0: 594f 3b3e cb66 033f 2d3d 0cbe e544 cd3e
000003d0: e6f4 15bf b819 87be 7b01 1c3d 3435 7e3e
000003e0: 06b2 c03d f454 61be 8a2f 31bf e7a0 2ebf
000003f0: d31a cdbe 0f84 363e 97ae 023e f5bd 4f3f
0.1806323 0.6925409 -0.23459062 -0.41488627 -0.2448046 0.6055824 -0.3339101 -0.07722987
-0.12501042 0.07258176 0.64586204 -0.677498 0.1801357 0.19920273 0.16506268 0.56251603
-0.54523134 0.4480033 0.16673684 0.3911883 -0.6957291 0.10726478 0.3792664 -0.2655617
0.73652107 -0.38562638 -0.008698351 0.7344693 -0.31095257 0.16813587 -0.59407085 0.48536208
0.08639083 0.46179104 -0.6707361 0.5473801 0.37509516 -0.0608689 -0.6308062 -0.26064613
-0.18338163 0.19831926 -0.104796894 -0.10592754 -0.07855363 -0.46755278 -0.6314286 0.60508436
-0.2645486 0.47024807 -0.052062232 0.096910015 0.19860977 -0.3997383 0.18149276 0.11542487
0.7041001 -0.19643238 -0.59400356 -0.2797682 0.51861656 0.38163304 -0.43317458 0.36823648
0.2948525 0.7696668 0.484229 -0.65367335 -0.4408085 -0.24497545 0.38811603 -0.7391452
-0.34456128 -0.01466213 -0.24807559 -0.4168734 -0.16747734 0.19218373 -0.5426396 -0.3785425
-0.66696256 0.7297612 0.22248057 -0.5424073 -0.0029157703 -0.41000763 -0.41981956 0.24024169
-0.11321887 0.26314226 -0.6517687 0.26612228 -0.15579797 -0.50744796 -0.26715362 -0.2936939
0.15022695 -0.3268815 0.3760425 0.54989475 -0.5621566 -0.14140125 0.23326918 0.75596553
0.5111077 -0.1207857 0.09964628 -0.30586615 -0.68989307 0.473073 -0.14207172 -0.099719994
0.498601 -0.61571866 -0.3460417 0.59077805 0.12781167 -0.33574843 -0.29039717 -0.16604045
-0.17176746 0.1280009 -0.4868312 0.3091955 -0.44140026 0.4973761 -0.58776146 0.03073053
-0.11632265 0.5717317 -0.0448139 0.19348134 0.10140709 0.53454006 -0.33033913 -0.3112939
-0.28336915 0.4990456 0.104618676 0.67209667 -0.22096035 0.14897269 -0.1380163 0.2480798
-0.090277776 -0.15357575 -0.6173007 -0.14498839 0.5395763 -0.04114598 0.15563624 0.4355542
-0.034357157 0.62058425 -0.15941194 0.4297552 -0.05979215 -0.16672876 -0.48652378 0.45441517
0.25524855 0.38896412 -0.4108479 -0.23927648 -0.48580047 0.72832674 -0.06475945 -0.5454258
-0.33453622 0.51575243 -0.520797 0.39745036 0.50915146 -0.29785088 0.44377652 0.5334745
-0.0056620077 -0.33653146 -0.35870028 -0.10021686 -0.5534266 -0.6881287 -0.26061782 -0.3485652
0.018668253 -0.3594174 0.3314111 0.15666372 -0.07736814 -0.054911334 0.41346017 -0.2060985
-0.09630803 0.036353335 0.60051566 0.7612058 -0.0967868 0.33244362 0.06370496 -0.1815644
-0.39474222 0.1331641 -0.1646304 -0.26580802 0.2399139 -0.6401464 0.037261944 -0.025056133
0.36203977 -0.04299636 -0.52753955 0.15522169 0.18563735 0.1994882 0.5719257 -0.3468322
0.050562054 -0.73084164 0.34365892 -0.016791472 -0.37061846 0.7525752 -0.70079935 -0.63234717
-0.7148034 0.051433567 -0.449953 0.29640657 -0.156909 -0.2834985 0.33488917 -0.2729302
0.44673103 0.13056831 -0.20875911 0.14132044 0.038614236 0.26764327 0.083261095 0.78992736
0.18291987 0.51328725 -0.13695212 0.40091625 -0.5857681 -0.2638681 0.03808735 0.24824983
0.09408955 -0.22005063 -0.69213164 -0.6821427 -0.40059528 0.17823814 0.12761913 0.81149226

fc_1.bias f4 [128]
00000000: 7bab 99be b301 073f 29d5 5abd 8e5d f93c
00000010: bf9f e2be 3772 83bd cb2f 153f ba55 1d3f
00000020: b438 f8be fee1 2a3e b57a 6b3e bc1b b9b9
00000030: c59b 1ebf e25c 57bd 223d 2e3f d95c 2dbf
00000040: 83c8 403e b626 4b3e e815 57be 84f6 4ebe
00000050: 85f5 983e 5f7f c23e 69b7 c9be 1635 3ebd
00000060: e164 48be 853e 77be ee32 e4be 24e3 6fbe
00000070: 1ded 72bd 9754 813e 74c3 5f3e b51b ea3d
00000080: 90af c4bd ab91 0fbf 10a9 1d3f d67f 0f3f
00000090: 611e 03bf 8e83 c23e 61b9 f53d b562 dc3e
000000a0: 92c7 5c3e 53c9 dbbe 10bb 963e dacd fa3e
000000b0: 9d03 f23e b9e7 093f b069 2b3f 7883 cebe
000000c0: 7867 fe3e 7f2c 323e aaa0 98be 1ea8 063f
000000d0: a592 35be 8e3a ffbe e466 2cbf 8c7c b93e
000000e0: d8f2 043f 037b b5be 51e7 0cbf 6bc4 14bd
000000f0: 3f7a 11bf 59f7 183f 65d4 c13d 8dce 44be
00000100: 441f ae3e f220 0bbf 6362 96be 75d9 c43d
00000110: 8941 95bc 4f0a 32bf a5b3 a03e c911 d83e
00000120: 397f de3e 73d4 cb3e 63f4 183f 8bb3 0c3e
00000130: e100 293f 108a 0fbf c3b6 513e f651 ccbc
00000140: 8742 c0be 11f4 b03d b2bd 08be 6266 2f3f
00000150: 8818 c7bc 0cb2 be3e 8b6e 843e b853 febd
00000160: 9419 01bf 512f d3be 5a3e 31bf ff8b e13e
00000170: 253a 393f c754 d93d 2a25 933d 38ca b4bd
00000180: e67e 163f 5073 b6be 050f 203f f840 3b3e
00000190: 5d3c e0bd d07a 2fbf b84c 653e 7695 6cbd
000001a0: 2d50 ac3e 1711 123e 8e83 843e 33e0 063e
000001b0: f672 2d3f 49e7 17be 6ce5 0bbf 68f0 aa3e
000001c0: 0f2f e83e dbf6 94be 6a1a abbe 8216 c63e
000001d0: 08fb af3d 4908 2e3f 231d 53b8 46e2 a43d
000001e0: 3c17 9f3e bb71 993e c201 4cbe 44a4 a9be
000001f0: 11f1 23bf a605 02bf 0704 9f3c c81c 4c3d
-0.30013642 0.5273697 -0.05342594 0.030440118 -0.44262502 -0.06418269 0.5827605 0.61458933
-0.4848076 0.16687772 0.22996028 -0.00035306613 -0.61956435 -0.052578814 0.6806203 -0.677198
0.18826489 0.19838986 -0.2100445 -0.20211226 0.29874817 0.379878 -0.39397743 -0.046437345
-0.19569732 -0.24144943 -0.44570106 -0.23426491 -0.05930816 0.2525985 0.21851903 0.11431066
-0.096037984 -0.56081647 0.61586094 0.5605444 -0.5121823 0.37990993 0.11998249 0.43044057
0.21560505 -0.42927036 0.29439592 0.48985177 0.47268382 0.53869206 0.6695814 -0.40334678
0.49688315 0.17399786 -0.29810077 0.52600276 -0.17731722 -0.4984936 -0.673445 0.36227834
0.5193305 -0.35445413 -0.5504046 -0.03632013 -0.5682716 0.5975242 0.09464339 -0.19219418
0.3400823 -0.54347146 -0.29371938 0.09611789 -0.018219726 -0.6954698 0.31387058 0.4220107
0.43456438 0.39810523 0.59747905 0.13740365 0.66016966 -0.5607004 0.20479874 -0.024941426
-0.37550756 0.08640302 -0.13353613 0.685156 -0.02430369 0.37245214 0.25865588 -0.12418312
-0.50429654 -0.41247037 -0.69235766 0.4405212 0.72354347 0.10611873 0.07184823 -0.08827633
0.5878738 -0.3563485 0.6252292 0.18286502 -0.109490134 -0.6854677 0.22392547 -0.057759725
0.3365492 0.14264332 0.25881618 0.13171463 0.6775354 -0.14834322 -0.54646945 0.3338654
0.45348403 -0.29094586 -0.3341859 0.38689047 0.08592802 0.6798139 -5.0333456e-05 0.08050971
0.31072414 0.29969582 -0.19922546 -0.33133137 -0.64039713 -0.5078987 0.0194111 0.049832135

fc.weight f4 [1, 128]
00000000: 7012 b8bd c4ad c33c 693d 89bd 6e7e aabc
00000010: e910 a1bd 3a21 09be 0a1b 093c 575d be3b
00000020: eb89 b33c 5e5f afbd f60f c03c cb0e 20bd
00000030: dbaf 03be 9b58 96bd 610f 0a3d f3b1 f8bc
00000040: c2ed 84bd d141 303d f149 9dbd 7de4 a13d
00000050: c2ec 643d f402 d2bc fd15 2c3b ec24 29be
00000060: 4b0f cd3c d727 46bc 6289 8abb 5491 753a
00000070: 041f 37bd b1e0 e3bc 975c afbd 7014 2cbd
00000080: 4071 96bd 10bb 9c3d 4581 4fbc bcf0 4c3d
00000090: 8f81 7cbd e22d 85bd b78f 8abd b6a7 87bd
000000a0: 5db2 adbd c9a8 073d a01e 86bd c71c 37bd
000000b0: e841 ba3c 6a23 6a3d 62d6 82bd 4fb8 c2bc
000000c0: 893b 8bbc fb26 96bd 251d 53bc bb61 d3bd
000000d0: aa7d 24bd 21fc dfbc c760 9cbd 0e00 bebd
000000e0: 7a62 b9bd 4e2e 0bbd f481 db3b aa39 78bd
000000f0: 9a10 813c 0afb 83bd 17db 9abd 11f3 833c
00000100: 558f 953c dadb 073d ce0e 123c 75e6 9c3c
00000110: ff5a b4bd 9c3f c33b 7669 ad3c f886 ab3a
00000120: cee7 183d bad1 40bd c319 dcbd 83be 90bc
00000130: 0aa1 3bbd 0bee 913d 8ec3 5bbc 30df 8fbd
00000140: cecf 433d 5158 7c3d 0476 18be ef91 0dbd
00000150: 6bc0 24be d8b8 1ebd 134b 9ebd 817a 18be
00000160: b949 eabc 343e 1c3a f5a9 27bc 4210 08bd
00000170: 185f 97bc a852 10bd 6880 9abd a15d 10be
00000180: 63f8 913c 084c a8bd ef82 3e3d 8830 41bd
00000190: 140e 053c d373 5439 6b72 76ba 8c3d 99bd
000001a0: 37c4 023a 2bcf 1fbd b491 703c 5024 00bd
000001b0: c409 6a3d a30b 943c cafe 81bd 05ee c3bc
000001c0: 3455 2a3d 2825 903d 6ad7 dd3c 5599 843d
000001d0: 8b38 e8bd d47f 05bd 7286 7ebd 8e3c 63bd
000001e0: 1fd6 abbd 8f3b e1bd b80a 3f3d eab4 6d3d
000001f0: 3b77 90bc 3def aebc 499c b3bc 49f5 82bd
-0.08987892 0.023886569 -0.06701166 -0.02081224 -0.078645535 -0.13391581 0.008368263 0.005809467
0.02191635 -0.08563112 0.02344511 -0.039076608 -0.12860052 -0.07341119 0.033706073 -0.03035829
-0.06490661 0.043031517 -0.07680119 0.07904909 0.055889852 -0.025636174 0.0026258223 -0.16517991
0.025031706 -0.0120944595 -0.004227803 0.0009367664 -0.044707313 -0.027817102 -0.08562582 -0.04201168
-0.073458195 0.07652867 -0.012665098 0.05003427 -0.061646994 -0.06502892 -0.06765693 -0.06623785
-0.08481286 0.03311995 -0.0654881 -0.04470518 0.022736505 0.05716268 -0.063885465 -0.023769526
-0.016996162 -0.07331654 -0.012885367 -0.10321375 -0.040158905 -0.027341904 -0.07635646 -0.09277354
-0.09051986 -0.033979706 0.006698841 -0.060601868 0.015754987 -0.06444366 -0.07561319 0.016107114
0.018256823 0.03316865 0.0089146625 0.01915286 -0.08806419 0.0059585106 0.021168452 0.0013086488
0.03733044 -0.04707501 -0.10747101 -0.017668968 -0.045807876 0.07125481 -0.013413323 -0.070249915
0.0478056 0.061607663 -0.1488877 -0.034563 -0.16089027 -0.0387505 -0.07729163 -0.14890482
-0.028599607 0.0005960197 -0.010233392 -0.03321863 -0.018477961 -0.035235077 -0.07544023 -0.14098217
0.017818635 -0.08217627 0.046511587 -0.047165424 0.008121032 0.00020261043 -0.0009401205 -0.07482442
0.0004988345 -0.03901593 0.014683176 -0.03128463 0.05713822 0.018071955 -0.06347425 -0.023917207
0.041585162 0.07038337 0.027080256 0.06474558 -0.1133891 -0.03259261 -0.062139936 -0.05547767
-0.0839045 -0.10997688 0.04664108 0.05803386 -0.017634979 -0.021354312 -0.021925109 -0.06394441
