pretrained/trained.pth (torch, 43317 bytes, 13 tensors)

layer1.weight f4 [64, 6]
0	0xbe75872f	-0.2397735
1	0xbe8c301f	-0.27380463
2	0xbe7892ea	-0.24274793
3	0xbd3ad58e	-0.045613818
4	0x3e3ab802	0.18234256
5	0xbe9e606c	-0.3093294
6	0x3e96ce57	0.294543
7	0xbec9f916	-0.3944785
8	0xbe318a28	-0.17337859
9	0x3e82f7dc	0.25579727
10	0x3dcf2316	0.10114114
11	0x3e4bb7d4	0.19894344
12	0x3e72928f	0.2368872
13	0xbe1a6c14	-0.15080291
14	0x3c03f540	0.008054078
15	0x3d854f40	0.06509256
16	0xbea4a215	-0.3215491
17	0x3e53f90b	0.20700471
18	0x3d0a3766	0.03374424
19	0xbdf276f3	-0.11839094
20	0x3e357c2d	0.1772315
21	0x3d9869e6	0.074420735
22	0x3d1d3b4f	0.03838664
23	0xbe2ffda8	-0.17186606
24	0xbdc45f78	-0.09588522
25	0xbea4123c	-0.32045162
26	0x3e5bbb54	0.21458179
27	0x3ebf9eb4	0.37425768
28	0xbd3b48c6	-0.0457237
29	0xbe4d728b	-0.20063226
30	0x3e99617b	0.29957184
31	0xbdfa02ee	-0.1220759
32	0xbd35118f	-0.0442062
33	0xbe5033a4	-0.203322
34	0x3e657df8	0.22411335
35	0xbe96dad9	-0.29463843
36	0xbea51268	-0.32240605
37	0xbe0fb689	-0.14034475
38	0xbebcbd41	-0.3686314
39	0xbe9bd3f2	-0.3043514
40	0x3ecf961a	0.40544206
41	0xbe1918bb	-0.1495084
42	0xbe8abf49	-0.27099064
43	0x3eb8dd38	0.36106277
44	0x3ea3d176	0.31995744
45	0x3e7e2f84	0.24822813
46	0xbec1ee61	-0.3787718
47	0x3e749a46	0.23886976
48	0xbe6010d3	-0.21881418
49	0xbe9cd33c	-0.3062991
50	0x3e0979d3	0.13425379
51	0xbe4c9675	-0.1997927
52	0x3ea6d871	0.32587007
53	0xbdb28000	-0.0871582
54	0x3eb9c219	0.36280897
55	0x3e59f9b5	0.21286662
56	0x39906488	0.00027540722
57	0xba9cab96	-0.0011952992
58	0xbe25272c	-0.16128224
59	0xbe28e8e0	-0.16495085
60	0x3c5571ff	0.013027667
61	0xbe9d7f49	-0.30761173
62	0xbdfe0423	-0.12403133
63	0xbec2118c	-0.37904012
64	0x3c0be012	0.008537309
65	0xbe1ab99e	-0.1510987
66	0x3ccd178f	0.025035648
67	0x3eaff8f3	0.3436962
68	0x3e4e83c5	0.20167454
69	0xbd87d722	-0.0663283
70	0xbde71035	-0.11282388
71	0xbeaa42c4	-0.33254063
72	0xbe8fc7e5	-0.28082195
73	0xbd16753b	-0.036732893
74	0x3e958de2	0.2920981
75	0x3ea85b5d	0.32882205
76	0xbd55d223	-0.052202355
77	0x3db21be7	0.08696728
78	0xbe7f9101	-0.24957658
79	0xbe5f6111	-0.21814372
80	0xbe64b736	-0.22335514
81	0x3e97bbf9	0.296356
82	0x3e2b59f5	0.16733535
83	0x3e9e86e7	0.30962297
84	0xbe60c7e0	-0.21951246
85	0xbe433e81	-0.19066812
86	0x3db9b3b9	0.090674825
87	0xbc3e04d4	-0.011597831
88	0x3eaef80f	0.3417363
89	0xbdfca046	-0.12335257
90	0x3caa7db9	0.020811902
91	0xbe6fe844	-0.23428446
92	0xbe531469	-0.20613255
93	0x3e460f8d	0.1934187
94	0x3e93dce3	0.2887946
95	0x3e45253c	0.19252485
96	0xbd1ef98f	-0.038812216
97	0x3e1dc568	0.15407336
98	0x3e426fcd	0.18987961
99	0xbdc9119b	-0.09817811
100	0x3eab945c	0.33511627
101	0x3e4cf307	0.20014583
102	0xbec35306	-0.3814928
103	0x3e1266e4	0.14297062
104	0xbecacec6	-0.3961088
105	0x3dc431c4	0.095798045
106	0xbd45344e	-0.048145585
107	0xbebf9938	-0.37421584
108	0x3d6c3028	0.057663113
109	0xbe22f53e	-0.15913865
110	0x3e7f45e6	0.24929008
111	0xbe835792	-0.25652748
112	0xbe807ce3	-0.2509528
113	0x3d7451c3	0.059648287
114	0xbe648cc5	-0.22319324
115	0x3e8e924b	0.27845988
116	0x3e7ff54c	0.24995917
117	0x3e37c5ee	0.17946598
118	0x3e432297	0.19056164
119	0x3ecef0e2	0.40418154
120	0xbd42e10e	-0.04757791
121	0x3e9c8393	0.30569133
122	0x3ebf7472	0.37393528
123	0x3de776e8	0.113019764
124	0xbe6f9ab0	-0.23398852
125	0xbe4efc9d	-0.20213552
126	0x3bc8eda7	0.006131846
127	0xbd6340dd	-0.05548178
128	0xbe52c72c	-0.2058379
129	0xbd77f08f	-0.06053215
130	0x3e7d843a	0.24757472
131	0xbea97908	-0.33100152
132	0x3e2a914f	0.16656993
133	0xbe955fe8	-0.29174733
134	0xbc654720	-0.013994008
135	0xbd8344d3	-0.064096116
136	0xbdf5c326	-0.12000112
137	0x3ea2c19e	0.31788343
138	0xbeb9e107	-0.36304495
139	0xbe9c7b19	-0.30562666
140	0x3ec1aebd	0.37828627
141	0xbe4741b8	-0.19458663
142	0xbec60e8a	-0.38682967
143	0xbdbe7cb9	-0.09301133
144	0x3dc1b980	0.094592094
145	0xbde7a822	-0.11311366
146	0x3ece3ed7	0.40282318
147	0x3b394d44	0.0028274814
148	0xbe7d4db5	-0.24736674
149	0x3e9d7ea7	0.3076069
150	0xbe1d7aee	-0.15378925
151	0xbe0f087e	-0.13968083
152	0xbdbe3929	-0.09288246
153	0xbeb588a0	-0.354558
154	0xbe908c3d	-0.28231993
155	0xbe42a6c3	-0.19008927
156	0xbe931d08	-0.28733087
157	0xbdab641b	-0.08368703
158	0xbd49c675	-0.04926153
159	0x3e4fd181	0.20294763
160	0xbd3f06d3	-0.046637367
161	0x3ec970d7	0.39343902
162	0x3eafbffc	0.3432616
163	0x3e4956eb	0.19662063
164	0x3e42d045	0.19024761
165	0xbdcb5858	-0.099289596
166	0x3ce1f0fd	0.027580732
167	0x3eb30b2b	0.34969458
168	0x3ebfa30c	0.37429082
169	0xbe08b5bb	-0.13350575
170	0xbe12817f	-0.14307211
171	0x3e54b90a	0.20773712
172	0xbe31c10f	-0.17358802
173	0x3d7e2154	0.062043503
174	0xbeb9924d	-0.3624443
175	0xbdee78dd	-0.116441466
176	0xbe054de6	-0.13017997
177	0xbe87d530	-0.26529837
178	0x3eac3e4b	0.33641276
179	0x3e968fdc	0.2940663
180	0x3e809952	0.25116974
181	0x3e76e420	0.2411046
182	0xbc8af1d9	-0.016961025
183	0xbe966e6d	-0.29381123
184	0x3e5b75c0	0.21431637
185	0xbe642eff	-0.22283553
186	0x3e35d946	0.17758664
187	0xbe978136	-0.29590768
188	0x3e37857a	0.17922011
189	0x3cd5fe4a	0.026122231
190	0x3dcaa72b	0.09895166
191	0xbe516e43	-0.20452218
192	0x3d4de456	0.050266586
193	0xbd0a1d4f	-0.033719357
194	0xbe24aba0	-0.16081095
195	0xbdcb2859	-0.09919805
196	0x3e9d57e5	0.3073112
197	0xbe1e0027	-0.15429746
198	0x3de02139	0.10943837
199	0xbe9398f2	-0.28827626
200	0xbe362ffc	-0.17791742
201	0xbecc0ecd	-0.39855042
202	0xbe10c541	-0.14137746
203	0x3e76c41e	0.2409825
204	0xbea22bf5	-0.31674162
205	0x3ec1c034	0.37841952
206	0xbe937d37	-0.2880647
207	0x3ebddb52	0.3708139
208	0x3d383a73	0.044977617
209	0xbe069a9d	-0.13144918
210	0xbe7a039d	-0.24415441
211	0x3e69abb0	0.228194
212	0xbe9a30a3	-0.30115232
213	0x3e9bfa11	0.30464223
214	0xbe16ddd4	-0.14733058
215	0xbed07d59	-0.40720633
216	0xbe8afb2e	-0.2714476
217	0x3e2e8011	0.17041041
218	0xbe9ebd8d	-0.3100399
219	0x3eca6792	0.39532143
220	0x3d9fee34	0.078091055
221	0xbe3f91e0	-0.1870799
222	0x3e83aa5b	0.25715908
223	0x3e118b3e	0.14213273
224	0xbdc28d51	-0.0949961
225	0x3da81f9c	0.08209154
226	0xbeaa3998	-0.33247066
227	0xbe842797	-0.25811455
228	0xbe43048f	-0.19044708
229	0x3dedd3a8	0.11612636
230	0xbe8d6673	-0.27617225
231	0x3e9c7738	0.30559707
232	0x3eb884c3	0.3603879
233	0x3ebc80d3	0.36817035
234	0x3eae5be1	0.34054473
235	0x3ce68c24	0.028142996
236	0x3dbc0b0a	0.09181793
237	0xbec3c055	-0.38232675
238	0x3e25818e	0.16162702
239	0xbe82647e	-0.25467294
240	0xbe2b2212	-0.16712216
241	0x3ec5784f	0.3856835
242	0xbe3e58c3	-0.18588547
243	0xbeb115b4	-0.3458687
244	0x3ec9bac3	0.394003
245	0xbaa0b5a2	-0.0012261162
246	0xbdeaa094	-0.11456409
247	0x3db4d369	0.08829386
248	0xbe8ec5e0	-0.27885342
249	0x3e83ba83	0.25728235
250	0xbe9af4c3	-0.30264863
251	0x3c812cf1	0.0157685
252	0x3ebea652	0.37236267
253	0xbd3d9c38	-0.04629156
254	0xbc1b2eaa	-0.009471575
255	0x3df48f3f	0.119413845

layer1.bias f4 [64]
0	0xbd72d6ba	-0.05928681
1	0x3e914b4a	0.28377753
2	0x3e12aca6	0.14323673
3	0xbdc3c939	-0.095598646
4	0xbec3237e	-0.38113016
5	0xbe21e825	-0.15811212
6	0x3ec1767a	0.37785703
7	0x3e81353f	0.25235936
8	0xbe7bf639	-0.24605645
9	0x3ec8e9ac	0.39240777
10	0xbe314f44	-0.17315394
11	0xbcc19543	-0.023630744
12	0x3eba08fe	0.36334985
13	0x3e3630db	0.17792074
14	0xbd8afbbc	-0.06786296
15	0x3def15b8	0.116740644
16	0xbd83f8df	-0.06443953
17	0xb9abaf40	-0.00032746233
18	0xbd8e9265	-0.06961516
19	0x3e6fa5bb	0.23403065
20	0xbe9edb0a	-0.3102649
21	0xbb7fb76f	-0.0039019247
22	0xbea1ec1a	-0.31625444
23	0x3e9460e0	0.2898016
24	0x3eb4fc68	0.3534882
25	0x3e9d34f0	0.3070445
26	0x3d5b1764	0.053489104
27	0xbea88865	-0.3291656
28	0xbe69856c	-0.22804803
29	0x3ec8c7bb	0.39214882
30	0x3e8f5582	0.27994925
31	0x3e4f1411	0.20222498
32	0xbe8ad6b1	-0.27116922
33	0x3cd71e6c	0.026259623
34	0x3df78963	0.12086751
35	0xbec1960a	-0.37809783
36	0x3ec33e76	0.3813359
37	0x3e535357	0.2063726
38	0x3ddcdc86	0.10784249
39	0xbebb49b9	-0.36579683
40	0xbd91340e	-0.07090007
41	0xbe7a761a	-0.24459115
42	0x3ea35148	0.3189795
43	0xbe2343d8	-0.15943849
44	0xbd9af57a	-0.07566352
45	0x3e11e6c4	0.14248186
46	0xbe3a403d	-0.18188567
47	0xbe24991a	-0.16074029
48	0x3e8ef4b0	0.27921057
49	0xbeb2554f	-0.3483071
50	0x3e5d3e20	0.2160573
51	0xbdfa9134	-0.122347265
52	0xbe2d1b06	-0.1690484
53	0x3eaaec77	0.33383533
54	0x3e74d79c	0.23910373
55	0xbde8f5ea	-0.113750294
56	0x3ec64618	0.38725352
57	0xbad2101a	-0.0016026527
58	0x3ece1cfb	0.40256485
59	0x3dff4fdf	0.12466406
60	0x3e90574d	0.28191605
61	0xbeaf4265	-0.34230343
62	0xbe88b83f	-0.2670307
63	0x3d146ce6	0.036236666

layer2.weight f4 [128, 64]
0	0xbdfb9b39	-0.12285466
1	0xbdf9a1c3	-0.12189057
2	0x3db3c8d2	0.08778538
3	0x3d04945c	0.03236805
4	0xbd91cc11	-0.07119001
5	0xbd33fce1	-0.043942336
6	0xbd912ec3	-0.07088997
7	0x3c00afb3	0.00785439
8	0x3db87ca9	0.09008152
9	0xbcba7a0d	-0.022763276
10	0x3d798c32	0.060924716
11	0xbde9de0e	-0.11419307
12	0xbde5bdbb	-0.11217829
13	0xbd66587d	-0.056236733
14	0xbd0cab39	-0.03434298
15	0x3de07770	0.10960281
16	0xbd6c6af9	-0.057719205
17	0x3ddb7bea	0.10716994
18	0x3a2d70e1	0.00066162465
19	0xbd385081	-0.04499865
20	0x3dcf006f	0.101075046
21	0xbdecf01b	-0.11569234
22	0xbdb0c16c	-0.08630642
23	0x3dcb1f08	0.09918028
24	0xbd72918f	-0.059220847
25	0x3d84eff6	0.064910814
26	0x3d053b9e	0.03252756
27	0xbdb6e61c	-0.08930609
28	0xbddcd607	-0.1078301
29	0xbaad7f40	-0.0013236776
30	0x3de7173a	0.11283727
31	0x3d8015f3	0.062541865
32	0xbd7b74ad	-0.061390568
33	0xbd05c670	-0.032659948
34	0x3d9b85b6	0.07593863
35	0x3dc867c1	0.097854145
36	0x3d42d45c	0.047565803
37	0xbda0d93c	-0.07853934
38	0x3dad1182	0.08450605
39	0xbd6dd930	-0.058068454
40	0xbb44f063	-0.0030050508
41	0x3c96ab8a	0.018392343
42	0x3d4b968b	0.049704116
43	0xbc840746	-0.01611675
44	0x3d085061	0.03327978
45	0x3d9e01f7	0.077152185
46	0xbdcda2bd	-0.100408055
47	0xbd8aef2b	-0.06783899
48	0xbd60efb5	-0.054916102
49	0xbdd2c7ca	-0.10292013
50	0xbdd49f2a	-0.10381921
51	0x3daa9b34	0.08330384
52	0xbd691137	-0.056901183
53	0x3bd19351	0.0063957353
54	0xbd6e59f0	-0.05819124
55	0x3debd5e5	0.115154065
56	0xbda8f8c6	-0.08250575
57	0x3d1b9b00	0.037989616
58	0xbe010a47	-0.12601577
59	0x3cb40588	0.021975294
60	0x3d2877de	0.04112994
61	0x3d650ed9	0.055922363
62	0xbe085d90	-0.13316941
63	0xbd561377	-0.052264657
64	0x3dd11cd3	0.10210576
65	0xbd10d92c	-0.03536336
66	0xbde34d9d	-0.11098788
67	0x3d9b5c49	0.07585961
68	0x3de82364	0.11334875
69	0x3c848c9b	0.016180327
70	0xbd8cea40	-0.06880617
71	0x3ca53fda	0.020172048
72	0x3db62c30	0.08895147
73	0x3d3fb2ff	0.046801563
74	0x3df1c9e9	0.118060894
75	0x3d89e364	0.067328244
76	0xbd305d4e	-0.043057732
77	0xbdece801	-0.11567689
78	0x3decf40c	0.11569986
79	0xbd95197e	-0.07280253
80	0x3d85d828	0.06535369
81	0x3ddcb4fa	0.10776706
82	0xbd4b1257	-0.049578037
83	0xbdbdb13e	-0.09262322
84	0xbd862236	-0.06549494
85	0x3da3d517	0.07999628
86	0x3d8e08e1	0.06935287
87	0x3c914308	0.017732158
88	0x3c7aeddd	0.0153155
89	0xbc2b1a47	-0.010443277
90	0x3dd4a116	0.10382287
91	0x3d8b96e7	0.06815892
92	0x3ddb4120	0.10705781
93	0xbc038ac1	-0.008028687
94	0xbde414f6	-0.111368105
95	0x3d64d552	0.0558675
96	0xbe081104	-0.13287741
97	0x3ce6247f	0.028093575
98	0x3dea0673	0.11427011
99	0x3def503b	0.116852246
100	0xbd82a4b1	-0.06379069
101	0x3d2deec0	0.042464018
102	0xbc47821a	-0.012177015
103	0x3ce0cb02	0.027440552
104	0xbcb5893a	-0.022160161
105	0xbe03f4ae	-0.12886307
106	0x3dbcecb6	0.092248365
107	0x3d9554d5	0.07291571
108	0xbddf36e3	-0.10899141
109	0x3df9ae70	0.121914744
110	0x3d756fbd	0.059921015
111	0x3d37daf8	0.04488656
112	0x3d47a011	0.048736636
113	0x3d4d57a6	0.050132416
114	0x3d467566	0.048451804
115	0xbda63074	-0.081147105
116	0x3a4d4069	0.0007829727
117	0xbd9d88b0	-0.07692087
118	0x3c13c079	0.009018057
119	0x3df5bd72	0.119990245
120	0xbde824c7	-0.1133514
121	0xbde84dd7	-0.11342972
122	0x3db126bd	0.08649967
123	0x3d03cebd	0.032179583
124	0x3ddf5dd0	0.10906565
125	0x3db06aea	0.08614142
126	0x3dc0e035	0.09417764
127	0x3dbbbe73	0.09167185
128	0xbd94ec49	-0.0727163
129	0xbd3c0b23	-0.04590906
130	0xbd8cfd35	-0.06884233
131	0xbd6ff010	-0.05857855
132	0xbcb62131	-0.022232624
133	0x3cf51c41	0.0299207
134	0x3d958fc3	0.07302811
135	0x3dd4d7ed	0.10392747
136	0x3db814cd	0.089883424
137	0x3d7fe9ca	0.062478818
138	0xbc25f58e	-0.010129346
139	0x3bb04324	0.0053790975
140	0x3ddf62c9	0.10907514
141	0xbde082f6	-0.10962479
142	0x3c9b67af	0.018970339
143	0xbd933371	-0.07187546
144	0xbda7561d	-0.08170722
145	0x3b027520	0.0019906238
146	0x3b754627	0.0037425847
147	0xb90c7c51	-0.00013397752
148	0x3dce71ea	0.10080321
149	0xbdcb5910	-0.09929097
150	0x3df16fb9	0.117888875
151	0x3d13367c	0.035940632
152	0x3d4fc6e1	0.050726775
153	0xbd82471b	-0.063612185
154	0xbdef2555	-0.116770424
155	0xbdc8b903	-0.09800913
156	0xbdc5145d	-0.096230246
157	0x3d27e2df	0.040987846
158	0x3dceb895	0.100938
159	0xbdca5f96	-0.09881513
160	0x3d83ef55	0.06442133
161	0xbbf60157	-0.007507484
162	0xbd878e97	-0.06618994
163	0xbd1de8f3	-0.038552236
164	0xbcbefce0	-0.02331394
165	0x3d9f7745	0.07786421
166	0xbcb86552	-0.02250925
167	0xbd9bc6d1	-0.076062806
168	0xbde1ea98	-0.11031073
169	0xbdfbbe7a	-0.1229219
170	0xbdacf9d5	-0.08446089
171	0x3e017cad	0.12645216
172	0xbd12f551	-0.035878483
173	0x3d96e1b7	0.073672704
174	0xbc912c55	-0.017721334
175	0x3dfa44bc	0.12220141
176	0xbd8e905f	-0.0696113
177	0xbdbf9578	-0.09354681
178	0xbdd08961	-0.10182453
179	0x3dcc68e9	0.099809475
180	0xbb99469b	-0.0046776063
181	0xbddde04a	-0.10833795
182	0x3d20818e	0.039186053
183	0xbd813f28	-0.06310874
184	0x3da0db3b	0.07854315
185	0xbcbf40de	-0.02334636
186	0xbdb1f119	-0.08688564
187	0x3d93589e	0.07194637
188	0xbd55053e	-0.052006952
189	0xbd30c578	-0.04315707
190	0xbd393776	-0.045218907
191	0x3c348f88	0.011020549
192	0xbc695096	-0.014240405
193	0xbdbf990c	-0.09355363
194	0x3d9fb11a	0.07797451
195	0xbc5cae73	-0.013469326
196	0x3d7e7af0	0.06212896
197	0xbdb2f848	-0.08738762
198	0x3dba3c06	0.0909348
199	0x3d677587	0.056508567
200	0xbd52e7b9	-0.05149052
201	0x3d92ee8e	0.07174407
202	0xbdbb8665	-0.09156493
203	0x3cd12809	0.025531786
204	0x3da0494e	0.07826482
205	0xbe0a31e8	-0.134956
206	0xbd8c7a15	-0.06859223
207	0x39618e0f	0.00021510593
208	0xbdbfff09	-0.09374816
209	0xbcfa6040	-0.030563474
210	0xbdf42621	-0.11921335
211	0x3dc900e1	0.09814621
212	0x3dd837fc	0.10557553
213	0x3d836fe6	0.06417827
214	0x3d0b8d38	0.034070224
215	0x3d79dfd8	0.06100449
216	0xbd975269	-0.07388765
217	0x3d8eff42	0.0698228
218	0x3ca9b424	0.02071578
219	0xbd801800	-0.06254578
220	0xbdb25ba1	-0.08708883
221	0xbd3a7ce8	-0.045529276
222	0x3d81e4c8	0.06342465
223	0xbde5fd10	-0.112299085
224	0x3dbd5a94	0.09245792
225	0xbda0d781	-0.07853604
226	0xbd94263f	-0.07233857
227	0x3d46a70c	0.048499152
228	0x3d9f24cf	0.077706926
229	0xbdb1bd6c	-0.086787075
230	0x3d33b3f8	0.043872803
231	0x397a5b91	0.00023875969
232	0x3d93d030	0.07217443
233	0xbd8c2f52	-0.06844963
234	0x3d7a3804	0.061088577
235	0x3dd29241	0.10281802
236	0xbda1fae2	-0.0790918
237	0x3a72f23a	0.0009267662
238	0xbc55f661	-0.01305923
239	0xbd9499a8	-0.0725587
240	0xbc469f39	-0.012122923
241	0xbd245d97	-0.040128317
242	0xbd295f61	-0.041350726
243	0x3d6b5417	0.05745324
244	0x3e008609	0.1255113
245	0x3d995370	0.074866176
246	0xbd856c1e	-0.06514762
247	0x3d26b95c	0.040704116
248	0xb9231ee1	-0.00015556395
249	0x3d84ae12	0.06478514
250	0x3daa887b	0.08326813
251	0x3db3bf53	0.087767266
252	0xbc5edbbe	-0.013602195
253	0x3dc07625	0.09397534
254	0xbda8b7a9	-0.082381554
255	0xbd305709	-0.043051753

layer2.bias f4 [128]
0	0x3d19f221	0.037584428
1	0xbdc311e9	-0.095249005
2	0xbd92e2de	-0.07172178
3	0xbcc7bf7c	-0.024383299
4	0x3ce19ea7	0.027541472
5	0xbdad6551	-0.0846659
6	0xbd79ec38	-0.06101629
7	0x3ddc0d7e	0.10744761
8	0xbd10f98e	-0.035394244
9	0xbd5b9dc1	-0.053617243
10	0x3d86ef25	0.06588582
11	0x3b9c6773	0.0047730743
12	0x3d83cf7b	0.06436058
13	0xbd33e8d4	-0.043923214
14	0xbd974be4	-0.07387522
15	0x3d25ece3	0.040509116
16	0xbcd6510a	-0.02616169
17	0x3d8a95e4	0.067668706
18	0xbd8f0eb8	-0.06985229
19	0x3d91d50f	0.07120716
20	0x3dde16ea	0.10844214
21	0xbd9a4a87	-0.07533746
22	0x3d09c718	0.033637136
23	0x3db52d77	0.08846562
24	0x3d46e62c	0.048559353
25	0xbd259363	-0.040423762
26	0x3d48d4a9	0.049030934
27	0x3c8b0863	0.016971773
28	0x3c57eb2b	0.013178627
29	0xbdfd57dd	-0.12370274
30	0xbd906ce8	-0.07052022
31	0xbdea8b88	-0.11452395
32	0xbdc130de	-0.09433149
33	0x3cac69c8	0.021046534
34	0xbda0eb70	-0.07857406
35	0xbb7bd8bf	-0.0038428751
36	0xbdb75f4e	-0.08953725
37	0x3d16fe8c	0.03686385
38	0x3c80a1d2	0.015702162
39	0x3dd808fa	0.10548587
40	0xbbcb5609	-0.0062053245
41	0x3c204d7b	0.009784098
42	0x3dce5f20	0.100767374
43	0x3def432e	0.116827354
44	0x3d7ea188	0.062165767
45	0xbbfa70ee	-0.007642857
46	0xbdfb3c0e	-0.12267314
47	0x3de9c22d	0.11413989
48	0xbdd38ff1	-0.10330189
49	0xbd89fce1	-0.06737686
50	0x3dea82cb	0.11450728
51	0x3dcb5f3e	0.099302754
52	0x3dbdb639	0.09263272
53	0x3da66758	0.0812518
54	0x37cb591a	2.4240977e-05
55	0xbd9fa352	-0.07794823
56	0xbd90440b	-0.07044228
57	0x3df55eb0	0.11980951
58	0xbdf75a6e	-0.12077795
59	0xbd42d50c	-0.04756646
60	0x3d97e4da	0.07416697
61	0xbdae431a	-0.08508892
62	0x3db709d8	0.089374244
63	0x3b673ecd	0.0035285235
64	0xb9bac99f	-0.00035626904
65	0xbd347b0e	-0.044062667
66	0x3d874316	0.066045925
67	0xbd83b91c	-0.06431791
68	0xbd9981d9	-0.074954696
69	0x3d62a91c	0.055337057
70	0xbc8b15b3	-0.01697812
71	0xbdd33838	-0.10313457
72	0xbd1d0c17	-0.038341608
73	0x3c7b7c7c	0.015349504
74	0x3dee1c36	0.116264746
75	0x3d902f3e	0.07040261
76	0xbdafd9c8	-0.0858646
77	0xbdb4b991	-0.088244565
78	0x3d503736	0.050833903
79	0xbd02ee94	-0.031965807
80	0x3dbefb37	0.09325259
81	0xbdb22bcb	-0.08699759
82	0x3ce15da0	0.027510464
83	0x3c8dd312	0.01731256
84	0xbd783c7d	-0.06060456
85	0x3dcec309	0.10095794
86	0x3da4970f	0.08036625
87	0x3d0ee77a	0.034888722
88	0x3bdd4483	0.006752552
89	0xbcdf1aaa	-0.027234394
90	0xbd60e951	-0.054910008
91	0xbc5d2666	-0.013497924
92	0x3da68f57	0.08132809
93	0x3dc28281	0.09497548
94	0xbdcbfa85	-0.09959892
95	0xbd834398	-0.06409377
96	0xbda9ca8b	-0.08290585
97	0xbbcf2bba	-0.0063223513
98	0xbd9e3b4c	-0.07726154
99	0x3cc8f760	0.02453202
100	0xbd873f5f	-0.06603884
101	0x3ddc80f3	0.107667826
102	0xbc9d07ce	-0.01916876
103	0x3d1b27d5	0.037879784
104	0x3c40d39e	0.0117692035
105	0xbdf8adac	-0.121425
106	0xbd5b90a7	-0.053604748
107	0x3dd87d58	0.105707824
108	0xbdb95d3e	-0.09050988
109	0xbca46033	-0.020065403
110	0x3d81cbbb	0.06337687
111	0xbdf152b2	-0.11783351
112	0xbbae9a89	-0.0053284806
113	0xbdee04a0	-0.11621976
114	0xbd26936b	-0.040667932
115	0xbd19f352	-0.037585564
116	0xbd4c53a7	-0.049884465
117	0xbe023934	-0.12717134
118	0x3dd4496c	0.103655666
119	0x3dc38c82	0.09548284
120	0x3db30b2c	0.08742365
121	0xbd158489	-0.03650335
122	0xbddb4e84	-0.10708335
123	0x3d71355b	0.058888774
124	0xbd961835	-0.07328836
125	0x3c34563f	0.011006891
126	0x3d9ce9d1	0.076617844
127	0x3a28fcae	0.00064463436

layer3.weight f4 [1, 128]
0	0x3d9c155b	0.07621261
1	0x3d8e1839	0.06938214
2	0x3d23d402	0.03999711
3	0x3d90e915	0.07075707
4	0x3d852d7b	0.06502815
5	0xbd99dfd1	-0.07513393
6	0xbd98b259	-0.07455892
7	0x3d0a92f7	0.033831563
8	0xbdb64de4	-0.08901575
9	0x3c808198	0.015686795
10	0xbd96df3c	-0.07366797
11	0xbd8593f4	-0.065223604
12	0xbdbd135e	-0.092322096
13	0xbdae3a10	-0.08507168
14	0x3ce0b0f9	0.027428137
15	0xbd9548fe	-0.07289313
16	0x3a879c77	0.0010346313
17	0x3da0cdda	0.07851763
18	0xbcae7217	-0.021294637
19	0x3d88d222	0.06680705
20	0xbd0a8ace	-0.03382378
21	0xbd27da00	-0.040979385
22	0x3c212274	0.009834874
23	0xbd0df316	-0.034655653
24	0x3d9e08d2	0.07716526
25	0xbbd0eb12	-0.006375679
26	0x3dc12f8c	0.09432897
27	0xbd947ad0	-0.07249987
28	0x3d660740	0.056159258
29	0xbcbe97ce	-0.023265745
30	0xbd244e6b	-0.040113848
31	0x3d76693c	0.060158953
32	0xbd2ebba7	-0.042659428
33	0x3d6a1ebe	0.057158224
34	0x3c81ac37	0.015829189
35	0x3cf29ec3	0.02961672
36	0xbc8e2aea	-0.017354447
37	0x3cc7d097	0.024391456
38	0xbdb1375d	-0.08653138
39	0xbcf083fd	-0.029359812
40	0x3d803a6d	0.06261144
41	0xbd23b9bf	-0.039972063
42	0x3d05dd7a	0.03268192
43	0x3bb62abe	0.0055592945
44	0xbdaae936	-0.08345263
45	0xbc3d2074	-0.011543382
46	0xbd5c0d8f	-0.053723868
47	0xbd2a2292	-0.041536875
48	0x3d85f11f	0.06540131
49	0x3d8afedf	0.06786894
50	0xbd95fd06	-0.07323651
51	0x3cd1d2b5	0.025613168
52	0x3d737963	0.059441935
53	0x3d8bf642	0.06834079
54	0xbce27b77	-0.027646763
55	0x3d899502	0.06717874
56	0x3d67f652	0.056631394
57	0xbc2ad9b9	-0.010427886
58	0xbd03d96b	-0.032189768
59	0x3d4ed67a	0.05049751
60	0xbdbb5fc0	-0.09149122
61	0xbd916ba3	-0.07100608
62	0x3d5d60b2	0.054047294
63	0x3db7512d	0.0895103
64	0xbb8820c5	-0.004154297
65	0x3d8386e7	0.06422215
66	0x3db2df23	0.08733966
67	0x3c88bbe7	0.016691161
68	0xbc7a9ec8	-0.015296645
69	0x3d12e458	0.035862297
70	0xbd801a4f	-0.06255018
71	0xbd61d824	-0.05513777
72	0x3dadf66d	0.084942676
73	0xbd76e141	-0.060273413
74	0x3d95dd23	0.07317569
75	0x3d043c6a	0.032284178
76	0x3d0bcfd2	0.03413374
77	0x3d0a6f38	0.033797473
78	0x3d31b3f9	0.043384526
79	0x3c9e1f5f	0.019302068
80	0x3dbd2c30	0.09236944
81	0xbd4b691f	-0.0496608
82	0xbc9da05c	-0.019241504
83	0xbdadf42b	-0.08493837
84	0xbdb01ad6	-0.085988685
85	0xbd62a72b	-0.055335205
86	0xbdb76999	-0.08955688
87	0x3d93c4e7	0.072152905
88	0x3c3b24ab	0.011422317
89	0xbc66e5ea	-0.014092902
90	0x3d510008	0.05102542
91	0xbd2d4eb6	-0.042311393
92	0x3d338059	0.043823574
93	0x3c6df343	0.01452333
94	0xbd746b81	-0.059672836
95	0xbd98dd01	-0.07464028
96	0xbcc21c6d	-0.023695195
97	0x3d58a7db	0.052894454
98	0xbda59577	-0.08085149
99	0x3d79963a	0.060934283
100	0xbdcac040	-0.0989995
101	0x3de381b1	0.11108721
102	0x3db4f9ff	0.088367455
103	0xbcf769dc	-0.030201845
104	0xbdb9b0b5	-0.09066907
105	0xbcdc9445	-0.02692617
106	0x3bcebf76	0.006309445
107	0xbd84bdc9	-0.06481511
108	0x3d17dd7a	0.03707645
109	0xbceff011	-0.029289277
110	0x3ce0a530	0.027422518
111	0x3cd6b4df	0.026209293
112	0xbcc160cd	-0.023605729
113	0xbba52413	-0.005039701
114	0xbd32dc01	-0.043666843
115	0x3d23b666	0.03996887
116	0x3c9913f6	0.018686276
117	0x3c7d64b5	0.015465905
118	0x3dd31050	0.10305846
119	0x3d899342	0.0671754
120	0xbd0e6655	-0.03476556
121	0x3d119854	0.035545662
122	0xbd5484c6	-0.051884435
123	0x3d30709f	0.043076154
124	0x3d62e44f	0.055393513
125	0x3d01ef5b	0.031722408
126	0xbc8ecbdd	-0.017431194
127	0xbd542492	-0.05179269

batchnorm1.weight f4 [64]
0	0x3f800000	1.0
1	0x3f7ff9f1	0.99990755
2	0x3f7e2da8	0.99288416
3	0x3f7fb7c4	0.9988978
4	0x3f800466	1.0001342
5	0x3f7fed6b	0.99971646
6	0x3f800000	1.0
7	0x3f819cad	1.0125939
8	0x3f800000	1.0
9	0x3f7eca99	0.9952789
10	0x3f800000	1.0
11	0x3f841833	1.0319885
12	0x3f7f3905	0.9969638
13	0x3f7fd826	0.9993919
14	0x3f800000	1.0
15	0x3f804706	1.0021675
16	0x3f800000	1.0
17	0x3f7d16d0	0.98862934
18	0x3f80047c	1.0001369
19	0x3f7e1b79	0.9926067
20	0x3f8000c8	1.0000238
21	0x3f800000	1.0
22	0x3f80e29d	1.0069157
23	0x3f800000	1.0
24	0x3f8340ef	1.0254191
25	0x3f800000	1.0
26	0x3f7e1cf1	0.9926291
27	0x3f7e81a1	0.9941655
28	0x3f7f0d39	0.9962955
29	0x3f800000	1.0
30	0x3f7dcb1b	0.9913804
31	0x3f7f05c2	0.9961816
32	0x3f83e541	1.0304338
33	0x3f7dceff	0.99143976
34	0x3f7ec7f6	0.99523866
35	0x3f7fc7e1	0.99914366
36	0x3f7eeda2	0.9958135
37	0x3f7f59cc	0.99746394
38	0x3f7ebdb8	0.9950824
39	0x3f7cb1d2	0.9870883
40	0x3f800000	1.0
41	0x3f806356	1.0030315
42	0x3f7fd37e	0.99932086
43	0x3f804abf	1.0022811
44	0x3f802c47	1.0013512
45	0x3f800000	1.0
46	0x3f800000	1.0
47	0x3f80aed6	1.0053356
48	0x3f7e6967	0.9937958
49	0x3f7e5297	0.9934477
50	0x3f800000	1.0
51	0x3f80ab4f	1.0052279
52	0x3f7d2d1c	0.98896956
53	0x3f7f218e	0.99660575
54	0x3f7df7b7	0.9920611
55	0x3f7e6a53	0.9938099
56	0x3f7fc59c	0.999109
57	0x3f800000	1.0
58	0x3f7faef8	0.99876356
59	0x3f7f7315	0.99784976
60	0x3f800000	1.0
61	0x3f811e83	1.0087436
62	0x3f819760	1.0124321
63	0x3f7fdddd	0.9994791

batchnorm1.bias f4 [64]
0	0x3a4ed437	0.0007889899
1	0xbbd5e653	-0.006527701
2	0x3c0192ba	0.0079085175
3	0xbb423112	-0.00296313
4	0xbae17e71	-0.001720382
5	0xbac0915c	-0.0014691758
6	0xbc1e626d	-0.009667021
7	0xbba2e05f	-0.004970595
8	0xbc42be0a	-0.011886129
9	0x3b1796c1	0.0023130628
10	0xbb81de29	-0.003963251
11	0xba82c8eb	-0.0009978091
12	0x3b99bb54	0.0046915207
13	0xbbc23d29	-0.005927701
14	0x3c13c2a4	0.009018574
15	0x3c4044fe	0.011735199
16	0x3b0dd82d	0.0021643743
17	0x3a3c4ca2	0.000718305
18	0xbc1ab7e7	-0.00944326
19	0xba9ca89c	-0.0011952105
20	0xbbafbebd	-0.005363314
21	0xbb807298	-0.0039199106
22	0xba6b5586	-0.00089772826
23	0xbbd7c12e	-0.006584308
24	0xbc0a3b78	-0.00843703
25	0xba96804f	-0.0011482331
26	0xbb35eef2	-0.002776083
27	0x3b606c0f	0.0034244095
28	0x3aabe652	0.0013114905
29	0x3b8c8a7e	0.0042889705
30	0x3ad2670f	0.0016052442
31	0x3b8edff7	0.004360195
32	0xbb5fbd98	-0.0034140106
33	0xbbe1d8c6	-0.0068922965
34	0xbbcbaf0a	-0.0062159346
35	0xbb00e822	-0.0019669612
36	0x3968b3f1	0.00022192278
37	0xbb6940e0	-0.0035591647
38	0x3a021de2	0.00049635593
39	0x3ae63249	0.0017562594
40	0xbb13ece5	-0.002257162
41	0x3c8f1631	0.017466636
42	0xbbafc2a6	-0.00536378
43	0x3c0143de	0.007889716
44	0x3c2f944d	0.01071651
45	0xbc609f03	-0.013709786
46	0x3c13dba6	0.009024536
47	0xbb6087df	-0.0034260673
48	0x3b2bbcc1	0.0026205035
49	0xba892ed7	-0.001046623
50	0xba495108	-0.0007679616
51	0xbc480232	-0.012207555
52	0xba23206e	-0.0006222789
53	0x3bac74e3	0.0052629574
54	0xbb1d9c92	-0.0024049622
55	0xbc25a9c1	-0.010111273
56	0xbb82efdc	-0.0039958786
57	0x3c390f89	0.011295208
58	0xbbbc13e1	-0.0057396744
59	0xbae4bcfd	-0.0017451342
60	0xbb77c125	-0.0037804332
61	0x3acef79a	0.0015790344
62	0x3b28b45f	0.0025742275
63	0xba443cb7	-0.0007485854

batchnorm1.running_mean f4 [64]
0	0x00000000	0.0
1	0x42f6fcad	123.49351
2	0x422c1163	43.01698
3	0x4207c568	33.94278
4	0x431359b1	147.35036
5	0x409944d8	4.789654
6	0x00000000	0.0
7	0x42af0888	87.51666
8	0x00000000	0.0
9	0x41ccf900	25.621582
10	0x00000000	0.0
11	0x3f759664	0.959326
12	0x42ed5e57	118.68426
13	0x42d1774a	104.73299
14	0x00000000	0.0
15	0x429dc109	78.87702
16	0x00000000	0.0
17	0x41d7a4d0	26.955475
18	0x3d9d79bd	0.07689235
19	0x4279e01f	62.46887
20	0x423937df	46.30456
21	0x00000000	0.0
22	0x4088d556	4.276042
23	0x00000000	0.0
24	0x4134ba76	11.295523
25	0x00000000	0.0
26	0x42878aec	67.77133
27	0x415f608d	13.961072
28	0x42db18c2	109.548355
29	0x00000000	0.0
30	0x3ff6f83c	1.9294505
31	0x41c12c5a	24.146656
32	0x3c2cd275	0.010548224
33	0x3cca2f22	0.024680678
34	0x43032f72	131.18533
35	0x42d79da0	107.80786
36	0x430ef060	142.93896
37	0x424bec80	50.980957
38	0x42def3ed	111.47642
39	0x40323bde	2.784904
40	0x00000000	0.0
41	0x42bef9d9	95.48798
42	0x42967964	75.23709
43	0x4301c17b	129.75578
44	0x42703678	60.053192
45	0x00000000	0.0
46	0x00000000	0.0
47	0x4099bb90	4.804146
48	0x40b7ae7c	5.7400494
49	0x40e18f9d	7.048781
50	0x00000000	0.0
51	0x408acae2	4.337266
52	0x404e87a5	3.227029
53	0x42945d84	74.18265
54	0x40fbe82e	7.8720922
55	0x4111d6ed	9.114972
56	0x4294e097	74.43865
57	0x00000000	0.0
58	0x4179fcff	15.624267
59	0x430bb2ff	139.6992
60	0x00000000	0.0
61	0x4125ef61	10.370942
62	0x3c94476d	0.018100465
63	0x41b4fa22	22.622135

batchnorm1.running_var f4 [64]
0	0x00000004	6e-45
1	0x48c7098b	407628.34
2	0x46cd23c6	26257.887
3	0x47079b8d	34715.55
4	0x495645bb	877659.7
5	0x4210ce93	36.201733
6	0x00000004	6e-45
7	0x48bcb43b	386465.84
8	0x00000004	6e-45
9	0x4230a6fb	44.163067
10	0x00000004	6e-45
11	0x405ab536	3.4173102
12	0x4925ab37	678579.44
13	0x49060364	548918.25
14	0x00000004	6e-45
15	0x48646687	233882.11
16	0x00000004	6e-45
17	0x475c7018	56432.094
18	0x3e18c3e4	0.14918476
19	0x4845264f	201881.23
20	0x479d21eb	80451.836
21	0x00000004	6e-45
22	0x41826dc0	16.303589
23	0x00000004	6e-45
24	0x42875ea7	67.68487
25	0x00000004	6e-45
26	0x487b3f41	257277.02
27	0x42f7ff5d	123.99876
28	0x48836eb2	269173.56
29	0x00000004	6e-45
30	0x415ebee0	13.9216
31	0x45845bec	4235.49
32	0x3cb166f0	0.02165553
33	0x3df2cdb1	0.11855639
34	0x49521c0f	860608.94
35	0x490df068	581382.5
36	0x496ee90a	978576.6
37	0x472315da	41749.85
38	0x490ecb82	584888.1
39	0x41e1874d	28.191065
40	0x00000004	6e-45
41	0x48ca9343	414874.1
42	0x47ad1576	88618.92
43	0x4955992d	874898.8
44	0x4850974d	213597.2
45	0x00000004	6e-45
46	0x00000004	6e-45
47	0x41ba5bd8	23.294846
48	0x41b1bc63	22.216986
49	0x458762c3	4332.345
50	0x00000004	6e-45
51	0x41e99696	29.198528
52	0x420791cf	33.89239
53	0x4815994a	153189.16
54	0x4262dc55	56.715168
55	0x45e35bf4	7275.494
56	0x4848e272	205705.78
57	0x00000004	6e-45
58	0x46a12a0f	20629.03
59	0x49359b71	743863.06
60	0x00000004	6e-45
61	0x41e2ddae	28.358242
62	0x3d8297c0	0.063766
63	0x4298498f	76.14367

batchnorm2.weight f4 [128]
0	0x3f7f4131	0.9970885
1	0x3f80ee54	1.0072732
2	0x3f808f38	1.0043707
3	0x3f7fac5f	0.9987239
4	0x3f811c06	1.0086677
5	0x3f803793	1.001696
6	0x3f7df308	0.9919896
7	0x3f7e512e	0.9934262
8	0x3f80aac3	1.0052112
9	0x3f803ab2	1.0017912
10	0x3f818765	1.0119444
11	0x3f82d1ff	1.0220336
12	0x3f8061f1	1.0029889
13	0x3f819458	1.0123396
14	0x3f800724	1.0002179
15	0x3f7ec27f	0.9951553
16	0x3f7d59c0	0.9896507
17	0x3f80cf89	1.0063335
18	0x3f7f65cc	0.99764705
19	0x3f7f2f7b	0.99681824
20	0x3f803c70	1.0018444
21	0x3f80839a	1.0040162
22	0x3f7f81be	0.99807346
23	0x3f800a33	1.0003113
24	0x3f7d8d2b	0.9904353
25	0x3f7c3374	0.9851601
26	0x3f814879	1.0100242
27	0x3f7d934d	0.9905289
28	0x3f82b800	1.0212402
29	0x3f81ff57	1.0156049
30	0x3f801632	1.0006773
31	0x3f822049	1.0166103
32	0x3f80f1b4	1.0073762
33	0x3f851391	1.0396596
34	0x3f8020bc	1.000999
35	0x3f7ef2dc	0.99589324
36	0x3f80fec9	1.0077754
37	0x3f7e54ff	0.99348444
38	0x3f7f6071	0.9975653
39	0x3f8057fd	1.0026852
40	0x3f7fec9a	0.999704
41	0x3f80d25d	1.0064198
42	0x3f80b264	1.005444
43	0x3f7ddbf4	0.99163747
44	0x3f80bce7	1.0057648
45	0x3f7ed131	0.9953795
46	0x3f7f676b	0.9976718
47	0x3f80de90	1.0067921
48	0x3f7fb69b	0.9988801
49	0x3f7e15fe	0.9925231
50	0x3f8071f1	1.0034772
51	0x3f82c915	1.0217615
52	0x3f8010a7	1.0005082
53	0x3f80d002	1.0063479
54	0x3f7ed4cd	0.9954346
55	0x3f839789	1.028062
56	0x3f7e2591	0.9927607
57	0x3f7ff8f1	0.9998923
58	0x3f8019d3	1.0007881
59	0x3f82494e	1.0178621
60	0x3f8299ef	1.0203227
61	0x3f80b295	1.0054499
62	0x3f81186a	1.0085576
63	0x3f7fb79e	0.9988955
64	0x3f7f0004	0.996094
65	0x3f7f9bc0	0.9984703
66	0x3f82ec0d	1.0228287
67	0x3f816262	1.0108149
68	0x3f8013b8	1.0006018
69	0x3f806c1a	1.003299
70	0x3f823760	1.0173149
71	0x3f7e6d54	0.9938557
72	0x3f80e415	1.0069605
73	0x3f7f6708	0.9976659
74	0x3f81e80a	1.0148938
75	0x3f80b27f	1.0054473
76	0x3f824f08	1.0180368
77	0x3f83b228	1.0288744
78	0x3f7f77e5	0.9979232
79	0x3f7ffb40	0.9999275
80	0x3f803829	1.0017139
81	0x3f803408	1.0015879
82	0x3f807ff0	1.0039043
83	0x3f7f4d02	0.9972688
84	0x3f7f30a4	0.99683595
85	0x3f83cca8	1.0296831
86	0x3f7fc112	0.99903977
87	0x3f7b8adf	0.98258775
88	0x3f7e3eb7	0.99314445
89	0x3f7e0029	0.99218994
90	0x3f805b68	1.0027895
91	0x3f7fe738	0.99962187
92	0x3f7fef50	0.99974537
93	0x3f81b0f5	1.0132128
94	0x3f7d1230	0.98855877
95	0x3f7dec87	0.9918904
96	0x3f80a6e5	1.0050932
97	0x3f819d0e	1.0126054
98	0x3f7e4d1e	0.9933642
99	0x3f81c159	1.013713
100	0x3f8252ee	1.0181558
101	0x3f835d3b	1.0262827
102	0x3f822f71	1.0170728
103	0x3f81f553	1.0152992
104	0x3f808765	1.0041319
105	0x3f7f0a58	0.9962516
106	0x3f7e2804	0.9927981
107	0x3f80e154	1.0068765
108	0x3f7f77df	0.99792284
109	0x3f7ffb14	0.9999249
110	0x3f82af45	1.0209738
111	0x3f80369b	1.0016664
112	0x3f7f8b1d	0.99821645
113	0x3f7f0127	0.99611133
114	0x3f800984	1.0002904
115	0x3f86a8f0	1.0520306
116	0x3f7cbc6e	0.9872502
117	0x3f7d95c0	0.99056625
118	0x3f81b9c4	1.0134816
119	0x3f7dba5c	0.99112487
120	0x3f80a3ff	1.0050048
121	0x3f7ce2ab	0.9878337
122	0x3f80cd2a	1.0062611
123	0x3f7fa28e	0.99857414
124	0x3f819f54	1.0126748
125	0x3f801e82	1.000931
126	0x3f820c06	1.0159919
127	0x3f7dd3f7	0.9915156

batchnorm2.bias f4 [128]
0	0xbd862c90	-0.06551468
1	0xbd8a1e75	-0.067440905
2	0xbd8e375c	-0.06944153
3	0xbd8c2a50	-0.06844008
4	0xbd8d3f91	-0.0689689
5	0x3d89f937	0.06736987
6	0x3d84d32c	0.0648559
7	0xbd81e0de	-0.06341718
8	0x3d8909fa	0.06691356
9	0xbd912a43	-0.07088139
10	0x3d8bc81a	0.06825276
11	0x3d93ea1b	0.072223864
12	0x3d88412a	0.06653054
13	0x3d8bda29	0.0682872
14	0xbd8d53f5	-0.06900779
15	0x3d85757d	0.0651655
16	0xbd08d429	-0.033405457
17	0xbd872c09	-0.06600196
18	0x3d85c304	0.06531337
19	0xbd8aae8a	-0.06771572
20	0x3d857cf9	0.06517977
21	0x3d8966a9	0.06709034
22	0xbd8ced53	-0.068812035
23	0x3d8d134b	0.068884455
24	0xbd858adc	-0.06520626
25	0x3d30e07e	0.043182842
26	0xbd878fff	-0.06619262
27	0x3d85fb62	0.06542088
28	0xbd913df3	-0.07091894
29	0x3d9f98e3	0.07792833
30	0x3d87d10d	0.0663167
31	0xbd8b9af9	-0.06816668
32	0x3d8a0ac8	0.067403376
33	0xbd9e9119	-0.07742519
34	0xbd83a4ae	-0.064278945
35	0xbd8208b6	-0.06349318
36	0x3d9968bf	0.07490682
37	0xbd853bf4	-0.06505576
38	0x3d851cc2	0.06499626
39	0x3d8c6bc4	0.06856492
40	0xbd85ca73	-0.06532755
41	0x3d8b076d	0.06788526
42	0xbd8d34cf	-0.06894838
43	0x3c0d600e	0.008628858
44	0x3d8a704c	0.067597
45	0x3d8353bc	0.064124554
46	0x3d879806	0.06620793
47	0x3d877790	0.066146016
48	0xbd8433cb	-0.06455191
49	0xbd8113a9	-0.06302578
50	0x3d885514	0.06656852
51	0xbda9c974	-0.08290377
52	0xbd850e5c	-0.064968795
53	0xbd88f527	-0.06687384
54	0x3d857ea4	0.065182954
55	0xbd969e62	-0.07354428
56	0xbd83a61b	-0.064281665
57	0x3d8517b7	0.06498664
58	0x3d8aa2c5	0.06769327
59	0xbd912184	-0.07086471
60	0x3d8d94cd	0.06913147
61	0x3d899e0a	0.06719597
62	0xbd8e8c40	-0.06960344
63	0xbd85d890	-0.06535447
64	0x3cfbf4cb	0.030756375
65	0xbd861e2c	-0.065487236
66	0xbd900c3e	-0.07033585
67	0xbd9604a1	-0.07325102
68	0x3d8b472f	0.068006866
69	0xbd883341	-0.06650401
70	0x3d88988c	0.06669721
71	0x3d87c641	0.06629611
72	0xbd85e167	-0.06537133
73	0x3d872f2d	0.06600795
74	0xbd89ecb7	-0.06734603
75	0xbd9034ad	-0.07041297
76	0xbd980ec0	-0.07424688
77	0xbda6be0c	-0.08141717
78	0xbd815df4	-0.06316748
79	0xbd87ab3b	-0.066244565
80	0xbd8ae85f	-0.067826025
81	0x3d8b4f79	0.068022676
82	0x3d8c4eb1	0.06850947
83	0x3d82c1be	0.0638461
84	0x3d8262f5	0.06366531
85	0x3d99107d	0.07473848
86	0x3d893486	0.06699471
87	0xbd7d41e5	-0.06183042
88	0xbd6d835b	-0.0579866
89	0x3d782fed	0.06059258
90	0xbd88c24f	-0.066776864
91	0x3d870366	0.06592445
92	0xbd88780f	-0.06663524
93	0xbdbf5e22	-0.09344126
94	0x3d81fbff	0.063468926
95	0x3d8519a3	0.064990304
96	0x3d8be310	0.06830418
97	0xbd8bf4d7	-0.06833809
98	0x3d88c59a	0.066783145
99	0xbd8d5dd8	-0.06902665
100	0x3d8b5592	0.068034306
101	0xbd8dd67c	-0.06925675
102	0xbd86d36e	-0.06583296
103	0x3d9c70dc	0.07638714
104	0x3d88c97e	0.066790566
105	0x3d83e672	0.06440438
106	0xbd645dae	-0.055753402
107	0x3d894e5d	0.067044
108	0xbd88ddfd	-0.06682966
109	0x3d8b00a6	0.06787233
110	0xbd9de560	-0.077097654
111	0xbd8677c3	-0.065658115
112	0x3d8c2e6d	0.068447925
113	0x3d85a07b	0.0652475
114	0x3d887238	0.066624105
115	0xbdc34a6f	-0.095356815
116	0xbd72e5e4	-0.059301272
117	0xbd70cff7	-0.05879208
118	0xbd8a9891	-0.06767381
119	0xbd83a144	-0.06427243
120	0x3d8cc23e	0.06872986
121	0xbd7cb278	-0.06169364
122	0x3d888a51	0.06667007
123	0xbd891c19	-0.06694812
124	0xbd8e8e15	-0.06960694
125	0xbd825907	-0.06364637
126	0x3db39676	0.087689325
127	0x3d86face	0.06590806

batchnorm2.running_mean f4 [128]
0	0x3e6d9988	0.23203099
1	0x3df71d73	0.12066164
2	0x3e873118	0.26404643
3	0x3e10997e	0.14121053
4	0x3df4dbdd	0.11955998
5	0x3e3181d9	0.17334689
6	0x3e7a7177	0.24457346
7	0x3ef5af9e	0.47985548
8	0x3e0285d3	0.12746362
9	0x3dd8318e	0.10556327
10	0x3e1e230e	0.1544306
11	0x3dc086f7	0.094007425
12	0x3e1a05df	0.15041302
13	0x3e3d3932	0.1847885
14	0x3e5f8300	0.21827316
15	0x3eade6e2	0.33965212
16	0x3e917e96	0.2841689
17	0x3e3e5484	0.18586928
18	0x3e387995	0.1801513
19	0x3e22fab0	0.15915942
20	0x3e01819d	0.126471
21	0x3e2f5689	0.17122854
22	0x3eaf4bdc	0.34237564
23	0x3df9e070	0.12201011
24	0x3e91afff	0.28454587
25	0x3e01c68b	0.12673394
26	0x3df4cb79	0.11952872
27	0x3ef9d2c4	0.48793614
28	0x3e2b70e1	0.16742279
29	0x3d765088	0.060135394
30	0x3e2b99e5	0.16757925
31	0x3db5a00e	0.08868419
32	0x3d6dc5a4	0.058049813
33	0x3da04308	0.07825285
34	0x3e0fc54a	0.14040104
35	0x3ecc045c	0.39847076
36	0x3e7d610d	0.24744053
37	0x3e2e547f	0.1702442
38	0x3e9024d3	0.28153095
39	0x3e306e01	0.17229463
40	0x3ed28c8a	0.41122848
41	0x3ebfa3b0	0.3742957
42	0x3eac6585	0.33671203
43	0x3e5a6393	0.21327047
44	0x3dfc6925	0.12324742
45	0x3da74c0e	0.08168803
46	0x3c608957	0.013704619
47	0x3e855920	0.2604456
48	0x3e01810c	0.12646884
49	0x3d8dfce9	0.069330044
50	0x3ee6583e	0.44989198
51	0x3e0b9cd0	0.13634038
52	0x3e31b85e	0.17355487
53	0x3e183a58	0.14866006
54	0x3da44f36	0.08022921
55	0x3db5e1ea	0.0888098
56	0x3dc2ccaf	0.095116965
57	0x3e18edd2	0.14934471
58	0x3e115fd0	0.14196706
59	0x3d721f6b	0.059111994
60	0x3e098cb3	0.13432579
61	0x3d8129c9	0.06306798
62	0x3e2ec6b9	0.17067994
63	0x3e01a3f3	0.12660198
64	0x3e647544	0.22310358
65	0x3e1b3d85	0.15160187
66	0x3e106444	0.14100748
67	0x3d94193a	0.07231374
68	0x3e0c0ce0	0.13676786
69	0x3e1da8e9	0.15396465
70	0x3da0943c	0.078407735
71	0x3e31e430	0.17372203
72	0x3e3a96fd	0.1822166
73	0x3e95cb95	0.29256883
74	0x3e53e1c5	0.20691593
75	0x3e005f8e	0.12536451
76	0x3d3488dc	0.04407583
77	0x3d661091	0.056168143
78	0x3e844f11	0.25841573
79	0x3e005bc8	0.12535012
80	0x3e20b638	0.15694511
81	0x3db0120e	0.08597194
82	0x3e3ef98e	0.18649885
83	0x3dd7919e	0.10525821
84	0x3ea71087	0.32629797
85	0x3e12740b	0.1430208
86	0x3e1b482e	0.15164253
87	0x3e246fcd	0.16058274
88	0x3dd1970f	0.1023389
89	0x3e18374a	0.14864841
90	0x3d999b7b	0.07500359
91	0x3deada06	0.11467366
92	0x3e850c61	0.25986007
93	0x3e439e19	0.19103278
94	0x3e218394	0.1577285
95	0x3e335d1c	0.17515987
96	0x3eb32c02	0.34994513
97	0x3e1d371a	0.15353051
98	0x3ebc9c36	0.3683793
99	0x3dfe799c	0.12425539
100	0x3e02914e	0.12750742
101	0x3e0bfee5	0.13671453
102	0x3dbe9dbf	0.093074314
103	0x3e184ca2	0.14872983
104	0x3e9ceb0c	0.30648077
105	0x3d8983c8	0.067145884
106	0x3e95e817	0.29278633
107	0x3e5a6cf2	0.21330622
108	0x3e4804be	0.19533059
109	0x3e9d858a	0.30765945
110	0x3e35f793	0.17770223
111	0x3e43be51	0.19115569
112	0x3e8f1871	0.27948335
113	0x3dd489fe	0.103778824
114	0x3db8d517	0.09025019
115	0x3d57d8e6	0.052697085
116	0x3e1ef3c1	0.15522672
117	0x3dd19928	0.1023429
118	0x3e4afa05	0.19821937
119	0x3e84ad5b	0.2591351
120	0x3e7483a4	0.23878342
121	0x3df271a5	0.11838082
122	0x3d87c4cd	0.06629334
123	0x3e0b5bd8	0.13609254
124	0x3dc972e9	0.098363705
125	0x3e0488b8	0.12942779
126	0x3dedd63e	0.11613129
127	0x3e6feba5	0.23429735

batchnorm2.running_var f4 [128]
0	0x3e0d962c	0.13826817
1	0x3d4099d4	0.047021702
2	0x3e0d00bc	0.13769811
3	0x3da03a3f	0.078236096
4	0x3cf7295f	0.030171094
5	0x3d507326	0.050891064
6	0x3e1b68f7	0.1517676
7	0x3f324625	0.6963828
8	0x3d1d964f	0.038473424
9	0x3d071b55	0.03298505
10	0x3d227986	0.039666675
11	0x3caf3fc5	0.021392712
12	0x3d165d6d	0.03671019
13	0x3da0d2ef	0.078527324
14	0x3e0967be	0.13418481
15	0x3e3c9fa7	0.18420278
16	0x3e9276b2	0.28606182
17	0x3d7d7274	0.06187673
18	0x3d85bab6	0.06529753
19	0x3d84cca2	0.06484343
20	0x3cbfc6eb	0.023410281
21	0x3ded3803	0.11582949
22	0x3e844702	0.25835425
23	0x3ce3e15a	0.027817417
24	0x3e831b09	0.25606564
25	0x3d0d47c6	0.034492277
26	0x3cf2488f	0.029575614
27	0x3efffc6d	0.49997273
28	0x3d244a87	0.040110137
29	0x3c462be8	0.012095429
30	0x3dca8bd8	0.09889954
31	0x3ccc3e03	0.024931913
32	0x3cb02ac4	0.021504767
33	0x3c439b40	0.01193887
34	0x3d48a603	0.048986446
35	0x3efac0cb	0.48975214
36	0x3e334b90	0.17509294
37	0x3d2f8f61	0.042861346
38	0x3e45ee4f	0.19329189
39	0x3d0c2995	0.034219343
40	0x3eb504f5	0.35355344
41	0x3ee784f2	0.45218617
42	0x3e4d283b	0.20034878
43	0x3db2bfdc	0.087280005
44	0x3d373da9	0.044736538
45	0x3cc129a1	0.02357942
46	0x3ab7cd9b	0.0014023067
47	0x3dc37219	0.09543247
48	0x3d6d836c	0.05798666
49	0x3c82d1c2	0.015969161
50	0x3f200eeb	0.62522763
51	0x3d19c7dc	0.037544116
52	0x3d75cf04	0.06001188
53	0x3d471a0d	0.04860883
54	0x3c51fad6	0.012816152
55	0x3d41de63	0.047331225
56	0x3c9c486a	0.019077498
57	0x3d03ff2a	0.032225765
58	0x3da63c00	0.08116913
59	0x3c941a35	0.018078903
60	0x3cfd9ae9	0.030957656
61	0x3c78cebc	0.015186008
62	0x3d978b4e	0.07399617
63	0x3d06ccf2	0.032910295
64	0x3e0d2377	0.1378306
65	0x3d482868	0.04886666
66	0x3d2cf498	0.04222545
67	0x3c498da2	0.012301834
68	0x3d72cb05	0.059275646
69	0x3d5912fa	0.052996613
70	0x3c993a17	0.018704457
71	0x3de4046f	0.11133658
72	0x3d4ceeaa	0.050032295
73	0x3e4f33cf	0.20234607
74	0x3d83722b	0.0641826
75	0x3cd6945e	0.026193794
76	0x3c1456c3	0.009053889
77	0x3c366b11	0.011133925
78	0x3e226f01	0.15862657
79	0x3d465bf6	0.048427545
80	0x3d08b443	0.033375036
81	0x3c9c1260	0.01905173
82	0x3db5e880	0.088822365
83	0x3cb02967	0.021504117
84	0x3eca8a45	0.39558616
85	0x3ccd9ba5	0.025098631
86	0x3cf8a181	0.030350449
87	0x3d3d5826	0.046226643
88	0x3c8ae34b	0.016954085
89	0x3d848b5c	0.06471893
90	0x3ca9eaae	0.020741787
91	0x3d1d2689	0.038366828
92	0x3e3dd9f5	0.18540175
93	0x3d34e9e8	0.044168383
94	0x3d74e483	0.05978824
95	0x3dc964d3	0.09833684
96	0x3ed7e947	0.42170164
97	0x3d73263f	0.059362646
98	0x3e7a4377	0.24439798
99	0x3d173fd1	0.036926094
100	0x3d2018b6	0.039086066
101	0x3d053eb8	0.032530516
102	0x3cf36474	0.029710986
103	0x3d1e5fa6	0.038665436
104	0x3e9214c3	0.28531465
105	0x3cb4ba05	0.022061357
106	0x3e097044	0.13421732
107	0x3de46a15	0.11153046
108	0x3e113d0b	0.14183442
109	0x3e9b20ed	0.30298558
110	0x3d6a9615	0.057272036
111	0x3de1b616	0.11021058
112	0x3e70853f	0.2348833
113	0x3d2af585	0.041738052
114	0x3c9d7303	0.01921988
115	0x3c0a5283	0.008442524
116	0x3d8a91cf	0.06766092
117	0x3d5c463d	0.053777922
118	0x3d843622	0.064556375
119	0x3dadf810	0.0849458
120	0x3de9d910	0.114183545
121	0x3d337aac	0.04381816
122	0x3c88ce22	0.016699854
123	0x3d07846a	0.033085264
124	0x3cedff35	0.029052356
125	0x3cfbd4ee	0.030741181
126	0x3ca6a8cf	0.020344166
127	0x3ddf08a6	0.108903214
