pretrained/trained.pth (torch, 410607 bytes, 15 tensors)

layer1.weight f4 [128, 5]
00000000: 79c1 0dbe 2888 e23d 2846 f8bc d00e 233d
00000010: 00dc 0f3a 2ad2 cebd 5d94 49be 4f7f 4abe
00000020: acf9 f83d 9072 ff3d 9e94 f83d 4438 f0bd
00000030: 26fb c33d 5d80 c8bc 5403 2cbe 905a 2b3e
00000040: 3f59 41be 6315 42be 6cc4 083e f649 92bc
00000050: 8cb3 e83d 164d 233d 126b 42bd 2607 c5bd
00000060: a85c e6bd c94b f33d 4380 d33d 9d07 b33c
00000070: bca9 4cbe 2944 4fbe 9c2f 0cbd 160a 9ebd
00000080: 78d0 ddbc e4be 0fbe c079 87bb b92c 3abb
00000090: a49e 943b 8840 423c 3dfa da3d a1d9 403e
000000a0: 0252 43be b078 27bd 8d2d 4ebe 44c1 84bd
000000b0: 2c9a 563e 1f84 553d ccee 483e ba1c 31be
000000c0: 90c4 31bc a15a cebd e25d d6bd 6cc3 02bd
000000d0: b130 1bbe 20c5 6fbc e0f1 eb3d 71b5 f8bd
000000e0: b225 79bd 05b1 1a3e f8e7 a23d 930e cc3d
000000f0: 4b05 323d 1ed6 4a3e 8878 a9bd b075 733d
00000100: f449 0cbe 52fe 11be a6e5 223e 3c8c 4cbe
00000110: ae2e 503e 40b8 aebd 97bc 0f3e 7fda 923d
00000120: a40e 063e 4216 babd 7a3b 4f3e 4fcc c1bd
00000130: 7fe3 86bd d7e2 803c 33cf 863d c486 09be
00000140: 91f4 e13d b961 a23d aecd 293e c962 da3d
00000150: 2f03 b93d 3130 453e 8be6 66be 1da7 b5bd
00000160: 248e 983d 2588 5d3c a0df b9bb 2049 13bd
00000170: 0c52 20be 06f1 49be 2cc9 30be 300d 5cbc
00000180: 3026 243d c0b8 04be e06f c93d 14a8 113e
00000190: 2a37 ecbd dc9b b0bd b049 b9bd f216 563e
000001a0: fed8 0bbe 6af3 24be 6c8b 17be a357 b8bd
000001b0: 1834 b63d a2b5 4a3e 043a c3bd 8434 45be
000001c0: 31db 54be 6ce9 323e 90b3 d33d d31d 47be
000001d0: 738e 59be 2794 ef3d e16f 01be 1cbb 383e
000001e0: d7fd 56be 5ca8 143e f097 90bd 88d0 103d
000001f0: 4e97 23be 0024 0cbe a495 29bd 149d 3cbd
00000200: 78e7 7a3d f4d5 c43d 2fc9 e73d e5fe 1fbc
00000210: e06b 203e 020e 58bb 2ddc 01be ad77 55be
00000220: 8e95 dfbd fda0 42be 90ff 0c3e 881e a73d
00000230: a610 c3bd 14ae 173e f814 12be 60b4 e93d
00000240: a45d 8cbd e65e 9bbd 0f46 19be 7737 333e
00000250: 6899 6c3d a77f 2e3e 251f 98bd 7135 043e
00000260: a4ee 243e 1c38 553e 98a3 0ebe 7098 debc
00000270: 1aba 3b3e 4f54 52be 9408 9fbd ec00 08bd
00000280: 1950 b1bd 3a4c 8b3c 79a1 253e 879f f5bd
00000290: 58e5 383e 5471 21bd 9986 08be 2b1a 42be
000002a0: 488d b6bd 4036 563e 268b dd3d 142f fa3d
000002b0: 420c 6dbd 221d 2d3d a82f 1abd 171b c43d
000002c0: 3a94 0bbe bc49 9ebd 8f7b bfbd c115 0dbe
000002d0: 4f2d f1bd 26a9 f93d 709a 153e 4c0e a23d
000002e0: d664 993d 863b a53d 6d88 ddbd 8018 a1bc
000002f0: 84bf 3c3e e4b7 423e 4855 523e fd9c d63d
00000300: cd78 d7bd d4ff 9a3d 3868 2cbe bd06 a13d
00000310: cd72 883c 75ab 193e 0139 073e fbea 7abd
00000320: 981a 15be 933a 26be 9e53 d03d 97d3 20be
00000330: dea0 a63d e982 44be 7420 4a3e d76f 27be
00000340: 7991 18be 3841 f13c 748e 433d 9706 fe3d
00000350: e499 64bc d27e 29be dcaa 223e db5a a33d
00000360: 8f19 55be 34b8 51be a4df 803d 1ca7 293e
00000370: 0a0a 353e 9745 03be 9d54 debd 6206 193e
00000380: bd99 353e 05ac b2bd 9ee8 293d d08d b63d
00000390: cc6d 113e 03f8 82bd fae2 b43d 2d2d 9c3d
000003a0: dc92 7bbd 7051 293d d8f6 43be fc21 e43d
000003b0: 631d 283e 39e1 87bd 34b6 3a3e d39e 093e
000003c0: 7cf2 473b 0726 b4bd ab98 5d3e ae17 48be
000003d0: 24d7 103d 2765 433e 8f97 9f3d b5ef 1fbd
000003e0: 370f 223e f5ff 123d 0821 d2bd dde3 423b
000003f0: 6556 0a3e 245e 84bc b6f2 0cbe c03f 18bd
-0.13843335 0.11061126 -0.03030689 0.03980905 0.00054877996 -0.10098679 -0.19685502 -0.19775127
0.12156996 0.12473023 0.121377215 -0.11729482 0.09569387 -0.02447527 -0.16798145 0.16733766
-0.18881701 -0.18953471 0.13356179 -0.017857533 0.11362371 0.039868437 -0.04746539 -0.09620504
-0.112481415 0.11879689 0.10327198 0.021854216 -0.19986624 -0.20240845 -0.03422509 -0.077167675
-0.027076945 -0.14037663 -0.004134387 -0.0028408004 0.004535513 0.011856206 0.106922604 0.18833019
-0.19074252 -0.04088658 -0.20134564 -0.06482175 0.2095725 0.052127954 0.19622344 -0.17296115
-0.010850087 -0.1007588 -0.104671255 -0.03192465 -0.15155293 -0.014634401 0.11520743 -0.12143982
-0.060826965 0.1510659 0.07954401 0.09963717 0.04346208 0.19808242 -0.08274943 0.059438407
-0.13700086 -0.14257172 0.15907916 -0.1997537 0.20330307 -0.08531237 0.14036785 0.07170581
0.13091522 -0.090862766 0.20237532 -0.09462797 -0.0658636 0.015733166 0.06582489 -0.13430315
0.110329755 0.07928795 0.16582367 0.10663373 0.0903381 0.19256665 -0.22548883 -0.08869765
0.07448986 0.013521229 -0.00567241 -0.03595841 -0.15656298 -0.1972085 -0.17264241 -0.0134308785
0.04007548 -0.12961102 0.098357916 0.14224273 -0.11533959 -0.08623478 -0.09047258 0.2090719
-0.13656995 -0.1610848 -0.14799279 -0.090010904 0.08896655 0.1979585 -0.0953255 -0.19258314
-0.2078674 0.17471856 0.10336983 -0.19444971 -0.21245746 0.1169818 -0.12640335 0.18040127
-0.2099527 0.14517349 -0.0706023 0.03535512 -0.15975687 -0.13685608 -0.041402474 -0.04604824
0.061255902 0.09611121 0.113176696 -0.009765361 0.15666151 -0.0032967334 -0.12681647 -0.20846434
-0.10917197 -0.19006725 0.13769364 0.0816012 -0.0952466 0.148125 -0.14265811 0.11411357
-0.06853798 -0.0758646 -0.14968131 0.17501627 0.057763487 0.17040883 -0.07427815 0.12911011
0.16106659 0.20822185 -0.13929594 -0.027172297 0.18332711 -0.20539974 -0.07765308 -0.033204004
-0.086578555 0.017004121 0.16174878 -0.11993318 0.18056238 -0.03941472 -0.13332595 -0.18955295
-0.08913666 0.20919132 0.10817556 0.12216011 -0.057873018 0.04226411 -0.037643105 0.095754795
-0.13630763 -0.077289075 -0.09349739 -0.1377783 -0.1177622 0.12190466 0.14609694 0.07912883
0.07489936 0.08067994 -0.10817037 -0.019665003 0.18432432 0.19015461 0.20540345 0.10479162
-0.10521088 0.075683266 -0.16836631 0.07862613 0.016656304 0.15006812 0.13205339 -0.06125925
-0.14560926 -0.16233282 0.10172199 -0.15705715 0.08136152 -0.19190563 0.19738942 -0.16351257
-0.14899243 0.029450044 0.047743276 0.12403601 -0.013952706 -0.16552284 0.1588549 0.07976314
-0.20810531 -0.20480424 0.06292656 0.16567653 0.17679611 -0.12819515 -0.108559825 0.14943841
0.17734428 -0.08724216 0.041481607 0.08913767 0.1420204 -0.06394961 0.08832355 0.07625804
-0.061419353 0.04133743 -0.19137132 0.111392945 0.1641746 -0.06634755 0.18233567 0.13439493
0.0030509522 -0.08796316 0.2164027 -0.19540283 0.035361424 0.19081555 0.077925794 -0.03904696
0.15826117 0.03588863 -0.102602065 0.0029737868 0.1350952 -0.016158171 -0.13764462 -0.03717017

layer1.bias f4 [128]
00000000: 6a07 a43e 4e93 5fbe 2af9 76be de59 d93e
00000010: a374 0cbe eec6 d03c c075 0b3e 5914 643e
00000020: f418 dfbd 5a7f d5bc ce79 3bbe 988f adbe
00000030: 2467 38be 3025 fabc 4c62 b53e 8a26 dd3e
00000040: 5f3f babe b953 ba3e 60fb 98be d857 e2bd
00000050: 80b3 963d a0b7 113c fa8a a23e b56f 43be
00000060: 54ab 30be 59e0 a4be c719 c63e 3863 17be
00000070: d038 c13e c441 e4be 9130 a4be b6c9 d7be
00000080: 789a 03be 54d7 143e eee4 fe3d 4ac0 94be
00000090: 7888 98bd 1c80 863c d4e9 973e cb1e bd3d
000000a0: e057 e43e b05d bf3e 7e2c ab3e 69e1 a73e
000000b0: 59bf a5be acf3 dcbe 7a0e 9bbe 7097 15bd
000000c0: 6a57 a6be 37ce 633d df34 8f3e 6082 37be
000000d0: 30a4 9cbe 889c 3f3e 805a 61bc b031 b03d
000000e0: 57b5 6fbd 8872 b73e 48d8 893d e488 e43e
000000f0: a06a 3c3e 16de ba3e 3950 a7be 229a 5b3e
00000100: 0951 c9be 0d49 a03e 4348 073e be89 233e
00000110: b171 9f3d 2182 193e ab5b 3a3e 9a59 4bbe
00000120: 7684 cc3e 243b 6fbe 62bf 543e ceca d0bd
00000130: fd03 d73e 3001 5ebd e3d1 76be f699 c0bd
00000140: 1d2a c33e c118 a43d d622 d83d ff0b e33e
00000150: f0f7 a53e af61 46be d4af 0b3e 705f df3d
00000160: af23 03be f82c cd3c e1a8 cbbe c8cf aebe
00000170: ed87 953e 064c d2be 5d69 2ebe 8eb4 293e
00000180: 4c9d 973e 7805 1dbd 78d1 3abd dc93 9cbe
00000190: d431 40be 0590 62be f2a2 ae3e a6c1 7bbe
000001a0: 5a36 953e 5dda 47bd 0023 b53e 05b7 193e
000001b0: ba4b 8f3e 1348 b0be 4c65 a13e 385a 8f3e
000001c0: 5f7f d23c 78fa 4b3e 8cb5 8cbe 4020 aabb
000001d0: b445 4b3e f31e 6bbe 7bab 9cbe 1b6a 293d
000001e0: 27de 033e f4f5 b4bd 34b3 1b3e 0a2e 3fbe
000001f0: 44a6 033e 384e d9bd 804d 473b 8c72 6ebd
0.32036906 -0.21833536 -0.24118486 0.42451376 -0.13716368 0.025485482 0.13619137 0.22273387
-0.10893431 -0.026061703 -0.18308184 -0.33898616 -0.18008095 -0.03053531 0.35426557 0.43193465
-0.36376473 0.36392 -0.29879284 -0.11051911 0.07358456 0.008893877 0.31746656 -0.19085582
-0.17252856 -0.32202414 0.38691542 -0.14783943 0.37738657 -0.44581425 -0.32068303 -0.4214608
-0.12851894 0.14535266 0.124460086 -0.29052955 -0.07447904 0.01641851 0.29670584 0.09234389
0.44598293 0.37376165 0.33432382 0.32789162 -0.3237255 -0.43154657 -0.30284482 -0.036521375
-0.32488567 0.055616584 0.27970025 -0.17920828 -0.30594015 0.18712056 -0.013754487 0.08603227
-0.05852255 0.35829568 0.067307055 0.4463569 0.18400049 0.36497563 -0.32678393 0.21445516
-0.39319637 0.31305733 0.1321116 0.15970513 0.07785357 0.14991046 0.18199031 -0.19858399
0.3994481 -0.23362404 0.20776132 -0.10194932 0.4199523 -0.05420035 -0.24103503 -0.09404366
0.38118067 0.08012534 0.105535194 0.4434509 0.32415724 -0.19373201 0.13641292 0.10906875
-0.12806581 0.025045857 -0.39777282 -0.341429 0.29205266 -0.41073626 -0.1703238 0.16572782
0.29612195 -0.038335294 -0.04560992 -0.30581558 -0.18769008 -0.22125252 0.34108692 -0.2458559
0.2914303 -0.04879223 0.35378265 0.15011223 0.27987462 -0.34429988 0.31522596 0.2799852
0.0256955 0.19919765 -0.2748226 -0.005191833 0.19850808 -0.22961025 -0.3059958 0.041360956
0.12877713 -0.08835974 0.1520508 -0.18669906 0.12856394 -0.10610622 0.0030411184 -0.05821471

layer2.weight f4 [256, 128]
00000000: 880d 1cbd 65ce 0ebe cf1e bb3d 01bb 85bc
00000010: bb0d 023e 9b15 753b 6ca8 9ebd 4111 cf3b
00000020: 7a5c 8fbd fa4f d33d c3c2 d5bb 2bb2 fb3d
00000030: 9bb7 033e f567 a0bd e9c0 ec3c 46f1 263c
00000040: e34f 99bc 3b94 85bd 44ad bbbd 560e 8a3d
00000050: 9a91 043e eb9c aa3c c5ce 09be e984 5bbc
00000060: b1df bfbd 8a2c 8fbd 5614 6e3d 9ba8 89bd
00000070: 20c1 ad3d 9b5c f7bc fea7 40bd 8408 08bd
00000080: 2485 a03d 839c b73c c9c3 863d 83de f3bd
00000090: 934e 5a3c 2e0e 063d b190 a53d c211 89bd
000000a0: 0099 603d 2da5 a3b9 1878 a5bb 0383 d7bd
000000b0: fd3b a03d 6622 1cbd 9bb4 5bbd 398d 6abc
000000c0: b168 7bbd 59f5 aebd aa68 bbbd fe27 c03c
000000d0: 2f5c c1bd 5bf6 a33d 8c96 3b3d adb0 73bd
000000e0: d600 353c 0e9a 0cbd 3bd9 033e 5f5e f33c
000000f0: c873 353d 6b9b 0e3e ce3f 8a3d b61d c53c
00000100: 24f7 12bd 7015 da3d e1f1 433d 983a 933d
00000110: 9ca2 1d3c eb56 453d 8c02 e3bd 843a c23d
00000120: bce5 01bd 7ec7 28bc 05b2 bcbd 8d9b d3bd
00000130: e7ec 9dbd 794e 7dbd c227 e73c d9c3 65bd
00000140: 276d 09bd b4e7 b13c 3034 ba3c 144a d0bd
00000150: 9771 093e d7cb babc e752 e1bd e069 89bd
00000160: b651 263d e798 c23d 5216 01be 269d bfbd
00000170: bda7 bf3d 4a61 b6bc 54e3 f9bc 354a 923d
00000180: 007a e2bc 2a73 993d 0d1f 95bc f336 9cbc
00000190: d9a3 443d 628a 093d 58d8 63bc 4904 dbbd
000001a0: 810d 353d ace5 d13b ba9f e03d 8d8c 0cbc
000001b0: a516 ccbd ea6e 95bd 1d6c b93c 4a28 c13d
000001c0: 653a b3bd 2000 6abd 13b4 873d 2500 c03c
000001d0: af38 db3b d12c 90bc a969 a5bc 0aa6 763d
000001e0: ff14 67bd 677c f63b 7cd7 f23c 6c03 04be
000001f0: dfae f83d 8a86 e6bd a620 123e 0868 84bd
00000200: c322 c3bc a1bc 8dbc 8ac5 e83d e32a 80bd
00000210: a32f 013d 41cf c5bd 45ba 4ebd 7594 e93d
00000220: 624c 0f3d 3df8 e73c 3106 483c 7da1 bd3d
00000230: ef5d b7bc 7389 6f3c 6ea1 563c c48f 953c
00000240: 7b10 833d ef95 463d e57e db3d 09be 863d
00000250: 7d13 003d 1e51 013d cbea 383d 87c8 b3bd
00000260: 334b 9a3d fac6 5c3d 20e1 8abd 9d33 cd3d
00000270: ca30 cfbd 347f a5bd f49b dbbd 2708 57bd
00000280: 8e13 b3bc 1764 5c3c 7a24 ac3d 30ac cabc
00000290: 2c4f 4dbd 105a 25bd e0c4 143d a618 f83d
000002a0: f67d f03d a9ca 823c 70c2 b6bd 06d3 9bbd
000002b0: 9e2c 183d d385 31bd 3389 2bbd 048c de3d
000002c0: 561f edbd 9745 e93d 8952 483d 7be6 09be
000002d0: eb9e 80b9 c28d ab3c bbf8 083e 7750 06bd
000002e0: 612c ef3b ec79 ffbd efa0 90bd 6b5b e8bd
000002f0: 7bdc b43c 1a34 bfbc 810e f5bd 89c1 a93d
00000300: 7dbf 3a3d 8a6c b3bd bffe b1bd 9295 c83d
00000310: 87cd 8bbd 5b88 0a3d 7a7b e8bd aaed 57bc
00000320: 86da b7bd baf6 9a3d 76c2 243d 8f7a a43d
00000330: 7c70 e43d 408b cebd 8d2b 91bc 1a64 bc3d
00000340: 8ea8 41bd 7dd3 c43d 7066 0a3d c83c c33d
00000350: 80af dabd 7552 ac3b 841b c93d fbe5 eb3d
00000360: 3989 4cbd 725f b63d 12bf abbd 85cd afbb
00000370: 34b0 5ebd 9a18 f0bd 7d6c dbbd 791b 9a3d
00000380: e59e 683d a13d 19bc b45a e83d 3847 f73c
00000390: e769 56bd e040 1e3d ccd3 3dbd 5a0e a1bd
000003a0: 3878 4abd c26b 653d 0256 eabd 1a59 df3d
000003b0: 323a 2d3d 143f 5539 9d56 f73d 844f b73d
000003c0: b25c de3d bb86 c23d 6d05 9a3c d392 d9bd
000003d0: 8277 943b 2e7d 7cbd 8225 f8bd 4711 9d3b
000003e0: 7e63 543d b80a ab3d c555 953a 68bd b8bd
000003f0: 384d 50bd d835 b13b 2698 66bc d209 863d
-0.038098842 -0.13945921 0.09136736 -0.016324522 0.1270055 0.003739691 -0.07746968 0.0063191955
-0.070000604 0.10317989 -0.0065234615 0.12289842 0.12863009 -0.07832328 0.02890058 0.01018936
-0.01871485 -0.06522413 -0.09163907 0.067410156 0.12946168 0.020826777 -0.13457783 -0.0133983875
-0.093688376 -0.06990917 0.058124863 -0.06721612 0.08484101 -0.030195525 -0.04703521 -0.033211246
0.078378946 0.022413498 0.06580312 -0.11907675 0.013324398 0.032728367 0.08084238 -0.0669284
0.054833412 -0.00031212848 -0.0050497167 -0.105230354 0.07823942 -0.038118742 -0.053639036 -0.014315897
-0.06137914 -0.0854289 -0.091508225 0.02345657 -0.09441411 0.08005973 0.04579787 -0.059494663
0.011047563 -0.034326605 0.12875836 0.029708086 0.04429987 0.13926475 0.06750451 0.024062019
-0.035880223 0.1064862 0.047838096 0.0718891 0.009621289 0.048178595 -0.1108447 0.09483817
-0.031713232 -0.010301469 -0.09213642 -0.10332403 -0.07711201 -0.061842415 0.0282172 -0.056094978
-0.03355136 0.02171693 0.022729963 -0.10170379 0.13422237 -0.022802277 -0.110021405 -0.06709647
0.04060527 0.0950182 -0.12606171 -0.093561456 0.093581654 -0.022263188 -0.030503906 0.0714306
-0.027646065 0.07492669 -0.018203283 -0.01906917 0.04800782 0.033579238 -0.013906561 -0.10694177
0.04420233 0.006405553 0.109679654 -0.008578432 -0.099652566 -0.07296546 0.02263456 0.09431513
-0.08751372 -0.057129025 0.06626143 0.023437569 0.006690107 -0.017599495 -0.020191984 0.06021694
-0.056416508 0.007522154 0.029643767 -0.1289193 0.12142729 -0.1125613 0.14270267 -0.06465155
-0.023820287 -0.01730186 0.113658026 -0.0625818 0.03153957 -0.09658671 -0.05047061 0.11405269
0.034984954 0.028316611 0.012208507 0.09259317 -0.022383658 0.014620173 0.013100011 0.01825703
0.06399628 0.04848283 0.107175626 0.06579215 0.031268585 0.0315715 0.04514579 -0.08778482
0.07533874 0.053900696 -0.067812204 0.1001961 -0.10116728 -0.08080903 -0.10723105 -0.05249801
-0.02185991 0.013451598 0.08405395 -0.024740309 -0.050124332 -0.040369093 0.036320567 0.12114076
0.11742775 0.015965777 -0.08923805 -0.07608609 0.037151925 -0.043340515 -0.04187889 0.108665496
-0.115782425 0.11390226 0.048906837 -0.13466828 -0.00024532466 0.020941619 0.13376133 -0.03279158
0.0072989915 -0.124744266 -0.07061946 -0.113455616 0.02207779 -0.023340274 -0.11965657 0.08288867
0.045592774 -0.087609366 -0.08691167 0.09794153 -0.068263106 0.033821445 -0.11351676 -0.013179222
-0.08977227 0.075665906 0.040224515 0.08031189 0.11154267 -0.100851536 -0.017720962 0.0919878
-0.047279887 0.09610651 0.0337891 0.095330775 -0.10678005 0.005258853 0.09819701 0.11518475
-0.049935553 0.089049235 -0.08386053 -0.005365076 -0.05436726 -0.117234424 -0.10714052 0.07524771
0.05679216 -0.009353072 0.11345425 0.030185327 -0.05234709 0.03863609 -0.046344563 -0.078640655
-0.049431056 0.05601097 -0.11442186 0.10905667 0.042291827 0.00020336761 0.12077067 0.08950713
0.10857524 0.09498354 0.018801415 -0.106237076 0.004530848 -0.06164282 -0.12116529 0.0047933194
0.051852696 0.08351654 0.0011393359 -0.090205014 -0.05085489 0.00540803 -0.014074361 0.06544842

layer2.bias f4 [256]
00000000: d15c d1bb a4f7 7f3d 5a72 293d fb17 16bd
00000010: 05fa 5cbd 8d0f a53d a115 0d3d 598e b13d
00000020: 119e d03b a44b b2bc 5bc5 ce3c 5837 ccbc
00000030: c5bd 9f3b 9f90 54bd 463f 7d3d 18b4 a3bc
00000040: 4ce4 bcbd 6b23 c8bd 2e5d a13d c77d c93b
00000050: ad4d eb3c cd5c 73bd cfaf 90bd daa3 bc3d
00000060: 5a7d 323c 30a1 8d3d 1da7 5e3d 02ad 96bd
00000070: 4010 da3c e79e afbd df5a 363d 0bb1 4cba
00000080: 1939 00bd 6f9d 83bd 8f3b 77bd 9fdd 643d
00000090: ba3f b93c 56a3 813d 6884 833d 17aa 973d
000000a0: d3d8 36bd 9dc6 93bc bc66 483d 2b5b a93c
000000b0: e852 a43c 129f 7cbd d22b c93d 4373 0bbd
000000c0: dc36 803c 1d78 443d df50 5b3a 3613 9bba
000000d0: 6a1f 38bd d6db a0bc dc53 f83b 5979 a4bd
000000e0: 0ff4 8d3d c57e 753a 8a50 19bb c1ae b23c
000000f0: 13ca 9bbd 56f3 913d 48f6 c0bc 68b9 723d
00000100: 05ad 97bd e43a 1cbd 6db4 393d c074 89bd
00000110: d5f9 0e3d 941a acbc 52ec e4bc eea4 f43c
00000120: b56d 0cbd f21d 833d 1826 58bd 1e8a 153c
00000130: 1dcf 6bbc a6de a83d 2520 333d fb06 603d
00000140: 5c61 753d e278 823d 3f5c ce3b 4eda b2bd
00000150: d856 7ebd ee59 59bd 80ae b0bd 78ac 0dbd
00000160: 92ef 9a3d bf20 8ebd 1d5d a7bd 236b 2a3d
00000170: 7160 e93c cc86 593d 6da4 09bd 8b55 a33d
00000180: 2608 86bd 5f9c 51bd 44b7 38bd dca3 633d
00000190: 5d69 72bd 09be 56bd 465a 423d a31d 7aba
000001a0: f64e 493d 20d1 7ebd 7d25 873d 720e 24bd
000001b0: e2ac bd3c 0afb ef3c 8773 7a3d 1eff 6dbd
000001c0: ab36 793c 22ad f0bb 42f2 86bd 5aca 1b3d
000001d0: 332a 78bd 08f4 bcbc 6812 75bd 6bf6 6e3d
000001e0: 5567 80bd e44a ec3b e01c 12bd 9e08 97bd
000001f0: 16cb 5bbc ec35 4c3d 40af d83c 3cc1 f23c
00000200: ae97 0e3d 05a1 c0bb cac2 8f3b 681d 883d
00000210: bab8 653d 5cae a4bd 4bd6 933d a24d afbd
00000220: 7427 cebc 6c4e 2cbd 99ac 2dbc c34a a33d
00000230: 0a3e ad3d 97e7 3c3d 715a 703c 64e3 c8ba
00000240: 404c b73c 88c8 653d 61a1 4fbd 6b67 153d
00000250: 21b8 9c3b 1031 813d 0c5e 2cbd ac80 fb3b
00000260: e803 6e3d b0b6 a1bd 4c6d 683d 7fc9 82bc
00000270: c791 25bd e2bc 2bbd 4893 213d 9133 be3c
00000280: b5e8 bb3c 0e5f 6cbd b390 87bd 7d67 9c3d
00000290: 23b9 663c e2da ee3c a946 84bd f678 babd
000002a0: 8ecb 92bd 7115 9cbc 7978 813c 08d4 28bd
000002b0: b80a acbd 501b 51bd 04c9 723d ab32 0bbd
000002c0: 603d 8cbd 6808 8a3d fed6 acbd 440e a63d
000002d0: 868d 71bd 45ab e33c 8bb0 5abd 8fdb 793d
000002e0: 63cd 563d f1b3 293d ba2b 383c 6068 3c3d
000002f0: f5fa 383d a575 6fbd dab2 b0bd 0928 413c
00000300: 3dbd c43c c57a fc3c 5a20 913d 285b a5bc
00000310: 80c7 9d3d b880 07bd 62be 4ebd 7b4e 15bd
00000320: 5a75 ad3a 2e7c 2a3d fa41 3d3d dff8 223c
00000330: eebe ad3d 300b b63b 7f90 b63d de32 863d
00000340: c88f ff3b 099c 92bd 5804 35bd 3e39 7c3d
00000350: 83eb 3ebd 4cfa 393d e04a 813d d7cd 803d
00000360: 1204 18bd 8f8f 6abd 5ddd c53c e20b 8f3c
00000370: d23e a73d 21f4 c7bc dc4e 2a3d d2ff 62bd
00000380: 5235 923d 5ca0 7dbd 89db 31bc 89a2 553d
00000390: fef7 133c 485d b63c 4a33 ab3c b17b 94bd
000003a0: ee44 30bd 7b53 87bd d505 94bd 511d 90bd
000003b0: 04e3 c93a 8b34 d53b 6764 18bd 4591 08bd
000003c0: f142 37bd 04ca a83c 8b35 6fbc 237f 8e3d
000003d0: d3d8 5f3c c8b4 92bd 0f78 7bbd 4392 87bd
000003e0: c304 4c3d 521b 703d e4d6 e3bc cd0f 0f3d
000003f0: 61da 363c c860 42bc 3c07 653d 0673 803c
-0.0063892384 0.062492028 0.04136882 -0.036643963 -0.053949375 0.08059607 0.034444455 0.08669729
0.0063664992 -0.021764584 0.02524059 -0.024928734 0.004874917 -0.051895734 0.06182792 -0.019983336
-0.09223232 -0.097723804 0.07879101 0.006149027 0.028723562 -0.059414674 -0.07064783 0.0921094
0.010894144 0.0691551 0.05435859 -0.07357217 0.026619077 -0.0857523 0.044520255 -0.0007808364
-0.031304453 -0.064265124 -0.060359534 0.055875417 0.022613395 0.06329982 0.06421739 0.07405489
-0.044640373 -0.018039042 0.0489261 0.020673355 0.020059064 -0.06167514 0.09822811 -0.03404547
0.015651159 0.04796611 0.0008366238 -0.0011831287 -0.044951834 -0.019636076 0.007578356 -0.08030958
0.06931316 0.00093648984 -0.0023393952 0.021811845 -0.07606902 0.07126491 -0.023554936 0.05925885
-0.07406048 -0.0381421 0.045338083 -0.067117214 0.034906227 -0.021008767 -0.027944718 0.0298638
-0.034284312 0.06402196 -0.052770704 0.009127168 -0.014392641 0.08245592 0.043731827 0.054694157
0.059907302 0.06370713 0.0062976177 -0.087330446 -0.06209454 -0.05306428 -0.08627033 -0.034588307
0.07565226 -0.069398396 -0.08172057 0.04160608 0.02848837 0.053107068 -0.033604074 0.079753004
-0.06544523 -0.051174518 -0.04509665 0.05557619 -0.059182514 -0.052427325 0.047449373 -0.00095411594
0.04914757 -0.062211156 0.06598947 -0.04005284 0.023153726 0.02929451 0.06114533 -0.058104627
0.015210788 -0.007344858 -0.06589176 0.038034774 -0.06058712 -0.023065582 -0.059832007 0.05834047
-0.06269709 0.007211076 -0.03567207 -0.073746905 -0.013415119 0.04985611 0.026450753 0.029633157
0.03481262 -0.00587857 0.0043872343 0.06646234 0.056084372 -0.08041069 0.072186075 -0.08559729
-0.025165297 -0.042066976 -0.0106002325 0.07973244 0.08459099 0.0461193 0.01467 -0.0015326557
0.022375226 0.056099445 -0.050691012 0.03647558 0.004782692 0.06308186 -0.042081878 0.007675251
0.058109194 -0.07896173 0.05674486 -0.015965221 -0.040422227 -0.04192818 0.0394471 0.023217948
0.022938112 -0.05770784 -0.06619396 0.07636926 0.014082226 0.029157106 -0.0645879 -0.09105103
-0.07167731 -0.019053193 0.015804516 -0.041217834 -0.08400482 -0.051051438 0.059273735 -0.033983868
-0.06847644 0.067398846 -0.08439444 0.0810819 -0.058972858 0.027791629 -0.05339102 0.061000403
0.052441966 0.04143137 0.011240894 0.045997977 0.045161206 -0.058461804 -0.08627863 0.01178933
0.024016017 0.03082026 0.07086249 -0.020185068 0.07704067 -0.03308174 -0.050474532 -0.036451798
0.0013233826 0.041622333 0.0462055 0.009947031 0.084836826 0.005555533 0.08914279 0.06552671
0.0077991225 -0.071586676 -0.044193596 0.061578028 -0.04661132 0.045404717 0.063131094 0.06289261
-0.037113257 -0.057265814 0.024153406 0.01746172 0.08166279 -0.024408402 0.041579112 -0.05541975
0.07139076 -0.06192051 -0.010855564 0.05215696 0.009031294 0.022261277 0.02089848 -0.07250155
-0.043034486 -0.066077195 -0.07227675 -0.07036842 0.0015402739 0.0065065078 -0.037205126 -0.033341665
-0.044741575 0.020604141 -0.014600168 0.06957843 0.013662535 -0.071633875 -0.061393794 -0.06619694
0.04980923 0.058619805 -0.027812429 0.03492718 0.011160464 -0.011863895 0.055915102 0.015679847

layer3.weight f4 [256, 256]
00000000: 3d88 76bd 2bbe bd3d d505 edbb 1cc0 bebd
00000010: e2e6 363d b5a5 2a3d 8714 b9bd 3f56 103d
00000020: 4cb1 d23d c950 4d3d 99dc 803d ed56 b03c
00000030: 78fb b23d 2d82 b83d fd24 04bd e8ca 6cbc
00000040: b695 d9bc 3fe3 c2bd 6d53 70bd 14cd 843d
00000050: b6c6 8c3d a024 a4bd eeb7 323d 9265 2ebd
00000060: dbc2 acbd a26d a9bd e24f 8abb 728d 8f3d
00000070: 3bcd 6cbd 8e61 da3d 203e 013d 6576 95bd
00000080: bf37 163d 2c85 3cbd dafa 903d 31c7 4a3d
00000090: 7597 193d 4b3d c9bd 4ccc d33d 68e1 85bd
000000a0: 21a6 6ebd 47bc cb3d c826 b3bd 9226 74bd
000000b0: b431 073d db2e a1bd b265 d8bc 5a1a b53d
000000c0: 3fff 81bd dd74 dcbc 7c63 663d c31b 3cbd
000000d0: 9615 d73d cd07 d63d 6ffd 5b3c 3983 d3bd
000000e0: db6b b8bc 71c4 91bc 6573 d1bc e720 bb3c
000000f0: 61f3 d1bd d8e0 623c e026 9dbd 9c8e ea3a
00000100: 754d b43c 4973 303d efa9 95bc 187e 0c3d
00000110: 9c20 873c 7c8e 913c e91c 9f3d 7bc3 8ebd
00000120: 0490 25bd 3751 0abd 26ef b1bd c6cf d33d
00000130: 1486 833d b4dc 7b3d b927 9c3d dbe0 ccbc
00000140: 0998 bbbd ad26 a83d 09f4 1cbd 6d65 39bd
00000150: 6964 493b 8f3f 713d b8e3 ba3b 6a29 283d
00000160: 8d5b c1bc f3db 22bd 01fa 76bb 82bf 83bd
00000170: 7187 7e3b 08a5 8abc 091e 723d d2d9 c3bd
00000180: 4d6e 9b3d 49b7 e7bb aa8b 08bd e80f 3bbd
00000190: 7d76 bfbd 6734 30bd 4a86 8b3c 708a 8d3b
000001a0: 0a93 1cbd 7cf7 973c a20b e03c f824 22bd
000001b0: 93c7 413c 0deb c13d 7527 e7bb 87c8 873d
000001c0: ffd1 223d b9e0 e8bb b3a1 afbd 6295 9e3d
000001d0: 9356 3e3d ab3d 513d c3e0 80bd d72e db3d
000001e0: e508 e23d 2216 123c ce5d 493a 5ea6 363d
000001f0: 1e85 27bd 41f6 473d 1087 4bbd 9ca9 61bc
00000200: f1ee 543c c113 7f3d 8b71 373b 0c89 5c3d
00000210: 6b86 bfbd 28b2 aa3c 77ae 12bc bd27 c0bd
00000220: cc36 be3d 8e92 a7bd e880 ca3c 0cb3 933d
00000230: 3094 c3bd 2f07 d0bd d18c 683d ee70 c4bd
00000240: 8cb9 83bd 1540 9bbd d592 b9bd f3bc 1d3b
00000250: bdd1 a1bb 0daf 5abd 4919 4cbd 494e 903b
00000260: 67d0 38bd f909 15bd f383 723d 3403 a73b
00000270: 233e c33b 94a4 bf3d 1f91 b6bc e41b c1bd
00000280: 415e c93c 6730 493d 9800 153c 56b8 b03d
00000290: 0680 243d 1800 513d afb4 243d dcb4 2abd
000002a0: 82e8 71bd 8d70 0dbd 9f4a 77bc 6100 a83d
000002b0: 02d6 073d 0445 bd3d 6764 b5bc e0a5 ad3d
000002c0: abe8 9bbd 4408 60bd 1df2 9e3d e55c d6bd
000002d0: 78d6 1cbd d1b4 b5bc 3280 58bd dd2e 9b3d
000002e0: 2249 1d3c bb9e c6bd d095 d3bd c1e2 22bd
000002f0: d95e 693d 1101 83bd ea0d 81bd 3ddb babd
00000300: 089b 3ebd edc0 113d 89fd c9bd 92e6 02bd
00000310: 491d 9ebc 097c b1bc 5202 8fbc e1b4 81bd
00000320: 64a7 9a3b 7fa3 c33b 2da1 9c3d 26fb c8bd
00000330: 5e8a bcbc 393f 5fbd 4c0a 893d 3820 b8bb
00000340: 3dd3 63bc 56e1 75bc 9333 c1bd 895d d3bb
00000350: d4c9 253c 2948 20bd 4e8b 94bb 084b bf3d
00000360: 42e3 3a3d aff2 c6bd 260a d33c c1f1 4abd
00000370: 6e59 3bbd 9ec3 9b3d ba2c 803d 3279 ea3c
00000380: 124d 0bbd aaea cd3d 05ea bbbc e021 3d3c
00000390: 55c1 57bd eb80 c3bd b1a9 d93d acc4 b13d
000003a0: 7fc1 8f3d b28e cf3b 9f7a 903d a655 7cbd
000003b0: cda7 32bd cece b53c 52a9 943d f72d 2fbd
000003c0: 7925 ebbc 83cd f33b 1e6e a53a 911a df3d
000003d0: 10fd 603a 6a24 03bd 6469 633d db4d 31bd
000003e0: 17cd 60bc 0a58 1c3d 549f c73d 9c3b 90bb
000003f0: 6c29 363b 4292 bd3d 5fe7 963d 9d86 98bd
-0.06018852 0.09264787 -0.0072333612 -0.09313986 0.04465378 0.041661937 -0.090371184 0.0352385
0.10287723 0.05012587 0.06292076 0.021525824 0.0873937 0.09009204 -0.032261837 -0.0144526735
-0.026560646 -0.09516 -0.05867331 0.06484428 0.068738386 -0.08014798 0.04363244 -0.042577334
-0.08435603 -0.08272864 -0.0042209486 0.070094004 -0.05781291 0.10663138 0.031553388 -0.072979726
0.036674257 -0.04602544 0.07079096 0.04950637 0.037497956 -0.09826144 0.10341701 -0.065371335
-0.0582639 0.099480204 -0.08747631 -0.059607096 0.033006385 -0.07870265 -0.02641568 0.08842917
-0.063475125 -0.026911194 0.05624722 -0.045924913 0.10502164 0.10450707 0.0134271225 -0.10327763
-0.022512367 -0.017793866 -0.02556772 0.022842837 -0.10251499 0.013847552 -0.076734304 0.0017895284
0.02200959 0.043078694 -0.018269507 0.03429994 0.016495042 0.017768137 0.07769186 -0.06970879
-0.040420547 -0.03376886 -0.08688192 0.10342364 0.06422058 0.061489776 0.07624764 -0.025009563
-0.09159858 0.08210502 -0.038318668 -0.045262743 0.0030730015 0.058898505 0.0057034157 0.04105512
-0.023603225 -0.03976054 -0.0037685635 -0.064330116 0.0038838054 -0.016924396 0.059110675 -0.0956303
0.075893976 -0.00707141 -0.03333632 -0.045669466 -0.09348772 -0.043018725 0.017031807 0.0043194816
-0.038226165 0.018550627 0.027349297 -0.039586037 0.011827367 0.094686605 -0.007054264 0.066300444
0.03975105 -0.007106867 -0.085757636 0.07743336 0.046469282 0.0510842 -0.0629287 0.10702293
0.11036853 0.00891641 0.00076815195 0.044592254 -0.040898435 0.04881883 -0.049689353 -0.013773348
0.012996421 0.0622747 0.002799126 0.053841636 -0.0935181 0.020836905 -0.0089527285 -0.093825795
0.092877954 -0.0818225 0.02471967 0.07211885 -0.09549749 -0.1015762 0.056774918 -0.09591852
-0.06431875 -0.07580582 -0.09061209 0.0024068921 -0.004938333 -0.053389598 -0.0498288 0.0044038636
-0.045120623 -0.036386464 0.059207868 0.0050968174 0.005958335 0.09357563 -0.022285996 -0.09429148
0.024581077 0.049118426 0.00909438 0.08628909 0.040161155 0.05102548 0.040211376 -0.041676387
-0.059059627 -0.034531165 -0.015093475 0.08203197 0.033163078 0.09241679 -0.022142602 0.08478904
-0.07612737 -0.054695383 0.07761023 -0.10466937 -0.03829047 -0.022180947 -0.05285663 0.07577298
0.009599956 -0.09698244 -0.10331309 -0.03976703 0.05697522 -0.06396688 -0.06301482 -0.09123848
-0.046534568 0.03558438 -0.09862811 -0.03195817 -0.019301074 -0.02166559 -0.017457161 -0.06333328
0.0047196615 0.005970418 0.07647929 -0.09813528 -0.023015197 -0.054503653 0.06691417 -0.005619075
-0.013905344 -0.015007338 -0.09433665 -0.0064503592 0.01011892 -0.039131317 -0.004533208 0.09340483
0.045626886 -0.09714257 0.025761675 -0.04954696 -0.045739584 0.076056704 0.06258531 0.028622244
-0.034009047 0.10054524 -0.022938738 0.011543721 -0.05267461 -0.095460735 0.10628069 0.0868009
0.07019328 0.0063341493 0.07054638 -0.06160512 -0.04361706 0.022193339 0.07258858 -0.042768445
-0.028704392 0.0074402704 0.0012621318 0.10893739 0.0008582631 -0.03201715 0.05552043 -0.04328714
-0.013720772 0.038169898 0.09747186 -0.0044016372 0.0027795685 0.09256412 0.07368349 -0.074475504

layer3.bias f4 [256]
00000000: db50 ed3c 4236 66bd 9696 7fbd 2ff7 743d
00000010: 60f8 5b3b 1eab 4fbd d84d 643b c89a a2bb
00000020: f080 41bc caba fbbb 3840 a2bc 0cf8 323d
00000030: 7384 80bc 8284 e83b 688e 0bbc 4ec7 03bd
00000040: b1ad 77bd 44f0 c13a af31 293d 78d5 ea3c
00000050: e910 5abd 6571 d73c c122 b5bc 858e 383c
00000060: 647d 3a3d 4e38 273d fed3 2ebd ae01 9d3c
00000070: 1b17 373d 5f49 6ebd 068c 243d 5aea cfbb
00000080: 13f4 18bc 01ce 2ebc a39c 7dbd aaf3 58bd
00000090: 7380 53bd 5b09 55bd 5009 1c3d 21ac 90bb
000000a0: 23e9 67bd 7e10 0f3c f309 993b 902c de3c
000000b0: 7379 3bbc e9ef 223b 7e9b e5bc 8e5d 01bd
000000c0: 05fa 483d 34f8 12bc 3158 3c3d ba37 77bb
000000d0: efe8 75bc 397c 0fbc 7bc9 54bd 4e97 83bc
000000e0: b1be d7bc 22de f3bc 7b87 1abc eed4 fa3c
000000f0: f4dd 2ebd de61 4a3c 5666 9ebc f3b2 f83b
00000100: b229 6abd 1ea9 a03c eb3d fe3c 25f4 ecbc
00000110: 510d 52bd 5c45 f23b 5d8e b2bb 7328 c43b
00000120: 86a3 553c c2b8 3d3d 7d9e 0c3c 9c52 81bc
00000130: a0d4 b1bc 89f8 e1bc f690 0d3d 605e 1abc
00000140: fa24 81bd 2605 fa3c 3d36 e0bb e999 50bd
00000150: 9750 6f3b 570e 02bc 1a7a 453c 3cca d9bc
00000160: efae c33c 83bf 843c cdc3 67bc b2a4 493d
00000170: c784 503d 6f63 ff3c 2569 8d3b c233 e2bc
00000180: 1697 36bd 9f28 88bc c4e5 32bd f63f d7bc
00000190: 28a8 15bc c9d5 9bbc 38aa 35bc 4d0e 253d
000001a0: 7874 0e3d c661 ffbc e6c0 22bc 7484 423d
000001b0: bdfc 243d 5c21 b53c f0a1 73bd 56c8 2e3d
000001c0: 51f6 1abd 2e3b 2b3d f7aa 22bd 98d8 efba
000001d0: ac4f 0abd ab51 83ba 4bbc 1bbd 0534 85bc
000001e0: 8d24 253a 93c4 a1bb 6cdf f03c 08be 5ebd
000001f0: c83e 10bc 9dfe 0a3c 8096 93bb 2b7f 5dbd
00000200: 40b4 663d 6172 0abd a40c 363d 4d2a 353d
00000210: 2731 dabc 0973 d5ba 094c 05bd 24e5 01bd
00000220: f0aa 763c 75c5 38bd 3da0 08bd cafd 95bb
00000230: ac38 cb3a 144e 283c 0d1f 403b be46 eabc
00000240: d452 4cbd d236 5abd f960 203d dab9 fd3c
00000250: 172b 2b3d 6bda 1bbd 6043 83bc d1c4 aabc
00000260: f675 693d 4d0c 10bd 8c82 55bd 5580 1dbd
00000270: 4b7e 48bd 7932 71bd ebeb ac3c 1bff d33c
00000280: fa3a 383d ce5b 11bd 4973 20bd 8568 06bd
00000290: 9148 9fbb e883 ba3c 0913 5f3c 3a65 bbbc
000002a0: f030 903c 259a c4bc ffd6 043d 05df 5cbd
000002b0: 5287 6b3d f5cf 8c3c 96ef f0bc 2c33 543c
000002c0: c91d a53c ea4a 78bd cce2 5abd 948c 233c
000002d0: c18f 2abd 121e 213d 97fa 5d3d f4d5 aa3c
000002e0: ca46 f1bc 4812 51bd 77bc 61bd 9b32 413d
000002f0: e770 ff3c ad8b 263d 567c 3cbd 6ed3 293b
00000300: 2645 623d 38bc 36bd 4580 0c3d 02eb 5dbd
00000310: b3a7 843c 160c e5bc 1396 4f3d 7a95 99bc
00000320: adc7 f439 2103 7dbc be3e 423b c6e2 733d
00000330: ad20 103d 024e 023d 711e 54bd cfd6 3a3d
00000340: 989f aa3b ba0e 89bc 6484 373c f783 373d
00000350: 37e7 5ebd 57c8 b43c c59a 19bd 1664 373c
00000360: d409 6b3d c5c7 443b ed2d a2bc bca0 033d
00000370: 5646 0ebd 3e50 bd3c f35a 3a3d 05d4 f9bc
00000380: c6fa c3bc e8ec 4ebd d1cb 78bd ea58 b53c
00000390: 3e7a 0abd e78b 213d 0f8a 183d 8fa8 6c3d
000003a0: fd21 b939 74e5 393d 492d 2fbd aa3e f83c
000003b0: bfa4 6c3d 3cde a03b 1af4 2f3d df98 e33c
000003c0: bbbb dd3b f31a 183c 665d e7bc 03da c03b
000003d0: 6742 113d c9a2 f6bc 77ab 043d c54b 0fbd
000003e0: 6f79 2d3c 2e8d 57bc 6453 67bc 224f 3cbd
000003f0: cc65 53bd 6387 34bd 74be 5dbd 8d43 d2bc
0.028969219 -0.056204088 -0.06239947 0.059806045 0.003356479 -0.0507003 0.0034836438 -0.004962299
-0.011810526 -0.007682179 -0.019806013 0.043693587 -0.015688157 0.0070958743 -0.008517839 -0.032172494
-0.06046838 0.0014796336 0.041307148 0.028666243 -0.053238783 0.026299188 -0.022111299 0.011264448
0.045529738 0.04082518 -0.04268264 0.01916584 0.04469977 -0.05817544 0.0401726 -0.0063450756
-0.009335536 -0.010669232 -0.06191696 -0.05296675 -0.05163617 -0.052010875 0.03809482 -0.0044150506
-0.05661882 0.008731959 0.0046703755 0.027120858 -0.01144253 0.0024862236 -0.028028246 -0.03158336
0.049066562 -0.008970309 0.045982543 -0.0037722425 -0.015009149 -0.008757644 -0.05194996 -0.016063359
-0.026336046 -0.029769007 -0.009431715 0.03061911 -0.04269214 0.012352435 -0.019335907 0.007589692
-0.05716867 0.019611891 0.031035384 -0.028925011 -0.05128223 0.007393522 -0.0054491 0.0059862672
0.013039475 0.046318777 0.008582708 -0.015786462 -0.021707833 -0.027584331 0.034562074 -0.009421915
-0.06305881 0.030520033 -0.006842403 -0.05092803 0.003651654 -0.007937989 0.012053037 -0.02658569
0.023887126 0.016204601 -0.014145804 0.04922933 0.050907876 0.031175343 0.0043155127 -0.02761257
-0.04457768 -0.016620932 -0.043676153 -0.026275616 -0.00913433 -0.01902284 -0.011087947 0.04029684
0.034779042 -0.031174552 -0.009933686 0.0474896 0.040280093 0.022110634 -0.059480608 0.042671524
-0.037832562 0.041804485 -0.039713826 -0.0018298803 -0.033767387 -0.0010018846 -0.038021367 -0.016260156
0.0006299697 -0.0049367636 0.02940341 -0.054380447 -0.008804031 0.008483556 -0.004504025 -0.054076355
0.056324244 -0.033800486 0.04444565 0.044229794 -0.026634766 -0.0016284893 -0.032543216 -0.031712666
0.015055403 -0.045110185 -0.03335594 -0.004577373 0.001550456 0.0102725215 0.0029315383 -0.028598186
-0.04988368 -0.053274937 0.03915498 0.03097241 0.04178914 -0.038050096 -0.016023338 -0.020845803
0.056997262 -0.03516798 -0.052126452 -0.038452465 -0.048948567 -0.058886025 0.021108588 0.02587848
0.04497812 -0.035487942 -0.039172444 -0.03281452 -0.0048609455 0.022767976 0.013615378 -0.022875417
0.01760146 -0.023999283 0.0324316 -0.053923625 0.0575021 0.017189005 -0.029411118 0.012951653
0.020155804 -0.06061832 -0.053438947 0.009982247 -0.041641 0.039335318 0.05419406 0.020853974
-0.0294527 -0.051042825 -0.055111375 0.0471674 0.031181766 0.04066055 -0.046017013 0.0025913375
0.055241726 -0.044613093 0.034302015 -0.0541792 0.016193246 -0.027959865 0.05068023 -0.018748034
0.00046688077 -0.0154426405 0.0029639448 0.05954244 0.035187412 0.031812675 -0.051786844 0.045615014
0.0052070133 -0.016730655 0.011200998 0.044803586 -0.054419722 0.022068186 -0.037501115 0.011193296
0.05738242 0.0030026298 -0.01979729 0.03213571 -0.034735046 0.023109552 0.045496892 -0.030496607
-0.023923289 -0.0505189 -0.06074125 0.022137124 -0.033807985 0.039440062 0.037241038 0.057777938
0.00035311273 0.04538484 -0.042767797 0.030303318 0.0577743 0.004909305 0.042957403 0.027782856
0.006766764 0.009283769 -0.028242778 0.005885364 0.035463717 -0.030106919 0.032390084 -0.03498437
0.010588034 -0.013156218 -0.014119003 -0.045973904 -0.051610753 -0.044074427 -0.05413671 -0.025666976

layer4.weight f4 [1, 256]
00000000: e03d 8fb9 d595 e83d b211 113e 9f28 adbc
00000010: d3c3 e7bd 824d edbd f0af 0c3d b589 bc3d
00000020: e37f e53d f74f 263d 3ecf 053e ca91 ef3d
00000030: 6d09 67bc 26b6 42bd 1750 e3bd e23c 9ebc
00000040: 0f9f babc 5433 17bd b222 e6bb a935 babd
00000050: 23de bbbd 4b29 c63d 2e90 a8bc d9d0 1a3e
00000060: 0c97 76bd d69f 7abd 2315 883c 215f 6c3d
00000070: 8a42 153e 6ae7 853d acc8 b0bc 4dd5 883d
00000080: 6f9e 943d f887 4d3d e1b9 a93c c7e5 03be
00000090: f2e3 12be 2ea2 f13c 7703 adbd 1950 913d
000000a0: d228 063e 97db f8bd 4d72 8ebd 28be b0bd
000000b0: 847f 4d3c 7207 bf3d 7e64 be3b 5338 13be
000000c0: 577b f03c 7b75 d83c dd0c dcbd 2a57 e9bd
000000d0: d724 273d 9c01 5a3c 5d2b b6bd ff0b 1b3e
000000e0: 7553 203e a858 f8bd c552 debd 4857 28bd
000000f0: 6bb8 ffbd 1130 aabd f7cc 1ebd f371 1b3e
00000100: c91d 073e 7b69 e0bd 6cf5 41bd b7f6 20bd
00000110: 1828 81bd 30c4 e8bc 3389 253e 2ca8 6abd
00000120: b1e2 0a3d ef8b 593d 14a8 e43d 4c1b dabd
00000130: f12d 153e 72bb cb3d 5e9f aebc b6f3 01be
00000140: c167 cb3d 5b56 0bbe 2ff3 133d 9c44 e0bc
00000150: 30ec ef3c 405a 04be 8fb1 0cbe 27b2 7fbd
00000160: c5a4 303c 7cf0 e2bd 6503 1dbd cd6f 91bd
00000170: c827 0a3e 44e5 153e 50c9 46bd 3c72 3f3d
00000180: 0b95 59bd 8139 b63d 0e4b 393d a25a f5bd
00000190: caf6 43bd f558 573d 6297 bdbc e2aa 563d
000001a0: 0ceb 43bb fd11 cabd 6051 42bc f4a6 c8bd
000001b0: 70d7 f83d 7c89 523d 0d2d e9bd 19c2 343d
000001c0: e66d 3bbd 3afd df3c be93 083d a67b 683d
000001d0: b11a dbbd 791b 613d 146c e6bd 54cd e83d
000001e0: a9ad fc3d 8c11 a8bd a8f4 0dbe 78c4 94bd
000001f0: 6c49 ca3d b1bf 813d 87f0 ac3c f1d2 093d
00000200: 4339 fabc 72c4 233d b2f9 e8bd 3ade 073e
00000210: 6475 123d 5a28 253d ef60 e7bd e202 953c
00000220: bb75 cf3d 6ad3 b13d 907b cf3c 5b06 1b3e
00000230: a566 fbbd 85bc f8bd df32 64bd 3280 6c3d
00000240: 3b27 b8bc 1860 53bd 5f82 14bd 5062 94bd
00000250: c5a1 5ebd dd29 4abd 123a 54bc 5eb6 40bd
00000260: d5f5 0b3e fabc efbd 342c bbbd 77d8 ca3d
00000270: 2cdc c73d 58cb 8f3c 2891 be3d 7c75 f2bd
00000280: 82cb 93bd 7831 29bd fec1 b3bd 4e23 11be
00000290: 12fc 003e 1aaf 1d3e 4773 fdbc 9575 02bc
000002a0: f5ce 08bd 8fdf 22bd c181 a83d a1ad 34bd
000002b0: 8977 9ebd 9af0 123e 13a2 c4bd a909 163e
000002c0: d7c1 893d 87f2 ec3d 9e00 30bd 15be ea3a
000002d0: d716 0e3e f77c dbbd dc6e 19be 37fc 87bd
000002e0: 6907 e4bd 6cd4 843d 7bdf 633c 245f 1cbe
000002f0: 8e63 3a3c f4f3 d93d 0b87 cbbd 44f8 bc3d
00000300: 71a5 b1bd 1f28 29bd 4a74 e4bd 94c6 ffbd
00000310: 5985 a43d d029 d73d 0c38 8d3d 7e52 073e
00000320: a816 cfbd a4dd 233e 2ad1 5a3d 9dfd 153e
00000330: a666 dcbd e643 423d 5b9f cbbb 1390 babd
00000340: ab1b 6dbc c799 c7bd 79d1 103e f6e0 e23c
00000350: 3960 2b3d 1d8a 14be acd6 2dbc 9b29 c23d
00000360: 7d32 053e 2462 7a3d 2a5f 8c3d 86a2 47bd
00000370: c597 febd 2dfd 903d 2cbf 8f3c 7a53 c2bc
00000380: e6eb 54ba 67c8 0dbe e7ac 07bd c37b 263c
00000390: a339 15be 56b0 123e f0ee 273c 659a 09bd
000003a0: 6fc6 bd3c 41ac af3c ef81 013c 93d7 a2bd
000003b0: 9a9d 123e 1557 fdbd 2c4b 14bb 2dbc 0f3e
000003c0: 8605 293e 20af 08be 6521 9b3d 9f21 ae3d
000003d0: 8973 b7bc f099 7ebd d0d6 a73b 037f 01be
000003e0: c231 273d 7cb7 b6bd 3525 cb3c 11ea 95bd
000003f0: 0c73 e6bd f5bc 903c 88b6 143e c605 df3c
-0.00027321186 0.11356703 0.14166906 -0.021137534 -0.113166474 -0.11587049 0.034347475 0.09205953
0.11206033 0.040603604 0.13067338 0.11697729 -0.014101368 -0.04753699 -0.1109926 -0.01931614
-0.022780923 -0.036914185 -0.007023179 -0.09092266 -0.091732286 0.09675845 -0.020576563 0.15118732
-0.060202643 -0.061187588 0.016611641 0.05770791 0.14576164 0.06538279 -0.021580063 0.06681309
0.07256781 0.050178498 0.020718517 -0.12880622 -0.14344767 0.029496279 -0.084479265 0.070953555
0.13101509 -0.121512584 -0.06955395 -0.086300194 0.012542609 0.09327592 0.0058103194 -0.14376955
0.029355688 0.026423207 -0.10744641 -0.11393578 0.040806618 0.013306048 -0.0889499 0.15141295
0.15656836 -0.12126285 -0.10855631 -0.041098863 -0.12486347 -0.08309949 -0.03876969 0.15180187
0.13194956 -0.10957619 -0.047353193 -0.039297786 -0.063064754 -0.028413862 0.16165619 -0.057289287
0.033907596 0.053111967 0.11164871 -0.10649738 0.14568307 0.09947862 -0.021316227 -0.12690625
0.09931899 -0.13607161 0.03612059 -0.027376465 0.029287428 -0.12925053 -0.13739608 -0.06242576
0.010781472 -0.11081025 -0.038333315 -0.071014024 0.13491738 0.14638239 -0.04853183 0.0467398
-0.053120654 0.08897687 0.045237593 -0.119801775 -0.04784278 0.05257507 -0.023143474 0.05240906
-0.0029894738 -0.09866712 -0.011860222 -0.09797469 0.121504664 0.051400647 -0.11385546 0.04413042
-0.045759104 0.027342428 0.033344023 0.056758545 -0.1069845 0.05495784 -0.11251083 0.11367288
0.123378105 -0.08206472 -0.1386286 -0.07264036 0.09877285 0.0633539 0.021110786 0.033648435
-0.030544883 0.039982267 -0.113757506 0.13268366 0.035756484 0.040321685 -0.112977855 0.018189851
0.10129877 0.08682902 0.025327474 0.15139143 -0.12275437 -0.12145332 -0.055712577 0.057739444
-0.022479644 -0.051605314 -0.036257144 -0.07245314 -0.054353494 -0.04935633 -0.012953298 -0.04704892
0.13667996 -0.11705966 -0.091392905 0.09904569 0.09758791 0.017553017 0.0930503 -0.118388146
-0.072165504 -0.041306943 -0.087772354 -0.14173624 0.12596157 0.15398827 -0.030938758 -0.007962604
-0.033400495 -0.039763983 0.082278736 -0.044110898 -0.07737643 0.14349595 -0.09601226 0.14652123
0.06726425 0.11569696 -0.04296934 0.0017909432 0.138759 -0.107171945 -0.14983696 -0.06639903
-0.11134226 0.06485829 0.013908262 -0.15270668 0.011376275 0.106422335 -0.09937867 0.092270404
-0.086741336 -0.041298028 -0.11154993 -0.12489048 0.080332465 0.10506022 0.06895456 0.13215062
-0.10111743 0.16002518 0.05342213 0.14647527 -0.10761766 0.047428034 -0.006214065 -0.09109511
-0.014471929 -0.097461276 0.14142407 0.02769516 0.041839812 -0.14505811 -0.010610264 0.09480592
0.13007541 0.06112875 0.068540886 -0.04873898 -0.124312915 0.070795394 0.017547213 -0.023721445
-0.000812231 -0.13845979 -0.033123877 0.010161343 -0.14572768 0.1432508 0.010249838 -0.033594508
0.02316591 0.021444442 0.007904514 -0.07951274 0.14317933 -0.12370125 -0.0022627814 0.14036627
0.16506013 -0.13348055 0.07574729 0.085025065 -0.022393959 -0.062158525 0.005122043 -0.12646107
0.040818937 -0.089217156 0.024798015 -0.07320035 -0.11252412 0.017668227 0.14522755 0.027224433

batchnorm1.weight f4 [128]
00000000: 0000 803f 0000 803f d4fa 7f3f 5515 803f
00000010: 7a12 803f 220b 803f 0000 803f ba0a 803f
00000020: 0000 803f d949 803f 0000 803f 47f6 7f3f
00000030: e46c 803f 0000 803f 7b19 803f 0934 803f
00000040: 7636 803f b0a2 803f 0000 803f 0000 803f
00000050: 0000 803f 0000 803f 0000 803f 6921 803f
00000060: 0000 803f 0000 803f 1c19 803f 0000 803f
00000070: 0000 803f 062b 803f a103 803f 0000 803f
00000080: a9fd 7f3f 0000 803f 710f 803f fe37 803f
00000090: f0c5 7f3f f0ee 803f bfde 7f3f 9310 803f
000000a0: 3c1c 803f 0000 803f 522a 803f 6cff 7f3f
000000b0: d524 803f cc0a 803f 1e0f 803f 93d4 7f3f
000000c0: 096e 803f d813 803f 73fd 7f3f 0000 803f
000000d0: 0000 803f 36b6 7f3f 0000 803f 0000 803f
000000e0: 28e6 7f3f 0000 803f 0000 803f 0000 803f
000000f0: 0000 803f 0000 803f 26bf 7f3f 1a20 803f
00000100: effd 7f3f 054f 803f 5b0e 803f 36e6 7f3f
00000110: 5249 803f e406 803f 5aa5 7f3f 391f 803f
00000120: 1f8e 7f3f 3645 803f 5808 803f 6709 803f
00000130: 5e62 803f 0000 803f a609 803f dfe8 7f3f
00000140: a148 803f 84d3 7f3f 0d25 803f 8089 803f
00000150: 0000 803f 0ce3 7f3f 0000 803f 0000 803f
00000160: 128f 803f 5522 803f 19dc 7f3f 0000 803f
00000170: 763c 803f 2333 803f 423d 803f c50b 803f
00000180: 67de 7f3f 0000 803f 0000 803f 0000 803f
00000190: 0000 803f f51a 803f fcd6 7f3f 1328 803f
000001a0: 7c64 803f 8cec 7f3f 3336 803f 6903 803f
000001b0: 4e98 7f3f f60b 803f 8fa9 7f3f 0000 803f
000001c0: deae 823f a1f4 7f3f 0000 803f 0000 803f
000001d0: 21cf 7f3f f6ae 7f3f 2616 803f 85eb 7f3f
000001e0: fddf 7f3f f60d 803f 0000 803f 5225 803f
000001f0: 9cb6 7f3f 0000 803f 0000 803f 96cd 803f
1.0 1.0 0.9999211 1.000651 1.0005639 1.0003397 1.0 1.0003273
1.0 1.0022537 1.0 0.99985164 1.0033231 1.0 1.0007776 1.001588
1.001662 1.0049648 1.0 1.0 1.0 1.0 1.0 1.0010196
1.0 1.0 1.0007663 1.0 1.0 1.001313 1.0001107 1.0
0.9999643 1.0 1.0004712 1.0017087 0.99911404 1.0072918 0.9994926 1.0005058
1.0008616 1.0 1.0012915 0.9999912 1.001124 1.0003295 1.0004613 0.9993374
1.003358 1.0006056 0.9999611 1.0 1.0 0.99887407 1.0 1.0
0.99960566 1.0 1.0 1.0 1.0 1.0 0.99901044 1.0009797
0.99996847 1.0024115 1.0004381 0.9996065 1.0022376 1.0002103 0.9986168 1.0009528
0.99826235 1.0021122 1.0002546 1.0002869 1.0030019 1.0 1.0002944 0.9996471
1.0022165 0.9993212 1.0011307 1.0041962 1.0 0.9995582 1.0 1.0
1.0043662 1.0010477 0.9994522 1.0 1.0018451 1.0015606 1.0018694 1.0003592
0.99948734 1.0 1.0 1.0 1.0 1.0008227 0.99937415 1.001223
1.0030665 0.99970317 1.001654 1.0001041 0.99841774 1.000365 0.998681 1.0
1.0209615 0.9998265 1.0 1.0 0.9992543 0.99876344 1.0006759 0.9996875
0.99951154 1.000426 1.0 1.0011389 0.99888015 1.0 1.0 1.006274

batchnorm1.bias f4 [128]
00000000: f9bd 66bb 4dad 73bb b545 603b f525 373a
00000010: 4087 543b 8d16 363a 60e2 9b3a c05c 82ba
00000020: f367 9c36 79a5 ad3a 1e52 883a 63d4 123c
00000030: 1b51 af3b e960 8c3b 9fd5 e1bb 4648 21bb
00000040: 1ee5 7dba 9594 68ba 3fcd 0d3b dead 1d3b
00000050: 8f35 343b cf6d 7bba 2816 4fbb 49c4 153a
00000060: 489a 5b3b d1ce 753b 7b92 e8b9 0783 a3bb
00000070: fedb c53b 42ee 54ba 27c4 92bb 4d0f f3ba
00000080: 656c 9eb9 ea45 32bb 484c 963a daf4 ccba
00000090: d5c5 4139 6c10 8637 9a3e 203a f736 95ba
000000a0: 9713 03bb 65af 42bb fe3f 84bb a8b0 0abb
000000b0: eed5 413b a3ee d3ba f898 24bb f388 8638
000000c0: 4dcc acbb 77d4 3a3a bff2 d439 e3bd 21bb
000000d0: c074 3bbb abf1 763a 2155 733b 4982 5c3b
000000e0: d813 b53a c2a9 11bc b2e5 f23b f5dc eebb
000000f0: a896 50ba 8eff 393b 33c5 8ab9 4f26 84bb
00000100: 459f cdba 0891 873b 654b 89bb 315c edbb
00000110: 6283 09bb fa77 5cba aa9d 553b 1e15 96ba
00000120: a05e 4c3b 05b8 023b 0671 db3a 00e7 c6b8
00000130: c31b 26bb 7db3 3ab9 bd30 3d3b 0483 113a
00000140: d1d0 64ba 4a79 4e3b 70bc 2dba 56f2 6b3a
00000150: 2601 6c39 ca65 05bb ee3e dcbb 3e64 af3a
00000160: 143f a7bb 351d e2bb 9ae1 de3a bdc9 1fb9
00000170: 17cb c0b9 3f22 bebb 256b 393a 80c2 9c3b
00000180: cb96 6fba 7910 acba 790b 7d3b b412 33bb
00000190: 7878 82bb da81 4bba 71cf 7b3a 3657 fbbb
000001a0: 0f96 66bb 7419 d03b 2bba bfbb 45ec 9dba
000001b0: aed7 973a e147 5aba 3ef5 c83a db44 7e3b
000001c0: 370e 46bb 5357 bf3a 9963 28bb 50bf 873a
000001d0: ecb2 01bb fea7 143b 7f0c eaba 968e 1fbb
000001e0: d970 9d3a 7073 a73a d270 8fb9 bc8b 00ba
000001f0: b792 10b9 2465 59bb 8354 8c3b 8022 17b5
-0.0035208447 -0.0037182153 0.0034221236 0.0006986552 0.0032429248 0.00069461094 0.0011893027 -0.0009945855
4.6612636e-06 0.0013248167 0.0010400449 0.00896177 0.0053502447 0.0042840135 -0.0068919207 -0.0024609729
-0.0009685325 -0.0008872238 0.0021637229 0.0024059932 0.0027497744 -0.0009591253 -0.00315989 0.00057131477
0.0033508707 0.0037507305 -0.00044359625 -0.004989985 0.006038188 -0.00081226614 -0.0044789496 -0.0018543989
-0.0003021687 -0.0027202317 0.0011466825 -0.0015636936 0.00018479612 1.5981692e-05 0.0006112844 -0.0011384179
-0.002000069 -0.0029706594 -0.004035949 -0.0021162424 0.0029576975 -0.0016169142 -0.002511559 6.415127e-05
-0.005273378 0.00071269966 0.0004061665 -0.0024679832 -0.0028603524 0.00094201666 0.0037129598 0.0033646992
0.0013815118 -0.008890571 0.0074126357 -0.0072895237 -0.000795702 0.0028381082 -0.00026468336 -0.004032887
-0.0015687725 0.004137162 -0.004189896 -0.007243656 -0.0020982851 -0.0008410212 0.0032595196 -0.0011450385
0.003118433 0.001994611 0.0016742058 -9.484403e-05 -0.0025346137 -0.00017805207 0.0028868162 0.0005550834
-0.0008728626 0.00315054 -0.00066275056 0.00090006494 0.00022507142 -0.002035486 -0.006721369 0.0013381315
-0.005103955 -0.0069004544 0.001700449 -0.00015238575 -0.00036772407 -0.0058024223 0.0007073156 0.0047839284
-0.00091395964 -0.0013127468 0.0038611575 -0.002732438 -0.003981646 -0.0007763185 0.00096058013 -0.0076703085
-0.0035184657 0.0063506905 -0.0058510504 -0.0012048563 0.0011584663 -0.0008326751 0.0015331877 0.0038798365
-0.0030220875 0.0014598168 -0.002569413 0.0010356698 -0.0019790484 0.002268314 -0.0017856507 -0.0024346462
0.0012011781 0.0012775492 -0.00027359143 -0.00049036345 -0.00013787566 -0.0033171857 0.0042825355 -5.630209e-07

batchnorm1.running_mean f4 [128]
00000000: 0000 0000 0000 0000 dbb5 c242 bb26 843f
00000010: 0eec 4540 8419 ea41 0000 0000 7f03 ce40
00000020: 0000 0000 c88c 6d3d 0000 0000 6d31 0843
00000030: 2f91 a03d 0000 0000 2eeb 0543 4206 c640
00000040: 3537 2243 3d43 8e40 0000 0000 0000 0000
00000050: 0000 0000 0000 0000 0000 0000 e6b9 cd42
00000060: 0000 0000 0000 0000 434d 1743 0000 0000
00000070: 0000 0000 6e93 2043 94a8 1243 0000 0000
00000080: d266 1343 0000 0000 066d 1440 b3c6 523f
00000090: a93c 0443 ae64 4940 56f0 8840 ae6b 1143
000000a0: aaa0 b142 0000 0000 aa5d e43f 210d ca3d
000000b0: 967f 3840 b892 9f42 8fe0 963f 2fbd 2d40
000000c0: 28ba 4743 01be e840 32ab fa42 0000 0000
000000d0: 0000 0000 730c 8a3f 0000 0000 0000 0000
000000e0: bdfd 8942 0000 0000 0000 0000 0000 0000
000000f0: 0000 0000 0000 0000 e097 8d42 d8ff 2643
00000100: 0d29 e142 8465 673f 02de 1540 1ffb 2443
00000110: 49d0 b741 b9b5 e042 5299 0b42 4442 963c
00000120: 8d02 2943 fce2 903d 004a 2243 5511 3c43
00000130: b815 ae3f 0000 0000 0b26 e43e 88a1 2a43
00000140: 5444 4a3d 5ab3 3a43 e1d1 2843 f1cd e03e
00000150: 0000 0000 e533 4a42 0000 0000 0000 0000
00000160: 28a3 d040 6982 1e42 2631 1b43 0000 0000
00000170: 4433 8b3f 3547 bf42 a0a0 3943 600e 1243
00000180: 9eff 0143 0000 0000 0000 0000 0000 0000
00000190: 0000 0000 a0fc 5542 d89f b042 14ba 963f
000001a0: b17b 9041 300e 7140 24e4 e741 a655 8941
000001b0: 20e8 1043 f34d 323f 3aaa 1c42 0000 0000
000001c0: 3bd7 3f3f 19c4 3443 0000 0000 0000 0000
000001d0: 8476 8f42 4c9c 3541 d283 1543 74f9 8a42
000001e0: f2d6 8c42 3338 683f 0000 0000 3676 cf3d
000001f0: b680 e041 0000 0000 0000 0000 0e83 6340
0.0 0.0 97.35519 1.032432 3.0925326 29.262459 0.0 6.437927
0.0 0.057995588 0.0 136.19307 0.078401916 0.0 133.91867 6.188264
162.21565 4.445708 0.0 0.0 0.0 0.0 0.0 102.86308
0.0 0.0 151.3018 0.0 0.0 160.5759 146.65851 0.0
147.40164 0.0 2.3191543 0.8233444 132.23695 3.14677 4.279338 145.42062
88.8138 0.0 1.7841084 0.098657854 2.8827872 79.78656 1.178728 2.7146719
199.72717 7.273194 125.334366 0.0 0.0 1.0785049 0.0 0.0
68.99558 0.0 0.0 0.0 0.0 0.0 70.79663 166.99939
112.58018 0.90389276 2.3416753 164.98094 22.976702 112.35493 34.899727 0.018342145
169.00996 0.07074544 162.28906 188.0677 1.3600378 0.0 0.44560274 170.63098
0.04938157 186.70059 168.81984 0.4390712 0.0 50.55068 0.0 0.0
6.5199165 39.627354 155.19199 0.0 1.087502 95.63908 185.62744 146.05615
129.9985 0.0 0.0 0.0 0.0 53.496704 88.312195 1.1775537
18.060396 3.766491 28.986397 17.16682 144.90674 0.6965019 39.166237 0.0
0.7493779 180.766 0.0 0.0 71.731476 11.350658 149.51492 69.48721
70.419815 0.90710753 0.0 0.10129969 28.062847 0.0 0.0 3.554874
