pretrained/trained.pth (torch, 424051 bytes, 35 tensors)

clinical.layer1.weight f4 [128, 5]
000000 1c 28 98 bc de f4 4e bd 12 58 c1 3d 6e 5c 3b 3e
       -0.018573813 -0.050526492 0.09440626 0.18296978
000010 c1 d9 a7 3d 66 e3 80 bd 99 ac 1c 3d 99 3c f8 3c
       0.0819583 -0.06293373 0.03825054 0.030302333
000020 4d 90 c1 3d 4b 3f 30 3e 8b 99 f1 3c 05 3e 23 3e
       0.09451351 0.17211644 0.02949216 0.15941627
000030 74 bf c4 3d fa 0a a8 bc 02 8c 69 3c 05 fa 3d 3d
       0.09606829 -0.020513047 0.014254572 0.046381015
000040 5b fa 3a 3e 23 f2 7b 3d be 7b 54 be 8f 45 57 3b
       0.18259566 0.061510216 -0.20750329 0.0032847857
000050 53 57 7c 3d 1c 28 4a 3e 11 15 24 3e 86 ce fc 3d
       0.061606716 0.19741863 0.16023661 0.12344079
000060 22 e4 31 be 3b f6 04 be cf f3 98 bd 7c c8 51 be
       -0.17372182 -0.12984554 -0.07468378 -0.20486635
000070 ff 1a 45 be 9c c2 a4 3d e9 e3 7f 3d cf a3 07 3d
       -0.1924858 0.08044931 0.06247321 0.033115204
000080 23 92 14 be e9 7f a8 bd 6c 90 18 3e c7 3c 52 3e
       -0.14508872 -0.08227522 0.14898843 0.20530997
000090 5e 89 5d be f4 34 b3 3d ed c3 fe bb b8 dd 4b 3e
       -0.21634433 0.087503344 -0.007774821 0.19908798
0000a0 b9 5a 89 bd bd 10 80 3c 13 57 2c 3e c8 c0 c9 bd
       -0.06706757 0.015632981 0.16830091 -0.09851223
0000b0 c6 53 4a be 05 fc d9 bc 65 ca ec bd d7 1d 9e 3d
       -0.1975852 -0.02660943 -0.11562041 0.07720535
0000c0 4c 18 12 3e 03 ce 77 3d 6d 30 32 be 49 a1 f6 3c
       0.14267081 0.060499202 -0.17401285 0.030106204
0000d0 56 e1 3d bc 80 a9 24 3e eb 95 5b bc 03 55 59 3e
       -0.011589369 0.16080284 -0.013402442 0.21223836
0000e0 3c ba 3c be 34 14 ba bd 86 c1 0a be 1f 8a 00 3e
       -0.18430418 -0.09085885 -0.13550386 0.12552689
0000f0 dc 10 9b bc cd 6a 27 3c e9 d6 1b 3d 6a f0 21 bd
       -0.018928938 0.010218334 0.03804675 -0.039535917
000100 d5 42 aa bc b9 a8 13 3e 64 90 b9 bd 24 71 3c 3e
       -0.020783821 0.14419831 -0.090607435 0.18402535
000110 7b 59 59 be b4 4a a4 3c 13 b6 02 3e 89 f6 34 be
       -0.2122554 0.020055152 0.12764768 -0.1767217
000120 c4 77 06 3e fd 61 56 be 23 36 2b 3e c9 ad e3 bd
       0.13131624 -0.20935817 0.1671987 -0.11117131
000130 89 2d 02 3d 3e 26 a6 3d c8 4e 02 be b3 02 0c be
       0.031781707 0.08112763 -0.12725365 -0.13672905
000140 8a 2d 0d 3d 51 4b 80 bd a7 9e 44 3d 00 81 9f 3d
       0.034467258 -0.062643655 0.048002865 0.07788277
000150 45 23 47 bd 1f fc 4e be 7a 1b fb bd 53 8c 1e be
       -0.04861762 -0.20213364 -0.122611 -0.15483217
000160 e6 52 ce 3c fa b2 1b 3d 2c 86 9d bd 97 73 58 be
       0.025186013 0.038012482 -0.07691607 -0.21137844
000170 d1 4e 2e be 29 d8 28 be ba 8f 51 be ce fe d5 bb
       -0.17022254 -0.16488709 -0.20464984 -0.006530619
000180 9c 3d 23 bb d2 70 c0 3d 2b 00 01 3e ae 38 78 bd
       -0.0024908548 0.09396519 0.1259772 -0.06060093
000190 99 dd 1e be 4f d2 b2 3d 8f b0 4d 3d cc c7 b6 3d
       -0.1551422 0.087315194 0.050217208 0.08924827
0001a0 ef dc 2d 3c a9 6d 7d 3d 4d a1 49 be af f0 71 3b
       0.010611757 0.06187216 -0.19690438 0.003691714
0001b0 56 fd 19 be 87 63 4d be c0 eb 31 be 12 79 2e 3e
       -0.15038046 -0.20057498 -0.17375088 0.17038372
0001c0 18 4c 6b bd bf 8e 2a 3e ab de 03 be 64 aa fd bd
       -0.057445616 0.16656016 -0.1287791 -0.12386015
0001d0 5d 5d f0 bd 22 32 7f bc fe 2e 58 3e a7 45 fb 3d
       -0.11736558 -0.015575917 0.21111676 0.122691445
0001e0 0c 7e e9 3d a3 4b 71 bd 27 17 0a 3e 28 13 91 3d
       0.11400995 -0.058910023 0.13485394 0.07083732
0001f0 d1 12 34 be 3c 0c 38 be 00 f4 4f 3d 99 f1 72 3d
       -0.17585303 -0.17973417 0.050769806 0.059312437
000200 ce 28 e1 bd 43 10 20 be 13 04 09 bd f9 91 3f 3e
       -0.10994111 -0.15631203 -0.03345115 0.18708028
000210 fa ae fd 3d ec 60 85 bc b9 35 15 3d f0 7b 23 be
       0.1238689 -0.016281568 0.036428187 -0.15965247
000220 d6 03 4d be b8 d6 3c be 4c 65 ce bd 1e 2c f3 bc
       -0.20020995 -0.18441284 -0.100779146 -0.029684123
000230 7f 61 16 3d e9 69 45 3e 09 b7 e9 bd ce e4 79 bd
       0.036714073 0.19278683 -0.11411864 -0.06100922
000240 39 53 dc bc f2 db 09 3e 9f 36 30 3e dd 35 91 3d
       -0.026895152 0.13462809 0.17208336 0.07090352
000250 0a e5 18 3e 0f 93 cb bd c0 b9 ea 3d eb b3 0a 3e
       0.14931121 -0.099401586 0.1146121 0.13545196
000260 20 4b 45 3e d4 7c 00 bb ad fb 1c be 66 91 d6 3d
       0.19266939 -0.0019605653 -0.15330382 0.10476951
000270 d9 1c 1d 3e 9c 13 52 3e fc 6d 38 3e 5b 3a 3e 3e
       0.15343036 0.20515293 0.18010706 0.18576948
000280 b2 06 14 bd 2b ea a1 3d 33 ee 43 be f4 5c 22 3e
       -0.036139198 0.07905992 -0.19133835 0.15855771
000290 e5 5c 16 be e8 c7 a8 bb 96 90 cb 3d c6 40 a7 3d
       -0.14683874 -0.005150784 0.09939687 0.081666514
0002a0 a8 b4 27 3c 00 45 b4 bc 53 1a 25 3e cb 0a 41 3e
       0.010235943 -0.022005558 0.16123323 0.18851773
0002b0 4c 97 09 bd 90 95 2a be 9d 2f 1c 3e 98 20 72 3d
       -0.033591554 -0.16658616 0.15252538 0.059113115
0002c0 a5 72 6a bc 92 82 a1 bd 82 be 5a be f2 52 e5 3d
       -0.01430956 -0.078862324 -0.21361735 0.11197461
0002d0 3d 36 1c bb 4d 02 35 3e 11 6c 90 bd 22 d6 d0 bd
       -0.002383604 0.17676659 -0.07051862 -0.101970926
0002e0 07 96 2a 3d 53 dd 03 3e 00 43 27 3e ce cb e4 3d
       0.041646983 0.12877397 0.16334152 0.11171685
0002f0 8d 81 29 be 23 7c 6c 3d f4 95 93 3c 4f 81 77 bd
       -0.16553326 0.057735574 0.01801584 -0.060426053
000300 c0 3a 92 3d 71 83 5d be 66 35 ce bc ad f9 1d be
       0.07140112 -0.21632172 -0.025171947 -0.15427275
000310 83 fb 4c be 63 e2 08 be 4a f5 dc bd cf 6b 34 3e
       -0.20017819 -0.1336761 -0.10788973 0.1761925
000320 a1 c0 ae bd ec 4c 3c 3e 8a d9 4e 3e dc 9c 61 bc
       -0.08532835 0.18388718 0.20200172 -0.013770308
000330 c3 63 ac bd fc 6c 33 be 86 ae 2c 3e eb 1f a7 bd
       -0.084174655 -0.17522043 0.1686345 -0.08160385
000340 89 34 38 bc d8 be 30 bd 3d ad 1e be 6c 52 22 be
       -0.011242994 -0.043150753 -0.15495773 -0.15851754
000350 fc 62 52 3d b0 9c e0 3d 1f 25 66 3d fe 3a 02 be
       0.05136393 0.10967386 0.056187745 -0.12717816
000360 8c 7d 49 3e 00 06 4b 3d b7 36 a6 bd 39 f1 d0 3d
       0.19676799 0.04956627 -0.08115905 0.102022596
000370 5b f2 1e bd 90 c1 47 be 07 22 12 3d 54 5f 34 3d
       -0.038805347 -0.19507432 0.035676982 0.044036224
000380 3d 91 db 3d a8 ca 7e bd fe ac 3c 3d 4c 69 39 3d
       0.107210614 -0.062204987 0.046063416 0.045266435
000390 84 85 20 3e 97 0a 4c 3e 8e e9 ef bd 4e 3b ff bd
       0.15675932 0.19925915 -0.11714469 -0.12462483
0003a0 6e 66 18 bd 99 74 cf bd c5 50 3a 3d f4 3e d4 bd
       -0.03720706 -0.10129661 0.045487184 -0.1036357
0003b0 32 38 3e be 4a 6d 29 be fb f9 1e 3e 86 8e 40 be
       -0.18576124 -0.16545597 0.15525047 -0.18804368
0003c0 1f a2 41 3d 47 26 45 3e a9 ed 7f bd 5f f8 b9 3c
       0.04727375 0.19252883 -0.06248251 0.02270144
0003d0 ab 4b be bb dc 55 f3 3d 91 b6 04 be 64 0c 40 3e
       -0.00580736 0.11881611 -0.12960269 0.18754727
0003e0 92 d7 3c bc 16 6b 02 3e 21 5c 2d 3e 43 a6 d3 bd
       -0.011526005 0.12736163 0.16929676 -0.10334446
0003f0 c3 9f 57 3e db aa 39 3c 6c c0 35 be ef f1 38 3e
       0.21057038 0.011332239 -0.17749184 0.1806104

clinical.layer1.bias f4 [128]
000000 6a cf e0 3e f6 dd d3 3e 9a 08 7f 3d d6 6a 45 be
       0.43908244 0.4138028 0.062264062 -0.19279036
000010 6d b6 b6 be ee bc db 3e cb cd cd bc 6a b9 69 be
       -0.35686055 0.4291758 -0.025122544 -0.22824636
000020 56 1d ca bd 12 bc 0c bc 3f b6 24 3e c0 f6 eb 3d
       -0.09868877 -0.008589761 0.16085146 0.11521673
000030 60 f4 55 3e 2b 30 9f be 7b ac 9a be 57 62 11 be
       0.20894003 -0.31091437 -0.30209717 -0.1419767
000040 2a cf 97 3d 03 c2 13 be 25 49 8f 3e e6 3f d9 be
       0.0741256 -0.14429478 0.27985492 -0.42431563
000050 7a 5b 6d be e6 81 ec 3d fc 85 57 3e 2c 91 25 bd
       -0.23179427 0.11548214 0.21047205 -0.04042165
000060 f3 94 49 bd f1 5f e2 3e 90 33 4a be 6d cf bd 3e
       -0.049214315 0.44213822 -0.19746232 0.37072316
000070 79 1b 44 be 14 97 98 bd 24 2f de 3e b0 9d 04 3e
       -0.19151105 -0.07450691 0.4339534 0.12950778
000080 9d 16 6e 3e 6c b0 e2 be 31 84 ea 3c f0 71 5c be
       0.23250814 -0.44275224 0.028627487 -0.21527839
000090 63 15 e4 be 58 06 64 be 9b 5a b8 bc c1 05 2d be
       -0.44547567 -0.22268045 -0.022504142 -0.16896726
0000a0 46 21 33 3e a8 76 f8 3d bb c5 dd 3e fe e6 86 3e
       0.17493162 0.12132007 0.4331492 0.26348108
0000b0 06 01 61 3e 5f f1 da 3e d8 d8 c8 be 85 32 5d be
       0.21973047 0.42762277 -0.3922794 -0.21601303
0000c0 de bb bb 3a 28 b3 a1 be d2 81 29 bd bb ac 98 be
       0.0014322957 -0.31581998 -0.041383572 -0.29819283
0000d0 b8 41 0e 3d d2 7b f4 bd 17 a1 15 3d ce a0 61 be
       0.034730643 -0.11937679 0.03653058 -0.22033998
0000e0 74 0c ed 3c a1 6d 8e 3e e0 aa 5a be 61 14 39 3e
       0.028936602 0.27818015 -0.21354246 0.1807418
0000f0 e2 4e ca be b7 62 8a bd 16 47 81 3e 8d 41 c1 3e
       -0.39513308 -0.067571096 0.25249547 0.37745324
000100 38 e9 ec bd bd 47 a9 3e 46 1b 70 3e 91 38 d6 3e
       -0.115679204 0.33062544 0.23447904 0.41840032
000110 00 58 5c be f9 d1 0b 3e 1a c6 c2 be f2 e5 e1 bd
       -0.21517944 0.13654317 -0.38041764 -0.11030187
000120 95 46 bb 3e 65 9e 29 be 5e 43 52 3e 50 b3 c3 3e
       0.36577287 -0.16564329 0.20533511 0.38222742
000130 0c 91 13 3d ab 0e 50 3e 9e e1 f4 bc 56 b7 a7 be
       0.036027 0.20318095 -0.029892739 -0.32757062
000140 64 29 0d bd 7f a6 db 3e b7 29 e1 3e 38 e7 c2 3c
       -0.0344633 0.42900464 0.43977138 0.023791894
000150 83 60 08 be 8c df 97 be 77 db 54 bd 26 e0 83 be
       -0.13318066 -0.2966274 -0.05196711 -0.2575695
000160 da 04 c7 3e 0a 50 d0 be 73 89 07 be aa 04 f3 bd
       0.3887089 -0.40686065 -0.13236026 -0.11866124
000170 dc 9e 3e be be 83 bd 3d d7 8f a0 be c1 c1 f3 3d
       -0.18615288 0.092536435 -0.3135974 0.1190219
000180 b5 b9 d1 be a6 d4 c3 be 2e 36 d8 be f4 09 c9 3e
       -0.40961996 -0.38248175 -0.42228836 0.39265406
000190 22 74 c6 3e 5f b4 21 be 1a 0c 30 3e 85 ff 3a 3e
       0.38760477 -0.15791462 0.17192116 0.18261535
0001a0 aa 04 a9 3e 2e 57 72 bd a0 1b 5f be 27 f2 5e 3c
       0.3301137 -0.059165172 -0.21787882 0.013607538
0001b0 db ec 34 3d 65 7b c2 3e 8a 60 84 3e 13 a0 95 3e
       0.044171195 0.37984768 0.25854903 0.2922369
0001c0 52 52 65 be 02 59 c7 be 27 37 77 3e 83 d2 a3 3e
       -0.22394684 -0.38935095 0.24142133 0.31996545
0001d0 5a 33 42 be d5 dd c0 3e 59 8a a6 3e 4a 90 06 be
       -0.18964902 0.37669244 0.32527426 -0.1314098
0001e0 46 79 18 be 7d fb 03 3e 4d 22 e0 be 7b 11 d4 3e
       -0.14890012 0.12888904 -0.4377617 0.41419587
0001f0 6c e0 b8 3e aa 05 ad be ab 67 af be 27 98 ab 3e
       0.3610872 -0.33793384 -0.3425878 0.3351452

clinical.layer2.weight f4 [256, 128]
000000 28 6a 67 3d 84 65 97 3c c8 80 36 3d 38 9f b3 bd
       0.056497723 0.018481024 0.04455641 -0.08770603
000010 5a de ad bd 6b 97 a3 bd 0d e0 8a 3d 85 8d b6 3d
       -0.08489676 -0.07987865 0.067810155 0.089137115
000020 d8 4e 8c 3d 15 6b 1a 3d ba f9 8f 3d 38 43 7d 3d
       0.06850976 0.037699778 0.070300534 0.061831683
000030 59 94 67 bc 3d fb 66 bd e3 45 b0 bd a6 40 89 bd
       -0.01413449 -0.056391943 -0.0860708 -0.06701784
000040 f5 35 d1 bd 60 85 04 be 89 d6 97 3c f4 79 87 bd
       -0.102153696 -0.12941504 0.018534916 -0.066150576
000050 42 02 7f bc 11 63 3e 3d 38 aa e3 bb 4e 16 82 3d
       -0.015564503 0.046481196 -0.006947782 0.063519105
000060 f0 cf 5b bd be 56 5e 3d 90 1c a4 bd 04 86 5a bd
       -0.0536651 0.054281943 -0.0801326 -0.053350464
000070 f8 13 24 bd ef d0 7a bc dc c1 e7 bd 4f 86 af 3d
       -0.040058106 -0.015308603 -0.113162726 0.08570539
000080 58 7a e6 bc a8 0e f7 3b ad 47 b0 bd 8b b2 88 bd
       -0.02813451 0.007539589 -0.08607421 -0.06674679
000090 7e a6 f1 bd df 76 91 3d 96 71 50 bc c3 e9 49 bd
       -0.11799334 0.07102751 -0.0127223935 -0.0492952
0000a0 34 3e 60 3d 42 98 bb 3d 1d 18 01 3d 7a 71 91 3d
       0.05474682 0.091599 0.031517137 0.07101722
0000b0 f0 50 0b 3d 4b f7 df bd 7f bc bf 3d fe 2e c5 bd
       0.034012735 -0.10935839 0.09362125 -0.09628104
0000c0 72 92 87 bd 84 dd d1 3c ef 7e eb bd 63 e6 f5 bd
       -0.06619729 0.025618322 -0.1149882 -0.120068334
0000d0 dd 8b 6a bd 7d 0c 1c bd de 89 86 bd a2 67 da 3d
       -0.05726229 -0.038097847 -0.06569265 0.10664298
0000e0 4a bb 3d 3d 2d 39 71 bd ef ad e1 bc 64 b4 32 ba
       0.04632119 -0.058892418 -0.027548758 -0.00068170414
0000f0 d8 59 7b 3c b7 d0 c1 bd 33 3a 9f bd 32 89 89 3d
       0.015341245 -0.09463637 -0.077747725 0.06715621
000100 57 eb a3 3d fd 95 fe bd 94 b2 ec bd da 3c 9a bd
       0.08003872 -0.12430952 -0.115574986 -0.07531138
000110 6c e3 95 bd e2 a6 52 bd 4b 5f ab 3d d0 9d 1d 3d
       -0.07318768 -0.051428683 0.08367785 0.03848058
000120 ca 1b 21 bd d9 6d f9 bb f6 66 24 3d 6d 07 47 bd
       -0.039333142 -0.007611972 0.040137254 -0.048591066
000130 e8 f4 70 3d 57 99 0f bd d9 33 85 3d 95 49 36 3d
       0.05882731 -0.035058346 0.0650403 0.044503767
000140 7b 48 88 bd 92 25 31 3d 4f 63 dd 3d 31 8b 56 bd
       -0.066544496 0.04324872 0.10809957 -0.052378837
000150 82 12 b4 bb 21 17 03 3d 5c f5 9e 3d 9d 4b ac bd
       -0.0054953704 0.03200448 0.07761642 -0.084128596
000160 65 14 83 bc 2c 33 73 bd fe 06 1b 3d b8 d5 e9 bc
       -0.016000936 -0.059374973 0.037848465 -0.028544292
000170 1d 80 28 bd af 09 ca bd 58 f2 18 3d 2b f6 c9 3d
       -0.041137803 -0.09865128 0.037340492 0.09861406
000180 11 dd 41 bd 13 1a b3 bd 95 99 11 bd a8 3d d2 bc
       -0.047329966 -0.08745208 -0.035546858 -0.025664166
000190 7e 94 6a bd 42 e3 cd 3d fc eb ca bd 56 41 61 3d
       -0.05727052 0.100531116 -0.09908292 0.05499395
0001a0 2a 13 7f bd 54 f6 fc 3c e1 28 49 bd eb 7a 8d bd
       -0.062274136 0.030879177 -0.04911125 -0.0690821
0001b0 4c 70 55 3d dd 7a 4f bd f4 72 02 be c1 61 e3 bd
       0.052109048 -0.05065428 -0.12739164 -0.111026295
0001c0 e3 95 d7 3d b6 13 98 bd 22 7a 23 3d fc ae ea bd
       0.105266355 -0.074256346 0.039911397 -0.11459157
0001d0 e6 00 85 ba c5 33 4e bd f1 3d 89 3d 3a 9a 8e bd
       -0.0010147362 -0.05034234 0.067012675 -0.0696301
0001e0 d9 a2 5a bd b8 76 7b bd c4 c9 4e 3d 54 3c 42 3c
       -0.05337796 -0.061392516 0.050485387 0.011855204
0001f0 86 b3 0a bd 1f 5d b1 3a 4c 0a 0a 3c a1 6a 47 bd
       -0.033862613 0.001353178 0.0084253065 -0.048685674
000200 52 be 11 3d 29 ee 60 bd 5e 31 83 bd 8f ca 01 bd
       0.035581894 -0.054914627 -0.064059004 -0.031687316
000210 26 6f aa 3c 60 22 a2 3c b0 88 9e 3b 91 06 db 3d
       0.020804953 0.019791782 0.0048380718 0.10694612
000220 55 74 6d 3d 25 63 c1 3d 65 94 e6 3b 90 81 74 bd
       0.05797227 0.094427384 0.007036733 -0.059693873
000230 f7 e5 c5 bd 8b bf 2b bd 28 64 72 3c fa 1c 39 bd
       -0.09663003 -0.041930716 0.014794387 -0.04519365
000240 8c b1 c4 3d d1 a5 0d be 44 0e 71 3d b4 74 43 bd
       0.09604177 -0.13832785 0.058851495 -0.04771872
000250 97 40 cd 3d bd 44 82 bc 38 26 4e bd 8c c2 d9 3c
       0.10022085 -0.015901918 -0.050329417 0.026582025
000260 fc cb 02 3e 91 b0 4b bd a5 4d de bc 39 ff 33 bd
       0.12773126 -0.049728934 -0.027136633 -0.04394457
000270 90 d9 d2 bd 5b b9 06 3e f4 4d 67 bd 53 8e e1 3d
       -0.10295403 0.13156645 -0.056470826 0.11013474
000280 9a b5 16 bd 34 42 cd bd 0e f8 36 bd f6 09 ca bd
       -0.036794282 -0.10022393 -0.044670157 -0.09865181
000290 f6 18 c2 3d e9 0f 95 3d 70 ae 63 3c f5 17 a8 bc
       0.09477417 0.07278425 0.01389657 -0.020519236
0002a0 c3 95 9c bd ec 62 fd bd 17 5c 7c bd b9 1b fb bd
       -0.07645752 -0.123723835 -0.06161126 -0.12261147
0002b0 f6 1c 8d 3d 85 d2 ac 3d 07 be ea bd 4f 12 ff bd
       0.068902895 0.08438591 -0.11462026 -0.12454664
0002c0 61 4c b2 3d 39 00 fd 3d 1a 31 f7 3d 2e 0c 06 be
       0.08705974 0.12353558 0.12069912 -0.13090584
0002d0 4c 5d 89 3c 58 04 a4 3d 48 15 80 3d 12 28 fe 3d
       0.01676812 0.08008641 0.06254059 0.124099866
0002e0 a0 72 5b bd 59 2e 88 bd b9 a4 c6 3d 19 70 06 3d
       -0.05357611 -0.06649465 0.09699387 0.03282175
0002f0 cc 94 8e bc aa 71 92 3d 6f 3b 5f 3d fb 63 2d bc
       -0.017404936 0.07150586 0.05450004 -0.010582919
000300 15 1b b0 bd 71 0a 83 bd 26 f8 eb 3c 75 97 55 3d
       -0.085989155 -0.06398476 0.02880485 0.052146394
000310 93 c5 a0 3d 87 7d 82 3c a7 f1 ad 3d 32 f3 e0 3d
       0.07850184 0.015928997 0.08493357 0.10983886
000320 b4 59 ae 3d 7f b1 9b 3d 2f fc ba bd 36 c2 1d bd
       0.08513203 0.07602214 -0.091301315 -0.038515292
000330 4a 16 09 bd 61 b5 1b bb 08 6b 7f bd 2c 0a b3 bd
       -0.033468522 -0.0023759233 -0.062357932 -0.087421745
000340 4b 4a bb 3d a9 27 9c bd f7 4f e1 bd 4b 40 d0 bd
       0.0914503 -0.07624752 -0.1100158 -0.10168513
000350 40 e7 12 3d d4 35 ba bd f9 12 a9 3d e5 a6 c6 bd
       0.03586507 -0.09092298 0.08255572 -0.09699801
000360 69 31 af bb a3 eb 95 3d e0 dd e2 3d b2 c6 93 bd
       -0.0053464663 0.07320335 0.110774755 -0.072156325
000370 26 75 a7 bd 1c 17 34 bd da 78 b2 bd 00 4f 9b 3d
       -0.08176641 -0.04396735 -0.08714457 0.075834274
000380 fd f9 86 3d 49 c2 12 3d a2 eb 86 bd d0 bb a7 3c
       0.0659065 0.035829816 -0.06587912 0.020475298
000390 b9 d0 9a 3d 1b 4e dd bd b8 e7 dc bd db ce 68 bd
       0.07559342 -0.10805913 -0.10786384 -0.056837898
0003a0 b4 e7 10 3d 03 a9 02 3d d5 29 8c 3d c9 79 c1 3d
       0.03537722 0.031899463 0.06843916 0.09447057
0003b0 9d cf d3 3d bd 4d 35 3d 3b 12 ec bd d3 5e 5d 3d
       0.103423335 0.04426359 -0.11526915 0.05404551
0003c0 b4 61 29 3d 24 18 b3 3d ad ec 37 bc 2e a9 5f 3d
       0.041352943 0.08744839 -0.0112258615 0.0546047
0003d0 49 71 34 3d 59 a5 8e bb 7c 11 85 bd f1 b8 99 ba
       0.04405335 -0.004353207 -0.064974755 -0.001172809
0003e0 3b f2 e0 3d c8 c4 48 3b c3 57 d8 3d 4e 6c a9 bd
       0.10983702 0.003063487 0.10563614 -0.082726106
0003f0 75 41 cf bc 12 95 3d bd 4e 4b 22 bd c2 2b c6 3d
       -0.025299767 -0.046284743 -0.039622597 0.09676315

clinical.layer2.bias f4 [256]
000000 03 48 13 bd 7a 93 e6 3c ed e9 63 3d 9f 4c 8e 3d
       -0.035957348 0.028146494 0.05564301 0.06948208
000010 73 df 4d 3d ca 68 a4 3b 3e 7a 51 bd 6c ff aa 3d
       0.050261926 0.0050173746 -0.05114197 0.08349499
000020 f5 8c 22 3d da 08 cc 3b 76 4d 34 3d af 97 8b 3d
       0.03968521 0.006226641 0.044019185 0.06816041
000030 58 31 76 bd b8 8e b7 3d ee 25 a4 3d f3 c6 33 3d
       -0.06010565 0.08962768 0.08015047 0.043890905
000040 8b 61 ab bd 30 b7 4e 3d 69 16 12 bc f1 af aa bd
       -0.08368214 0.05046767 -0.008916476 -0.083343394
000050 b5 35 b4 bd c9 07 82 3d 0e fc 78 3d 98 ce 35 3d
       -0.08799306 0.06349141 0.060787253 0.044386476
000060 4d ad 8c bb fa fe 56 3d 24 e0 79 3d 9e 73 2c bd
       -0.00429312 0.05248926 0.061004773 -0.04210245
000070 fc 4e 31 bb 66 85 9c 3d 45 70 12 3d de 3d b0 bd
       -0.0027055135 0.07642631 0.0357516 -0.0860555
000080 0d 02 29 3d 64 63 95 3c 1d f3 aa 3d ca 40 aa bd
       0.04126172 0.01823587 0.083471514 -0.08313139
000090 4a 59 61 bd da 9a 39 bd 33 7c a5 3d ee f0 ab bd
       -0.055016793 -0.045313694 0.0808033 -0.08395563
0000a0 eb a8 3f 3d da 7c 58 3d ae 91 65 bd 94 5a a1 bd
       0.046791952 0.052853443 -0.056047134 -0.078786045
0000b0 8e de 9f 3d 69 0d 58 bd 67 4e 9a bd 41 cc 43 3c
       0.07806121 -0.052747164 -0.07534485 0.011950553
0000c0 51 26 b9 bd ac ea fa b7 37 d8 95 3d 3b 6f 52 3d
       -0.090405114 -2.99116e-05 0.0731663 0.05137561
0000d0 c9 92 3a bc 51 d3 93 bc 4c df bd bb 3d 16 a7 3d
       -0.011387535 -0.0180451 -0.0057944413 0.081585385
0000e0 6b d9 fc bc 23 6c a8 3d 37 09 49 3d 99 01 8f bd
       -0.030865392 0.082237504 0.049081054 -0.069827266
0000f0 b3 a7 7c 3d 21 fc de bc d9 af 2e bd 69 b8 7e bd
       0.061683368 -0.027219834 -0.04264817 -0.062187586
000100 1d bf 95 bb 60 1f c9 bc a5 79 8d 3d a1 9f a8 3d
       -0.0045699016 -0.024551094 0.069079675 0.08233572
000110 7d 09 69 3c 00 6e 1f 3d 3c 11 54 bd 66 74 6a 3c
       0.014223454 0.038923264 -0.05177425 0.014309978
000120 0f a6 8c 3d 07 ba 98 bd 54 10 07 bd 9a 93 97 3c
       0.06867611 -0.07457357 -0.032974556 0.018503
000130 05 33 02 bd 7a ea a0 3c b0 a8 9c 3d 21 b1 a3 3c
       -0.031786937 0.019643057 0.07649362 0.019981923
000140 81 8c 3f bd 51 17 a1 bd 3c 0f 91 bd 98 bc 15 3d
       -0.046764854 -0.078657754 -0.07082984 0.03655681
000150 6c 4d cb bc 79 84 2e 3c 76 21 e7 3b b5 8a 04 bc
       -0.024817191 0.010651701 0.0070535494 -0.008089711
000160 e5 50 e1 bc bc 20 11 3d 22 98 98 bc e3 7d 5e 3d
       -0.027504394 0.03543161 -0.01862723 0.054319274
000170 ab 2d 89 bd 7d 27 a2 bc 62 a7 f7 3c 52 1b 8a 3c
       -0.066981636 -0.01979422 0.030231182 0.01685873
000180 38 f4 60 3d f0 4b 88 bd 2e c5 fe 3b 5d 13 4a 3d
       0.054920405 -0.06655109 0.0077749705 0.049334873
000190 eb 7a 15 bc 61 a1 a4 bd 9a 6c 37 3d ae b6 8e 3d
       -0.009123544 -0.08038593 0.044781305 0.06968437
0001a0 fc 4f ec 39 b5 51 52 bd 9b 82 91 bd b6 27 6b 3d
       0.0004507302 -0.051347453 -0.07104989 0.05741092
0001b0 8d db 06 bc a9 00 55 3d 5c e7 0c bd f1 32 8f bd
       -0.008231056 0.052002583 -0.03440033 -0.06992138
0001c0 73 03 79 bd 48 51 af 3d 83 03 82 bd 5b ac 93 3d
       -0.060794305 0.08560425 -0.06348326 0.072106086
0001d0 df c8 d0 bc 6b 4f 90 3d 28 53 12 bc 3f 65 92 3c
       -0.025486408 0.07046398 -0.008930959 0.017870544
0001e0 1f 7e 93 3d 9c 59 c6 bc f5 c8 36 bd 8c a2 07 bd
       0.0720179 -0.024212651 -0.04462524 -0.033114
0001f0 6e 0c f0 3c 66 30 e1 bb 1f f2 9f bc e2 ec 20 bb
       0.029302802 -0.0068722246 -0.019524632 -0.0024555256
000200 8c 0e c2 bc 20 2c 9b bd 75 62 08 3d 33 56 4f bd
       -0.023688577 -0.075767756 0.03329702 -0.050619315
000210 94 96 9b 3d ea f9 ae bb 32 aa 28 3d 5b b3 ef bb
       0.0759708 -0.0053398507 0.041177936 -0.007315082
000220 bb 44 5e 3c 5f d5 12 3d af 00 0a 3d d1 f2 92 bc
       0.013566191 0.035848018 0.03369206 -0.01793805
000230 91 55 8c bd fe 47 83 3d 58 15 9c bd e4 57 44 3c
       -0.06852258 0.06410216 -0.076212585 0.011983845
000240 c7 ec 64 bb 4f cf 80 bd 5d 06 a9 3d 20 68 4c bd
       -0.003493117 -0.06289541 0.08253167 -0.04990399
000250 2c 3a 0e 3d 48 d8 20 3d 91 80 89 bc 4c 0c 16 3d
       0.034723446 0.039268762 -0.016784938 0.03663282
000260 be aa 5b ba 98 60 b4 bd 31 ee 3f 3c ab fe a2 3d
       -0.00083796296 -0.08807486 0.011714504 0.0795873
000270 0e 37 30 bd 11 14 5d bc 0b 56 86 3d 61 a4 bc bb
       -0.043021254 -0.013493554 0.0655938 -0.0057569
000280 01 e5 c6 3c 74 99 82 bd ee 1d 42 3d 7d c1 8e bc
       0.02427912 -0.06376925 0.047391824 -0.017426247
000290 82 85 f9 3c 5e 6f 3f 3d d0 79 b1 3c 00 d7 94 bd
       0.03045917 0.046737067 0.02166453 -0.072675705
0002a0 e5 80 99 3d 18 82 66 3d 93 eb c3 3c ec 8d 4d bd
       0.07495288 0.05627641 0.023916041 -0.050184175
0002b0 fd 65 0a 3b 04 a3 7f bc 3d b0 aa 3d 67 5f 11 bd
       0.0021117919 -0.015602831 0.08334396 -0.035491373
0002c0 94 51 9b bd cc f3 aa 3c ea 43 67 3d 22 ac 3f 3c
       -0.07583919 0.020868205 0.056461252 0.0116987545
0002d0 82 52 fa 39 89 8d b7 3d fb 7a 7f 3d 4a 37 19 3d
       0.0004774519 0.089625426 0.062373143 0.037406243
0002e0 94 e9 84 bd 3e f8 37 3d 29 bb 6b bc 2a 0c ed 3c
       -0.06489864 0.044914477 -0.014387884 0.028936464
0002f0 ed 7b a8 3d 7c c4 77 bd 93 28 8d bd 77 ea 4b 3d
       0.08226762 -0.060490116 -0.068925045 0.04978415
000300 42 cb 8d 3d 6e 95 5b bd b1 b6 0f 3d 4c ec e9 3b
       0.06923534 -0.053609304 0.035086337 0.0071387645
000310 08 f0 d8 bb 10 b2 75 3d 68 65 5c bd 84 f9 26 3a
       -0.006620411 0.059984267 -0.053807646 0.0006369578
000320 1f df 17 bd 8b f4 88 bd 63 74 96 3c 28 1a a4 bd
       -0.03707802 -0.06687268 0.018366044 -0.080128014
000330 ac 43 2b 3d a8 80 69 bd 5a c3 10 3d 0a 17 82 bb
       0.041812584 -0.05700746 0.03534255 -0.0039700316
000340 5d af 7e bd 98 ee 06 bd 4a 30 0d 3d bb 96 af 3d
       -0.06217896 -0.032942384 0.03446988 0.085736714
000350 b6 b9 7f 3d 32 be c6 bc c9 cd a5 bd bc 57 73 bd
       0.062432967 -0.024260614 -0.08095891 -0.059409842
000360 6a 31 9b bd 6d 02 96 bb 37 3e de bc c4 02 75 bd
       -0.07577784 -0.004577926 -0.027129276 -0.05981709
000370 04 cc c7 bc fb 71 d2 3d ad 9f 7a bd c0 11 d4 3c
       -0.024389274 0.10275646 -0.061187435 0.02588737
000380 12 7e 88 3c 0b 4f af 3c 3b a4 44 3d c7 d9 5f bb
       0.016661678 0.021399995 0.048008185 -0.0034156905
000390 51 08 40 bc 8a 2c 4d 3d 30 c3 01 3d 4b 60 0c 3c
       -0.011720733 0.050091304 0.031680286 0.00856788
0003a0 f7 f5 90 3d 58 92 32 3d 10 c0 bf bb 6d 43 02 3d
       0.07078164 0.043596596 -0.005851753 0.031802583
0003b0 52 1c ac 3d 86 4f 60 3d 4f 8f b7 bd 97 8c 87 bb
       0.08403839 0.05476334 -0.08962881 -0.0041366327
0003c0 2c 77 86 3d 8b ea 57 bc f0 fb 87 bd 26 fa 64 3d
       0.06565699 -0.013178478 -0.0663985 0.055902623
0003d0 16 56 7c bd df 1e 22 3d 4a f6 9f bb 90 2b 9b 3c
       -0.061605535 0.039580222 -0.004881655 0.01894167
0003e0 3c 66 26 3d 60 35 91 3c b3 08 7c 3d f5 e0 8e bd
       0.040624842 0.017725646 0.061531734 -0.06976501
0003f0 15 87 88 bc 7e f9 5e bd 02 ee 3b bd f0 8f 63 bd
       -0.016665975 -0.054437153 -0.04588128 -0.05555719

clinical.layer3.weight f4 [256, 256]
000000 06 65 d4 3c 4f 4e 01 3d be 29 b0 bd 1f 60 f9 3c
       0.025927078 0.03156882 -0.08601712 0.030441342
000010 d7 58 c5 3d a1 9f d1 bc 5e 77 96 3d 95 e0 66 bd
       0.096360855 -0.025588812 0.07346986 -0.056366522
000020 98 47 27 3c 4c 9c 80 bd 45 c0 87 3d 9c 88 89 bd
       0.01020994 -0.06279811 0.066284694 -0.06715509
000030 4a cb 91 3d e8 dd 9f bc d4 4b d6 bd a5 30 bb bd
       0.071188524 -0.019514993 -0.10463682 -0.091401376
000040 8b 05 4a 3c 0b 8b 96 bc 3a fd 11 3d fb 4b e4 bd
       0.012330423 -0.018376848 0.035641886 -0.111473046
000050 c7 55 2e 3d bb bc 63 3d 67 9c a5 bc 7a 15 0c 3d
       0.042562272 0.05559991 -0.02021618 0.03420017
000060 5b 95 92 3d 51 0c 36 bd 71 80 ee bc 5c 54 86 3d
       0.071573935 -0.04444534 -0.02911398 0.06559059
000070 d6 19 d1 bd cb 43 c2 bc 09 cf c6 ba 12 77 d6 3d
       -0.10210006 -0.023713967 -0.0015167902 0.104719296
000080 65 92 ba 3d 0b 78 82 bd 6e 6d 8d bd d1 78 45 bc
       0.09109954 -0.06370553 -0.06905638 -0.012052731
000090 9f 41 c0 3d fc 66 55 bc c8 79 aa bc 6e bb be bc
       0.09387516 -0.013025042 -0.020810023 -0.023282733
0000a0 c1 b1 8f 3b 17 c7 c4 bd f7 ae d0 3d 24 02 1e 3b
       0.0043852036 -0.09608286 0.10189622 0.0024110163
0000b0 85 f2 27 bd 17 09 9a 3d e1 5f 17 bd 8a f9 d9 bd
       -0.04100277 0.07521265 -0.03695667 -0.10643299
0000c0 de cf f1 3c b6 b1 8d bd dd 68 92 3c 45 0d 3d bd
       0.029518064 -0.06918661 0.017872268 -0.046155233
0000d0 a4 e9 7e bd 5f 73 59 3d c6 26 a8 ba 47 4c a7 bd
       -0.062234536 0.053088542 -0.0012828938 -0.081688456
0000e0 ad 95 11 3d bb 16 dd 3c 17 88 6b 3d 92 11 ce 3c
       0.035543133 0.026988378 0.057502832 0.025154863
0000f0 63 21 d0 bd 60 fc f4 3c 60 eb ad 3d de 4e cc 3d
       -0.10162618 0.029905498 0.0849216 0.0997598
000100 9b 31 88 3d 1d a8 5c bc 3c ab 6c bb ce 04 e4 3d
       0.066500865 -0.013467816 -0.0036112806 0.11133729
000110 48 db 0a bd ca a8 00 3c 13 c5 dd 3b 44 46 f7 bc
       -0.03390053 0.007852742 0.006767878 -0.030184872
000120 bb b6 3e 3d e2 33 8c bd 20 8d 98 3d 3e 09 8e 3d
       0.046560984 -0.06845833 0.074487925 0.069353566
000130 c7 69 80 bd 1e 45 a8 bc 2a bf d5 bd f8 5c ba 3d
       -0.062701754 -0.02054077 -0.10436852 0.09099764
000140 48 31 05 bd 77 91 88 bd 5a cc 65 3d ef 58 dc bd
       -0.0325177 -0.0666837 0.056103088 -0.1075915
000150 93 40 4f 3c 5a c2 b7 bd ca 96 11 3d 73 9d e5 bc
       0.012649673 -0.089726165 0.035544194 -0.02802918
000160 f2 b8 ae 3d 93 ba 9a 3d 51 4d 43 bc db 8e 02 bd
       0.08531369 0.075551175 -0.011920289 -0.03187452
000170 f6 36 86 3d 97 89 b4 bd 15 1c a0 3c d6 8f 33 bd
       0.06553452 -0.08815306 0.01954464 -0.043838345
000180 4e e4 96 bd 26 aa d8 3c fd ea 9d bd 26 b4 ad bd
       -0.073677644 0.02644832 -0.07710836 -0.08481626
000190 90 38 a2 bd 93 73 c7 3c c9 10 6e 3d 5d b9 c6 bd
       -0.07920945 0.024347102 0.058121476 -0.09703324
0001a0 e9 cc 81 3c 35 e0 98 bc 28 b1 37 3d ca 9c c0 3d
       0.01584478 -0.018661598 0.044846684 0.09404905
0001b0 ea 22 01 bd 3a b5 8c bc 8f 3d d8 3d 4c 40 3e bc
       -0.031527437 -0.01717626 0.10558616 -0.011612009
0001c0 d8 c6 d9 bd 2e e9 ab 3d 61 6c be 3d 93 95 21 bd
       -0.106336296 0.08394085 0.092980154 -0.039449286
0001d0 f5 d6 86 3d 80 c7 2c bd 37 96 6d 3c 85 c1 bc 3d
       0.065839685 -0.042182446 0.014501146 0.092165984
0001e0 74 b5 95 3d a4 77 1f 3d 15 d8 2f 3d 33 bb c8 3d
       0.0731 0.038932458 0.04293068 0.098013304
0001f0 2e 11 c2 bd fb b3 8f 3d 6e e9 8c 3c 81 6f cb bd
       -0.09475933 0.070167504 0.017201152 -0.09933377
000200 76 fb b4 bd 28 c8 d8 bc 41 f8 a4 bd b3 35 05 bd
       -0.08837025 -0.02646263 -0.08055163 -0.032521915
000210 99 b3 a3 bc 10 14 95 bd f6 9c 09 3d c0 41 a4 ba
       -0.0199831 -0.07279217 0.033596955 -0.0012531802
000220 7b a5 ce bd 82 a6 a9 bd c8 b4 99 3d 84 e4 8e 3d
       -0.10090157 -0.08283712 0.075051844 0.0697718
000230 3b 60 c3 3b ad ef b4 3c b8 56 91 bd 98 56 a8 bd
       0.0059623993 0.022086943 -0.070966184 -0.082196414
000240 72 44 e5 3d 3f e4 ad bc 06 83 9d 3d ec 2d aa bd
       0.111946955 -0.021227 0.07691006 -0.0830954
000250 20 7c 7b 3d ca cf 59 3c 27 61 10 3d f4 98 4c bd
       0.06139767 0.01329417 0.0352489 -0.049950555
000260 bb 6e 90 3d 17 f2 ec 3c 0b e3 45 bc 2d 6c ca bd
       0.0705237 0.028924031 -0.012078057 -0.09883914
000270 41 6b d2 3d c3 9f 75 bb ad 3f b0 3d db 3c 8a 3d
       0.10274363 -0.0037479259 0.08605895 0.067498885
000280 6f 35 8a 3c 43 27 a3 bd a6 80 04 3c d5 d5 e4 bd
       0.016871182 -0.07966473 0.008087313 -0.11173598
000290 cc 76 ba bd 1c bb bb bc 99 88 6e 3d 81 4f 97 bd
       -0.0910469 -0.02291637 0.05823574 -0.07388211
0002a0 bc 1b 20 3d 16 bb 88 3b d7 1b 9e 3d 64 ef e0 bd
       0.03908895 0.004172693 0.07720154 -0.1098316
0002b0 a7 0f 5c 3d 7a e6 c0 bd 2b e0 ee bd 95 73 97 bd
       0.053725865 -0.0941896 -0.116638504 -0.073950924
0002c0 59 e2 7f bd 10 a2 bf bc 1a 9a 3a 3d e1 83 74 3d
       -0.06247172 -0.023392707 0.04555712 0.059696082
0002d0 0f ba cb 3c 73 b4 a3 3d 36 c8 a9 3d 75 13 8d bd
       0.024868993 0.07993402 0.0829014 -0.06888477
0002e0 02 ea 0f bc 01 c0 cf bd 10 84 88 3d 66 62 4e bc
       -0.008783819 -0.10144044 0.06665814 -0.012596702
0002f0 1a 8b 96 bc 24 37 45 bc 67 43 3a bc 55 19 01 3d
       -0.018376876 -0.012037072 -0.011368609 0.0315183
000300 08 fb 12 3d 45 71 91 bd 3a be 20 3d 9b 29 1e bd
       0.035883933 -0.071016826 0.039243914 -0.038613897
000310 01 bd 77 bd e1 70 c2 3a 9e b3 d5 3c 3c 9b 16 bd
       -0.060482983 0.0014834666 0.026086625 -0.036769137
000320 b2 d4 33 3d f3 0a 9d 3c 3c af d1 3d eb 9f 71 3d
       0.043904014 0.01917026 0.102385014 0.0589904
000330 00 0d b7 bc 29 2d df bd ff 59 91 bd 69 d4 cf bd
       -0.022345066 -0.108972855 -0.070972435 -0.10147936
000340 29 df ae 3d a7 5e 24 bd 72 c1 2f 3d 8e 8c db bc
       0.08538658 -0.04012933 0.042909093 -0.02680042
000350 ac 72 e0 bd ef b3 ca bd 82 4c 2b bd 35 ed 84 bd
       -0.10959372 -0.09897601 -0.04182101 -0.06490556
000360 a3 2d c9 bd d2 66 6a 3d fe 24 7c 3c 69 d7 96 bd
       -0.09823158 0.057226963 0.015389679 -0.07365305
000370 79 1b 62 bd 11 5a b8 3d b0 f6 c0 3d 5e 0b cc bd
       -0.05520198 0.09001554 0.09422052 -0.099631056
000380 a2 25 ca bc c7 20 97 bd c5 f3 88 3d 95 55 37 bc
       -0.024676148 -0.07379299 0.0668712 -0.011189838
000390 2c bb 5c bc 45 7b 0c 3d ca bf 92 bd 72 8d 74 3d
       -0.01347236 0.034297246 -0.07165487 0.059705205
0003a0 5d 72 aa 3d 15 e0 f5 3c 34 2e e1 bb 22 16 03 bd
       0.08322594 0.030014077 -0.006871963 -0.03200353
0003b0 69 b3 b9 3d a1 9b 70 bd 22 64 10 3d 90 26 3d 3d
       0.09067423 -0.05874217 0.035251744 0.046179354
0003c0 34 28 b6 bd 49 8c 7f 3c 99 4c f1 3c 49 97 9c 3d
       -0.08894387 0.015597411 0.02945547 0.07646043
0003d0 a4 fd 59 3d 7c b2 85 bc d4 54 21 bd a7 f9 ee bc
       0.053220406 -0.01632046 -0.03938754 -0.029171778
0003e0 f9 c0 a9 bd cd e5 b8 3d 3a 13 ac 3d 04 25 eb 3c
       -0.0828876 0.09028206 0.08402105 0.028704174
0003f0 92 0b 2f bd 37 e7 b9 3d 0c 95 60 3c cd 3d 0c bd
       -0.042735644 0.09077304 0.013707411 -0.034238625

clinical.layer3.bias f4 [256]
000000 5c 90 f3 bc b5 3a 91 bc fc 11 7a bd 78 8f a2 bc
       -0.029731922 -0.017728189 -0.061052307 -0.019843802
000010 01 41 48 3d 75 43 28 3d c6 f7 01 3c 7e 3a 4f ba
       0.048890118 0.041079957 0.007932609 -0.00079051394
000020 7a 7d 40 3d b3 6c c7 bc 4d 87 9e bb c3 c8 cc bc
       0.046994664 -0.024343824 -0.0048379065 -0.024998074
000030 4d ab 61 bd f4 eb 38 3d 14 06 cb bb 26 b3 98 bc
       -0.055095006 0.045146897 -0.006195793 -0.018640112
000040 f4 b0 19 bd fe 8b 3c bd 85 64 70 3d 4a 72 56 ba
       -0.03752227 -0.046031944 0.058689613 -0.00081804825
000050 de f5 cc bc 36 33 56 bd 03 22 5f bd 62 98 d6 bc
       -0.025019582 -0.052294932 -0.054475795 -0.026195709
000060 c8 0a 60 3d cf 59 a7 bc b0 d6 34 bd cf 2e 29 bd
       0.05469778 -0.020428566 -0.044150054 -0.041304406
000070 07 b6 53 3d e3 e8 7d bd 01 b1 fa 3c 57 3c 42 bd
       0.051687267 -0.061989676 0.03060198 -0.047420826
000080 6a 08 26 3d 37 f6 36 bd 4b 19 2b 3d cc 93 d5 3c
       0.040535368 -0.044668403 0.041772168 0.026071452
000090 14 ea 40 3d 7e 40 3d bd f3 75 28 bd 2b 69 ba 3c
       0.047098234 -0.046204083 -0.04112811 0.022755226
0000a0 ac 54 21 3d 94 4f 8d 3a 58 16 09 bd 83 ea c8 bc
       0.03938739 0.0010781162 -0.033468574 -0.024525886
0000b0 1a 78 f8 b9 89 98 32 3d 66 56 3a bd 42 ba d3 bb
       -0.0004739173 0.0436025 -0.045492552 -0.0064614126
0000c0 c6 24 57 bd ce b9 2f bd 1c d9 2a 3d d4 64 ca 3b
       -0.052525304 -0.042901807 0.041710958 0.0061765704
0000d0 80 13 9a bc a8 3b 00 bd 3a 72 c9 b9 a2 73 2e 3c
       -0.018808126 -0.031306893 -0.00038422813 0.010647686
0000e0 bb f8 28 bd e6 83 35 bd 07 1e 81 3d 02 42 c9 bc
       -0.041252833 -0.04431524 0.063045554 -0.024567608
0000f0 b0 e6 32 bd b8 91 2c 3d b8 bf 7e bc bf 0d 0d bd
       -0.043677032 0.042131156 -0.015548639 -0.034436937
000100 3f e6 db 3a 25 a6 76 3d 4d d6 4a 3b 24 f2 4d bd
       0.0016776993 0.06021704 0.0030950487 -0.05027975
000110 32 5e 76 bc 03 09 80 3c de 79 10 3d b0 81 ad 3c
       -0.015037106 0.015629297 0.03527247 0.021180004
000120 bd 83 6b bc 5f 23 51 3c 5d f9 c3 bb 54 0c ec bc
       -0.014374671 0.012764781 -0.005980654 -0.028814472
000130 a2 18 1e 3d 3c da 44 bd 2d 8d 88 3d b0 15 68 bb
       0.03859771 -0.048059687 0.06667552 -0.0035413317
000140 9b ae f5 3c c0 c8 30 bc 93 88 3f 3d 18 c8 20 bd
       0.029990485 -0.01079005 0.046761107 -0.039253324
000150 5b 46 4c 3d 8f 17 17 bd 9f 62 ad bc 11 c9 86 3c
       0.049871784 -0.0368877 -0.02116519 0.016453298
000160 7d 04 8c 3c be 8e 0e bd 90 1c 97 ba a3 60 5b bd
       0.017091984 -0.0348041 -0.0011528898 -0.053558957
000170 2e 82 32 3d a8 43 d9 3b da ed 44 bd 5e e9 50 3c
       0.04358118 0.0066303797 -0.048078395 0.012750952
000180 25 86 3a bd de a0 9a 3c f4 cc e5 bc b1 61 45 bd
       -0.045538086 0.018875536 -0.02805183 -0.04818887
000190 14 bd 19 3d 1c 70 64 bc 02 b8 34 3d 8d ad f4 3c
       0.037533835 -0.013942745 0.044120796 0.029867912
0001a0 d5 15 d3 bb bd 0f ff 38 ba 9b 7b 3d 04 ac 08 3d
       -0.0064418116 0.00012162279 0.06142781 0.033367172
0001b0 ca d9 4c bd b0 ab 50 bd 3f 6a 7c bc fe d4 da 3c
       -0.050012387 -0.050944984 -0.01540619 0.02671289
0001c0 8a 2d b8 b8 4c d3 0c 3d a0 9b a5 3c e5 61 6f 3c
       -8.782286e-05 0.034381196 0.02021581 0.014610742
0001d0 28 63 95 3b cb c1 06 bc 11 bf 54 3c cf c5 50 bd
       0.0045589395 -0.008224915 0.012985007 -0.050969895
0001e0 5b e2 80 3d fd 88 64 3d 4e 36 1d bc dd d8 00 3d
       0.06293174 0.055794705 -0.009595467 0.031456817
0001f0 54 24 3b bd 70 ee 45 3d 02 fd 4a bd cc f7 e0 39
       -0.045688942 0.048323095 -0.049557693 0.00042909232
000200 b3 5f 43 3d 9b 41 39 bd 17 37 b3 3c 79 13 97 3b
       0.047698688 -0.045228582 0.021876855 0.0046104756
000210 60 c1 52 bc af 2f 7b bd 78 73 3f bd 00 ec ba bc
       -0.012863487 -0.06132477 -0.04674098 -0.022817612
000220 28 d2 82 3c 5e 2b 34 bd 26 b7 88 3c f0 71 5d 3d
       0.015969351 -0.04398667 0.016688894 0.054063737
000230 3c 5c 3e bd de f6 af 3c d1 8d 53 bd ca 98 3f 3d
       -0.04647468 0.02148002 -0.05164892 0.04677657
000240 52 68 02 bd 6e f4 b9 3c 5f ef 1c 3d 28 52 09 bd
       -0.03183777 0.022699561 0.03831422 -0.033525616
000250 56 b1 85 3c 26 39 58 3d bf 6a 3f 38 54 69 70 3d
       0.016319912 0.052788876 4.5637364e-05 0.0586942
000260 6c 85 21 3b 0b df 4d 3d 6b 41 8d 3c b2 a4 60 bd
       0.0024646176 0.05026154 0.017243108 -0.054844566
000270 22 d6 a9 bc 56 f2 16 3c b7 48 82 bc e9 ec 97 bb
       -0.02073199 0.009213051 -0.015903814 -0.004636396
000280 75 48 43 bd 09 82 b3 3c 3f 02 b8 3c d9 20 cc 3c
       -0.047676522 0.021912592 0.022462009 0.024918007
000290 06 6b 68 bc 79 27 73 b9 fd b9 ba 3b 9d 46 e6 bc
       -0.014185673 -0.0002318899 0.005698441 -0.028109843
0002a0 cb 67 39 bd 0f f4 6b 3d bf f2 fa 3c 2e 10 60 bd
       -0.045265 0.0576058 0.030633328 -0.05470293
0002b0 d9 02 2f 3d 46 3e 8a 3c 7b 2b 6f 3d 35 6d 67 3d
       0.042727325 0.016875397 0.058391076 0.056500632
0002c0 26 42 45 bd a2 f7 5c 3d 4c f8 a8 3c 47 31 74 3d
       -0.048158787 0.0539471 0.02062621 0.059617307
0002d0 a4 84 d5 3c bb ff 00 3d 74 73 8a b9 25 d3 3e 3d
       0.026064225 0.031493884 -0.0002640743 0.046588082
0002e0 c2 72 11 bd 26 8e 32 3d fb c1 2a 3d 24 b6 51 3c
       -0.035509832 0.043592595 0.0416889 0.012799773
0002f0 e2 6f a0 bc 41 01 6f bd 31 c9 32 3d 2b 46 5d bd
       -0.0195846 -0.058350805 0.043648902 -0.054021996
000300 f2 f5 a0 3c 74 68 d9 bc d9 45 47 3d f8 ce 2d bd
       0.019648526 -0.026539065 0.048650596 -0.04243371
000310 a3 e5 6d 3c 2e f5 26 3d ae cf 84 3c 54 06 85 3d
       0.014520082 0.040761165 0.01621231 0.064953476
000320 cf 3b b4 bc 11 0c 8a 3d 07 92 94 bc 36 04 1a 3c
       -0.022001175 0.06740583 -0.018136038 0.009400418
000330 13 ab 30 3d 7d a8 13 bd d4 0a 63 bd f9 bf 6b bc
       0.0431319 -0.036049355 -0.05543025 -0.014389032
000340 89 d9 24 3d 6c bd 7e 3b 47 1d 02 bd 44 57 21 3d
       0.04024652 0.0038870228 -0.031766202 0.039389864
000350 5c 3a ca bb 51 92 98 3d 5a a8 45 3d 31 48 09 bc
       -0.0061715078 0.07449783 0.048256256 -0.008379028
000360 cc be 85 3d 72 37 bf 3c 9b 8a c9 bc 84 d1 86 3c
       0.06530532 0.023341868 -0.024602225 0.016457327
000370 8b 09 97 ba c3 70 68 3d 64 58 24 bd 4b 05 7b bd
       -0.001152323 0.056748163 -0.04012336 -0.061284345
000380 c4 26 86 3d 82 11 6d bd 36 52 2f bc dd ba 43 3b
       0.06550363 -0.057878025 -0.010700753 0.0029866018
000390 6f 69 45 3d 4d 36 5e 3d c2 94 87 bd aa 7c df bc
       0.048196252 0.054251004 -0.0662017 -0.027281124
0003a0 7b 58 52 3d 5a 44 5c bd 2d 01 35 bc d4 bf c4 bc
       0.051353913 -0.053776123 -0.011047644 -0.024017252
0003b0 ed 8f df 3c 8f a7 70 bc 81 e0 67 3c 32 93 0c bd
       0.027290309 -0.014688387 0.014152647 -0.034320064
0003c0 da 1d f5 bc c1 07 3a 3c 9a 85 4b 3d 3d e5 35 3d
       -0.02992146 0.011354388 0.04968796 0.04440807
0003d0 ff 04 d2 3c 9c 70 c2 3c e8 88 81 bd 69 13 02 bd
       0.025637148 0.023735337 -0.06324941 -0.031756792
0003e0 fb 8b 8e ba fa bd 50 bd 84 16 29 bd 57 37 00 bd
       -0.0010875458 -0.050962426 -0.04128124 -0.031302776
0003f0 cf 86 a9 3c 75 30 78 bc b4 35 d0 bc f8 01 df bb
       0.020694165 -0.015148272 -0.025416233 -0.0068056546

clinical.layer4.weight f4 [4, 256]
000000 7e 48 86 3d 2e a4 33 3d 01 55 34 3d 75 bf b0 bc
       0.065567955 0.043857746 0.04402638 -0.021575669
000010 05 e9 9f 3c ef eb 18 be eb 22 93 bb bb c9 02 3e
       0.019520292 -0.14933752 -0.0044902465 0.12772267
000020 c7 88 0c be 8f a7 8d bc e6 7c b8 3d 47 22 c5 3c
       -0.13724051 -0.017291812 0.090081975 0.024064196
000030 52 9e d3 3d 5c a4 bf 3d a8 a0 2a be f5 c1 e2 bd
       0.103329316 0.09357521 -0.16662848 -0.110721506
000040 dd 2f 16 3e e3 d3 17 be ed e7 0b 3e ff 51 d2 3d
       0.14666696 -0.14826922 0.13662691 0.10269546
000050 bd 52 18 3e 17 72 93 3d 21 6e 78 bd eb 94 6b bc
       0.14875312 0.07199495 -0.060651902 -0.0143787665
000060 be d1 5d bd 5c 3e 29 3d 34 aa 7d 3b 3f 5e c9 bd
       -0.054155104 0.041319236 0.0038706185 -0.09832429
000070 15 4d 46 3c ff 0e b5 bc 09 32 43 3d 3b b3 fb bd
       0.012103339 -0.022101877 0.04765514 -0.12290045
000080 98 6b 65 3c 54 0a ae bd f3 ac 87 3d f0 e9 9a 3d
       0.014002703 -0.08498064 0.06624784 0.07564151
000090 4e 68 8a bc 82 3f 41 3d 20 78 2d bd 92 96 fc bd
       -0.01689544 0.047179706 -0.04235089 -0.123334065
0000a0 1d 61 c4 3d 48 2b 56 bd bb ba 09 be 1b ad ca bc
       0.095888354 -0.05228737 -0.13450138 -0.024740746
0000b0 26 9b d9 bc 48 dd da 3c a4 98 d3 3d 06 40 6a bd
       -0.026563238 0.026716843 0.10331848 -0.057189964
0000c0 2d 8c 14 3e e5 70 bf bc 27 65 82 3d 0f 35 25 3d
       0.14506598 -0.023369262 0.063669495 0.040333804
0000d0 6c b6 33 bd 2f c2 07 3e 06 50 0b 3e 43 b1 02 bd
       -0.043875143 0.13257669 0.13604745 -0.03190733
0000e0 c6 3e f5 bc e6 46 b8 3c 7c 41 05 bd ca a3 77 bd
       -0.02993716 0.022494745 -0.032533154 -0.060458936
0000f0 31 77 28 bc 86 06 c3 bc 73 a5 8b 3d 3b e2 99 3d
       -0.010282324 -0.023806822 0.06818666 0.07513853
000100 04 f1 f8 bb 19 e6 55 bd 45 03 9e bd 96 d8 47 3d
       -0.0075970907 -0.05222139 -0.07715467 0.048790537
000110 e4 09 e3 3c 1a 78 33 be 7d ab d2 bb e8 94 57 bd
       0.027714677 -0.17526284 -0.0064291344 -0.052632242
000120 c1 11 00 3e 87 7d ee 3d 6c 23 08 3c 98 e3 b2 3d
       0.12506773 0.11645036 0.0083092265 0.08734816
000130 4f b2 aa 3c 2c 68 09 3e 44 f5 d2 3d dd 0a f4 bd
       0.020836977 0.13418645 0.10300687 -0.119161345
000140 1e ca da bd 9a 1f 98 bd fd 60 f5 bd c6 24 19 3e
       -0.10683082 -0.074279025 -0.1198139 0.14955434
000150 5c f6 ec 3c af ff b4 bc 51 87 0d be e5 be 49 3d
       0.028926067 -0.022094576 -0.1382115 0.049254317
000160 10 8b 9a 3d 91 c8 14 bd 4f 78 ac bd 93 97 c2 3d
       0.07546055 -0.036324088 -0.084213845 0.09501567
000170 d3 8b 3d 3d 95 9b 25 3d 5c dd 9c bd 2f 0c a1 3d
       0.046275925 0.040431578 -0.076594085 0.07863652
000180 c7 8d 00 3c 78 da 86 bd ab 0c 20 bd ca 94 ed bd
       0.007846302 -0.06584638 -0.03907458 -0.11600645
000190 ac 9f b3 3d e3 c3 0e 3e bc 6f e6 bc 25 fa 13 be
       0.08770689 0.13941912 -0.028129451 -0.14450891
0001a0 fa 14 09 3e 21 43 1c be 96 db 17 3d ae 70 0a 3c
       0.13386908 -0.15259983 0.037074648 0.0084497165
0001b0 4b 68 1d bd a9 4b 4f bd 7b b0 10 3e ee 7e 9a bc
       -0.03842954 -0.050609265 0.14129822 -0.018859353
0001c0 55 5d 0f bd 2d 72 da bd 08 4e be bb 20 0e 3c 3c
       -0.035001118 -0.106663086 -0.005807642 0.011477977
0001d0 f4 43 e3 3d 31 89 b9 3c f2 1f 1e 3e 58 cf 19 be
       0.110969454 0.022648426 0.15441874 -0.15020502
0001e0 e5 8c cd bd 50 c4 20 be 98 46 67 3c 68 6d 0e bd
       -0.10036639 -0.15699887 0.014115952 -0.034772307
0001f0 c7 a1 23 3e 9d 12 c4 bd 4e a9 91 bd 41 6d 1a 3e
       0.15979682 -0.09573863 -0.071123704 0.1508074
000200 7b 5e 7e bd 85 86 5b 3d ea 1c 9b bc 5c ad 75 bc
       -0.062101822 0.053595085 -0.018934686 -0.014994945
000210 4f 42 d6 3d ab 94 fe bc 40 40 c5 bb 3c 2a 14 3e
       0.10461866 -0.03107675 -0.006019622 0.14469236
000220 bc 88 e0 3d 6e 07 67 3d 26 28 f8 bd e0 21 16 be
       0.1096358 0.05640357 -0.12117033 -0.1466136
000230 36 06 84 3d 9c 94 80 3c 0d 65 01 be 93 d5 0c be
       0.06446497 0.015695862 -0.12636204 -0.13753347
000240 94 08 68 3c 74 c0 f7 3c f8 47 90 bc 74 ee d3 bd
       0.014162201 0.030243136 -0.017612442 -0.10348216
000250 44 3d 03 3d 91 52 d2 bc 6d 15 7b 3d a0 42 11 bb
       0.03204085 -0.025674136 0.06129973 -0.0022164956
000260 e6 70 ca 3d b0 fa 18 be 2b f7 78 bd 7a 99 a6 bd
       0.09884815 -0.1493938 -0.060782593 -0.08134742
000270 81 b5 a6 3d 4f 86 f4 3d dc ed b2 3d 1f 32 39 bd
       0.08140088 0.1193968 0.08736774 -0.045213815
000280 32 95 0f 3e 4c 09 db bc 4a f8 85 bb 6d bd c1 3c
       0.14021757 -0.026737832 -0.0040884363 0.023649896
000290 de d7 cb 3d 39 42 cc 3d b6 5e 09 be 12 dd af bd
       0.09953283 0.099735685 -0.13415036 -0.08587088
0002a0 4e 6d cb 3d 26 99 6f 3d 5b f3 e0 3b af fa 05 be
       0.099329576 0.058495663 0.0068649477 -0.1308391
0002b0 6a 13 04 be 50 a9 c2 bd 08 64 ca 3c fa 6f 17 3e
       -0.12898031 -0.0950495 0.024705902 0.1478881
0002c0 d0 fd cc 3d 3e 02 66 3d 9e 49 1a bd a7 1c 9d bd
       0.100093484 0.056154482 -0.037667863 -0.076714806
0002d0 ad 0e 47 3d 1a 24 14 3e 61 54 20 bc 35 62 19 3e
       0.04859798 0.14466897 -0.0097857425 0.1497887
0002e0 4e 04 3d 3d b7 9a fe 3c 38 54 d6 bc a4 59 ef bd
       0.046146683 0.031079633 -0.026163206 -0.116870195
0002f0 57 c4 93 bd c6 11 ac bd 10 a8 db bd e0 ae 0d bd
       -0.07215183 -0.084018275 -0.10725415 -0.034590602
000300 25 b9 a2 3d 5e 63 c5 3d 52 b2 53 3b e6 83 d6 3d
       0.0794547 0.096380934 0.0032302332 0.104743764
000310 a3 3a 10 3d 50 8d c2 3d dd 7b 87 bc 1f d3 fa 3d
       0.03521217 0.094996095 -0.016538555 0.122472994
000320 02 8f ff bd 41 03 d9 3b ea 65 5b bc ed 81 90 bd
       -0.124784485 0.0066227023 -0.013390997 -0.070560314
000330 20 bc dc 3d 57 99 41 bd 06 ee 95 3d 38 d8 0a 3e
       0.107780695 -0.047265377 0.0732079 0.13559043
000340 b6 fe 4c bd dc 70 98 bd 27 31 cd 3d 72 c0 0f 3e
       -0.0500476 -0.07443401 0.10019141 0.14038256
000350 b3 ec f0 bd db b1 73 3d 32 29 fe 3d ff db 8e bd
       -0.11763897 0.059495788 0.12410201 -0.06975555
000360 72 7c cf 3d 4b a0 46 3d 3a 94 bb 3d 7e ea 61 bd
       0.10131158 0.04849271 0.09159131 -0.05515527
000370 c7 d8 85 3d e5 3e f0 3c f7 98 47 bd b9 25 04 be
       0.065354876 0.029326865 -0.048729863 -0.12905015
000380 e8 d5 90 3c 56 43 83 3d 78 4c 18 bd 79 39 ce 3d
       0.017680123 0.06409328 -0.0371823 0.10069556
000390 3e cf 97 3d ce 4d b0 3d 66 ec 2c bc 44 98 04 bd
       0.07412575 0.0860859 -0.010554409 -0.032371774
0003a0 1b 90 f3 bd d0 f8 58 3d ca 95 0c be d4 7a 2f 3b
       -0.1189272 0.05297166 -0.13729015 0.0026776092
0003b0 a8 02 b3 3d 54 d1 d0 3d 93 d4 0b bd cf f1 02 3e
       0.08740741 0.10196176 -0.034138273 0.12787555
0003c0 d9 8c 25 bd 05 9c 0c be ef 1d b3 3d 10 f1 84 3c
       -0.040417526 -0.13731392 0.08745944 0.016228229
0003d0 2e b9 b9 3d 59 f0 a7 bd 9e 25 0b be bd ee eb 3d
       0.09068523 -0.082001396 -0.13588569 0.11520145
0003e0 d7 ab a3 bd df b0 ae 3d 69 4b 0b be 5b 55 fc 3c
       -0.0799176 0.08529829 -0.13602985 0.03080242
0003f0 03 ad 81 bd 75 bf e6 3d c8 15 e7 3d 2d d3 31 3d
       -0.063318275 0.11266986 0.11283451 0.043414284

clinical.layer4.bias f4 [4]
000000 17 de 0f bd d9 3d fe bb 48 0d d9 bc 7c 6a 5f 3b
       -0.03512391 -0.0077588377 -0.02649559 0.003409057

clinical.batchnorm1.weight f4 [128]
000000 61 ea 7f 3f bd 4f 80 3f 4e f9 7f 3f 52 30 7f 3f
       0.9996701 1.0024334 0.99989784 0.99683106
000010 ce aa 7f 3f 00 00 80 3f ae 07 80 3f fb 54 80 3f
       0.9987 1.0 1.0002344 1.0025934
000020 bf 16 80 3f 3b 00 80 3f 00 00 80 3f de 0d 80 3f
       1.0006942 1.000007 1.0 1.0004232
000030 21 2e 80 3f d0 86 80 3f a1 49 80 3f 3a 5a 7f 3f
       1.0014077 1.0041142 1.002247 0.9974705
000040 5e b6 7f 3f 00 00 80 3f 00 00 80 3f cc c8 7f 3f
       0.99887645 1.0 1.0 0.99915767
000050 16 f7 7f 3f 75 a2 83 3f 00 00 80 3f 00 00 80 3f
       0.999864 1.0283953 1.0 1.0
000060 ff bd 7f 3f e2 f8 7f 3f 9c 1d 80 3f 00 00 80 3f
       0.99899286 0.9998914 1.0009036 1.0
000070 f7 61 80 3f 35 a2 7f 3f ed 5c 80 3f 32 20 80 3f
       1.0029896 0.99856883 1.0028359 1.0009825
000080 00 00 80 3f 76 33 80 3f 87 05 80 3f 9b f3 80 3f
       1.0 1.0015705 1.0001687 1.0074342
000090 00 00 80 3f d6 38 80 3f a6 48 80 3f 00 00 80 3f
       1.0 1.0017345 1.002217 1.0
0000a0 49 02 80 3f 00 00 80 3f 7f 3d 80 3f 94 3f 7f 3f
       1.0000697 1.0 1.0018767 0.9970639
0000b0 ec 0b 80 3f 7b a7 7f 3f 00 00 80 3f 00 00 80 3f
       1.0003638 0.9986493 1.0 1.0
0000c0 3d f2 81 3f f0 39 7f 3f 6e 12 80 3f 5a b9 80 3f
       1.015205 0.9969778 1.0005624 1.0056565
0000d0 00 00 80 3f 00 00 80 3f 9b 96 7f 3f ee 04 80 3f
       1.0 1.0 0.9983918 1.0001504
0000e0 10 eb 80 3f 62 00 80 3f ee 93 80 3f c2 03 80 3f
       1.0071735 1.0000117 1.0045145 1.0001147
0000f0 00 00 80 3f 0c 38 80 3f 9d 1a 80 3f ec 5c 80 3f
       1.0 1.0017104 1.0008122 1.0028358
000100 58 6b 80 3f 00 00 80 3f 87 90 80 3f 00 00 80 3f
       1.0032759 1.0 1.0044106 1.0
000110 00 00 80 3f db 70 80 3f 00 00 80 3f 00 00 80 3f
       1.0 1.0034441 1.0 1.0
000120 00 00 80 3f d8 c1 7f 3f 18 a9 80 3f 00 00 80 3f
       1.0 0.9990516 1.0051603 1.0
000130 5b 2e 81 3f a6 37 80 3f 00 00 80 3f e4 2e 80 3f
       1.0092272 1.0016983 1.0 1.001431
000140 9f 99 80 3f ab 4a 80 3f 1d 41 80 3f 1b be 7f 3f
       1.0046881 1.0022787 1.0019871 0.9989945
000150 00 00 80 3f 00 00 80 3f 00 00 80 3f 73 1f 80 3f
       1.0 1.0 1.0 1.0009598
000160 f2 42 80 3f 05 9b 83 3f 5c 33 80 3f 4b 6f 80 3f
       1.002043 1.0281683 1.0015674 1.0033964
000170 b9 68 80 3f 00 00 80 3f 00 00 80 3f 88 be 7f 3f
       1.0031959 1.0 1.0 0.999001
000180 3f 4a 80 3f e3 3b 80 3f 00 00 80 3f b8 ad 80 3f
       1.0022658 1.0018276 1.0 1.0053015
000190 00 00 80 3f fd 5a 82 3f 00 00 80 3f 93 c9 7f 3f
       1.0 1.0184017 1.0 0.9991695
0001a0 00 00 80 3f bd 82 7f 3f 53 ca 80 3f e3 a9 7f 3f
       1.0 0.99808866 1.0061744 0.998686
0001b0 d4 67 80 3f d5 19 80 3f 9c b2 80 3f 00 00 80 3f
       1.0031686 1.0007883 1.0054507 1.0
0001c0 ad 25 80 3f f3 19 80 3f 00 00 80 3f 96 c1 7f 3f
       1.0011498 1.0007919 1.0 0.99904764
0001d0 00 00 80 3f 4d 5b 80 3f f9 e0 7f 3f 00 00 80 3f
       1.0 1.0027863 0.99952656 1.0
0001e0 9b 63 80 3f 00 00 80 3f 00 00 80 3f 50 15 7f 3f
       1.0030397 1.0 1.0 0.99641895
0001f0 a7 cc 80 3f 3e 26 80 3f 69 41 80 3f 2b 57 80 3f
       1.0062455 1.001167 1.0019962 1.0026602
