pretrained/trained.pth (torch, 1823 bytes, 4 tensors)

layer1.weight f4 [3, 6]
000000 87 b9 55 3d e3 e1 ae bd 8c fe d0 3e a6 2e 06 be
       0.052178886 -0.08539178 0.40819204 -0.13103732
000010 cc 8e 7f 3e 75 6a 35 be 4e 9b df bd 99 1d a6 be
       0.24956816 -0.17716391 -0.10918294 -0.32444456
000020 7f 57 16 3e dd 90 d2 3e 5b cd 64 be 69 ad bb be
       0.14681815 0.41126147 -0.22343962 -0.3665574
000030 7f 3a c3 3d 97 aa 27 be 3c ab f4 3d da 54 58 3d
       0.095326416 -0.16373669 0.11946723 0.052815296
000040 d8 e0 ce bd e1 2a c8 3c
       -0.10101479 0.024434509

layer1.bias f4 [3]
000000 2a 76 33 3e 4e 69 cd 3e b5 7b 21 be
       0.17525545 0.40119404 -0.15769847

layer2.weight f4 [2, 3]
000000 65 db 32 bf dd 4d 52 be b6 60 39 3f ed da 99 3e
       -0.6986602 -0.20537515 0.72413194 0.3004984
000010 39 16 98 3d 08 42 2d bf
       0.07426114 -0.6767888

layer2.bias f4 [2]
000000 f1 74 b0 3e ad 65 35 bf
       0.3446422 -0.7085827
