pretrained/trained.pth (torch, 42933 bytes, 13 tensors)

layer1.weight f4 [64, 5]
0	0xbe4302ba	-0.19044009
1	0xbee4333b	-0.44570336
2	0x3e2dc560	0.16969824
3	0x3e99e458	0.30057025
4	0xbe07bb5e	-0.13255069
5	0x3dc28298	0.09497565
6	0x3e98b262	0.29823595
7	0x3ee02356	0.4377696
8	0x3e73bc11	0.2380221
9	0xbebc0d92	-0.36729103
10	0x3e47ccfd	0.1951179
11	0xbea90a60	-0.33015728
12	0x3e15ff53	0.1464818
13	0xbe9cc47b	-0.30618653
14	0x3ebedecc	0.37279356
15	0xbe43da6e	-0.19126293
16	0x3e8878be	0.2665462
17	0xbd02ec18	-0.031963438
18	0xbe4b55fc	-0.19857019
19	0xb92bd800	-0.00016388297
20	0xbde410a4	-0.111359864
21	0x3e9b0b09	0.30281857
22	0x3eda8b4c	0.426844
23	0x3dcfcff7	0.10147088
24	0xbdaf7a39	-0.08568234
25	0xbdf086f0	-0.11744487
26	0x3eaf68f2	0.34259754
27	0xbe1fbb5a	-0.15598813
28	0x3ee0eda0	0.43931293
29	0xbea2b8f6	-0.3178174
30	0xbe79f5f6	-0.24410233
31	0x3d86118e	0.06546317
32	0x3ec02237	0.37526104
33	0xbe22ad92	-0.15886524
34	0xbcdd9727	-0.027049614
35	0x3e834e46	0.25645655
36	0xbe317ad4	-0.17332011
37	0x3d72d33d	0.059283484
38	0xbe9337dd	-0.28753558
39	0x3d666119	0.056244943
40	0xbea45b1d	-0.32100764
41	0x3eb50d12	0.35361534
42	0xbee25be6	-0.44210738
43	0x3e93486c	0.2876619
44	0xbd675880	-0.056480885
45	0xbe4bf841	-0.1991892
46	0xbe847da1	-0.25877097
47	0xbe9ad55e	-0.3024091
48	0xbe0fb17c	-0.14032549
49	0xbedb6347	-0.4284918
50	0x3d083e3f	0.033262488
51	0xbd92ae0f	-0.07162105
52	0xbd5848e0	-0.052803874
53	0x3d95d14f	0.07315313
54	0x3e2afaf8	0.166973
55	0xbeacb343	-0.33730516
56	0xbecf8b3b	-0.40535912
57	0x3ea34dde	0.31895345
58	0xbe5eea91	-0.21769167
59	0x3db5f413	0.08884444
60	0xbe5193c1	-0.2046652
61	0xbeda78e3	-0.42670354
62	0xbdce827c	-0.10083482
63	0xbd1577e0	-0.036491275
64	0x3d738240	0.059450388
65	0x3d805f87	0.062682204
66	0xbe39586e	-0.1810014
67	0x3e896623	0.26835737
68	0x3ea22930	0.3167205
69	0x3eae9ecd	0.3410553
70	0x3d8ca88f	0.068680875
71	0xbcad0097	-0.021118445
72	0xbd36d1f4	-0.04463382
73	0xbdc4423a	-0.09582944
74	0x3e971f2e	0.29515976
75	0xbeb1dbb6	-0.3473794
76	0x3e77b69a	0.2419075
77	0x3e56f9ab	0.20993678
78	0xbecfa184	-0.40552914
79	0xbed01268	-0.40639043
80	0xbea83b2e	-0.3285765
81	0x3ea83674	0.32854044
82	0xbe80152a	-0.25016147
83	0xbe3385a8	-0.17531455
84	0xbd30c330	-0.043154895
85	0xbd948a23	-0.0725291
86	0x3e7035ca	0.23458019
87	0x3e8cd523	0.2750636
88	0xbec0ed70	-0.3768115
89	0xbec420d9	-0.3830631
90	0xbe70fe23	-0.23534445
91	0xbd3b877b	-0.0457835
92	0x3e8a79bc	0.27046
93	0x3dc5fa7c	0.09666917
94	0x3e4903c3	0.19630341
95	0x3ed09e95	0.40745988
96	0x3ed52115	0.41626802
97	0x3db9a6ec	0.09065041
98	0x3e48b872	0.1960161
99	0x3ec2acae	0.3802237
100	0x3e9311cd	0.28724518
101	0x3e809099	0.2511032
102	0x3ed7e7ca	0.4216903
103	0x3e31e598	0.1737274
104	0x3d9ea7e8	0.07746869
105	0x3eac3818	0.33636546
106	0x3eb4e1c7	0.35328504
107	0xbe1031f3	-0.14081554
108	0x3e2dcc61	0.16972496
109	0xbeaaaf1a	-0.33336717
110	0xbea4716b	-0.3211778
111	0x3e9a1f4e	0.3010201
112	0xbe5799df	-0.21054791
113	0xbdfbf690	-0.123028874
114	0xbdddd820	-0.10832238
115	0x3ee1191b	0.43964466
116	0xbd5222e8	-0.05130282
117	0x3d897b98	0.06713027
118	0xbe895781	-0.26824573
119	0x3eaa4ceb	0.3326181
120	0xbdfd851b	-0.123789035
121	0xbdd7f6b0	-0.10545099
122	0x3e897097	0.26843712
123	0x3ebf6583	0.37382135
124	0xbe397b6f	-0.18113492
125	0x3ea090d4	0.31360495
126	0x3d9c4656	0.07630603
127	0x3ceee674	0.029162623
128	0xbdd4ca95	-0.10390202
129	0xbd970346	-0.07373671
130	0x3d87fbb5	0.06639806
131	0xbe5a61af	-0.21326326
132	0x3e8661a2	0.26246363
133	0x3e4035c6	0.18770513
134	0xbe0dabeb	-0.13835113
135	0x3eddc05e	0.43310827
136	0xbd85e4ab	-0.065377556
137	0x3e9895c4	0.29801762
138	0x3c807549	0.015680926
139	0x3e6999bd	0.22812553
140	0xbd9f6428	-0.07782775
141	0xbea61c3e	-0.32443422
142	0xbd407688	-0.04698804
143	0xbdf79330	-0.12088621
144	0xbe3f08b8	-0.1865567
145	0x3ed9e4f1	0.4255748
146	0x3edd3ed7	0.43212005
147	0xbdc89e46	-0.09795813
148	0x3d380bcb	0.04493312
149	0xbe7a0c16	-0.24418673
150	0x3e609c48	0.21934617
151	0xbe8188da	-0.25299722
152	0xbe9399b0	-0.28828192
153	0x3e4509b0	0.19241977
154	0x3edcc04a	0.43115455
155	0x3da6bcf4	0.08141509
156	0xbed4cbc2	-0.41561705
157	0x3e9bd8d8	0.30438876
158	0xbe2adb5e	-0.16685244
159	0x3e3c2b99	0.18376006
160	0xbd9b151a	-0.07572384
161	0xbe10b3c2	-0.14131072
162	0x3e11ace6	0.14226112
163	0x3e3b4099	0.18286361
164	0x3e515a14	0.20444518
165	0x3e6783ce	0.22608873
166	0x3e429ced	0.19005175
167	0xbdfd46a3	-0.123669885
168	0x3ddb645e	0.10712503
169	0x3eb7b08b	0.3587688
170	0x3c156e00	0.009120464
171	0x3bb07cc0	0.005385965
172	0xbee171bb	-0.44032082
173	0x3e8dd292	0.27699715
174	0x3e844528	0.25834012
175	0x3e1b652c	0.15175313
176	0xbebb6ce9	-0.3660653
177	0xbe99f7b7	-0.30071804
178	0xbeae39ae	-0.3402838
179	0xbe1364c8	-0.14393914
180	0xbed7c619	-0.42143324
181	0x3e592f2c	0.21209401
182	0xbed62a1a	-0.41828996
183	0xbedf8a8c	-0.4366039
184	0x3cdbfe80	0.026854753
185	0x3da88c62	0.08229901
186	0xbecd47a6	-0.40093726
187	0x3ddd14fc	0.10795018
188	0xbea82d71	-0.3284717
189	0x3ec1769f	0.37785813
190	0x3bc70510	0.0060736015
191	0xbea01d55	-0.3127238
192	0x3bfcc0cf	0.0077134143
193	0x3e97f054	0.29675543
194	0x3dca6bf6	0.09883873
195	0xbe8b65f3	-0.2722622
196	0xbe0f6eeb	-0.14007156
197	0x3d945faf	0.07244813
198	0x3e509cc7	0.20372306
199	0x3e30b3a7	0.17256032
200	0xbea1a3ce	-0.31570286
201	0x3de46698	0.11152381
202	0xbeb80df8	-0.35948157
203	0xbe864bdc	-0.2622975
204	0x3e7e6418	0.2484287
205	0xbd6966a1	-0.05698264
206	0x3e98d650	0.29851007
207	0x3de2fcba	0.1108336
208	0xbe81464f	-0.25248954
209	0xbe90200e	-0.28149456
210	0xbec2f65c	-0.38078582
211	0xbeaeb252	-0.34120423
212	0x3e14baa9	0.1452433
213	0xbe358b21	-0.17728855
214	0x3e5c25d7	0.2149881
215	0xbec8f5ef	-0.39250132
216	0x3dd758c3	0.10514977
217	0x3e95d9f6	0.29267853
218	0xbe8660ce	-0.2624573
219	0xbea2bfe9	-0.3178704
220	0x3e0d117d	0.13776202
221	0xbe57c1c9	-0.21070017
222	0xbebb2584	-0.3655206
223	0x3de0f560	0.109843016
224	0x3e44df30	0.19225764
225	0xbeb9a4ab	-0.36258444
226	0xbebcdead	-0.36888638
227	0x3d8e96bb	0.06962343
228	0x3e9c3077	0.30505726
229	0x3e81c8ec	0.25348604
230	0xbdd462a4	-0.10370377
231	0x3d994c58	0.074852645
232	0xbdf20a14	-0.118183285
233	0xbead58b6	-0.33856744
234	0xbec2bcd0	-0.38034678
235	0x3e2ba1df	0.16760968
236	0x3e6fab7e	0.23405263
237	0xbedb83b9	-0.42873934
238	0xbde78af4	-0.113058
239	0xbe2dc5ec	-0.16970032
240	0x3dfd80bd	0.123780705
241	0x3db611ac	0.088900894
242	0x3e370cf5	0.17876036
243	0x3e6be77a	0.2303752
244	0x3eaf69ce	0.3426041
245	0xbcc22679	-0.023699986
246	0xbe7f5b3c	-0.24937147
247	0x3e990f54	0.29894507
248	0xbda479ca	-0.08031042
249	0xbec26152	-0.37964875
250	0xbec64641	-0.38725474
251	0xbe95be01	-0.29246524
252	0xbd58ed08	-0.052960426
253	0x3eb2dca4	0.3493396
254	0x3dc27e00	0.09496689
255	0x3e0295b6	0.12752423

layer1.bias f4 [64]
0	0x3c717be9	0.014739015
1	0xbdf8204b	-0.121155344
2	0x3cdb2037	0.02674876
3	0x3ec5de4c	0.38646162
4	0x3e7f03cd	0.24903794
5	0xbe96b9b0	-0.29438543
6	0x3ee29817	0.4425666
7	0xbe0aa38f	-0.13538955
8	0xbe956856	-0.29181165
9	0x3ec5f088	0.38660073
10	0xbed6912c	-0.41907632
11	0xbe08758e	-0.13326094
12	0x3ecb20de	0.39673513
13	0x3eb198b6	0.34686822
14	0x3eabcd21	0.33554938
15	0x3e3dd491	0.18538119
16	0xbc67c0c0	-0.014145076
17	0xbe4c6e97	-0.19964062
18	0xbd20c344	-0.03924872
19	0xbe42b54a	-0.19014469
20	0x3e08ac3e	0.13346955
21	0xbe5f3ce4	-0.21800572
22	0x3d45fda0	0.04833758
23	0x3eaa3077	0.332401
24	0xbedb81d5	-0.4287249
25	0x3d1bbed8	0.0380238
26	0x3ea75eb2	0.32689434
27	0xbd953d1f	-0.072870485
28	0x3e711a98	0.23545301
29	0xbe3928b7	-0.18081938
30	0xbed7fb9b	-0.42184147
31	0xbece7db4	-0.4033028
32	0x3ed50282	0.41603476
33	0xbe5c1b55	-0.21494801
34	0x3e381af8	0.17979038
35	0x3e8336bb	0.25627694
36	0x3d5697e0	0.052390933
37	0x3e0fa004	0.14025885
38	0x3e831d0e	0.25608104
39	0x3e985ea4	0.29759705
40	0x3db74710	0.08949101
41	0xbdfcd3db	-0.12345096
42	0xbc913000	-0.017723083
43	0xbebf5b54	-0.37374365
44	0x3ee41467	0.44546816
45	0xbeaa5bcd	-0.33273163
46	0x3dd84810	0.1056062
47	0x3ec8b689	0.39201763
48	0x3ea2f56f	0.31827876
49	0xbeabf5f8	-0.33586097
50	0x3e5d54a4	0.21614319
51	0x3e8dcce3	0.2769538
52	0x3dcb4ef0	0.099271655
53	0xbe2f7851	-0.17135741
54	0xbe9441be	-0.28956407
55	0xbc25460e	-0.010087503
56	0xbdefedca	-0.117152765
57	0xbed1f784	-0.41009152
58	0xbe945cc8	-0.28977036
59	0x3e70d09c	0.23517078
60	0xbe98a3b7	-0.29812405
61	0x3daa241e	0.0830767
62	0x3ec5f899	0.38666227
63	0xbc2f01a0	-0.01068154

layer2.weight f4 [128, 64]
0	0x3cc0c7eb	0.023532828
1	0x3d39dc54	0.045376137
2	0x3c689d62	0.014197679
3	0x3da3557c	0.07975289
4	0x3d9b8a0c	0.0759469
5	0xbc09b2b8	-0.008404426
6	0x3dd1f012	0.10250868
7	0xba89af17	-0.0010504451
8	0x3d7007dc	0.058601245
9	0xbd0eb45f	-0.034839984
10	0xbc8fb341	-0.01754153
11	0xbc726e15	-0.014796753
12	0x3d988a56	0.074482605
13	0xbbb9f411	-0.005674847
14	0x3cff6ee7	0.031180812
15	0xbe014a82	-0.12626079
16	0xbc39fef4	-0.0113522895
17	0x3d11baea	0.035578646
18	0x3d8ec4ce	0.06971131
19	0x3df28d8f	0.118434064
20	0x3d9bbc64	0.07604292
21	0xbde3611f	-0.11102509
22	0x3df0ffa0	0.117675066
23	0x3d99d95f	0.07512163
24	0xbdf8797e	-0.12132548
25	0x3dc5d26a	0.09659274
26	0xbdf8a566	-0.12140922
27	0x3d9246a2	0.071423784
28	0xbb6ac9f0	-0.003582593
29	0xbd84eefe	-0.06490897
30	0xbcf3f98f	-0.029782085
31	0x3d87c6e3	0.066297315
32	0x3de28dc9	0.110621996
33	0x3c70a130	0.014686868
34	0x39578b78	0.00020555954
35	0x3c288fc0	0.010288179
36	0xbd243cae	-0.04009693
37	0xbdc8cb4e	-0.09804402
38	0xbdf26a2e	-0.118366584
39	0xbc1c6be4	-0.0095472075
40	0xbd05b369	-0.032641802
41	0x3db1e3c7	0.08686023
42	0x3d97c1ec	0.074100345
43	0xbd4f2f3c	-0.050582156
44	0x3dc66146	0.09686522
45	0x3dd8b1af	0.105807655
46	0xbdaafd8c	-0.083491415
47	0x3d9f1577	0.07767766
48	0xbdd6a0c8	-0.10479885
49	0xbd331143	-0.043717634
50	0xbbea98bf	-0.007159322
51	0xbdb90caa	-0.090356186
52	0x3cbeb631	0.023280235
53	0x3da7e970	0.081988215
54	0x3d9e7923	0.07737949
55	0x3c1276de	0.008939473
56	0xbdc2a7fa	-0.09504695
57	0x3dc119fa	0.09428783
58	0x3d53de00	0.051725388
59	0x3dac5fe5	0.08416728
60	0x3c41a8c1	0.011820019
61	0x3dea841d	0.1145098
62	0x3db513d2	0.08841671
63	0x3dff7b7f	0.12474727
64	0x3c798afa	0.0152308885
65	0x3dec0c44	0.11525777
66	0x3dfbfd10	0.12304127
67	0x3d0eba2f	0.034845527
68	0xbd9a3da4	-0.07531288
69	0x3c256146	0.010093993
70	0x3d2e7adc	0.042597637
71	0x3d9c3414	0.076271206
72	0xbd9886a5	-0.074475564
73	0x3c95b589	0.01827504
74	0xbc05056f	-0.008118971
75	0x3d1af32e	0.03782957
76	0x3dcd21a9	0.10016186
77	0xbda1a495	-0.0789272
78	0x3c578d34	0.013156224
79	0x3db51a71	0.08842934
80	0x3cf7227f	0.030167816
81	0x3d01a979	0.031655762
82	0xb8ad59b8	-8.265994e-05
83	0xbc3d01d4	-0.01153608
84	0xbd943dde	-0.07238363
85	0x3db47400	0.08811188
86	0xbe01f013	-0.12689237
87	0x3d9fbe00	0.077999115
88	0x3db2cd3f	0.08730554
89	0x3cdf6b63	0.027272886
90	0x3de11724	0.10990742
91	0x3dcc04fd	0.09961889
92	0xbda54a79	-0.08070845
93	0x3db1d9f9	0.08684153
94	0x3ddfce2f	0.10927998
95	0xbcf58901	-0.029972555
96	0x3db2cf7f	0.08730983
97	0x3d84cd72	0.06484498
98	0x3d963a53	0.07335343
99	0xbdc2942d	-0.095009185
100	0xbd59725e	-0.053087585
101	0x3d8354ad	0.06412635
102	0xbd313304	-0.043261543
103	0x3b799cfd	0.0038087957
104	0x3d1ee05a	0.038788177
105	0x3dc9f9ac	0.09862074
106	0x3dd005e9	0.10157377
107	0x3d0319a2	0.032006867
108	0x3db266df	0.08711027
109	0x3be8f90c	0.007109767
110	0x3d960a07	0.07326131
111	0x3e00b42e	0.12568733
112	0x3cbf824e	0.023377564
113	0x3caead45	0.021322856
114	0x3a4b898e	0.00077643327
115	0x3dd6a424	0.10480526
116	0xbd0b9036	-0.034073077
117	0x3de0b7ca	0.10972555
118	0xbdd66a63	-0.104695104
119	0xbd39ceed	-0.045363355
120	0xbc36898c	-0.011141192
121	0x3ad052da	0.0015893832
122	0xbd928a86	-0.071553275
123	0x3de3dc6c	0.111260265
124	0xbd730f93	-0.059341025
125	0x3c37451d	0.0111859115
126	0x3d0f1109	0.034928355
127	0x3dcbf6e6	0.099592015
128	0xbb11953f	-0.0022214202
129	0xbd9853fc	-0.07437894
130	0x3d64e7ec	0.05588524
131	0x3ca4f959	0.02013843
132	0xbd249ca2	-0.04018844
133	0xbdc91c0a	-0.09819801
134	0xbd899add	-0.06718991
135	0xbd244d44	-0.04011275
136	0xbcb71bc0	-0.0223521
137	0x3d3c28d0	0.04593736
138	0xbdbc9f99	-0.09210128
139	0xbcbffec8	-0.023436919
140	0x3d1cb5cb	0.03825931
141	0xbda9cd98	-0.08291167
142	0x3da9d896	0.082932636
143	0xbdc4f723	-0.0961745
144	0x3da51404	0.08060458
145	0x3df654a9	0.120278664
146	0xbdab4472	-0.08362664
147	0x3c72c316	0.01481702
148	0x3d953ce2	0.07287003
149	0x3cd3d531	0.025858494
150	0x3c8257bd	0.015910977
151	0x3d89b191	0.06723321
152	0xbb6325c4	-0.0034659961
153	0xbde5eadb	-0.11226436
154	0xbdd41996	-0.10356443
155	0xbdbe70d3	-0.09298863
156	0x3dd0fcfc	0.10204503
157	0x3dde24b7	0.108468466
158	0x3d24368f	0.040091094
159	0xb915297a	-0.00014225199
160	0xbc2f6172	-0.010704385
161	0x3d8cfdd2	0.0688435
162	0x3dafd5f6	0.08585732
163	0x3d9a6448	0.075386584
164	0xbd4995d8	-0.049215168
165	0xbce1bfe7	-0.027557326
166	0xbdfd3817	-0.12364214
167	0x3d1c529d	0.038164724
168	0xbdf56504	-0.11982158
169	0xbd868706	-0.065687224
170	0xbd5c4483	-0.053776275
171	0xbdc93827	-0.09825163
172	0x3cc5aa3d	0.024129028
173	0xbc78f846	-0.015195912
174	0x3ce5ddc9	0.028059857
175	0xbcb4f939	-0.022091495
176	0x3cac9c37	0.021070583
177	0x3ddd28c5	0.10798792
178	0xbdb43984	-0.08800033
179	0xbde44403	-0.11145785
180	0xbddc9db2	-0.107722655
181	0x3e0456de	0.12923762
182	0xbcacaf89	-0.021079795
183	0x3d3fa507	0.04678824
184	0x3db3ca62	0.08778836
185	0xbd3706c5	-0.04468419
186	0xbd2374c5	-0.039906282
187	0x3da3c59a	0.07996674
188	0xbd7f3db7	-0.062314715
189	0x3d30240d	0.04300313
190	0xbd02aaed	-0.03190129
191	0x3cd86490	0.02641514
192	0x3d462994	0.048379496
193	0x3d63eb72	0.05564446
194	0xbcfd3337	-0.03090821
195	0xbda69c37	-0.08135264
196	0xb9e9a2e5	-0.0004456259
197	0xbdd3a3a5	-0.10333947
198	0xbdf33f36	-0.11877291
199	0x3d94b84a	0.07261713
200	0xbdeaa9f6	-0.11458199
201	0xbdde07d0	-0.10841334
202	0x3cf2a916	0.029621642
203	0x3d0f980c	0.035057113
204	0x3d5b819c	0.053590402
205	0x3dfaaae0	0.12239623
206	0xbdc973f6	-0.09836571
207	0xbcf9fa8e	-0.030514982
208	0xbdd3f791	-0.10349954
209	0x3d240d52	0.040051766
210	0x3d97f0d2	0.0741898
211	0xbdef20ac	-0.116761535
212	0xbd007a0e	-0.0313664
213	0xbdb0e89d	-0.086381175
214	0xbd805188	-0.06265551
215	0xbd84a442	-0.06476642
216	0x3dd9a7aa	0.106276825
217	0xbde0b698	-0.10972327
218	0x3da6e620	0.081493616
219	0xbdb6dbef	-0.08928668
220	0xbcfa8dea	-0.030585248
221	0x3d1767ef	0.036964353
222	0x3d75357a	0.059865452
223	0x3d3c2aed	0.045939375
224	0xbc46ffdc	-0.012145963
225	0x3db3ce6b	0.087796055
226	0x3dad6476	0.08466427
227	0x3dddb83d	0.10826156
228	0xbd878c71	-0.06618584
229	0x3de476da	0.11155482
230	0x3d9caadc	0.07649776
231	0x3debc78c	0.1151267
232	0xbb012c51	-0.0019710253
233	0xbdd1acc7	-0.10238033
234	0x3cd15115	0.025551358
235	0xbd946315	-0.07245461
236	0x3d49c594	0.04926069
237	0x3d6738a4	0.0564505
238	0x3d8f94b6	0.07010786
239	0x3da3a784	0.079909354
240	0x3c35f37f	0.011105417
241	0xbd74164c	-0.059591576
242	0x3dfa64b3	0.12226238
243	0x3d41b36d	0.047290254
244	0x3dc5798f	0.09642326
245	0xbd8938cb	-0.067002855
246	0x3debcf9b	0.11514207
247	0xbdf07800	-0.11741638
248	0x3dcc2052	0.09967102
249	0x3df96a4b	0.12178477
250	0xbd524096	-0.051331125
251	0x3db98d0b	0.09060105
252	0x3cee2d05	0.029074201
253	0x3d6253b6	0.055255614
254	0x3d85b0c7	0.06527858
255	0xbb877248	-0.0041334964

layer2.bias f4 [128]
0	0xbcc6208f	-0.024185447
1	0xba1275f2	-0.0005587033
2	0xbd1ef02d	-0.03880327
3	0x3da7cdd4	0.081935555
4	0x3c0229b3	0.007944512
5	0xbc09da05	-0.008413796
6	0xbd9af717	-0.0756666
7	0xbd3eb848	-0.046562463
8	0x3cbcb9c8	0.023037806
9	0x3ab45cb2	0.0013760536
10	0x3bd2ea88	0.0064366497
11	0xbd41827f	-0.04724359
12	0xbca76d33	-0.020437812
13	0xbdeae188	-0.11468798
14	0x3d5a6dce	0.053327374
15	0xbd140fff	-0.036148068
16	0x3d5163a6	0.051120423
17	0xbdaf986f	-0.08573996
18	0x3dc9dc1b	0.09856435
19	0x3de4a34a	0.111639574
20	0x3dc9ce7f	0.09853839
21	0xbd44d023	-0.048050057
22	0x3df7c66a	0.12098391
23	0xbcdd89a8	-0.027043179
24	0xbdc7a2e7	-0.09747868
25	0xbd5ae5f6	-0.053441964
26	0xbd1682f9	-0.036746
27	0x3dd60436	0.10450022
28	0xbc77b13d	-0.0151179405
29	0xbdf465da	-0.11933489
30	0x3d21ed31	0.039532844
31	0xbd6742dd	-0.05646025
32	0xbd545e96	-0.051848017
33	0x3df9290e	0.12166034
34	0xbded3b51	-0.11583579
35	0xbd85e499	-0.06537742
36	0x3c68a47e	0.014199374
37	0x3de5e4ea	0.112253025
38	0x3da3a086	0.07989602
39	0x3d965208	0.07339865
40	0xbc07ce9a	-0.008289004
41	0x3b9e6ae3	0.0048345192
42	0x3c3cc81e	0.011522321
43	0x3d31e21d	0.04342853
44	0x3df82734	0.121168524
45	0xbc0799e2	-0.008276435
46	0xbd753112	-0.05986125
47	0x3ddb64fd	0.10712621
48	0xbdf0d6f8	-0.11759752
49	0xbdfbf387	-0.123023085
50	0x3ddbd05f	0.10733103
51	0xbdb63234	-0.08896294
52	0x3da9cf0b	0.082914434
53	0x3d16d1a0	0.036821008
54	0xbbcc9796	-0.0062436564
55	0xbda2f708	-0.07957274
56	0x3d9a599b	0.07536622
57	0xbcf8e921	-0.030384602
58	0xbd363560	-0.044484496
59	0x3d820608	0.063488066
60	0xbd4d24bf	-0.050083872
61	0xbd000411	-0.031253878
62	0x3dbbd9c4	0.09172395
63	0x3b8b6921	0.0042544757
64	0x3b8ebead	0.0043562264
65	0x3d5b43bf	0.053531405
66	0xbc3c2035	-0.011482288
67	0x3d8c389e	0.06846736
68	0x3d85e0a4	0.065369874
69	0x3d562ed0	0.052290738
70	0xbd87d5ac	-0.066325516
71	0x3bd85fa7	0.0066031995
72	0xbd1f6e71	-0.038923685
73	0x3d16c5cd	0.03680973
74	0xbdc00e07	-0.093776755
75	0xbcb29da5	-0.021803686
76	0xbdc50f2d	-0.09622035
77	0x3bc824d0	0.006107904
78	0xbdc01a94	-0.093800694
79	0x3d40f15a	0.04710517
80	0x3dd97f13	0.106199406
81	0xbd8561d8	-0.06512803
82	0x3c4021d3	0.011726814
83	0xbd26af7f	-0.04069471
84	0x3d69dfbb	0.05709813
85	0xbdc45edb	-0.09588405
86	0x3d85fec0	0.0654273
87	0xbdaa8a24	-0.083271295
88	0xbdfcb06f	-0.123383395
89	0x3da72932	0.08162154
90	0xbd8fc8a1	-0.07020689
91	0xbd060f62	-0.032729514
92	0xbdf65ba6	-0.12029199
93	0x3db104b8	0.08643478
94	0xbd8774b7	-0.066140585
95	0xbcf5b36b	-0.02999278
96	0xbd245f04	-0.040129676
97	0xbdd386b5	-0.10328428
98	0x3c55b611	0.013043896
99	0xbda51077	-0.08059781
100	0x3a1ff6f6	0.00061021687
101	0xbd579cd3	-0.052639794
102	0xbdda24ab	-0.10651525
103	0xbd924af7	-0.07143205
104	0x3d3fe6d0	0.04685098
105	0xbd8a1b08	-0.06743437
106	0xbda04754	-0.07826105
107	0xbbb0c3d1	-0.005394437
108	0x3db33ba0	0.08751607
109	0x3dbabd96	0.09118192
110	0xbd584f49	-0.052809987
111	0x3dd546bb	0.104138814
112	0xbd4d0788	-0.05005601
113	0x3dbe7201	0.09299088
114	0x3d8f4b0b	0.06996735
115	0x3dd5d8c2	0.10441734
116	0x3dfbe2e3	0.122991346
117	0x3df76433	0.12079658
118	0x3dbdc271	0.092656024
119	0xbc3707ff	-0.01117134
120	0xbd8833c6	-0.066505
121	0x3d7509a4	0.059823647
122	0x3d75d1cb	0.060014527
123	0x3de351fe	0.11099623
124	0x3da79d6d	0.081843235
125	0xbce326ec	-0.02772852
126	0x3de47026	0.11154203
127	0x3ce5eff9	0.02806853

layer3.weight f4 [1, 128]
0	0x3d425ad8	0.047449917
1	0xbcede737	-0.029040916
2	0x3d507328	0.05089107
3	0x3d88d6a2	0.06681563
4	0xbc023751	-0.007947759
5	0xbd7b88c6	-0.061409734
6	0x3c3891e6	0.011265254
7	0xbd60b852	-0.05486328
8	0x3d8f480a	0.06996162
9	0x3d8c38d6	0.06846778
10	0x3b081c89	0.0020768961
11	0xbd3ca625	-0.046056885
12	0x3d202054	0.03909333
13	0x3c8b781e	0.01702505
14	0xbdb3ba7f	-0.08775806
15	0xbd0f2d43	-0.034955274
16	0x3db0df81	0.0863638
17	0xbd2c263b	-0.042028647
18	0x3d9409de	0.072284445
19	0x3d18cb15	0.03730305
20	0x3bc1b141	0.005911023
21	0xbd6e4772	-0.058173604
22	0xbcc5ce3f	-0.024146197
23	0xbda6bfdf	-0.08142065
24	0xbc942e34	-0.018088438
25	0x3d2b8d5c	0.041882858
26	0x3d8c9fcd	0.06866417
27	0x3d61a50d	0.055089045
28	0x3b7cbd2b	0.0038564901
29	0xbd0cd76d	-0.034385134
30	0xbda5b7d3	-0.08091702
31	0x3d46eda9	0.048566494
32	0xbc6e6564	-0.014550541
33	0x3dab5792	0.08366312
34	0xbd712dc1	-0.058881525
35	0x3d0cc226	0.034364842
36	0xbc7328c3	-0.014841261
37	0xbb516026	-0.0031948178
38	0x3d243a8e	0.040094905
39	0x3d0f51e8	0.03499022
40	0x3c77e138	0.01512938
41	0x3ca2362f	0.019801227
42	0x3d45d4c0	0.048298597
43	0x3d80fe82	0.062985435
44	0x3da9eed3	0.08297505
45	0xbce72000	-0.028213501
46	0x3d030a3b	0.03199218
47	0xbd14b9e0	-0.036310077
48	0xbd0313fb	-0.032001477
49	0x3d19ba75	0.037531335
50	0x3d2a53ca	0.041583814
51	0x3da39829	0.079880066
52	0xbd98181f	-0.07426476
53	0x3d18d41c	0.03731166
54	0xbd493e29	-0.049131546
55	0x3c37ed62	0.01122603
56	0x3d8e081a	0.06935139
57	0x3cd13475	0.025537709
58	0xbd03da29	-0.032190476
59	0x3da15fcb	0.07879599
60	0x3d308691	0.043097083
61	0x3c438eb7	0.011935881
62	0xbcfbe30e	-0.030747917
63	0x3b9aa5cf	0.004719473
64	0xbda0ea2a	-0.07857163
65	0xbd13892f	-0.0360195
66	0xbd8a97bd	-0.06767223
67	0xbd31b4f5	-0.043385465
68	0x3d2f73aa	0.042834915
69	0xbd9767e3	-0.07392862
70	0xbd32f5b1	-0.04369134
71	0xbd9b80c4	-0.075929195
72	0x3c952201	0.01820469
73	0x3d2ec8f6	0.04267212
74	0x3d8b511d	0.068025805
75	0xbda78118	-0.081789196
76	0xbcc78d16	-0.024359267
77	0xbd0592ee	-0.032610826
78	0x3d6e353a	0.05815623
79	0x3cb91dce	0.02259722
80	0xbcc9d0a6	-0.024635624
81	0x3d1b1184	0.0378585
82	0xbd3cc33a	-0.04608462
83	0xbdaff758	-0.08592099
84	0xbd94ced3	-0.07266011
85	0x3da78b10	0.08180821
86	0xbd84879c	-0.06471178
87	0xbd529a99	-0.051416967
88	0x3c2c1035	0.010501911
89	0x3d8fd0ff	0.07022285
90	0xbd898978	-0.06715673
91	0xbd02534f	-0.03181773
92	0x3ca2d7a4	0.019878216
93	0x3bac8b76	0.0052656485
94	0xbd8f01aa	-0.06982739
95	0x3d37a155	0.044831593
96	0xbb6cf48c	-0.0036156503
97	0xbda52a48	-0.08064705
98	0x3d228127	0.03967395
99	0xbc5bc292	-0.013413088
100	0xbd605858	-0.05477175
101	0x3d0e3bb5	0.03472491
102	0x3dac5d18	0.08416194
103	0xbd7c2d8e	-0.06156688
104	0xbd7ac1b3	-0.061219882
105	0x3c2ed271	0.01067029
106	0x3d8cf04a	0.06881769
107	0xbd911262	-0.07083584
108	0xbc5b3402	-0.013379099
109	0x3dafe183	0.08587935
110	0xbc3aaa5b	-0.011393155
111	0x3d288c71	0.04114956
112	0x3da46469	0.08026964
113	0x3db6daf5	0.089284815
114	0x3c82c0ca	0.01596107
115	0x3be9dda7	0.0071370187
116	0xbb82a0d4	-0.0039864574
117	0xbca97aa6	-0.020688366
118	0xbd643351	-0.055713
119	0xbcad52ac	-0.021157585
120	0xbb13f07f	-0.0022573767
121	0xbd864a74	-0.065571696
122	0xbb3d7cb2	-0.0028913436
123	0x3d1d8dfc	0.038465485
124	0xbd4354fa	-0.04768846
125	0xbd671836	-0.056419574
126	0x3c360db9	0.01111167
127	0xbd51409c	-0.051087007

batchnorm1.weight f4 [64]
0	0x3f801724	1.0007062
1	0x3f7ff31b	0.99980325
2	0x3f8013c6	1.0006034
3	0x3f800000	1.0
4	0x3f7ff072	0.99976265
5	0x3f800000	1.0
6	0x3f8009f7	1.0003041
7	0x3f7f6e13	0.99777335
8	0x3f800000	1.0
9	0x3f800000	1.0
10	0x3f7fb35a	0.99883044
11	0x3f7f95a8	0.9983773
12	0x3f800000	1.0
13	0x3f8042a9	1.0020343
14	0x3f802616	1.0011623
15	0x3f7fad00	0.9987335
16	0x3f800000	1.0
17	0x3f7fb900	0.9989166
18	0x3f7fbe4f	0.9989976
19	0x3f803dfe	1.0018919
20	0x3f801034	1.0004945
21	0x3f7f369b	0.99692696
22	0x3f800000	1.0
23	0x3f7f99dd	0.9984415
24	0x3f803248	1.0015345
25	0x3f7fe70a	0.9996191
26	0x3f80328b	1.0015424
27	0x3f800f2b	1.0004629
28	0x3f800000	1.0
29	0x3f804a93	1.0022758
30	0x3f7fb00f	0.9987802
31	0x3f802a3e	1.0012891
32	0x3f801c50	1.000864
33	0x3f801ec5	1.000939
34	0x3f800000	1.0
35	0x3f7feeed	0.99973947
36	0x3f800000	1.0
37	0x3f7f8853	0.9981739
38	0x3f809a45	1.0047079
39	0x3f7fd10c	0.99928355
40	0x3f800000	1.0
41	0x3f800e19	1.0004302
42	0x3f8043f1	1.0020734
43	0x3f801234	1.0005555
44	0x3f80762e	1.0036066
45	0x3f7f3b7e	0.9970015
46	0x3f800000	1.0
47	0x3f8017ca	1.000726
48	0x3f804351	1.0020543
49	0x3f7f924f	0.99832624
50	0x3f800000	1.0
51	0x3f802c7b	1.0013574
52	0x3f800000	1.0
53	0x3f80308b	1.0014814
54	0x3f800763	1.0002254
55	0x3f7f1196	0.9963621
56	0x3f8022be	1.0010602
57	0x3f800ca5	1.0003859
58	0x3f800000	1.0
59	0x3f800000	1.0
60	0x3f7f4cb8	0.9972644
61	0x3f7ff1ba	0.9997822
62	0x3f7f53b7	0.99737114
63	0x3f800000	1.0

batchnorm1.bias f4 [64]
0	0x3a97946f	0.0011564622
1	0xbacdd2f0	-0.0015703123
2	0xba145e06	-0.00056597625
3	0x3a4d4760	0.0007830765
4	0xbab4deda	-0.0013799325
5	0xba1d71b7	-0.00060060195
6	0xbab4de5b	-0.0013799177
7	0x3b2fc819	0.0026822148
8	0x3a262c28	0.0006338977
9	0x3a891182	0.0010457488
10	0x3b3917ab	0.0028242867
11	0x3ad93222	0.0016570727
12	0xba90e2fe	-0.0011053977
13	0x3a5b61ba	0.00083687494
14	0xb9ae02f7	-0.00033190075
15	0x39d4c040	0.00040579028
16	0x3aad8017	0.0013237026
17	0xbb3de2bb	-0.0028974253
18	0xba4abbd7	-0.0007733679
19	0x3b549eb0	0.0032443218
20	0xbaf34885	-0.0018561041
21	0x395c733c	0.00021023763
22	0x3aafbe22	0.0013408104
23	0xbb4e63ae	-0.003149252
24	0xbb385f9f	-0.0028133166
25	0x35c81a50	1.4908819e-06
26	0x3b4e242f	0.0031454673
27	0x3a410681	0.0007363335
28	0xbb15b978	-0.0022846144
29	0xba977a40	-0.0011556819
30	0x3a64a1a1	0.00087215943
31	0x39fef484	0.00048628834
32	0x397de41b	0.00024212936
33	0xbb332ab3	-0.0027338683
34	0x3a8188df	0.000988271
35	0x39619c81	0.00021515974
36	0x3b34b4cc	0.0027573584
37	0xba60f2f3	-0.0008581124
38	0xbac93619	-0.0015351205
39	0xba010498	-0.0004921644
40	0x39e20ab6	0.0004311406
41	0xba689a1c	-0.0008873062
42	0x3a49e5c1	0.00077017775
43	0xbb2c279b	-0.0026268724
44	0x3b335eec	0.002736981
45	0xba5c484b	-0.00084031065
46	0xba971d6e	-0.0011529156
47	0xb937e86f	-0.00017538828
48	0x3aadf098	0.0013270555
49	0x39a6edef	0.00031839262
50	0x3a2d3273	0.0006606944
51	0xba71d340	-0.0009224899
52	0x3b54d34e	0.003247458
53	0x3a1fb5a7	0.0006092437
54	0x3af86667	0.0018951417
55	0x3a1e9b82	0.0006050394
56	0xb9fd1990	-0.00048274966
57	0xbaff3e06	-0.001947344
58	0x3b4ac38d	0.0030939311
59	0xba1391cd	-0.0005629331
60	0xb8cbb1a4	-9.7128825e-05
61	0xba6dd07d	-0.00090718997
62	0xba9b2fb4	-0.0011839778
63	0x3b255b30	0.0025231354

batchnorm1.running_mean f4 [64]
0	0x42bd70e3	94.72048
1	0x438cf8de	281.94427
2	0x42d26524	105.19754
3	0x00000000	0.0
4	0x43829cf3	261.22617
5	0x00000000	0.0
6	0x435b93c4	219.57721
7	0x425a1b83	54.526867
8	0x00000000	0.0
9	0x00000000	0.0
10	0x3cccfb78	0.025022253
11	0x4332e7c2	178.9053
12	0x00000000	0.0
13	0x432d37d6	173.21811
14	0x3fa36256	1.2764385
15	0x42e3ab40	113.83447
16	0x00000000	0.0
17	0x4327a752	167.6536
18	0x431aac3c	154.67279
19	0x42acb787	86.35845
20	0x438ed8e8	285.69458
21	0x410cd4ad	8.801923
22	0x00000000	0.0
23	0x42922236	73.06682
24	0x431f9c0a	159.60953
25	0x42212394	40.284744
26	0x43297991	169.47487
27	0x43596041	217.37599
28	0x00000000	0.0
29	0x4186d974	16.856178
30	0x3f04aac6	0.5182308
31	0x4343a8db	195.65959
32	0x42a8c19b	84.378136
33	0x4095c25a	4.6799746
34	0x00000000	0.0
35	0x3dcb4ce8	0.09926778
36	0x00000000	0.0
37	0x4291e94e	72.95567
38	0x40ac71fb	5.3889136
39	0x42107705	36.11623
40	0x00000000	0.0
41	0x4283bc45	65.867714
42	0x4295975c	74.79562
43	0x432141e5	161.2574
44	0x3d7bc060	0.06146276
45	0x4206b74c	33.679
46	0x00000000	0.0
47	0x3dffd2f1	0.12491406
48	0x42f361bf	121.69091
49	0x43392876	185.15805
50	0x00000000	0.0
51	0x3d91952f	0.07108533
52	0x00000000	0.0
53	0x433ec097	190.7523
54	0x3ef7cac8	0.48396897
55	0x435be774	219.90411
56	0x41cc3d97	25.530073
57	0x40d68d4e	6.704749
58	0x00000000	0.0
59	0x00000000	0.0
60	0x42c2677f	97.20214
61	0x4365c816	229.78159
62	0x433722d2	183.13602
63	0x00000000	0.0

batchnorm1.running_var f4 [64]
0	0x48a21e5c	332018.88
1	0x4a06b347	2.2069298e+06
2	0x4871a5f1	247447.77
3	0x2e0388a3	2.990731e-11
4	0x4a00312e	2.1002995e+06
5	0x2e0388a3	2.990731e-11
6	0x49c639bd	1.6238636e+06
7	0x471d1145	40209.27
8	0x2e0388a3	2.990731e-11
9	0x2e0388a3	2.990731e-11
10	0x3cebaeed	0.028769935
11	0x498f21f8	1.172543e+06
12	0x2e0388a3	2.990731e-11
13	0x494a60a1	828938.06
14	0x400b6396	2.1779532
15	0x48f883fa	508959.8
16	0x2e0388a3	2.990731e-11
17	0x4955082b	872578.7
18	0x494e18d2	844173.1
19	0x47b8b8fb	94577.96
20	0x49f9f2dc	2.0475795e+06
21	0x428906a7	68.51299
22	0x2e0388a3	2.990731e-11
23	0x4748de78	51422.47
24	0x494ad662	830822.1
25	0x461719e5	9670.474
26	0x4941c0a2	793610.1
27	0x497971a4	1.02172225e+06
28	0x2e0388a3	2.990731e-11
29	0x42e48d4c	114.27597
30	0x405ec945	3.4810345
31	0x49823422	1.0666282e+06
32	0x48636eb2	232890.78
33	0x41ce5980	25.793701
34	0x2e0388a3	2.990731e-11
35	0x3f2143bc	0.6299398
36	0x2e0388a3	2.990731e-11
37	0x4802f9ac	134118.69
38	0x4437a0e0	734.5137
39	0x476a4a17	59978.09
40	0x2e0388a3	2.990731e-11
41	0x480a6bdb	141743.42
42	0x486c5277	241993.86
43	0x49714132	988179.1
44	0x3f0102b6	0.5039476
45	0x475775f8	55157.97
46	0x2e0388a3	2.990731e-11
47	0x3f830af8	1.0237722
48	0x48b39b3f	367833.97
49	0x497b7d2e	1.0300989e+06
50	0x2e0388a3	2.990731e-11
51	0x3edae2b3	0.42751083
52	0x2e0388a3	2.990731e-11
53	0x499c7587	1.2817129e+06
54	0x3f9e6b1b	1.2376436
55	0x49d98367	1.7818689e+06
56	0x421accd7	38.70004
57	0x4255958e	53.39605
58	0x2e0388a3	2.990731e-11
59	0x2e0388a3	2.990731e-11
60	0x48a5614d	338698.4
61	0x49ca0c4f	1.6551779e+06
62	0x49275cd1	685517.06
63	0x2e0388a3	2.990731e-11

batchnorm2.weight f4 [128]
0	0x3f8006b2	1.0002043
1	0x3f8007a6	1.0002334
2	0x3f804bdf	1.0023154
3	0x3f7f5e96	0.997537
4	0x3f7f3129	0.9968439
5	0x3f801c62	1.0008662
6	0x3f80807c	1.003921
7	0x3f7ffb52	0.9999286
8	0x3f802b86	1.0013282
9	0x3f8046a6	1.002156
10	0x3f7fe4e5	0.9995864
11	0x3f7f4539	0.99715
12	0x3f800e93	1.0004448
13	0x3f808dde	1.0043294
14	0x3f802251	1.0010473
15	0x3f7ff0aa	0.999766
16	0x3f8030b1	1.001486
17	0x3f7ee590	0.99569035
18	0x3f7eece8	0.9958024
19	0x3f7fd748	0.9993787
20	0x3f800e96	1.0004451
21	0x3f7fec96	0.99970376
22	0x3f803878	1.0017233
23	0x3f7ffe73	0.99997634
24	0x3f7f46fd	0.99717695
25	0x3f7f3d5b	0.99702996
26	0x3f805404	1.002564
27	0x3f7f9088	0.9982991
28	0x3f80136f	1.0005931
29	0x3f80b2cc	1.0054564
30	0x3f7f9cb7	0.998485
31	0x3f804b31	1.0022947
32	0x3f7fabc8	0.9987149
33	0x3f800fdf	1.0004843
34	0x3f7f6535	0.99763805
35	0x3f7ff5ab	0.99984235
36	0x3f80447f	1.0020903
37	0x3f7f6b41	0.9977303
38	0x3f7fcde7	0.9992356
39	0x3f803e52	1.0019019
40	0x3f803889	1.0017253
41	0x3f80629f	1.0030097
42	0x3f7fedd5	0.9997228
43	0x3f7f778d	0.99791795
44	0x3f7fa1cd	0.99856263
45	0x3f7ff384	0.9998095
46	0x3f8011b4	1.0005403
47	0x3f7f9504	0.99836755
48	0x3f7f6cd9	0.99775463
49	0x3f7fae97	0.9987578
50	0x3f801b6e	1.0008371
51	0x3f7f25e8	0.99667215
52	0x3f7ff1ea	0.99978507
53	0x3f7fcbf8	0.99920607
54	0x3f7fd56b	0.99935025
55	0x3f8028f6	1.00125
56	0x3f805c67	1.0028199
57	0x3f803936	1.0017459
58	0x3f7fec1e	0.9996966
59	0x3f8031e0	1.0015221
60	0x3f802c12	1.0013449
61	0x3f7fd3ea	0.9993273
62	0x3f7fa93f	0.99867624
63	0x3f7f6915	0.9976972
64	0x3f808df6	1.0043323
65	0x3f7f87c9	0.99816567
66	0x3f7f6929	0.99769837
67	0x3f8008ad	1.0002648
68	0x3f8004aa	1.0001423
69	0x3f7fca28	0.9991784
70	0x3f8054f2	1.0025923
71	0x3f7fd5e2	0.99935734
72	0x3f7ea4d5	0.99470264
73	0x3f8011df	1.0005454
74	0x3f800ae3	1.0003322
75	0x3f7fc3e4	0.9990828
76	0x3f7fbdad	0.998988
77	0x3f7ef6fe	0.9959563
78	0x3f7fa8a9	0.9986673
79	0x3f7fb953	0.9989216
80	0x3f7f42de	0.99711406
81	0x3f808b83	1.0042576
82	0x3f7fa99f	0.99868196
83	0x3f8018a9	1.0007526
84	0x3f806bd2	1.0032904
85	0x3f8017c5	1.0007254
86	0x3f7fd422	0.99933064
87	0x3f7f8667	0.99814457
88	0x3f80822e	1.0039728
89	0x3f80b544	1.0055318
90	0x3f7e4819	0.9932876
91	0x3f7fedac	0.99972034
92	0x3f7f1ee7	0.9965653
93	0x3f7fd589	0.99935204
94	0x3f7fbca7	0.99897236
95	0x3f80563a	1.0026314
96	0x3f7fc990	0.99916935
97	0x3f7fc0ec	0.9990375
98	0x3f8019c5	1.0007864
99	0x3f7fc991	0.9991694
100	0x3f801bd7	1.0008496
101	0x3f804e5b	1.0023912
102	0x3f80b27f	1.0054473
103	0x3f7ef4b2	0.99592125
104	0x3f800e65	1.0004393
105	0x3f804d8e	1.0023668
106	0x3f7fd27d	0.99930555
107	0x3f805ba2	1.0027964
108	0x3f800e30	1.000433
109	0x3f80622d	1.0029961
110	0x3f804df2	1.0023787
111	0x3f802c68	1.0013552
112	0x3f7feaa5	0.99967414
113	0x3f806581	1.0030977
114	0x3f8016d9	1.0006973
115	0x3f804aad	1.0022789
116	0x3f7fcea9	0.99924713
117	0x3f7fe7cf	0.99963087
118	0x3f7fb600	0.99887085
119	0x3f8025d2	1.0011542
120	0x3f7feaca	0.99967635
121	0x3f7ff523	0.99983424
122	0x3f7ea2ca	0.99467146
123	0x3f7fa669	0.99863297
124	0x3f7ee8eb	0.99574155
125	0x3f7f1562	0.99642
126	0x3f802973	1.0012649
127	0x3f8023c7	1.0010918

batchnorm2.bias f4 [128]
0	0xbc2f784c	-0.010709833
1	0x3c263497	0.010144374
2	0xbc3668ef	-0.011133417
3	0xbc295051	-0.01033409
4	0x3c1da7de	0.009622542
5	0x3c388e04	0.011264328
6	0xbc4524a7	-0.012032664
7	0x3c3769b9	0.01119464
8	0xbc32a19d	-0.010902789
9	0xbc3957fc	-0.011312481
10	0xbbbc992b	-0.0057555637
11	0x3c336bef	0.010951026
12	0xbc2ea009	-0.010658273
13	0xbc3704e6	-0.0111706015
14	0x3c32b380	0.010907054
15	0x3c2bcab7	0.010485343
16	0xbc27653b	-0.010217006
17	0x3c2d98ae	0.010595484
18	0xbc328880	-0.010896802
19	0xbc32a1aa	-0.0109028015
20	0xbc393710	-0.011304632
21	0x3c298919	0.010347628
22	0x3c332e1d	0.010936287
23	0x3c37e776	0.011224618
24	0x3c2d0a67	0.010561562
25	0xbc2a2d1e	-0.010386733
26	0xbc380a2a	-0.011232892
27	0xbc2c4c1f	-0.010516196
28	0xbc4712ed	-0.012150508
29	0x3c3eb6f3	0.011640298
30	0x3c311a74	0.01080953
31	0xbc3a2253	-0.011360723
32	0x3c2ca8a2	0.010538252
33	0xbc2b9fd0	-0.010475114
34	0x3c2becfc	0.010493513
35	0xbc2641f3	-0.010147559
36	0x3c3bda16	0.01146557
37	0x3c196027	0.009361303
38	0xbc2a2929	-0.01038579
39	0xbc361497	-0.011113307
40	0xbc3a0947	-0.011354751
41	0xbc33b691	-0.01096882
42	0xbc3cb092	-0.011516707
43	0xbc345b76	-0.011008134
44	0xbc2f0597	-0.010682485
45	0x3c334794	0.0109423585
46	0xbc31a22a	-0.010841886
47	0x3c27e73a	0.010248
48	0x3c2fc792	0.010728734
49	0xbc32e723	-0.010919365
50	0xbc358b06	-0.011080509
51	0xbc3688e1	-0.011141033
52	0x3c3781b7	0.01120036
53	0xbc2e24d4	-0.010628898
54	0x3c39cf07	0.011340863
55	0xbc2ca395	-0.010537048
56	0xbc350724	-0.011049066
57	0xbc3aa810	-0.011392608
58	0x3c3bd2ba	0.011463815
59	0xbc352055	-0.011055072
60	0xbc2fa40c	-0.010720264
61	0xbc2ce309	-0.010552176
62	0x3c374c23	0.011187586
63	0xbc23e662	-0.010003658
64	0x3c3ca262	0.011513324
65	0x3c25c134	0.010116864
66	0x3c2c7123	0.010525021
67	0x3c34c6ce	0.011033727
68	0xbc3c76fd	-0.011502978
69	0x3c295bf1	0.010336862
70	0x3c36a454	0.011147577
71	0x3c30f9c7	0.010801739
72	0xbc2ae3c1	-0.010430277
73	0xbc29f5c4	-0.0103735365
74	0xbc344467	-0.0110026365
75	0x3c308413	0.010773676
76	0x3c2cc901	0.01054597
77	0x3c2f8eef	0.01071523
78	0xbc36aa1c	-0.011148956
79	0xbc3bdc54	-0.011466105
80	0x3c2a9f9c	0.01041403
81	0xbc2cc487	-0.010544903
82	0x3c32c8d8	0.010912143
83	0x3c380fca	0.011234233
84	0x3c378382	0.0112007875
85	0xbc325545	-0.010884588
86	0x3c2f3f8f	0.010696306
87	0x3c349c77	0.011023632
88	0xbc5006cf	-0.012696936
89	0xbc30708a	-0.010769019
90	0x3c331cb6	0.010932138
91	0x3c2de3d4	0.0106134005
92	0xbc342766	-0.010995721
93	0xbc2cc9b2	-0.010546135
94	0x3c31d961	0.01085505
95	0xbc368856	-0.011140903
96	0x3c14bc15	0.009078045
97	0x3c3647ec	0.011125546
98	0xbc30a967	-0.010782576
99	0x3c2b5a06	0.010458475
100	0x3c399b53	0.011328536
101	0xbc368c1e	-0.011141805
102	0xbc3414cd	-0.010991287
103	0x3c2bdfa4	0.010490332
104	0x3c28f428	0.010312118
105	0xbc443108	-0.011974581
106	0xbc3011ed	-0.010746461
107	0x3c31ede0	0.0108599365
108	0x3c3235fc	0.010877129
109	0xbc3201b8	-0.010864668
110	0x3c3a012f	0.011352821
111	0xbc34f3cb	-0.011044453
112	0xbc3100ad	-0.010803384
113	0xbc37c92b	-0.011217396
114	0xbc311324	-0.010807786
115	0xbc413126	-0.011791503
116	0x3c281229	0.010258236
117	0x3c39974a	0.011327574
118	0x3c268902	0.010164501
119	0x3c338983	0.010958078
120	0x3c3b5da7	0.011435903
121	0x3c3cc61c	0.011521842
122	0x3c10b17a	0.008831376
123	0xbc25b32e	-0.010113521
124	0x3c322168	0.0108722225
125	0x3c385726	0.011251247
126	0xbc34ea34	-0.0110421665
127	0x3c3a9cf2	0.011389958

batchnorm2.running_mean f4 [128]
0	0x3e82c184	0.25538266
1	0x3ebb10f4	0.36536372
2	0x3e9a8dc7	0.30186293
3	0x3e00517b	0.12531082
4	0x3eb8c8d4	0.3609072
5	0x3e4d69fa	0.20059958
6	0x3da4fb69	0.08055765
7	0x3da8eae7	0.08247929
8	0x3e3d2730	0.1847198
9	0x3ddcbde4	0.10778406
10	0x3e825092	0.25452095
11	0x3e5514ee	0.20808765
12	0x3eaa9d72	0.33323246
13	0x3d9e4420	0.077278376
14	0x3da748a6	0.081681535
15	0x3e226f60	0.15862799
16	0x3ef17406	0.4715883
17	0x3d35ac74	0.044353917
18	0x3e182129	0.148564
19	0x3e783614	0.24239379
20	0x3e9e596a	0.30927593
21	0x3e3131d4	0.17304164
22	0x3e8e99f8	0.27851844
23	0x3d80834b	0.06275042
24	0x3d42f037	0.047592368
25	0x3d675896	0.056480967
26	0x3dece27b	0.11566635
27	0x3e83958e	0.2570004
28	0x3e09dde7	0.13463555
29	0x3da5873a	0.08082433
30	0x3e14cfcd	0.14532395
31	0x3cb5a401	0.02217293
32	0x3de16989	0.11006457
33	0x3ef4b1ce	0.47791904
34	0x3e3f2631	0.18666913
35	0x3e2e97c8	0.17050087
36	0x3de1aade	0.110189185
37	0x3e8cd75b	0.27508053
38	0x3e8c4ea9	0.27403763
39	0x3e2e7088	0.17035115
40	0x3e70e1e8	0.23523676
41	0x3e44fdba	0.19237414
42	0x3e10981a	0.14120522
43	0x3de50e22	0.11184336
44	0x3ecc3bfc	0.39889514
45	0x3ec45886	0.38348788
46	0x3e5bd93b	0.21469586
47	0x3e41e332	0.18934324
48	0x3d51cf5c	0.051223144
49	0x3c8f297d	0.017475838
50	0x3e53e167	0.20691453
51	0x3d426916	0.0474635
52	0x3e723fd5	0.23657162
53	0x3dc2bf63	0.0950916
54	0x3e3f701c	0.1869511
55	0x3d61bcb4	0.055111602
56	0x3e35888f	0.17727874
57	0x3d545c07	0.051845577
58	0x3d77dbc4	0.06051232
59	0x3eb91ff6	0.36157197
60	0x3e4fa61e	0.20278212
61	0x3dfd98aa	0.12382634
62	0x3e323b60	0.17405462
63	0x3da96ad1	0.08272327
64	0x3dba444b	0.09095057
65	0x3ea5125e	0.32240576
66	0x3dcffae1	0.10155273
67	0x3e3b1dff	0.18273161
68	0x3e218170	0.15772033
69	0x3e266a96	0.16251597
70	0x3d90dd0a	0.0707341
71	0x3e149344	0.14509302
72	0x3d53a8a3	0.051674496
73	0x3eecf62e	0.4628157
74	0x3df832df	0.12119078
75	0x3ef87a14	0.48530638
76	0x3c34656c	0.011010509
77	0x3e01f939	0.12692727
78	0x3e5555c1	0.20833494
79	0x3e7736af	0.24141954
80	0x3dfc0fd7	0.12307709
81	0x3d7a7cfa	0.061154343
82	0x3ec8eb36	0.39241952
83	0x3e8d0ca6	0.27548712
84	0x3db89ede	0.090146765
85	0x3d2c75ba	0.04210446
86	0x3dd8675a	0.10566588
87	0x3ea33d95	0.3188292
88	0x3d83539e	0.06412433
89	0x3e0047d5	0.12527402
90	0x3d323332	0.043505855
91	0x3d5bc551	0.053654972
92	0x3cb3e281	0.021958591
93	0x3e39b86e	0.1813676
94	0x3e33d60b	0.1756212
95	0x3e0c7677	0.13717066
96	0x3e9a496c	0.3013414
97	0x3ec1f9f5	0.37886015
98	0x3e84ac2b	0.25912604
99	0x3e18991d	0.14902158
100	0x3da8885e	0.08229135
101	0x3dac86a9	0.08424122
102	0x3d5cc034	0.053894237
103	0x3e929c2d	0.28634778
104	0x3ed6c2ff	0.41945645
105	0x3db5349d	0.08847926
106	0x3d4990de	0.04921042
107	0x3d7ed0e2	0.062210925
108	0x3eb29756	0.34881085
109	0x3e192f2e	0.14959404
110	0x3d8d6200	0.06903458
111	0x3ea6b8fc	0.32563007
112	0x3e852ad4	0.26009238
113	0x3df8a28e	0.1214038
114	0x3e1c7995	0.15280755
115	0x3e89e284	0.2693063
116	0x3e8ea359	0.27859
117	0x3ec35b3d	0.38155547
118	0x3df5611f	0.11981415
119	0x3e6bffe7	0.23046838
120	0x3e0bc742	0.1365023
121	0x3e6d9788	0.23202336
122	0x3e3b559e	0.18294379
123	0x3e0e596f	0.13901304
124	0x3e26aaff	0.16276167
125	0x3d4fed56	0.05076345
126	0x3e4409f7	0.19144426
127	0x3e15e22a	0.14637056

batchnorm2.running_var f4 [128]
0	0x3e60e95d	0.21964021
1	0x3ed046a1	0.40678886
2	0x3e1307cd	0.14358445
3	0x3d0040c7	0.031311776
4	0x3e5691d4	0.20954067
5	0x3d8b5b00	0.06804466
6	0x3cd8a09d	0.026443774
7	0x3cc6d507	0.024271501
8	0x3d7a50e1	0.06111229
9	0x3ce46fb1	0.02788529
10	0x3e3f630f	0.18690132
11	0x3dc67580	0.0969038
12	0x3eb51f2c	0.35375345
13	0x3c9633d5	0.018335262
14	0x3c2e76c8	0.010648437
15	0x3d956915	0.072954334
16	0x3e92dc4e	0.28683704
17	0x3c238315	0.009979983
18	0x3ce263f2	0.027635548
19	0x3db72d8a	0.08944233
20	0x3e046d11	0.1293223
21	0x3dde249c	0.108468264
22	0x3db0e145	0.08636717
23	0x3c1db45c	0.009625521
24	0x3c5e3bc9	0.013564059
25	0x3bee33ab	0.007269343
26	0x3d138876	0.03601881
27	0x3e38e163	0.18054728
28	0x3d828512	0.063730374
29	0x3cde6aed	0.027150596
30	0x3d3d1b61	0.04616869
31	0x3aca9635	0.0015456142
32	0x3d22ca05	0.039743442
33	0x3f1d2046	0.6137737
34	0x3d8ac5c1	0.06776
35	0x3d71faeb	0.059077185
36	0x3cee09e7	0.029057456
37	0x3dcdaeb2	0.10043086
38	0x3e591f9b	0.21203463
39	0x3d38d91e	0.045128934
40	0x3d901984	0.07036117
41	0x3df06991	0.11738885
42	0x3d419936	0.047265254
43	0x3c9d2976	0.01918481
44	0x3ec1587b	0.37762818
45	0x3ee3fc21	0.44528297
46	0x3e1d1948	0.15341675
47	0x3d7e8949	0.062142644
48	0x3c5656ad	0.013082189
49	0x3ae28df0	0.0017284732
50	0x3d4e9ebf	0.05044436
51	0x3c24ea8c	0.010065686
52	0x3e258e65	0.161676
53	0x3cea0c18	0.02857022
54	0x3dab7c8e	0.08373366
55	0x3c8c9753	0.017162
56	0x3d49e261	0.049288157
57	0x3c7e50b7	0.015522174
58	0x3c726b9f	0.014796167
59	0x3e380250	0.17969632
60	0x3dcce8ac	0.10005316
61	0x3d33f855	0.043938
62	0x3d4d8d72	0.05018372
63	0x3ce7449b	0.028230956
64	0x3c639143	0.013889614
65	0x3e1a74bd	0.15083595
66	0x3d2144ad	0.039372135
67	0x3dc7f81d	0.09764121
68	0x3d22c9be	0.039743178
69	0x3d56f4ba	0.052479483
70	0x3c75a6cc	0.014993381
71	0x3d973dd3	0.07384839
72	0x3c1d9307	0.009617574
73	0x3e9cdbb2	0.30636364
74	0x3d50a7a1	0.050941113
75	0x3f200508	0.6250768
76	0x3a9c63a3	0.001193155
77	0x3cf9dd1e	0.030500945
78	0x3e0cca65	0.13749082
79	0x3e1631f1	0.14667489
80	0x3c631aa0	0.013861328
81	0x3c6e76d0	0.014554694
82	0x3ee16c71	0.44028047
83	0x3e53e5e6	0.20693168
84	0x3c230401	0.009949685
85	0x3bd976fe	0.0066364994
86	0x3c4218ff	0.01184678
87	0x3eac3aaa	0.33638507
88	0x3c841591	0.016123565
89	0x3cc2fcbb	0.023802152
90	0x3c3122c9	0.010811516
91	0x3c02bbbd	0.007979331
92	0x3b28072b	0.0025639038
93	0x3d82191f	0.06352448
94	0x3d803c5a	0.06261511
95	0x3d7b73a5	0.061389584
96	0x3e0c9083	0.13727002
97	0x3eecf77c	0.46282566
98	0x3dcc9bfb	0.099906884
99	0x3d820694	0.06348911
100	0x3c4cd82a	0.012502709
101	0x3cd5b3f7	0.02608679
102	0x3caaf5e6	0.020869207
103	0x3e17458e	0.14772627
104	0x3f002bff	0.5006713
105	0x3cb2293b	0.021748176
106	0x3c1d5b0c	0.009604227
107	0x3c2d5ec1	0.010581673
108	0x3e93347a	0.28750974
109	0x3c9fa914	0.019489802
110	0x3c74c724	0.014940057
111	0x3e0c2971	0.13687684
112	0x3e4b342c	0.1984412
113	0x3c7d5da4	0.01546422
114	0x3d649f6a	0.05581609
115	0x3deb7ddd	0.11498616
116	0x3e4fcd11	0.2029307
117	0x3ed8a084	0.42309964
118	0x3c918553	0.01776377
119	0x3e10b05c	0.14129776
120	0x3d6ef592	0.058339663
121	0x3dc26205	0.09491352
122	0x3d2204c5	0.03955533
123	0x3c9b9cd4	0.01899568
124	0x3d8fd6f0	0.07023418
125	0x3c1e8c91	0.009677068
126	0x3da49248	0.080357134
127	0x3d0258b0	0.03182286
