pretrained/trained.pth (torch, 466590 bytes, 39 tensors)

clinical.layer1.weight f4 [128, 5]
000000 6d c7 19 be 85 ee 58 3e 54 c3 bc 3d f3 2b 0b be
       -0.15017481 0.21184738 0.092169434 -0.13590984
000010 2e 46 d2 bd 38 7c 35 3e f0 7e 74 3e 7b 07 60 3c
       -0.10267292 0.17723167 0.23876548 0.0136736585
000020 20 32 dc 3d e7 44 9b bd b5 87 a1 bc 8b 62 8f 3d
       0.10751748 -0.075815015 -0.01971803 0.070012175
000030 c7 a5 45 bd 54 9a bf bd a8 02 32 3e e0 3a 0f 3e
       -0.0482538 -0.09355608 0.17383826 0.13987303
000040 a1 09 4a be 08 9f 35 3e de 03 a8 bd fd 08 1c 3e
       -0.19730236 0.17736447 -0.082038626 0.15237804
000050 8d 4e 31 bd 4f 5d f5 3d a1 4c c9 3d fe ba 3f be
       -0.043287802 0.11980688 0.09829069 -0.18723676
000060 b8 da 3f 3e ef 83 fa bd 5d f3 35 be b0 ca f8 3d
       0.18735778 -0.122321956 -0.17768617 0.121480346
000070 25 ab 3b 3e 38 37 14 3e 0c f7 3a 3d f0 40 e9 3d
       0.18327005 0.1447419 0.04564576 0.11389339
000080 cd 6f 92 3d fe 45 0e 3d 12 a0 a6 bd c8 e4 28 3e
       0.071502306 0.03473472 -0.08136 0.16493523
000090 b2 b7 ca 3d 6c 21 6c 3d f2 90 e9 bd 63 46 0f 3e
       0.09898318 0.05764906 -0.11404599 0.13991694
0000a0 53 dd 86 bd 08 b7 21 3e 58 fc ca bd 83 40 50 bd
       -0.06585183 0.15792477 -0.09911412 -0.050842773
0000b0 5f 61 24 3d 54 ca b0 3d 76 a0 1a 3d d8 10 05 3d
       0.040131923 0.08632341 0.037750684 0.032486767
0000c0 76 81 e7 bd 67 5b 91 3c 50 82 0c bc ab fd f0 bd
       -0.113039896 0.01774378 -0.008575991 -0.11767133
0000d0 1b e4 cc 3d 55 17 76 bd bb 80 31 3d 3a 7d 11 3d
       0.10004445 -0.060080845 0.043335658 0.035519816
0000e0 ba 0b 32 3e 20 89 32 be dc 85 04 bd 1d 3e 0a be
       0.17387286 -0.17435122 -0.03235422 -0.13500257
0000f0 51 d3 40 be 8a 1f ef bd 4f 63 fb 3d 39 f9 bb bd
       -0.18830611 -0.116759375 0.12274801 -0.09178395
000100 b9 85 ff bc 7f 1e bf 3d fe 69 8d bd d6 6f 21 be
       -0.031191694 0.093319885 -0.06904982 -0.15765318
000110 0e 7f 28 3e 20 cf 0f 3e 12 bb 3d 3e f3 e2 5c be
       0.16454718 0.14043856 0.18528393 -0.2157095
000120 36 d3 41 be 79 84 0b be 77 73 2d 3e 71 e2 ff 3a
       -0.18928227 -0.13624753 0.16938578 0.0019522441
000130 f2 9d c0 3d 5c 0b 04 be 3a 98 35 bd e8 a6 1b 3e
       0.09405126 -0.12894958 -0.044334628 0.15200388
000140 4b 36 34 3e ac 6b f9 3d b4 1b 22 3d 64 7e 33 be
       0.17598836 0.1217874 0.0395772 -0.17528683
000150 44 dd f7 3c 1e dd b4 bd 4e 30 09 3d 7f a5 41 be
       0.030256875 -0.08831237 0.033493333 -0.18910788
000160 90 d0 0c bc 2a 04 9c bc dc b4 17 3e 93 d0 08 be
       -0.008594647 -0.019044954 0.14815086 -0.13360815
000170 c8 04 8d 3d 2d 40 11 be 24 15 36 3e 82 f5 3b 3e
       0.068856776 -0.14184637 0.17781502 0.18355373
000180 71 f6 c6 3c 1f 5d 3e 3e 62 1c b5 bd ef d9 3d be
       0.024287434 0.1859021 -0.08843304 -0.18540166
000190 d7 44 1f be 67 4b 41 be d4 06 38 3e b2 54 93 3d
       -0.15553604 -0.1887642 0.17971355 0.07193889
0001a0 e9 2f 2a bd d6 1d c8 3d f3 4a 33 3e 01 dd af bd
       -0.041549597 0.09771316 0.1750906 -0.08587075
0001b0 32 d1 4a 3d d3 3e 4e bd d9 e5 0d 3c dc b9 af bd
       0.04951591 -0.050352883 0.008660757 -0.08580372
0001c0 c3 6e de bb 87 32 be bd 94 d7 19 bd 58 10 f7 bd
       -0.006788106 -0.09286981 -0.037559107 -0.12063664
0001d0 34 5d 87 bd c2 46 1f 3e ab 06 58 be b7 6b bf 3d
       -0.06609574 0.15554336 -0.21096294 0.09346717
0001e0 e1 90 50 bd 79 db b2 3c f0 c4 19 bc 7b 02 2e 3e
       -0.050919417 0.021833168 -0.009385332 0.16993134
0001f0 d2 89 0c 3e 28 30 05 be 35 3a 5c bd 3b 0f ee bd
       0.1372445 -0.13006651 -0.053766448 -0.11623999
000200 ff 52 2a be 4f c4 5a 3d e3 e6 9c bd 48 ce 62 bd
       -0.16633223 0.05340987 -0.07661226 -0.055372506
000210 52 69 9c bd 87 a3 a0 bd bd 61 d0 bd c0 83 36 3e
       -0.07637276 -0.0784369 -0.10174892 0.17823696
000220 6a 23 0a bd 0f ac 22 ba 01 dd fa 3d 03 7e 3a 3e
       -0.03372518 -0.00062054483 0.122491844 0.18212132
000230 02 4d 8b 3c d2 cc 04 be a9 60 17 bd 21 5e 7d bd
       0.017004494 -0.12968758 -0.036957417 -0.061857346
000240 31 5f 55 3d 3c 2a a8 3d 69 4f d3 3d a9 16 38 3d
       0.052092735 0.082111806 0.10317881 0.044943485
000250 93 a9 23 be b2 1f 5d 3e ef 64 f6 3c 82 6e 0f 3e
       -0.15982656 0.21594122 0.030077426 0.14006999
000260 50 9c 1d 3e d6 6f 22 be 51 af ec 3d 0d 8e be 3d
       0.1539166 -0.15862975 0.115568765 0.09304438
000270 8e 16 2e 3d 23 06 d3 bd 47 5f 58 be 3c b8 15 3e
       0.04250198 -0.10303905 -0.21130095 0.14621061
000280 0e de 33 3d 18 a3 26 3e a8 56 4a ba 32 b7 07 be
       0.04391294 0.16273153 -0.0007718601 -0.13253477
000290 95 38 fa 3d da 47 22 3d b3 c9 71 bd 06 0b d7 3d
       0.122178234 0.039619304 -0.059030246 0.105001494
0002a0 0c 5c af 3d 77 6f 33 3e f0 a6 48 3e 7d 01 73 be
       0.085624784 0.17522989 0.19594932 -0.23731036
0002b0 ac 7f 14 be 1f dc 54 3d 00 53 12 bb 93 0b ab bd
       -0.14501828 0.051967736 -0.0022327304 -0.08351817
0002c0 fc 35 82 bc 0e 8c 87 3d 0a b1 5f 3e 50 0d 44 3d
       -0.015894882 0.0661851 0.21844879 0.04786426
0002d0 60 4b 0c 3e dd 45 b8 bd fc b3 3f be d8 46 4a be
       0.13700628 -0.089977 -0.18721002 -0.19753587
0002e0 39 40 85 3d 36 58 1e be a4 53 40 be 1a 1c 4c 3e
       0.0650639 -0.15463337 -0.18781906 0.19932595
0002f0 99 25 d1 bc e1 09 8b bb b8 d4 0d 3d 6f 5d ab bc
       -0.025530623 -0.004243121 0.034626693 -0.020918576
000300 e8 3a ba bd 7c 89 6a 3d 2a c8 c7 bd 54 34 2d bd
       -0.09093267 0.05726002 -0.09754975 -0.042286232
000310 c5 28 e2 bd 52 93 08 be fb f9 a9 3d 5e ab cf 3d
       -0.110429324 -0.13337448 0.08299633 0.101401076
000320 9a 9d 57 3e 2e bf cf 3d b3 53 14 bd d6 5b aa bb
       0.21056214 0.101438865 -0.036212634 -0.005198936
000330 02 90 43 3e 7f 3c 17 be b5 cf 37 be 56 b1 b4 bd
       0.19097903 -0.14769171 -0.17950328 -0.08822887
000340 b0 3f 4a 3e ec c8 01 be 8e ff 44 be 4c d0 85 bc
       0.19750857 -0.12674302 -0.19238111 -0.016334675
000350 67 c6 1d be 74 45 35 be e3 f4 ec bd eb e6 94 3b
       -0.15407716 -0.17702276 -0.11570146 0.004544129
000360 b6 ba 39 3e b1 3c 34 3c 50 ae b2 bc 1c ef ff 3c
       0.18137631 0.011000798 -0.021811634 0.031241946
000370 a0 9b 2b be e9 92 62 be b3 9b f7 3d f1 45 98 3d
       -0.16758585 -0.22126354 0.12090244 0.07435215
000380 d6 4b d6 3d 7b 8b f2 bd af 53 21 be fc cb 42 be
       0.10463683 -0.1184301 -0.15754579 -0.19023126
000390 05 f8 39 3e 17 9b 80 bd 97 74 7b bd f6 41 2e 3e
       0.18161018 -0.06279581 -0.061390486 0.1701735
0003a0 4b a0 85 bd 38 99 e6 bd 53 be 1b be 2e 0c 4f be
       -0.06524714 -0.11259693 -0.15209322 -0.2021949
0003b0 12 98 54 bd 36 57 69 3d da 3c 67 bd 82 3b 1f be
       -0.051902838 0.056967936 -0.056454517 -0.15550044
0003c0 7a e8 0c be ba 6d 9c bd 2c 77 9d bc 4a 6d 28 be
       -0.13760558 -0.07638116 -0.019221865 -0.1644794
0003d0 2d 45 59 3e 06 fe 04 3e 7b cf 02 3e 34 f3 3c be
       0.21217795 0.12987527 0.1277446 -0.1845215
0003e0 cb d3 84 3b 5a 4e 37 3e 2c 46 11 3c 0f 71 6b bd
       0.004053568 0.17900982 0.008866828 -0.057480868
0003f0 19 15 a8 3d b2 a3 0c 3e ca 29 03 bc 88 4e 35 be
       0.08207149 0.1373432 -0.008005569 -0.17705739

clinical.layer1.bias f4 [128]
000000 f2 37 85 be 2b a4 97 3e 7f 73 90 3e 33 a7 bb be
       -0.26019245 0.29617438 0.28213117 -0.36651
000010 5f 50 41 3e 3a e0 38 3e a8 61 76 be 89 57 c1 3d
       0.18878315 0.18054286 -0.2406069 0.09440524
000020 2d a5 b4 3e 97 f2 3a be 0f 29 ce 3d 59 36 87 3e
       0.3528227 -0.18256603 0.10066425 0.2640865
000030 df 71 dc 3e 68 f8 71 be a7 8d 18 3e e0 61 71 3d
       0.43055627 -0.23629916 0.14897786 0.05893123
000040 ea 25 6b 3e ff b0 cc 3d 78 cb 72 be 65 a8 79 be
       0.22963682 0.09994697 -0.2371043 -0.24380644
000050 5b 60 cd be 59 de 73 3e 37 0d a5 be 4a fd 7a 3e
       -0.40112576 0.23815288 -0.32236645 0.24510685
000060 12 69 bc be c2 bf 87 be 51 b9 76 3d 4b b5 94 3e
       -0.36798912 -0.26513487 0.060235325 0.29044566
000070 c6 eb b9 3e 3a 7b dd bd 24 aa 0c 3e 15 86 51 be
       0.36312693 -0.10814519 0.13736778 -0.20461304
000080 72 37 bb be 64 69 8a be 3d ec a6 be 85 fe d1 3e
       -0.3656574 -0.27033532 -0.3260211 0.41014495
000090 78 e0 24 be df 69 f0 3c fe 7b 00 be 3d 1e d0 3e
       -0.16101253 0.029347358 -0.125473 0.4064807
0000a0 78 3f 39 bd 8e 9b 52 3e 8d d5 8d 3e 7e ff 12 3e
       -0.045226544 0.20567152 0.2770199 0.14355275
0000b0 3e 86 c3 be 28 ee c8 3e af ff 9f 3e 08 29 a4 bd
       -0.38188356 0.392442 0.3124976 -0.080156386
0000c0 28 71 6b be 6c d7 87 3e 67 d5 65 3d 6d 9f a5 3a
       -0.22992384 0.2653154 0.05611172 0.0012636014
0000d0 12 38 a2 bd d7 a8 59 bd d5 56 88 3d 38 43 b2 be
       -0.07920851 -0.053139534 0.06657187 -0.3481691
0000e0 5d e8 ca 3e 9f 69 7a be 96 5a a6 3d 1c f0 a3 be
       0.39630404 -0.24454354 0.08122747 -0.32019126
0000f0 7f ac 6d be 41 da 5e be 7f 6b c1 be 20 d8 a9 be
       -0.23210333 -0.21762945 -0.37777326 -0.33172703
000100 59 2a 40 3e 8a c7 64 3c 11 1d ae be 74 c7 fd 3b
       0.18766154 0.013963589 -0.3400655 0.007744724
000110 04 2e db 3d 5b e9 cf be 35 c1 26 3e e2 72 a0 be
       0.10702136 -0.40607724 0.1628464 -0.3133765
000120 16 16 08 3d 75 42 65 3b b0 a8 90 3e 6e 02 86 be
       0.033224188 0.0034982238 0.28253698 -0.2617373
000130 36 c6 6b 3e ae 47 a0 3e 6d 50 d0 3e 28 ec 24 3e
       0.2302483 0.31304687 0.4068636 0.16105711
000140 09 96 8f be 94 2a a9 be f1 c7 c7 3e b8 f9 0d bc
       -0.28044155 -0.33040297 0.3901973 -0.008665495
000150 50 e3 a2 be 1b 47 b6 3e ea 2d 53 bd 5a 34 f2 3d
       -0.3181405 0.35601124 -0.05155746 0.118263915
000160 2b 12 d1 bd 5a 0a 13 be 86 b5 c9 3c 09 b9 0d bd
       -0.102085434 -0.14359418 0.02462269 -0.03460029
000170 a6 30 36 3e 80 96 a3 3d ab 37 14 be a6 fa d6 3d
       0.17791995 0.0798769 -0.1447436 0.10497026
000180 9a 34 34 3e c4 c4 d2 3d 4f 0b d8 be b9 f9 4b 3c
       0.17598191 0.10291436 -0.42196128 0.012449675
000190 a7 d2 9d 3e df a7 94 bc 5b f1 d5 3a ab d3 c5 3e
       0.30824777 -0.018146453 0.001632254 0.38638052
0001a0 8d 51 8f be 3a 34 2b be b9 1a 66 3e 87 af b8 3e
       -0.27991906 -0.16719142 0.22471131 0.36071417
0001b0 40 af 01 3e 01 5f 90 be bb 0b 97 be 4d ac df 3d
       0.12664509 -0.28197482 -0.29501137 0.10921536
0001c0 c5 d8 85 3e 6c fa 10 3e 03 f8 b5 be dd 3e 53 3e
       0.26141945 0.14158028 -0.3554078 0.20629449
0001d0 3b db 36 3e 53 32 9e be e6 61 c7 3e 61 b8 de be
       0.17857067 -0.3089777 0.38941878 -0.43500045
0001e0 c9 37 6f 3e 36 65 58 b9 ee cc a5 3d 82 1a a9 be
       0.23361124 -0.00020637069 0.08095728 -0.33028036
0001f0 81 74 2b be 94 e1 17 be 5c 36 5b 3d 18 31 6b be
       -0.16743661 -0.14832145 0.053518638 -0.22967947

clinical.layer2.weight f4 [256, 128]
000000 6c 2c de bc 9f 66 53 bd e9 85 be 3a 9a 2b 29 bc
       -0.027120791 -0.05161154 0.0014535758 -0.010325337
000010 cd e9 82 3d 4c 57 04 bd b5 6f d9 3d 02 08 b0 3d
       0.0639225 -0.032309815 0.106170096 0.08595277
000020 b0 10 d9 bd 2d e8 37 bd de ac 41 bd f4 99 e8 bd
       -0.10598886 -0.044899154 -0.047284 -0.11357489
000030 17 4f 93 3d 23 9c 65 3c 6b 84 33 bd cc 0d 16 bd
       0.071928196 0.014014277 -0.043827455 -0.03663425
000040 92 f1 9f 3d 54 18 c1 bd 7f ed 30 3d 82 f5 b2 3d
       0.07809748 -0.09428468 0.043195244 0.08738233
000050 a6 d0 e4 3d f3 d9 8d bd 5c 54 58 bc d0 3c 15 bd
       0.11172609 -0.06926336 -0.013203707 -0.03643495
000060 46 ad 37 bd 60 21 12 bd c6 96 4b bc b3 73 b6 bd
       -0.04484298 -0.03567636 -0.012426084 -0.089087866
000070 25 8e 9c bc 39 28 af 3d a5 e9 69 3b 05 7c e8 bd
       -0.019110749 0.08552594 0.0035692242 -0.1135178
000080 87 f4 b0 bd 93 d5 2c bd 8f b5 9b 3d d0 47 f8 3d
       -0.0864039 -0.042195868 0.07602989 0.12123072
000090 20 ad b2 3d 51 f7 44 bd 18 7c c3 3d 43 5a 91 3d
       0.08724427 -0.04808742 0.095451534 0.07097294
0000a0 ba d1 8f 3d 7b b1 ea bb 83 92 1e 3a 42 78 13 bb
       0.07022424 -0.0071622706 0.00060490536 -0.00225021
0000b0 65 06 89 3d 68 42 95 3d 9b d5 eb bd 19 b4 bb bd
       0.06690673 0.072880566 -0.115153514 -0.0916521
0000c0 a8 7e 50 3d 78 ed a4 3d a9 f2 61 bd cd 85 7f bd
       0.05090204 0.08053106 -0.05516306 -0.06238346
0000d0 ce cd 74 bd 1a e6 db bd 0f 4f 6c bc dd 8d 06 3d
       -0.059766583 -0.10737248 -0.014423146 0.032850135
0000e0 15 de 40 3c 2e 82 bc bd f2 84 53 3d 51 a8 a5 bd
       0.0117716985 -0.09204517 0.05164046 -0.080887444
0000f0 c2 cd 42 bd 5f 1b 24 3c 01 b4 3c bc 72 92 35 bd
       -0.047559507 0.010016291 -0.011517526 -0.044329114
000100 ee 8c 9a ba 27 cf ed bd bf fd e4 3d 54 b0 af 3d
       -0.0011791268 -0.11611777 0.11181211 0.08578554
000110 57 95 9d bd 7d ef 5f 3d c9 e5 0a bc bd e1 c8 bd
       -0.076945 0.054671753 -0.008477637 -0.09808681
000120 26 21 a5 bd ab d6 d1 3b 1a 86 92 3d d0 ff bd 3d
       -0.08062963 0.0064037642 0.07154484 0.09277308
000130 e1 40 b2 bc a2 39 91 bd 4b 93 6f 3c 5a 38 4a 3d
       -0.021759452 -0.07091071 0.01462252 0.049370147
000140 3a 98 45 3d 68 68 c2 3c a3 66 ca bd 54 4d 1c 3c
       0.048240878 0.023731425 -0.09882858 0.009539921
000150 45 df 2e bc da 7f 90 3d d4 32 f9 3d 32 7c 72 bd
       -0.010673349 0.07055636 0.12167898 -0.059200473
000160 3d 2b 61 bd 94 a3 0a bc 7c 6a 7b 3d 00 5c e1 3d
       -0.054972876 -0.008461852 0.06138085 0.11003876
000170 81 5c bc bd 73 90 e3 bc de f0 e9 bd 00 58 51 3d
       -0.09197331 -0.02777884 -0.11422895 0.051109314
000180 26 22 09 3a 7b d2 b3 bd c6 f4 26 3d 24 4d be 3d
       0.0005231224 -0.0878038 0.040760778 0.09292057
000190 3d b1 cc bd d7 6d dd 3d 6c 04 80 3d c3 5c 38 bd
       -0.09994743 0.10811966 0.062508434 -0.04501034
0001a0 8d 0c cd 3d 7a 82 2d 3d 98 73 9e bd 8b 0c 1e 3c
       0.100121595 0.04236076 -0.077368915 0.009646545
0001b0 db 24 1c bd 34 8a 88 b9 00 9d aa 3d d1 64 bb bd
       -0.038121086 -0.0002604291 0.083307266 -0.091500886
0001c0 3a 7d a0 bd 17 0a b2 3c b0 4f 17 3d f8 ce 88 3d
       -0.07836385 0.021733327 0.03694123 0.06680101
0001d0 00 43 b1 bd c6 6a a1 3d df b7 96 3c 00 89 bc 3d
       -0.08655357 0.078816935 0.018398223 0.09205818
0001e0 61 29 a7 3d 11 5d a9 3d ea 42 91 bd 8f c7 ae bd
       0.08162189 0.08269704 -0.07092841 -0.085341565
0001f0 0e d4 c4 3b b7 97 76 bd c4 58 4b bd 0c 3a 9d 3d
       0.006006724 -0.06020328 -0.0496452 0.07677087
000200 ac d4 4c bd 18 f1 a4 bd 5a c0 6b bc 03 bc cf 3d
       -0.050007507 -0.080537975 -0.014389122 0.10143282
000210 da 0c f6 3d 08 0e bd bb 27 03 60 bd 67 d6 e3 3a
       0.1201417 -0.005769495 -0.054690506 0.0017382622
000220 7e c4 28 bd db 42 02 be 5f 7f 61 bd 50 be 73 bd
       -0.041203015 -0.12720816 -0.05505311 -0.059507668
000230 96 43 87 3d 7e ea a3 bd 80 1e 72 3d 22 aa 86 3d
       0.06604688 -0.0800371 0.05911112 0.06575419
000240 be 46 6d 3d cb 95 66 bd 26 e9 20 bd d7 2b 61 3d
       0.057928793 -0.056295197 -0.039284848 0.05497345
000250 f1 3f a4 bd b0 43 a8 3d 3e 42 56 bb 63 22 b2 bd
       -0.08020008 0.08216035 -0.0032693292 -0.08697965
000260 59 51 01 be bc 2a c3 bd 70 04 ed 3d f0 43 43 3d
       -0.12628688 -0.09529635 0.11573112 0.047672212
000270 00 ec fd 3d f3 97 3d 3b ab 9e cc 3c 85 54 36 bc
       0.12398529 0.002892968 0.024978003 -0.011128549
000280 da 49 9d 3d 4d 0a 78 bd 7b a3 d8 3d 5d ba 63 3c
       0.07680102 -0.0605567 0.105780564 0.013899413
000290 72 81 0b 3d 1c 08 9e bd bc 9a 5a 3d d6 a3 8e 3d
       0.034058996 -0.077163905 0.053370222 0.06964843
0002a0 4e c9 cc 3d 7b a8 06 3c b5 ca dd 3d 2c cd 85 3d
       0.09999333 0.00821888 0.10829679 0.06533274
0002b0 ac b8 a1 bd 70 2e 5d bc 32 03 a8 bd d7 89 2c 3d
       -0.078965515 -0.013499841 -0.082037345 0.04212364
0002c0 0e 67 48 3d ca ee 5c 3d 0f b3 87 3d e2 88 ba bd
       0.048926406 0.053938664 0.066259496 -0.091081396
0002d0 0c 84 cd 3c 36 2b 23 3d e4 31 bf bd 5c 6d f9 3d
       0.025087379 0.03983613 -0.09335688 0.12179062
0002e0 a8 47 e7 3d cd df 06 bd 9b ff 42 b9 61 cf 83 3d
       0.11292964 -0.032928277 -0.00018596502 0.06436039
0002f0 b9 81 e8 3d 8d 26 c4 3d 61 b9 fa bb 35 12 82 3d
       0.11352868 0.095776655 -0.0076514934 0.06351129
000300 65 7a ef bc d7 bf 05 3d 09 1f 03 bd 97 7a e3 bc
       -0.029233167 0.032653656 -0.03201202 -0.027768416
000310 58 97 69 bd 16 24 64 bc 2c 24 6f 3c 8c c0 b0 bd
       -0.0570291 -0.013924619 0.014596026 -0.086304754
000320 f1 18 e8 bd 01 99 db 3d a6 01 2b 3d b5 8f 39 bd
       -0.11332882 0.107225426 0.04174962 -0.045303065
000330 7b c7 bd 3b ef ef e1 bd e5 9f 94 3d e6 e5 3a bd
       0.005791602 -0.11032092 0.0725706 -0.045629404
000340 0a 8e fb bd 7d 83 ba bd 54 b7 d3 bc 8c 22 f3 3c
       -0.12282951 -0.09107111 -0.025844254 0.02967956
000350 aa da ee bd aa d0 d8 bd 68 0f 9a 3d e9 09 88 bd
       -0.116628006 -0.105866745 0.0752247 -0.06642515
000360 31 e3 e0 bd f7 18 a4 3d 8b 51 c6 bc 95 8c d6 3d
       -0.10980833 0.08012574 -0.024208805 0.10476033
000370 6c 25 60 3d b0 b6 84 bd e0 52 64 bd 43 13 5e 3c
       0.05472319 -0.064801574 -0.0557431 0.013554397
000380 3e 3b ca 3d 06 8a cc bd 49 a0 02 3d 11 fa d8 3d
       0.09874581 -0.099872634 0.03189114 0.105945714
000390 0c 25 bb bc 7e ba ee b8 c5 90 c8 3c af c5 d1 3d
       -0.022844814 -0.00011383461 0.024483094 0.10242783
0003a0 06 bb 27 3d 81 69 62 bd 98 1a 8a bd 0d 12 59 bd
       0.040949844 -0.055276398 -0.067433536 -0.05299573
0003b0 b7 47 f3 3d 73 06 c6 3d 37 5d 9f 3d 83 6c db bc
       0.11878913 0.09669199 0.07781451 -0.02678514
0003c0 f4 4c c9 3d 07 5f 68 3d 3c f4 94 3d d4 a9 6d 3d
       0.09829131 0.05673125 0.072731465 0.05802329
0003d0 f0 e9 02 3e 35 4c fc bd 05 59 64 bd 41 e1 9f 3d
       0.12784553 -0.12319223 -0.05574896 0.07806636
0003e0 b7 2f a1 3d b0 59 ed 3d c6 53 af 3d c5 8c 66 3c
       0.07870429 0.11589372 0.085609004 0.014071648
0003f0 67 df c4 3d 5b 72 c0 bd 3e d1 dc bd 8a 87 f6 bd
       0.09612923 -0.093968116 -0.10782097 -0.12037571

clinical.layer2.bias f4 [256]
000000 2c 94 62 3c 95 40 32 bc cb f2 f9 3c 4c 08 4d bd
       0.013829272 -0.010879655 0.03051128 -0.05005674
000010 44 7f 54 bc cd 7a 87 3c 9f 40 0a 3c 5c 5b 7b bd
       -0.012969796 0.016538048 0.008438258 -0.061366424
000020 cc da 28 bd 36 76 6d bc 57 8c 40 bd 5f 08 c2 3c
       -0.041224286 -0.014493516 -0.04700884 0.023685632
000030 f8 52 6c 3d 0c 3d 85 bd f3 39 9b 3c 74 45 b2 3d
       0.057696313 -0.065057844 0.01894853 0.087046534
000040 94 01 64 3d ea 91 8e bc 8c cc b0 3c 99 66 2f bd
       0.055665568 -0.017403562 0.02158191 -0.042822454
000050 6d 9c d2 bb ab e5 93 3c d0 56 16 bd d6 18 14 3d
       -0.006427339 0.01805385 -0.036703885 0.036156498
000060 6a b4 8d 3d 49 ab 30 3b c6 2e 72 3c 9d f3 95 3b
       0.06919177 0.0026957563 0.0147816595 0.00457616
000070 bd 40 a5 3a 1e 95 8a 3c 3c f2 a7 3d 96 a6 b0 3c
       0.0012607794 0.016916808 0.082004994 0.02156381
000080 6a be 07 bd 2b b5 49 3c a5 00 96 3b e1 0c b9 bd
       -0.033140577 0.01231126 0.0045777136 -0.090356596
000090 15 c6 96 bd b2 91 4e 3d f2 25 d1 bc 0d cf 80 bd
       -0.07362 0.050431915 -0.025530789 -0.06289492
0000a0 14 96 02 bd 04 33 84 bd 01 cc a6 bb 9b e4 b6 3d
       -0.031881407 -0.06455043 -0.005090237 0.08930322
0000b0 3b 62 a2 bd 84 c3 c0 bc 1d 97 84 bd 1b b0 be bc
       -0.07928892 -0.02353073 -0.06474135 -0.023277333
0000c0 e6 a7 96 bc 47 93 0b bd 3a d8 a7 3c 36 b8 60 bd
       -0.018390607 -0.034076 0.020488847 -0.054863177
0000d0 97 33 e5 3c 9b cb 55 bd 38 6c 5c bc 56 e0 af bd
       0.027978702 -0.052196126 -0.013453536 -0.085877106
0000e0 c3 1c c3 3c f1 76 0c 3d 2d 0e b2 3d eb 79 af bd
       0.023817426 0.03429312 0.0869411 -0.08568176
0000f0 95 e5 9b 3c ee c1 a2 bd d8 b0 de bc ff db 89 bd
       0.019030372 -0.079471454 -0.027183935 -0.06731414
000100 56 ce 2d bd e1 b5 76 3b db 63 99 bd 70 14 74 3d
       -0.042433105 0.003764503 -0.07489749 0.059589803
000110 b8 0a 87 bb 86 fd 86 bd 4b 36 06 bd 7f dc 25 bc
       -0.004121151 -0.065913245 -0.03276662 -0.010123371
000120 0f 91 8c 3d 1e 27 4d 3c b5 f0 56 3c e3 c8 03 bd
       0.06863605 0.012521533 0.0131189125 -0.032174002
000130 4a cf 0f 3d f2 d5 06 3d 38 d8 b6 bd 7e a9 23 bd
       0.035109796 0.032918878 -0.08927959 -0.039956562
000140 44 08 d1 3d 03 8d 8f bd 5b 87 45 3c 63 5e 8b 3d
       0.10206655 -0.07009318 0.012056197 0.06805112
000150 3f 41 b0 3d b3 ed 9d bd b2 df ac 3d ca 1b 7c bd
       0.08606195 -0.07711353 0.08441104 -0.06154994
000160 36 f3 b6 bd 83 0a 18 bd e1 4e 26 3d 85 e2 9e bb
       -0.089331076 -0.0371194 0.04060257 -0.0048487806
000170 ae af f9 3c 2d 45 a5 3a 65 42 d0 ba c4 68 53 3c
       0.030479278 0.0012609117 -0.0015888928 0.012903396
000180 9f 6a a7 3d 28 25 b2 bd 25 7e 85 3d 3f 7d 9a bd
       0.08174633 -0.08698493 0.06518201 -0.0754342
000190 30 aa 9a bd b9 80 f3 bc 0b 1c 16 3d 34 9c 80 3c
       -0.07551992 -0.029724466 0.036647838 0.015699483
0001a0 6d b3 98 bc c4 a8 a1 bd 5e a8 31 3d 52 4d a0 bc
       -0.018640244 -0.078935176 0.043373458 -0.01956812
0001b0 a6 f5 68 3c bc dd 66 3d 58 1c 26 bd f8 14 b0 bd
       0.014218723 0.056363806 -0.040554374 -0.085977495
0001c0 f7 31 6a bd 19 6d 5f 3c 79 2b 76 bd a9 ca 78 bd
       -0.057176556 0.013636851 -0.060100053 -0.060740147
0001d0 17 20 a3 3d 00 e5 30 3d 54 fd 33 3d f0 e6 96 3b
       0.07965105 0.04318714 0.043942764 0.0046051666
0001e0 60 26 7a bd 4c 90 9c bd 17 1b 46 bb e4 36 e5 bc
       -0.061071754 -0.0764471 -0.003022855 -0.027980275
0001f0 82 d8 0f 3d 26 13 89 bd ab 89 45 bb 1d b4 ad bd
       0.035118587 -0.066931054 -0.003014187 -0.084816195
000200 af ed 02 bd a5 53 6d bd 53 6b fe bc 2d 6c 7f bc
       -0.031964954 -0.057941098 -0.031057036 -0.015589756
000210 fc ad 45 3d bf 22 4a 3d 5d 18 e0 3a e0 a9 f5 bc
       0.048261628 0.049349543 0.0017097105 -0.02998823
000220 5e f9 8e 3d 47 d9 28 bd 4a ad 70 3c dc 26 a9 bd
       0.06981157 -0.041222837 0.014689753 -0.08259365
000230 4c bb 8e 3c dd 8d 76 bd b2 8f f2 bc ff 7c 7d 3d
       0.017423294 -0.060193885 -0.029609535 0.061886784
000240 a6 b8 25 3d 3a 7e 82 3d b1 5b 7c bd ba 74 9e bd
       0.040459298 0.06371732 -0.06161088 -0.077371076
000250 4f 1b a9 bd d4 f0 8a bd 1c 39 96 3d fb 0e bd bd
       -0.08257162 -0.067842156 0.073351115 -0.09231373
000260 70 9d 62 3d 28 9a d7 3a 77 b8 54 bc db d9 ac bd
       0.055325925 0.001644914 -0.012983433 -0.0843999
000270 db 5b 6d bc 57 14 93 bd 16 1c 61 3c 79 54 96 3d
       -0.014487232 -0.07181614 0.013739606 0.07340331
000280 eb d5 47 bc 67 ed 1e 3d 70 60 9a 3d be 70 58 bd
       -0.012196998 0.038800623 0.07537925 -0.052841894
000290 98 d4 80 bc dc 94 05 3d ac 2e 6a 3d 77 90 27 3d
       -0.015726373 0.032612666 0.057173416 0.040909257
0002a0 37 85 95 3d 6f 2a 3b bd 8a 6a 57 3d 72 60 8c bc
       0.07300799 -0.045694765 0.052591838 -0.017135832
0002b0 5f ed 21 3d 95 a7 ba 3c 6c 07 cf 3c b1 2d bc bc
       0.039533015 0.022784987 0.025272094 -0.022971006
0002c0 e2 7e 85 bd 3f 13 25 bd 4b 59 9b 3d d1 0f 66 bd
       -0.065183416 -0.040301558 0.07585391 -0.056167427
0002d0 5b 07 08 bd 39 6d 27 3c 9b c4 aa bd 1d ae b9 3d
       -0.03321014 0.010218912 -0.08338281 0.090664126
0002e0 9d 40 1a 3c 5b 47 02 3d b4 21 bf 3d 1a c1 69 3d
       0.009414819 0.03180633 0.093326 0.05706892
0002f0 52 17 89 bc f3 04 c2 3c 59 19 88 bd 59 8b 1b 3d
       -0.016734753 0.023684 -0.0664546 0.03797469
000300 6b be 43 3d 31 dc 9b 3c 1c 84 bd 3d a6 59 57 bd
       0.04778902 0.019025894 0.092537135 -0.05257573
000310 37 49 97 bb 27 40 94 3d 66 c5 00 bd 86 d4 8d 3b
       -0.004616882 0.072387986 -0.031438254 0.0043283133
000320 0a 69 15 3d 2a 42 fb ba 4d 78 b2 3c 3c ef 21 bd
       0.036477126 -0.0019169499 0.02178588 -0.039534792
000330 47 fb 89 bd 2a 18 be bc d7 60 5a bd b1 fc 46 3c
       -0.067373805 -0.023204882 -0.05331501 0.012145207
000340 97 b9 5c 3d 71 0e b6 bd cf 95 6c bd 26 31 7e 3d
       0.05388793 -0.08889473 -0.057760056 0.06205859
000350 ce 7d 6a bd 69 b4 a8 bd bd 04 4a 3d d0 4c a8 3c
       -0.057248883 -0.082375355 0.049320925 0.02054444
000360 de 9f f0 3c e8 2c a3 bd 6f ea a8 bd f5 d8 b6 bc
       0.029373106 -0.079675496 -0.0824784 -0.02232025
000370 1a 02 a8 bd 2f 17 ec 3c f5 06 78 bd a9 29 2a bd
       -0.08203526 0.028819649 -0.06055351 -0.041543636
000380 f5 00 a4 3b 7f ce 27 bd 64 cd 71 bd 03 ef 2e 3c
       0.005004997 -0.040968414 -0.059033766 0.010677102
000390 eb 05 97 3d 12 c4 17 bd 45 c5 f9 3b 86 dc 99 bc
       0.07374176 -0.03705222 0.0076223933 -0.018781912
0003a0 97 63 92 3d a8 d3 a2 bd 25 e2 4c 3c 31 cd 68 bd
       0.071479015 -0.079505265 0.012505089 -0.05683631
0003b0 fc 52 12 3d 1e fa 90 bd 9e f2 a7 bd 3c 98 95 bd
       0.03572367 -0.07078956 -0.082005724 -0.07304427
0003c0 4e 5d 22 3d 0a d6 9a bd 2f 18 19 bc 5d 61 d0 bb
       0.039639764 -0.07560356 -0.009344145 -0.006359263
0003d0 78 7e 61 bc af c8 ad 3d 3a 1c 81 bd 32 e6 e3 ba
       -0.013763063 0.08485543 -0.06304212 -0.0017387329
0003e0 68 c5 a0 3c ae 50 91 bd cc 84 38 bd b6 b9 86 3d
       0.01962538 -0.070954666 -0.04504852 0.0657839
0003f0 13 58 97 bd 6f 35 2f bc 21 43 42 3c 68 98 22 bd
       -0.07389846 -0.010693892 0.011856825 -0.039696127

clinical.layer3.weight f4 [256, 256]
000000 82 02 cd 3d 70 ca f4 bc e6 a4 ba 3d cd f1 a6 3d
       0.10010244 -0.029881686 0.09113483 0.081515886
000010 bb 72 f6 3b 43 a2 50 bd 99 07 8d 3d 6c e2 c5 3c
       0.007521001 -0.050935995 0.06886215 0.024155818
000020 6f a5 7f 3d cb f8 27 3d c1 92 c9 3d 4f b9 26 3d
       0.06241363 0.04100875 0.09842444 0.040704068
000030 49 61 b2 3d a6 0c df bd 97 96 86 bd be 8d a9 bd
       0.08709962 -0.108910844 -0.065716915 -0.08278988
000040 7c 36 f3 bc aa b3 e9 bb 5e 7b c5 bc ae 21 d4 3d
       -0.029689066 -0.0071320133 -0.024106678 0.103579864
000050 b1 b6 3c bd 5c c0 c9 bd ec 3e c4 3d 76 eb 43 3d
       -0.046072666 -0.09851143 0.09582314 0.047831975
000060 20 5d 55 3d e1 23 99 3d 73 77 57 bd 5d df 7e bb
       0.052090764 0.074775465 -0.05260415 -0.003889046
000070 82 3a b6 3d b8 af b8 3d 09 7e 51 3c 4d 4e 7f bd
       0.08897878 0.09017891 0.012786397 -0.062330533
000080 3a 69 b3 3d 00 4f 85 3c 12 16 a1 bd da cc 98 bc
       0.08760305 0.016273022 -0.07865538 -0.018652368
000090 3a f9 9f 3d d8 de 5e 3d 81 c1 39 bd 85 d7 30 3d
       0.07811208 0.05441174 -0.045350555 0.043174285
0000a0 66 ef 5b bd 46 98 c2 3c 63 c9 67 3d b2 6c c3 3b
       -0.053695105 0.02375425 0.05658854 0.005963885
0000b0 47 00 6d bd 2b 3f 9d bd 5e 17 7d bb db 63 3b 3d
       -0.057861593 -0.07678064 -0.0038618664 0.045749526
0000c0 0f 90 a1 bc e0 74 3b 3d 24 92 14 3d a1 0e b0 3b
       -0.019722013 0.045765758 0.036272183 0.0053728377
0000d0 be 2b 38 3b 57 ea 60 3d 27 a2 b9 bd 98 1f 5c bd
       0.0028102244 0.054910984 -0.09064131 -0.053741068
0000e0 2e 75 ea bc e3 8a 5a 3d 15 2f a4 3d 42 eb 33 bd
       -0.028620329 0.05335511 0.08016793 -0.04392553
0000f0 eb 25 b7 3d fc ed 55 3c 19 c4 87 bd 6f fc 46 3d
       0.08942779 0.013057228 -0.066291995 0.048580583
000100 24 4d d3 3d 92 a0 44 3d 47 31 ad 3c 94 5e ad bd
       0.10317448 0.048004694 0.021141661 -0.08465305
000110 d2 92 7b 3a da 50 a4 3d 73 f9 5d bd 3e 8a f5 3c
       0.0009596768 0.08023234 -0.05419297 0.029973146
000120 d5 46 ab 3d 93 23 b9 bc bc 4f 5f bd 25 00 0b bc
       0.083631195 -0.02259997 -0.0545194 -0.008483921
000130 98 7c 8a 3d 75 2b ba 3d a5 a3 d0 bc e9 7d c0 3c
       0.067620456 0.0909032 -0.025468657 0.023497539
000140 86 39 93 3d 94 e7 84 3d b1 4c 4c 3c 62 7c 5c 3c
       0.07188706 0.064894825 0.0124694565 0.01345739
000150 cd e9 b1 bc 8b 58 81 3d 50 27 0e bd e7 de 3a bd
       -0.02171793 0.06315716 -0.03470546 -0.045622732
000160 85 4d 60 bd c9 f6 d5 bd c3 b9 a5 3d 7a 0e 8e 3d
       -0.05476143 -0.10447461 0.08092072 0.06936355
000170 7f 05 85 bd 39 80 93 3d 79 fc ca 3b c9 81 9d bd
       -0.06495189 0.07202191 0.006194648 -0.0769077
000180 11 a7 6b bd f4 86 a9 bc ae 21 54 bd b4 00 cc bd
       -0.057532374 -0.020694233 -0.051789932 -0.099610716
000190 1c a6 2f 3d 1f 30 89 bd 4a 61 1d 3d 3e 42 15 3d
       0.042883024 -0.066986315 0.03842286 0.036440127
0001a0 28 5a b7 3d 75 68 b5 bd e4 9f c3 3d b5 47 5d 3d
       0.08952743 -0.08857814 0.09551981 0.054023463
0001b0 3d 28 a4 bb 69 9e b4 3d c2 cd 0c bd db 9b a3 bd
       -0.0050096796 0.08819277 -0.034375913 -0.079887114
0001c0 70 91 b5 bd 6c a1 c4 bd c8 0e 84 3d d8 7f ac 3d
       -0.088656306 -0.09601101 0.06448132 0.08422822
0001d0 44 f5 c6 3d 6a d3 e2 bd 7f a9 c0 bc 8c f6 c8 bd
       0.097147495 -0.1107548 -0.023518322 -0.0981265
0001e0 59 70 c1 bc c4 0b 93 3d b6 e5 6a bd a7 ff 83 3d
       -0.023613142 0.071799785 -0.057347976 0.06445246
0001f0 6a 0c bb 3d 81 44 41 bd 85 75 26 bb f2 24 5f bd
       0.09133227 -0.04718447 -0.0025399637 -0.054478593
000200 a7 f8 28 bc c4 bb a1 bd c7 1e de bc 4c 0f a4 3c
       -0.01031319 -0.078971416 -0.027114285 0.020026825
000210 6c 74 3f bd 40 c2 2e bd 5d 6c 9a 3d b9 e8 64 bd
       -0.046741888 -0.04266572 0.075402 -0.055886004
000220 9e d2 ef 3d dc 36 36 ba 87 db bd bd e2 b4 6b bc
       0.11710094 -0.00069509237 -0.09270387 -0.014386388
000230 44 4c b4 bc 63 21 90 3d 2a 6c 6a 3d ad 24 01 bd
       -0.022009023 0.07037618 0.05723206 -0.031529117
000240 53 2a 8c bc 94 85 56 3d 82 a0 18 bd d7 e7 94 bd
       -0.017110026 0.052373484 -0.037262447 -0.072707824
000250 81 2c d5 bd f6 e1 cd 3b 84 21 a9 3d 9a ec 8f bd
       -0.10408879 0.00628304 0.08258346 -0.0702755
000260 87 2a 8f 3d 33 fe 62 bd 6d 36 da 3d 30 b0 51 bc
       0.06990533 -0.055418205 0.10654912 -0.012798354
000270 56 66 d9 3d 30 1c 13 3c 49 a0 12 3d 0c df ee 3c
       0.10615222 0.008978888 0.03579739 0.029159091
000280 e3 e6 88 3d e5 ca c5 3d 63 f4 b4 bd 43 67 bb 3d
       0.06684663 0.0965784 -0.088356756 0.09150555
000290 71 e3 14 bd f5 f8 bb bd e6 85 01 3d 31 a4 3b bd
       -0.036349718 -0.09178344 0.031621836 -0.045810882
0002a0 51 87 1c bd cb 1b 99 bd 9a 6d f5 3c e0 ee cf 3d
       -0.038214985 -0.07476004 0.029959489 0.10152984
0002b0 29 a6 0f 3d 5c 88 a2 3d 75 99 6c 3c 33 75 d9 bc
       0.035070572 0.07936165 0.014440884 -0.026545143
0002c0 38 14 b3 3d 3a 2c d0 3d c8 8b 44 bd bf f5 b8 3d
       0.08744091 0.101646855 -0.04798487 0.09031247
0002d0 4b 78 27 bd 14 a1 cb 3d e7 ab b3 bd 75 ff b7 bc
       -0.040886205 0.099428326 -0.08773022 -0.022460679
0002e0 20 c3 1b bd 87 1f 4a bd 4d 0c 18 bd 62 68 e3 3c
       -0.038027883 -0.049346473 -0.037121106 0.027759735
0002f0 3b 09 1e bc 56 cf 9b bd c3 f8 b2 bd 85 d5 be 3d
       -0.009645755 -0.076079056 -0.08738854 0.09318069
000300 cf 28 76 bd a1 64 8f bb a5 88 b6 3d 62 f6 74 bd
       -0.06009751 -0.0043760096 0.089127816 -0.05980528
000310 79 e5 a7 bd 7a ba 09 bd 4a 2c 8e bd 33 98 aa bc
       -0.08198065 -0.033625104 -0.06942041 -0.020824527
000320 b8 65 01 bd 62 f7 49 3d ac 36 a3 bd 71 70 20 3d
       -0.031591147 0.04930819 -0.07969412 0.039169732
000330 a9 a9 4b bd e6 72 bd bc 6c 46 1c bd aa 07 8e bd
       -0.049722347 -0.023126077 -0.038153097 -0.069350556
000340 61 3f 4f 3d 1b 53 d1 bd f8 c6 8d bc 9d 39 51 3d
       0.050597552 -0.10220929 -0.01730679 0.051080335
000350 9a 96 f1 bc b7 d9 5d bd 28 78 b6 3d cc dd 68 bc
       -0.029490758 -0.054162707 0.08909637 -0.014213037
000360 5a d0 c1 3c f1 d8 00 bc 74 9f 98 bd 72 ac b4 3d
       0.02365892 -0.007864223 -0.07452288 0.08821954
000370 71 8d 1d bb a6 5c 74 bd 0a 86 9e 3d 96 df 69 3d
       -0.0024040604 -0.05965867 0.0774041 0.057097994
000380 ef 4e 68 bc 14 ed 62 bd 59 fe 07 3d 4f 0a 0e 3d
       -0.0141789755 -0.055401877 0.03320155 0.0346778
000390 d0 8a 12 bd 5f ce 08 bd 0f 2c 48 3d 7b 7e 89 3d
       -0.035776913 -0.033399936 0.048870143 0.06713577
0003a0 0c c5 68 3c a4 eb 44 bd eb 17 db bd 3c 63 bc bd
       0.014207136 -0.048076287 -0.10697921 -0.09198615
0003b0 52 cf ac 3d fd 47 d7 b9 e9 df 72 bd 31 70 b0 bd
       0.08437981 -0.0004106163 -0.05929557 -0.08615149
0003c0 77 ff 5d 3d 40 74 34 3d 49 7e 06 3d 51 5a b9 3c
       0.05419871 0.044056177 0.03283528 0.022626074
0003d0 11 fa c9 3d b7 c9 93 3d 9c 7c 04 bd ea c6 82 3d
       0.098621495 0.072162084 -0.0323454 0.06385596
0003e0 ef 72 d4 bd 09 19 76 bd f2 f2 15 3d 19 e7 d4 3c
       -0.10373484 -0.06008247 0.036608644 0.025989102
0003f0 aa 0f f4 3b 01 0b 90 3d e7 a5 95 3c e0 bd 1f bc
       0.0074481564 0.07033349 0.018267585 -0.00974986

clinical.layer3.bias f4 [256]
000000 7c 02 28 3d 51 41 e2 3c 0f af 6b bd fe a0 4a bd
       0.041017994 0.027619036 -0.057539996 -0.04946994
000010 17 70 14 3d d5 f1 e4 bc 7a b9 5f bb 3f f6 b5 bc
       0.03623971 -0.027947346 -0.0034137652 -0.022212146
000020 23 4d 6c bc 2e fd eb bc 50 60 e5 bb 8b fe 50 bd
       -0.014422688 -0.028807249 -0.0070000067 -0.051024
000030 b8 c2 7c ba a0 cf 87 3d 2f 32 5d bc f1 2e 59 3d
       -0.00096420525 0.06631398 -0.013500734 0.053023282
000040 e5 61 04 bc ba 3f 26 ba 8a a9 02 3d 0b 7c 80 bd
       -0.0080799805 -0.00063418935 0.031899966 -0.06273659
000050 e5 ee 01 3d f5 62 7a bd 81 2f 74 bd a9 b7 99 3d
       0.03172197 -0.06112953 -0.059615616 0.075057335
000060 dd 0d 04 bd 3b 24 f1 3c 8e b7 44 3d 1f 16 62 bd
       -0.032239784 0.029436221 0.048026614 -0.055196878
000070 0f 70 31 bd 16 d5 59 bc 32 81 51 bc 6f 10 46 bd
       -0.043319758 -0.013295433 -0.01278715 -0.048355516
000080 73 01 76 3d 37 96 52 bd 8c 6d 5f bd be 7e 19 bd
       0.060059976 -0.051412787 -0.05454783 -0.037474386
000090 57 6e 6a bd 96 c6 0f 3c fa 58 a3 ba 4b 95 67 bd
       -0.057234135 0.008775374 -0.001246243 -0.05653886
0000a0 38 ae 24 3c b6 e3 3f bd f4 8e 2f bd e1 d7 22 bd
       0.010051303 -0.04684802 -0.04286094 -0.03975666
0000b0 b3 ee 6e bd fa c0 3a bc da a9 aa bc 2a 9a 7a 3c
       -0.05833311 -0.011398548 -0.020832945 0.015295545
0000c0 d3 3f 62 3d d8 50 5b 3d 0b 7c 17 3c 36 7c 13 3d
       0.05523665 0.053543895 0.009245883 0.03600713
0000d0 4b 84 6b bd e7 c7 1a bd e8 32 fd 3c a3 24 2c 3c
       -0.05749921 -0.037788298 0.030908063 0.010506782
0000e0 3c 28 c0 3c 84 65 6c bd 33 77 2c 3d 40 c7 8f 3c
       0.023456685 -0.057714 0.042105865 0.017551064
0000f0 98 aa 24 3d 91 e8 3f bd 39 b7 da 3c 3d 2d 3c bd
       0.040201753 -0.046852652 0.026698695 -0.04594158
000100 c2 57 58 3d 4f 82 ea bc d4 bb 1e bb ec 7a 20 3b
       0.052818067 -0.02862659 -0.002422084 0.002448733
000110 d4 8d 72 bd 64 a5 24 3c 7b 6d 4e 3d 96 c4 ac 3c
       -0.05921729 0.010049198 0.050397377 0.021089833
000120 b8 f2 98 3c 6a cd 15 bd 8e 7c 8b bc 4e d4 bc 3c
       0.018670425 -0.03657285 -0.017027166 0.023050454
000130 e6 c4 9e bc aa e3 41 bd 2e c5 ab 3c 03 79 18 bd
       -0.019380998 -0.047336258 0.020968046 -0.03722478
000140 47 b1 f3 3c c3 a9 a8 bc 65 c7 6d bd 2c 1b 9d bc
       0.029747618 -0.020588761 -0.058051486 -0.019177996
000150 93 91 61 3d 77 a2 e7 bc e8 65 c0 3c db c7 42 bb
       0.05507047 -0.028275711 0.023486093 -0.0029721174
000160 14 e7 39 3c 62 a5 82 3d 6e 04 43 3d c3 cb e5 bc
       0.011346597 0.063792005 0.047611646 -0.028051263
000170 94 53 df bc 81 b2 20 3d ae d1 a1 3b d2 90 32 3d
       -0.027261533 0.039232735 0.004938326 0.043595143
000180 fc eb 3d bd 86 5e 90 bd 82 15 56 bd f1 32 49 3b
       -0.04636763 -0.07049279 -0.052266605 0.003070053
000190 fd 86 64 bd 74 bc b1 bc a9 0a 7f 3d 8d 45 bc bc
       -0.055792797 -0.021696307 0.062266026 -0.022982383
0001a0 03 22 3a bd 76 01 ad 3b 29 8f f4 bc 1f 65 b5 3c
       -0.045442592 0.005279715 -0.02985342 0.022142945
0001b0 8f 29 b1 3a f5 d7 3b 3d 05 d6 de bc 9c c0 2c bc
       0.0013516414 0.04586025 -0.027201662 -0.0105439685
0001c0 b1 03 1b 3b 8e 68 65 bd b3 39 04 bd d9 b7 54 3b
       0.0023653323 -0.056007914 -0.03228159 0.0032458215
0001d0 94 83 aa 3c 68 e8 73 3d 7b b8 23 bd 49 43 0c 3c
       0.020814694 0.05954781 -0.039970856 0.008560964
0001e0 a5 c3 51 3d 3c 82 7a 3d d9 40 05 3d b4 78 2e bd
       0.05121197 0.061159357 0.032532547 -0.04259558
0001f0 31 53 1d bc 61 f0 82 bd 8e 74 51 3d 96 0f 0c 3c
       -0.009602354 -0.06393505 0.051136546 0.008548638
000200 4a 62 e5 bc 9d 91 ed 3b f6 b7 c4 3c a2 0e 69 bc
       -0.02800097 0.0072500245 0.0240135 -0.01422468
000210 8f 92 ba bc bf de 14 bd f2 a6 3a 3d 99 96 2f 3d
       -0.022774963 -0.03634524 0.045569368 0.04286823
000220 49 ab 4a bc 40 e9 95 3c 47 d6 4f bc a5 c9 2e bd
       -0.012369939 0.018299699 -0.012685365 -0.042672772
000230 08 8b 79 3d b3 7a 59 bd af 83 3e 3c 41 11 30 bd
       0.060923606 -0.05309553 0.0116280755 -0.042985205
000240 af 24 7a 3d 3c 9d 27 bd 9e 27 07 3d c8 dd 2c bd
       0.06107014 -0.040921435 0.032996766 -0.042203695
000250 4c bb 03 bd 55 42 93 3d 25 2f 5a 3d 96 00 87 bc
       -0.032161042 0.07190386 0.053267617 -0.016479772
000260 1e 86 63 bc 8e da f5 3c 88 03 ea bc 04 21 4d 3d
       -0.0138869565 0.030011442 -0.028566137 0.050080314
000270 d0 66 32 3d 27 d2 4b bd 84 c6 bb bc 34 8d 8f bc
       0.04355508 -0.049760964 -0.022921808 -0.017523386
000280 44 0c 19 3d 77 28 be bc 0b 01 36 3d 4b 6a 7b 3c
       0.037365213 -0.023212655 0.04443459 0.015345166
000290 52 f2 3e bd 6c 9d 67 bb 69 e2 1b bc b9 2f 22 3d
       -0.046617813 -0.0035341633 -0.00951443 0.039596293
0002a0 05 1c 4e 3c e4 fd 44 3d 14 e3 e7 3c b5 71 4b 3c
       0.012579923 0.04809369 0.028306521 0.012417247
0002b0 dd bf d5 b9 32 55 3b bb bd 1c 7f 3d a7 eb 16 3d
       -0.00040769475 -0.0028584716 0.062283266 0.03684583
0002c0 1a 1a f6 3b 5e 23 66 bd a2 63 6a bb 43 79 74 3d
       0.007510436 -0.056186073 -0.0035764952 0.059685957
0002d0 30 79 51 3d 00 ce 87 3c b4 28 5e 3d 4a 2b 43 3b
       0.051140964 0.01657772 0.054238036 0.002978044
0002e0 80 e8 65 bc 17 fb 12 bd 25 17 62 bd aa 93 7a 3b
       -0.014032483 -0.03588399 -0.055197854 0.0038234987
0002f0 92 f8 6a bc 78 e5 c9 bc 7b 8f fc bc b7 e5 35 bd
       -0.01434149 -0.024645552 -0.030830136 -0.044408526
000300 ce d0 02 bd c1 bd 57 bd 1e d5 ea bc b7 da 1e bd
       -0.031937413 -0.052671198 -0.028666075 -0.0387828
000310 51 40 b1 bc b0 6d d0 3c c2 72 84 bc f9 0c 95 bc
       -0.021637114 0.025442928 -0.016168002 -0.018194662
000320 24 07 64 bd b8 d0 b0 bb e5 5d f5 bb 2a 3c 12 bb
       -0.055670872 -0.005395975 -0.0074879997 -0.0022313693
000330 e2 26 b1 bc 41 7c 7e 3d 26 67 29 3d 47 8a 72 3d
       -0.021624986 0.062130217 0.041358136 0.059213903
000340 5d fc 0e 3d 4d 21 7a 3c fd e3 41 bd e3 5e c1 3c
       0.03490864 0.015266729 -0.047336567 0.023604816
000350 02 33 60 bd bb 9b 59 bd b2 f2 8f 3c 9d 52 2d bd
       -0.054736145 -0.05312703 0.01757178 -0.042315114
000360 c4 55 7b bd ae 9c 07 bd bf 4d 09 bd 2f 8c 60 3d
       -0.06136109 -0.033108406 -0.03352141 0.05482119
000370 8b d3 b0 3c 77 8f af 3b ee bc 49 b9 54 6d 5d 3d
       0.021585247 0.0053576785 -0.00019239236 0.05405934
000380 6f 37 b1 3c 7e 68 0c 3d 37 e5 1c 3c ba b9 3b 3c
       0.021632878 0.03427934 0.009576133 0.011457855
000390 83 74 07 3d 6a 7a 16 bd da 44 51 3d 12 79 58 bd
       0.0330701 -0.036737837 0.051091053 -0.052849837
0003a0 0e 7f 6b 3c 5f 31 45 bc 8e 30 af 3c 5e c5 0c 39
       0.014373554 -0.012035697 0.021385457 0.00013424965
0003b0 c1 af 55 3c 54 7e 0f bd 96 c3 b4 bc 05 62 37 bd
       0.013042391 -0.035032585 -0.022065919 -0.044771213
0003c0 d8 38 dd bc 83 c3 3e 3d 83 6a 66 3d a5 ed 06 3d
       -0.027004644 0.046573173 0.05625392 0.03294148
0003d0 7f 06 5f 3c ce f5 04 3d 36 40 04 3d 6a 3c 3a bd
       0.013612389 0.03246098 0.0322878 -0.04546777
0003e0 df 62 49 bd 4d aa 8c bd 09 d8 ff 3c e4 02 f3 3c
       -0.049166556 -0.0686842 0.031230943 0.029664464
0003f0 96 84 c7 3c 84 1b 5f bd 6c e9 46 bd a8 bd a2 3b
       0.024355214 -0.0544696 -0.048562452 0.0049664564

clinical.layer4.weight f4 [4, 256]
000000 a9 ad fb bd a9 27 08 bd e1 67 1f be d6 ac 08 3e
       -0.122889824 -0.033240948 -0.1556697 0.13347182
000010 85 5f 94 bc 09 8f a8 bd ea be 82 bd bf f8 08 3e
       -0.018111954 -0.08230407 -0.0638407 0.13376139
000020 9c 12 30 3c 41 f0 fb 3c a8 e8 89 bc 8c f8 71 3c
       0.010746624 0.03075421 -0.016834572 0.014768731
000030 e8 59 a1 bd 49 05 d1 3d 4f 55 96 3d 3a 21 41 bd
       -0.078784764 0.10206086 0.0734049 -0.047150828
000040 78 b5 df bd 03 f1 ca 3d 92 4e e3 bd 93 ad 1b 3d
       -0.10923284 0.099092506 -0.110989705 0.03800733
000050 76 30 0a 3e 3b bd 1f be ac b0 1d bd 2c 94 85 bd
       0.13495049 -0.1559953 -0.038498566 -0.06522402
000060 cf 8a e8 bd c1 5d 0f be 70 d3 ae bd 29 fc bc 3d
       -0.11354601 -0.14000608 -0.08536422 0.09227783
000070 05 30 80 bc 3d 71 23 be 5f c5 10 be 8c 7e 44 bd
       -0.015647897 -0.15961166 -0.14137791 -0.047972247
000080 da 79 49 3d ba 48 19 be b4 cf d3 3d dc a9 01 be
       0.049188472 -0.14969149 0.103423506 -0.12662452
000090 52 5c fe ba 74 8a d6 3b 03 cb fc bc 6f ae 8a 3d
       -0.0019406176 0.0065472666 -0.030858522 0.06771552
0000a0 d7 3e 4d 3a 7b f6 51 bd 22 2a c1 3d 43 74 21 bd
       0.0007829493 -0.051260453 0.09431864 -0.039417516
0000b0 cf 24 05 3d 7e 19 d4 3d 33 f0 a5 3d 1f 87 12 be
       0.032505807 0.10356425 0.08102455 -0.14309357
0000c0 f5 cc d4 bd 1f 69 a6 3c da 18 da bc 42 5e 60 3d
       -0.10390655 0.020313798 -0.026623178 0.05477739
0000d0 7b 82 06 3e ce 36 14 3d 21 f5 0c be c9 b6 8a bd
       0.13135712 0.03618508 -0.13765384 -0.06773145
0000e0 01 11 d6 bd d2 63 05 3e 51 c1 e9 bd 43 db b6 3c
       -0.10452462 0.1302636 -0.11413825 0.022321349
0000f0 5a c0 e9 3d 02 aa c8 bd a2 f2 c1 bd 68 72 cd bc
       0.11413641 -0.097980514 -0.09470107 -0.025078967
000100 32 5f 1c 3e 9c e8 f1 3d e0 65 b9 3c d8 e0 df bd
       0.15270689 0.11811945 0.022631586 -0.109315574
000110 51 dc c7 3d 1f 8b 30 3e e0 01 2c 3e 52 42 a0 3c
       0.09758819 0.1724057 0.1679759 0.019562874
000120 9e 55 0e be 9f 32 df 3c ce c5 cb 3d 0b d1 1c be
       -0.13899848 0.027245818 0.099498376 -0.15314119
000130 20 e3 d9 3d de 90 df bd 0d ed fa 3d 1f 00 fc 3c
       0.10639024 -0.10916303 0.12252245 0.030761776
000140 7c b3 eb 3d 08 42 d0 bd c8 99 c3 bd 1f 2a 06 3e
       0.11508843 -0.101688445 -0.09550816 0.13102005
000150 23 57 13 3e 74 56 93 bc 81 01 88 bd d9 b1 a5 3d
       0.14388709 -0.01798556 -0.06640912 0.080905624
000160 19 95 d5 3d a1 fd 7a bd 58 a6 18 bd 33 9a cf bd
       0.10428829 -0.061277036 -0.037268013 -0.10136833
000170 70 66 91 3b c0 48 fd 3d a0 ee 11 3e 0e 15 77 3d
       0.0044372603 0.123673916 0.14251184 0.060322814
000180 70 7f fc bd 0a 8c b4 bd 5c 88 d8 bd 10 f0 a3 3d
       -0.12328994 -0.08815773 -0.105728835 0.08004773
000190 bc 93 4d 3d ab ee 0d bd 1e b9 a7 3d 00 7e 29 bd
       0.05018972 -0.03465144 0.08189605 -0.04137993
0001a0 92 27 e1 bd 9b 1b 98 bd e0 6a 34 3a 5f 68 7d bd
       -0.109938756 -0.0742714 0.00068823807 -0.061867114
0001b0 88 1b 27 3d 8a 3f ae 3d d0 d0 18 3e 7e d7 a2 3d
       0.04079774 0.08508213 0.14923406 0.07951258
0001c0 0a e8 3d 3d 2f 64 f9 3d e5 d0 c0 bd f6 e5 cf 3d
       0.046363868 0.12177312 -0.094148435 0.101512834
0001d0 45 a3 e0 3d e0 a7 d7 3d 98 e0 05 3e b0 33 fb 3d
       0.10968641 0.105300665 0.13073957 0.12265718
0001e0 85 b0 90 3d 30 22 19 3e 3a fa e7 3d 43 d3 fa 3d
       0.070649184 0.14954448 0.11327024 0.12247326
0001f0 79 7f f9 3d dc 26 1b bd 3c 61 3d bc 46 57 9b 3d
       0.121825166 -0.037878856 -0.011558827 0.075850055
000200 56 27 a4 bd a5 75 cf 3d ee 8b 40 be 7e 85 19 3e
       -0.08015315 0.10129861 -0.18803379 0.1499233
000210 fa 2c 3f bd ca 3d 11 be b5 b0 e5 3d 37 0d c6 3d
       -0.046673752 -0.14183727 0.11215345 0.09670489
000220 a0 1b 60 bd 6f 96 b8 3d d0 da 5d 3d 2b 9b ba bb
       -0.054713845 0.09013068 0.054163754 -0.005694767
000230 84 1e 8a 3d dc c5 f6 bd f0 67 92 3c 40 d2 d0 bd
       0.06744102 -0.120494574 0.017871827 -0.10196352
000240 8e 1f 5b bd c3 00 07 be a9 7a a1 bd f9 f1 8d bc
       -0.05349689 -0.13183884 -0.07884724 -0.017327296
000250 dc df be bd 2e 81 10 3e d2 61 30 bd e3 50 04 be
       -0.093200415 0.14111778 -0.04306204 -0.12921481
000260 35 8f 7f 3d 75 51 a3 3d c3 a9 d7 bd 24 13 c9 3d
       0.062392432 0.07974521 -0.10530426 0.09818104
000270 c7 68 ca bd 7b 12 a9 bd f2 e4 75 3c c8 2d ae bd
       -0.09883266 -0.08255478 0.015008198 -0.08504826
000280 11 41 07 3e 93 c9 02 3e 8f e0 f3 bd 58 47 ec bd
       0.13208415 0.12772207 -0.119080655 -0.11537045
000290 62 88 14 3e 21 b0 89 3d 40 44 26 be 2d c5 03 3d
       0.14505151 0.06723047 -0.16236973 0.032170463
0002a0 b0 ee 68 bd 16 43 83 3d 1e d8 60 3d 51 10 10 be
       -0.056868255 0.0640928 0.054893605 -0.14068724
0002b0 8b da 13 3d 75 08 c1 3d d4 f5 31 3d 66 d9 c8 3d
       0.03609709 0.09425441 0.04344733 0.098070905
0002c0 e4 10 19 be 3a 5b 01 bd e1 e8 3d 3d c6 88 b7 bc
       -0.1494785 -0.03158114 0.04636467 -0.022404086
0002d0 4c 6f ff bd d2 01 42 3b 8f 51 d0 bd 4d 62 18 be
       -0.124724 0.0029603136 -0.10171806 -0.14881249
0002e0 53 8a 19 be 9c b1 ca bd 3a b4 b0 bd 9d c2 d6 bd
       -0.14994173 -0.098971575 -0.086281255 -0.10486338
0002f0 78 ca 30 be 78 93 47 3d fe 94 07 3e 71 c5 bd 3b
       -0.17264736 0.04872462 0.1324043 0.005791359
000300 52 ae dd 3d b8 e3 1a be fe 78 0b bd c5 71 87 3d
       0.108242646 -0.1512593 -0.034050934 0.06613497
000310 d6 78 df 3d 9e be fc 3b 0b a5 07 be b4 11 d3 bd
       0.109117195 0.007713153 -0.13246553 -0.10306111
000320 92 fd 07 3e 51 c2 14 be 91 36 25 3d 17 f8 91 bd
       0.13280323 -0.14527251 0.04033524 -0.071273975
000330 8f b1 3d bd 21 4c 85 3d bc cf 49 bd f5 97 25 be
       -0.04631191 0.06508661 -0.049270377 -0.16171248
000340 cc bd 01 be 57 06 2e be 8a 11 02 be 0a 87 f2 3d
       -0.12670058 -0.16994606 -0.12702003 0.11842163
000350 82 88 12 be 71 f7 40 bd 59 46 1e be 32 99 b6 bd
       -0.14309886 -0.04711098 -0.15456523 -0.089159384
000360 50 af 0c be 04 3e 4f 3d 8c 95 38 3b 0c bf 02 bd
       -0.13738751 0.050596252 0.0028165309 -0.031920478
000370 aa 8a fb 3d bc fc 22 be 89 56 4c 3d ee e7 18 be
       0.122823074 -0.15916723 0.049887214 -0.14932224
000380 d3 94 c8 3c 76 20 18 3e 29 6e a1 3d 3b 6c 1f 3c
       0.024485027 0.14856133 0.078823395 0.009730394
000390 9f b4 20 3d ad 8b f4 bb a3 35 59 3d 10 c9 3f bd
       0.039234754 -0.0074629397 0.053029668 -0.046822608
0003a0 4b 6c fb bc f9 b8 cd bb 30 a6 e9 3d a4 99 86 3d
       -0.030691287 -0.006278154 0.11408651 0.065722734
0003b0 15 6b bf 3d cd 77 c9 bd 92 03 9f 3d 62 c5 04 be
       0.09346596 -0.09837303 0.07764353 -0.1296592
0003c0 ab 0a fc bc c6 af 78 3d 29 0b df 3d d8 2e 06 be
       -0.030766806 0.060714506 0.108908005 -0.13103807
0003d0 f6 ff b8 bd 2d 10 28 bc 90 4e c5 bd 37 3d 8a 3d
       -0.09033196 -0.010257763 -0.09634125 0.06749957
0003e0 d1 ce d6 bd 7b 01 17 be 80 0b e4 bb bc ab b0 3c
       -0.10488666 -0.14746659 -0.0069593787 0.021566264
0003f0 4e 92 e0 3d f7 11 b3 3d b7 fb 96 bd 48 b9 eb bc
       0.109654054 0.08743661 -0.073722295 -0.028774872

clinical.layer4.bias f4 [4]
000000 9d de 89 3d 4c e1 1d 3d 66 13 b5 3c 73 12 79 bd
       0.06731913 0.038544938 0.022103976 -0.06080861

clinical.batchnorm1.weight f4 [128]
000000 61 57 7f 3f 01 83 81 3f 00 00 80 3f a8 05 80 3f
       0.99742705 1.0118104 1.0 1.0001726
000010 5d ad 7f 3f 78 c2 7f 3f ec 22 80 3f 1a 1a 80 3f
       0.99873906 0.9990611 1.0010657 1.0007966
000020 00 00 80 3f 8f 61 80 3f f6 8c 80 3f e1 d0 81 3f
       1.0 1.0029773 1.0043018 1.014187
000030 5f 04 80 3f bb 88 80 3f c1 c6 82 3f ac b8 7f 3f
       1.0001334 1.0041727 1.0216905 0.9989116
000040 fe f9 7f 3f 00 00 80 3f 8d 75 80 3f 0d 92 7f 3f
       0.9999083 1.0 1.0035874 0.9983223
000050 92 d5 80 3f 19 e7 80 3f 00 00 80 3f 5d 63 80 3f
       1.0065176 1.0070525 1.0 1.0030323
000060 00 00 80 3f 00 00 80 3f 00 00 80 3f 6d b6 81 3f
       1.0 1.0 1.0 1.0133797
000070 57 99 7e 3f 0a 63 80 3f 64 5b 80 3f d7 61 80 3f
       0.9945273 1.0030224 1.002789 1.0029858
000080 c9 16 84 3f d8 58 80 3f c9 27 81 3f b7 ca 7f 3f
       1.0319453 1.0027113 1.0090266 0.99918693
000090 fd 14 80 3f 36 3c 80 3f 3c 20 81 3f 00 00 80 3f
       1.0006405 1.0018375 1.0087962 1.0
0000a0 23 c7 81 3f 00 00 80 3f 00 00 80 3f 37 82 81 3f
       1.0138897 1.0 1.0 1.0117863
0000b0 f8 24 80 3f 00 00 80 3f 00 00 80 3f bc d1 80 3f
       1.0011282 1.0 1.0 1.0064006
0000c0 00 00 80 3f 4d 84 80 3f b6 2a 80 3f 00 00 80 3f
       1.0 1.0040375 1.0013034 1.0
0000d0 28 39 80 3f ae 31 80 3f 94 2a 80 3f a8 86 7f 3f
       1.0017443 1.0015161 1.0012994 0.99814844
0000e0 a3 e8 7f 3f 38 9a 80 3f 00 00 80 3f 00 00 80 3f
       0.9996435 1.0047064 1.0 1.0
0000f0 55 f0 7f 3f 00 00 80 3f 00 00 80 3f 4a 58 80 3f
       0.9997609 1.0 1.0 1.0026944
000100 00 00 80 3f 00 00 80 3f 00 00 80 3f 2d db 80 3f
       1.0 1.0 1.0 1.0066887
000110 00 00 80 3f c1 36 80 3f 00 00 80 3f 00 00 80 3f
       1.0 1.001671 1.0 1.0
000120 9d 7f 80 3f c0 3f 7f 3f 71 6d 7f 3f b1 21 81 3f
       1.0038944 0.9970665 0.9977637 1.0088407
000130 00 00 80 3f 00 00 80 3f 3c 6d 80 3f 66 b9 80 3f
       1.0 1.0 1.0033336 1.0056579
000140 1e 64 81 3f f6 fd 80 3f 27 c3 82 3f 00 00 80 3f
       1.0108678 1.0077503 1.0215806 1.0
000150 2a c3 80 3f 00 00 80 3f a5 67 80 3f c5 2e 7f 3f
       1.0059559 1.0 1.003163 0.9968074
000160 fc 8e 80 3f d2 3a 80 3f 3b 66 80 3f d5 67 80 3f
       1.0043635 1.001795 1.0031198 1.0031687
000170 79 10 80 3f cd b8 81 3f a6 83 80 3f 96 4b 81 3f
       1.0005027 1.0134522 1.0040176 1.0101192
000180 9c 40 80 3f 00 00 80 3f 00 00 80 3f ce 43 80 3f
       1.0019717 1.0 1.0 1.0020692
000190 00 00 80 3f 83 5b 80 3f 00 00 80 3f 00 00 80 3f
       1.0 1.0027927 1.0 1.0
0001a0 89 33 80 3f 46 1b 80 3f 00 00 80 3f 00 00 80 3f
       1.0015727 1.0008323 1.0 1.0
0001b0 cc a6 80 3f b2 50 81 3f 00 00 80 3f 18 47 7f 3f
       1.0050902 1.0102751 1.0 0.99717855
0001c0 e8 24 80 3f 26 20 80 3f 00 00 80 3f 9d b1 81 3f
       1.0011263 1.0009811 1.0 1.0132328
0001d0 7e 94 80 3f 5e 2b 80 3f 00 00 80 3f df 0a 80 3f
       1.0045316 1.0013235 1.0 1.0003318
0001e0 b5 5f 81 3f 70 e4 7f 3f 00 00 80 3f 00 00 80 3f
       1.0107332 0.9995794 1.0 1.0
0001f0 62 37 80 3f 8c 03 80 3f 71 10 80 3f dd 9d 80 3f
       1.0016901 1.0001082 1.0005018 1.0048176
