pretrained/trained.pth (torch, 43061 bytes, 13 tensors)

layer1.weight f4 [64, 5]
0	0xbe3d6579	-0.1849574
1	0xbde8332f	-0.113378875
2	0xbea1afe2	-0.315795
3	0xbd341dd8	-0.043973774
4	0x3e980473	0.29690894
5	0xbe6cd60a	-0.23128524
6	0xbe6a8977	-0.22904001
7	0x3e83a34f	0.25710532
8	0x3e687465	0.22700651
9	0xbed37e55	-0.4130732
10	0xbd5cd3ef	-0.053913053
11	0xbea1946f	-0.31558558
12	0x3d84e975	0.06489841
13	0x3eb65332	0.35610348
14	0x3d1732ef	0.03691381
15	0x3ec29779	0.3800619
16	0x3e34bc4c	0.17649955
17	0x3e28febe	0.16503426
18	0xbeac645a	-0.33670312
19	0x3e557a9d	0.20847555
20	0xbd968c68	-0.07350999
21	0x3ae69792	0.0017592779
22	0x3d45b88a	0.048271693
23	0xbd284d21	-0.04108918
24	0xbe8ddafd	-0.27706137
25	0x3e860fb3	0.26183853
26	0xbd5b2055	-0.05349763
27	0xbe0e36f9	-0.13888158
28	0x3e165975	0.14682563
29	0xbec67553	-0.38761386
30	0x3e64342e	0.2228553
31	0xbeaed4f9	-0.3414686
32	0x3e94178c	0.28924215
33	0xbe5a135d	-0.21296449
34	0x3dd69b43	0.104788326
35	0x3ece68bc	0.4031428
36	0xbe1c7646	-0.15279493
37	0x3dd399f3	0.10332098
38	0x3ea80af6	0.32820863
39	0xbd9e4cf9	-0.07729525
40	0xbe80600f	-0.25073287
41	0xbe3a7bdd	-0.18211313
42	0x3e6e4f87	0.23272525
43	0x3ebd778f	0.37005278
44	0x3ed56155	0.4167582
45	0x3e3872ed	0.1801259
46	0xbe046c0e	-0.12931845
47	0xbe401646	-0.18758497
48	0xbdc96384	-0.09833434
49	0xbd5b99a8	-0.053613335
50	0xbd80bfeb	-0.062866054
51	0xbe792d7b	-0.24333756
52	0x3e35d07a	0.17755309
53	0x3ed65896	0.4186446
54	0x3e562751	0.20913436
55	0x3e22f90b	0.15915315
56	0xbe95f5be	-0.2928905
57	0xbeb070ec	-0.34461153
58	0xbedc9010	-0.4307866
59	0x3edf3eb6	0.43602532
60	0x3e4e9ba8	0.20176566
61	0x3ea4f315	0.32216707
62	0x3ec89d42	0.39182478
63	0x3e040164	0.12891155
64	0x3d0c52b3	0.034258556
65	0xbd2fa6fe	-0.042883866
66	0xbeaf17d9	-0.34197882
67	0xbe643c43	-0.22288613
68	0xbebf34eb	-0.3734506
69	0xbdf87575	-0.12131778
70	0xbe196b87	-0.14982425
71	0x3e8187e5	0.25298992
72	0xbd1b46a3	-0.03790916
73	0xbedff067	-0.437381
74	0xbec2a170	-0.38013792
75	0xbd70cb88	-0.058787853
76	0x3d98722e	0.07443653
77	0xbeda495c	-0.42634094
78	0xbe02b233	-0.1276329
79	0xbebfc1e5	-0.37452617
80	0x3e1a10f4	0.1504553
81	0x3e84a7c7	0.25909254
82	0xbd91f0eb	-0.071260296
83	0x3b167147	0.0022955702
84	0xbd885da8	-0.066584885
85	0x3dc5433b	0.09631964
86	0x3e2b98aa	0.16757455
87	0x3e2f7548	0.17134583
88	0xbedc0bdb	-0.42977795
89	0x3e0bc211	0.13648249
90	0x3ca9367d	0.020655865
91	0x3eca5ce5	0.39523998
92	0x3e398725	0.1811796
93	0xbe9a3c5f	-0.30124184
94	0xbe8be8df	-0.27326104
95	0xbe85e1a9	-0.26148728
96	0x3ed0a2ee	0.40749305
97	0x3d646b8b	0.055766623
98	0xbe93729b	-0.28798375
99	0x3ee2971b	0.4425591
100	0x3d76c65e	0.06024777
101	0xbde9c3e1	-0.11414314
102	0xbd95ee9d	-0.073209025
103	0x3e46447f	0.19362067
104	0x3eab31c6	0.33436412
105	0x3c06bfaa	0.008224407
106	0xbe23413f	-0.15942858
107	0x3dd9a396	0.10626905
108	0xbdf52db8	-0.11971611
109	0x3e605d1c	0.21910518
110	0x3de4e92a	0.11177285
111	0xbdd5f7e5	-0.10447673
112	0x3ec0e692	0.3767591
113	0xbe315a0c	-0.17319506
114	0xbea82e01	-0.32847598
115	0xbe9c5d86	-0.30540103
116	0x3e9ca824	0.3059703
117	0x3d53b46f	0.051685747
118	0xbe9abcac	-0.3022207
119	0x3e874c1f	0.26425263
120	0x3ebbe185	0.36695495
121	0xbe2462a6	-0.16053256
122	0x3d89f28c	0.06735715
123	0x3dc3ef92	0.09567179
124	0xbed2d212	-0.41175896
125	0x3e1cdaf3	0.15317897
126	0x3ee63529	0.44962433
127	0xbe41cf22	-0.18926671
128	0xbd30f399	-0.043201063
129	0x3e4fc520	0.20290041
130	0x3e23afd6	0.15985045
131	0xbe8ac869	-0.27106026
132	0x3ec65485	0.38736358
133	0xbeae2e96	-0.34019917
134	0xbed8e1e4	-0.4235984
135	0xbd2b1d60	-0.04177606
136	0xbeb607f6	-0.3555295
137	0x3e249668	0.16073
138	0x3e561285	0.20905502
139	0xbdc51557	-0.09623211
140	0x3e3872d9	0.18012561
141	0xbcf5b132	-0.02999172
142	0xbedcb37d	-0.4310569
143	0x3e6bb8ab	0.23019664
144	0x3ebb005f	0.3652372
145	0x3dda9eaa	0.10674794
146	0x3e871ffc	0.2639159
147	0xbec6656e	-0.3874926
148	0x3ec82b8b	0.3909572
149	0xbd019eae	-0.03164547
150	0xbeccc6e3	-0.3999549
151	0xbe54df45	-0.20788296
152	0x3e4d9399	0.20075835
153	0x3e1cc312	0.15308788
154	0x3dd67e7b	0.10473343
155	0xbeaab62c	-0.3334211
156	0x3e2c7bd3	0.1684411
157	0x3ec3ec28	0.3826611
158	0xbe2ec95d	-0.17069001
159	0x3e11c0c2	0.14233688
160	0xbedb8f0d	-0.42882577
161	0x3eb61431	0.3556228
162	0x3ebe032c	0.37111795
163	0x3ce00cd0	0.02734986
164	0xbe9f0752	-0.31060272
165	0xbe85529b	-0.26039585
166	0xbec61f35	-0.38695684
167	0x3c93ebb1	0.018056722
168	0x3d4a61a2	0.049409516
169	0xbe0de55b	-0.13857023
170	0x3ec77f59	0.38964346
171	0x3eaf7695	0.34270158
172	0xbed26d80	-0.41099167
173	0x3e7879ba	0.24265185
174	0xbe3a9aa5	-0.18223055
175	0xbce0f35c	-0.027459793
176	0x3d0d489f	0.034493085
177	0xbe0a8378	-0.13526714
178	0x3ea69485	0.32535186
179	0x3eb779f1	0.3583522
180	0xbdf54527	-0.119760804
181	0xbeb3de45	-0.35130516
182	0x3e15d8ea	0.14633527
183	0xbe747da6	-0.23876056
184	0x3dad8a35	0.084736265
185	0xbe9135ee	-0.28361458
186	0xbe8be05a	-0.27319604
187	0xbe31d96b	-0.17368095
188	0x3e1e821b	0.15479319
189	0x3e96cd30	0.2945342
190	0x3edb3222	0.42811686
191	0xbea57009	-0.3231204
192	0xbe1cfb49	-0.15330233
193	0x3dba3d1b	0.09093686
194	0xbe0a9218	-0.13532293
195	0xbea481da	-0.3213032
196	0x3ea7a5a8	0.32743573
197	0x3d17b985	0.03704216
198	0xbeb7bc52	-0.35885864
199	0xbeadffe8	-0.33984303
200	0x3c1cf303	0.009579423
201	0x3e213245	0.15741833
202	0x3e36bd89	0.1784574
203	0xbd4bf30e	-0.049792342
204	0xbeb39fdc	-0.350829
205	0x3e19ffba	0.15038958
206	0x3eadc447	0.3393881
207	0xbedfd380	-0.4371605
208	0x3e59ef84	0.21282774
209	0xbc088a85	-0.008333807
210	0xbe8dac75	-0.27670637
211	0xbec423a9	-0.38308457
212	0x3eaa3d79	0.33250025
213	0xbdda9f1d	-0.1067488
214	0xbede6032	-0.43432766
215	0xbeac6478	-0.33670402
216	0x3d1f2f68	0.03886357
217	0x3dfb070f	0.12257206
218	0xbe8de332	-0.277124
219	0xbea84e3c	-0.32872188
220	0xbc5b09dd	-0.013369051
221	0xbe9cf1a2	-0.306531
222	0x3eaf9636	0.3429429
223	0xbe998fde	-0.29992574
224	0x3e347e73	0.17626362
225	0x3ecec189	0.4038203
226	0x3e9ba0f1	0.30396226
227	0xbe641d19	-0.22276725
228	0xbedb9e02	-0.42893988
229	0x3dcd0b49	0.10011918
230	0x3e28cfb2	0.1648548
231	0xbed1ea58	-0.40999103
232	0xbed13149	-0.40857914
233	0x3eceb571	0.40372804
234	0xbcb658fb	-0.022259226
235	0xbe8aff80	-0.27148056
236	0x3e8fe3e5	0.28103557
237	0xbeb24bed	-0.34823552
238	0x3e7d8f96	0.24761805
239	0xbec9ce4f	-0.39415213
240	0x3e1bfc7c	0.15233034
241	0x3e0fb250	0.14032865
242	0xbeb88d6f	-0.36045405
243	0xbe953e3f	-0.29149053
244	0xbe5e5dcd	-0.2171547
245	0x3d8e98af	0.06962716
246	0xbb898e04	-0.004197838
247	0xbd7545be	-0.059880964
248	0x3e2dc6ae	0.16970322
249	0xbe765a6f	-0.24057935
250	0x3db47018	0.08810443
251	0x3cd5ff34	0.026122667
252	0xbecc571e	-0.39910215
253	0xbebee6f3	-0.37285575
254	0xbe4c587a	-0.19955626
255	0x3e465f84	0.19372374

layer1.bias f4 [64]
0	0xbecf89a2	-0.40534693
1	0xbd07dfb9	-0.033172343
2	0xbe62139b	-0.22077791
3	0x3e4ddc03	0.20103459
4	0x3e5507e4	0.20803791
5	0x3da9c039	0.08288617
6	0xbe5d9744	-0.21639735
7	0xbea6746b	-0.32510695
8	0xbe6fd59a	-0.23421326
9	0x3e813f7b	0.25243744
10	0xbe6e9027	-0.23297177
11	0x3e56c441	0.20973302
12	0x3ed79de4	0.42112648
13	0xbebfa5fc	-0.37431324
14	0x3d84ba33	0.06480827
15	0xbe0a7c98	-0.13524091
16	0xbe4e9535	-0.20174105
17	0xbcb7e0fe	-0.022446152
18	0xbe561e98	-0.20910108
19	0xbe83a61a	-0.25712663
20	0xbdc9cd0c	-0.09853563
21	0x3ea45fb7	0.32104275
22	0x3dd0e04b	0.101990305
23	0xbdbf0f85	-0.09329132
24	0xbeb83b9a	-0.35982972
25	0xbec009ef	-0.3750758
26	0xbd8d3efd	-0.0689678
27	0xbd92bfdf	-0.07165503
28	0x3e0145b6	0.12624249
29	0x3eaebd7d	0.34128943
30	0xbd53d5ff	-0.051717754
31	0xbebda29e	-0.3703813
32	0x3ed9dc1e	0.4255075
33	0xbea82a2d	-0.32844678
34	0x3d11a671	0.03555912
35	0x3ec110d3	0.37708148
36	0xbea6a112	-0.32544762
37	0x3e702637	0.23452078
38	0xbea94db4	-0.33067095
39	0x3e2a115e	0.16608188
40	0xbdbaa4ab	-0.09113439
41	0x3de88f25	0.11355428
42	0xbe4bdbf6	-0.19908127
43	0x3ed59f97	0.4172332
44	0x3b9f061d	0.0048530237
45	0x3e8a044e	0.2695641
46	0x3e3172a7	0.17328893
47	0x3e870bd3	0.2637621
48	0xbe9ce37d	-0.3064231
49	0x3ebe0265	0.37111202
50	0x3e10c7ff	0.14138792
51	0x3e87aa88	0.26497293
52	0xbe1cadbf	-0.15300654
53	0xbeaa5f9f	-0.33276078
54	0xbe84ec58	-0.25961566
55	0xbe850632	-0.2598129
56	0x3e3d238e	0.18470594
57	0xbda81c50	-0.08208525
58	0x3dfc4140	0.12317133
59	0xbdc32b1f	-0.09529709
60	0x3e680a2a	0.22660127
61	0xbc9cecd6	-0.0191559
62	0xbea2bb92	-0.3178373
63	0xbedb93f6	-0.42886323

layer2.weight f4 [128, 64]
0	0xbd2f396b	-0.042779367
1	0xbd84fafe	-0.064931855
2	0x3dcc01b5	0.09961263
3	0x3de0b6fc	0.109724015
4	0x3d0e3307	0.034716632
5	0xbcdf0e6e	-0.02722856
6	0x3cc76f20	0.02434498
7	0xbd51fe2b	-0.051267784
8	0xbcc82152	-0.02442995
9	0xbdd4fea7	-0.104001336
10	0x3c68598e	0.014181508
11	0xbd1a3540	-0.03764844
12	0x3d830fe1	0.06399513
13	0x3d1716cb	0.03688697
14	0xbd7c1145	-0.061539907
15	0xbdf1ca93	-0.11806216
16	0x3d9fc01c	0.07800314
17	0xbd8d324c	-0.06894359
18	0xbc2b6279	-0.010460489
19	0xbded68d3	-0.11592259
20	0x3d4badaf	0.049726184
21	0xbd55380a	-0.052055396
22	0x3d948829	0.07252533
23	0xbde1774f	-0.110090844
24	0xbde7a115	-0.11310021
25	0xbd3b4241	-0.04571748
26	0xbd5454a4	-0.051838532
27	0xbdacf183	-0.08444502
28	0x3cbbc546	0.022921216
29	0xbe021ea0	-0.12706995
30	0x3d953184	0.07284835
31	0xbdce3ab8	-0.100697935
32	0x3dbb50fe	0.091463074
33	0xbd9d565f	-0.076824896
34	0x3d6794f9	0.056538556
35	0x3d3e1e97	0.04641589
36	0x3c6b09ff	0.014345645
37	0xbd8275e7	-0.06370144
38	0xbdb8487e	-0.08998202
39	0xbafcaf72	-0.0019278361
40	0xbdce3dc5	-0.10070375
41	0x3ca34737	0.019931419
42	0x3db7cf2c	0.08975062
43	0xbd258d5c	-0.040418014
44	0x3d8f1872	0.069870844
45	0xbd090451	-0.033451382
46	0xbbe676e2	-0.007033215
47	0xbc614652	-0.013749676
48	0x3dca8a59	0.09889669
49	0xbd4aa68c	-0.049475238
50	0xbce1bf45	-0.027557025
51	0xbd59bd08	-0.05315879
52	0x3dfd6aeb	0.123739086
53	0x3dcabd67	0.09899407
54	0xbbc0addd	-0.005880101
55	0xbda696ad	-0.08134208
56	0x3dd2894d	0.10280094
57	0xbccd9558	-0.025095627
58	0xbdb0c3cc	-0.08631095
59	0x3d1274a2	0.03575576
60	0xbde25496	-0.1105129
61	0xbdbc8842	-0.092056766
62	0x3c033771	0.008008824
63	0xbdf053e1	-0.11734749
64	0xbd02c0ca	-0.03192214
65	0x3d5ead10	0.054364264
66	0x3db05839	0.08610577
67	0xbdbf3d10	-0.093378186
68	0x3d8cd58a	0.06876667
69	0x3d9c9ee9	0.07647497
70	0x3dceac5e	0.1009147
71	0xbdec0da1	-0.11526037
72	0xbdbbff86	-0.091795966
73	0x3df29691	0.118451245
74	0x3d14b2d6	0.036303364
75	0x3de4d29a	0.111729816
76	0xbd22978f	-0.03969532
77	0xbd82f647	-0.0639463
78	0x3cd13e6f	0.025542466
79	0x3dc954fd	0.09830663
80	0xbdbbe481	-0.09174443
81	0xbdcd775c	-0.100325316
82	0xbd6d8cc0	-0.057995558
83	0xbd54ef17	-0.051985826
84	0x3d9cba31	0.07652701
85	0x3d94166f	0.07230841
86	0xbcc3d3fc	-0.023904793
87	0x3dad6918	0.08467311
88	0x3c572a5e	0.01313266
89	0xbd4446ab	-0.047918957
90	0xbd9b9590	-0.07596886
91	0xbda98720	-0.08277726
92	0x3aa96f05	0.0012926763
93	0x3d57a152	0.05264408
94	0xbde0b6b9	-0.109723516
95	0xbd057400	-0.03258133
96	0x3da100a4	0.0786145
97	0x3d8973be	0.06711529
98	0xbd0a4f07	-0.033766773
99	0x3dbcf5ee	0.09226595
100	0x3d816919	0.06318874
101	0xbdc35f43	-0.09539654
102	0xbdf2ebe8	-0.11861402
103	0xbd6195b0	-0.055074394
104	0x3dd3742c	0.103248924
105	0xbd62eb3b	-0.055400115
106	0xbd97c109	-0.074098654
107	0xbd0d3f75	-0.034484345
108	0xbcd1d15f	-0.025612531
109	0xbce3084f	-0.027713923
110	0xbd55a9eb	-0.052164
111	0x3b30892c	0.002693723
112	0x3db7c2f5	0.08972732
113	0x3c36d015	0.011158009
114	0x3dc5adc4	0.09652284
115	0xbcf62f76	-0.030051928
116	0x3dd14d3e	0.10219811
117	0xbb9cc280	-0.0047839284
118	0x3d102a41	0.035196546
119	0x3da31407	0.07962804
120	0x3d9dde3c	0.077084035
121	0x3d466e16	0.04844483
122	0xbc911474	-0.017709948
123	0x3db142f6	0.0865535
124	0x3dd79a3c	0.10527465
125	0x3db182e6	0.08667545
126	0x3def4abb	0.116841756
127	0x3bf72819	0.007542622
128	0x3d8f449a	0.069955066
129	0x3dbc2072	0.09185876
130	0xbdeb7c41	-0.11498309
131	0xbd4cb725	-0.049979348
132	0xbd86b158	-0.065767944
133	0xbd94e632	-0.07270469
134	0xbc3ce2b1	-0.011528657
135	0xbc82839b	-0.015931895
136	0xbdc4bb15	-0.096059956
137	0x3d9c400b	0.07629403
138	0xbca53f66	-0.020171832
139	0x3d20ec1b	0.039287668
140	0xbd8be7f4	-0.06831351
141	0xbde85414	-0.11344162
142	0x3d47c6c4	0.048773542
143	0xbd4e65df	-0.05039012
144	0x3d663a0e	0.05620771
145	0x3d5dd74a	0.054160394
146	0x3c112deb	0.008861045
147	0xbb31b13d	-0.00271137
148	0xbd6b5813	-0.05745704
149	0x38e6c347	0.00011003628
150	0x3cd23040	0.025657773
151	0xbdb37871	-0.08763207
152	0x3df2e0af	0.11859261
153	0x3dc3495e	0.09535478
154	0x3c9c82ba	0.019105304
155	0x3d69b97a	0.05706165
156	0x3c13ab32	0.009012984
157	0x3daf1b95	0.08550183
158	0xbd22a679	-0.039709542
159	0x3caac41a	0.020845462
160	0xbde4aba7	-0.111655526
161	0xbc94af48	-0.018149987
162	0x3dec2c21	0.115318544
163	0x3db41477	0.08792966
164	0x3de09305	0.10965542
165	0x3d909e6e	0.07061468
166	0xbcaba6a0	-0.020953476
167	0x3d6e055a	0.058110572
168	0x3dc6b62b	0.097027145
169	0x3d885e52	0.06658615
170	0xbcce9c1d	-0.025220925
171	0x3d8b9fcb	0.068175875
172	0x3d45a8b0	0.048256576
173	0x3de4b06a	0.11166461
174	0x3d189952	0.037255593
175	0x3d96b148	0.073580325
176	0x3d08917d	0.033341873
177	0xbde9dcb6	-0.114190504
178	0xbd858eca	-0.065213755
179	0xbbda566d	-0.006663135
180	0xbdadce71	-0.08486641
181	0xbde61162	-0.11233784
182	0x3d559369	0.052142534
183	0x3d271594	0.040792063
184	0xbd956807	-0.07295232
185	0xbb55ea9f	-0.0032641066
186	0xbd49fabd	-0.04931139
187	0x3ce3d88b	0.027813217
188	0x3d1b4645	0.03790881
189	0xbd09644a	-0.03354291
190	0xbd71dc3b	-0.05904792
191	0xbd4c9bf3	-0.049953412
192	0xbd6a4251	-0.05719215
193	0xbd12f8c2	-0.035881765
194	0xbbb432bb	-0.0054992116
195	0xbc1fb1ff	-0.009747027
196	0xbd704bda	-0.058666088
197	0xbcffd88f	-0.031231193
198	0xbdd90595	-0.10596768
199	0x3d77e5ba	0.06052182
200	0x3d40bf52	0.047057457
201	0xbd8c4c3d	-0.06850479
202	0xbc7538d9	-0.014967167
203	0xbddef82f	-0.10887181
204	0xbdf3506f	-0.11880576
205	0xbd8c8472	-0.068611994
206	0x3d043879	0.03228042
207	0xbdb8b4e8	-0.0901888
208	0xbde61094	-0.11233631
209	0xbd35875f	-0.044318553
210	0x3d706c5e	0.058697097
211	0x3d24b334	0.040209964
212	0xb9c4f2a2	-0.0003756481
213	0x3dc4b838	0.096054494
214	0x3dc8fe49	0.09814126
215	0xbd9ec596	-0.0775253
216	0xbdd22e52	-0.10262741
217	0xbd4a9dc0	-0.04946685
218	0xbcb038a6	-0.021511387
219	0xbd886b73	-0.06661119
220	0x3db72235	0.08942071
221	0xbd567735	-0.05235978
222	0xbe006310	-0.1253779
223	0xbd7fd126	-0.06245532
224	0xbdd988b0	-0.10621774
225	0x3de921bc	0.113833874
226	0xbd4561a4	-0.04818882
227	0xbd926184	-0.07147506
228	0xbde9fcc5	-0.11425165
229	0xbe02097c	-0.1269893
230	0x3d397a1e	0.045282476
231	0x3d41b1b6	0.04728862
232	0x3d95a12b	0.07306131
233	0x3ced0fb7	0.028938157
234	0x3d837031	0.06417883
235	0x3dab7878	0.08372587
236	0xbd9102f4	-0.070806414
237	0x3d613453	0.05498154
238	0x3dbf4bd2	0.093406335
239	0xbd6214e4	-0.055195704
240	0x3d8c62c0	0.068547726
241	0xbd35cde7	-0.044385817
242	0x3da1e452	0.07904877
243	0x3d6062f7	0.05478188
244	0x3db71705	0.089399375
245	0xbd2cf4fb	-0.04222582
246	0x3d662108	0.056183845
247	0x3d057f0c	0.032591864
248	0xbdc6d28c	-0.097081274
249	0xbdbf1278	-0.093296945
250	0x3e030324	0.12794167
251	0x3aa54f95	0.0012612218
252	0x3df78e77	0.1208772
253	0xbd7330bb	-0.059372645
254	0x3dd382d5	0.103276886
255	0xbce62bc6	-0.028097045

layer2.bias f4 [128]
0	0x3e03afa5	0.12859972
1	0x3d9452cc	0.07242355
2	0xbdb37fa0	-0.08764577
3	0xbdfb3648	-0.12266213
4	0xbd63c607	-0.055608775
5	0x3dba9a15	0.0911142
6	0x3c94b0b9	0.018150674
7	0xb9ca7e9e	-0.0003862278
8	0x3db76f55	0.08956782
9	0xbd90be28	-0.070675194
10	0xbd030d5f	-0.031995174
11	0xbd5494cf	-0.051899727
12	0x3b8181ad	0.003952226
13	0x3db29e92	0.08721651
14	0x3cd82f04	0.026389606
15	0xba99915f	-0.0011716298
16	0xbd7b24be	-0.061314337
17	0xbd8eb439	-0.069679685
18	0xbd8c9b16	-0.06865518
19	0xbd04b5b9	-0.032399867
20	0x3c9f328f	0.019433288
21	0x3d9cac09	0.076500006
22	0x3d0a97b3	0.033836078
23	0xbd459f97	-0.0482479
24	0xbdb518da	-0.08842631
25	0x3dc01ec2	0.093808666
26	0x3d306382	0.043063648
27	0xbce139a6	-0.02749331
28	0x3ba6e98e	0.00509376
29	0xbdc71b45	-0.09721998
30	0x3e02cc4d	0.12773247
31	0xbc28cd27	-0.010302818
32	0x3d258404	0.040409103
33	0x3dfe0f8b	0.12405308
34	0xbdc531e1	-0.09628654
35	0xbda5ce33	-0.0809597
36	0xbced4944	-0.0289656
37	0xbc3a33e8	-0.0113649145
38	0xbdc5d44b	-0.09659632
39	0x3dbb1b0d	0.09136019
40	0x3d76266f	0.060095247
41	0x3d99d5c3	0.07511475
42	0xbd6b3fdd	-0.05743395
43	0x3d2241ec	0.03961365
44	0x3e024ef0	0.12725425
45	0xbddad3bf	-0.106849186
46	0x3db79f76	0.08965962
47	0xbd89fa36	-0.06737177
48	0x3da4ea91	0.080525525
49	0xbd7dc3c7	-0.061954286
50	0x3d5bcf10	0.053664267
51	0x3bcf3bf0	0.006324284
52	0x3df05dae	0.11736618
53	0xbd7fa4a2	-0.062412865
54	0xbdbe007f	-0.09277438
55	0x3db2fd7b	0.08739754
56	0x3d1fc75f	0.039008494
57	0x3d7adc05	0.061244983
58	0xbdeb94e9	-0.11503012
59	0x3cb73f7d	0.02236914
60	0x3b02f05c	0.001997969
61	0xbd7ab300	-0.061205864
62	0xbc240b1c	-0.010012414
63	0x3df2d358	0.11856717
64	0xbc34edf7	-0.011043063
65	0xbd07b3dc	-0.03313051
66	0x3de8e09c	0.11370966
67	0xbdfe0604	-0.12403491
68	0xba636ddd	-0.00086757337
69	0xbd177b98	-0.036983103
70	0xbd64383b	-0.055717688
71	0xbc4bb775	-0.012433876
72	0xbdf87e70	-0.12133491
73	0xbdb5bbfc	-0.08873746
74	0x3de2a141	0.11065913
75	0xbc992569	-0.018694596
76	0x3d90e347	0.070746
77	0xbd1a1447	-0.037616994
78	0x3ce0c947	0.027439727
79	0xbd02b7f4	-0.031913713
80	0x3b4a110c	0.0030832915
81	0xbdebfbd7	-0.11522644
82	0x3c8d8a41	0.017277839
83	0x3daad822	0.08342005
84	0xbc10b574	-0.008832324
85	0x3de0bf69	0.109740086
86	0xbda6b1c9	-0.081393786
87	0x3d436c88	0.047710925
88	0xbbefb5a3	-0.007315354
89	0x3d732823	0.05936445
90	0xbdd3a0aa	-0.103333786
91	0x3d9f3257	0.077732734
92	0x3d7ae9b1	0.06125802
93	0x3dbb304a	0.0914007
94	0x3de01f44	0.109434634
95	0x3ce45ee6	0.027877282
96	0x3c465130	0.012104318
97	0x3d8cb9ad	0.06871352
98	0xbd51ae84	-0.05119182
99	0x3d25b5a2	0.04045642
100	0xbc01ecdf	-0.00793001
101	0x3d7cafdb	0.061691146
102	0xbdac39cb	-0.08409461
103	0x3deb9421	0.11502863
104	0xbd006457	-0.03134569
105	0x3d972860	0.07380748
106	0x39b4987b	0.00034445882
107	0xbcd33dd3	-0.025786316
108	0xbdaa7411	-0.08322919
109	0x3d5fe7e3	0.054664504
110	0x3bed5627	0.007242936
111	0xbdee8f20	-0.11648393
112	0xbd222a5d	-0.039591182
113	0x3e015bed	0.12632723
114	0xbda3d746	-0.080000445
115	0xbd867c93	-0.065667294
116	0x3d07e621	0.033178452
117	0x3b7823e9	0.00378632
118	0xbdc8d6b3	-0.098065756
119	0x3dbf5dc3	0.093440555
120	0xbdb5a8df	-0.088701
121	0x3d9c4da0	0.07631993
122	0xbd1f7c46	-0.038936876
123	0xbc69e32d	-0.014275354
124	0xbdc649d4	-0.0968205
125	0x3ce87a41	0.028378608
126	0x3cd8e635	0.026476959
127	0xbdc60c9a	-0.09670372

layer3.weight f4 [1, 128]
0	0xbc98cd9e	-0.018652733
1	0x3c169d6b	0.009192805
2	0x3d883b5a	0.066519454
3	0x3da4f37a	0.08054252
4	0x3ceaaf42	0.028648023
5	0x3da0fe40	0.07860994
6	0x3cb5bd93	0.022185123
7	0xbdb0ae19	-0.086269565
8	0xbd8ba1f6	-0.06818001
9	0x3d1ff9a1	0.039056424
10	0xbc7064b5	-0.014672448
11	0xbd9c3fae	-0.076293334
12	0xbcac3202	-0.02101994
13	0x3d679687	0.05654004
14	0x3d22222e	0.039583378
15	0xbd43c56e	-0.047795705
16	0x3d06cb95	0.032908995
17	0xbd4434fa	-0.047902085
18	0xbda34bef	-0.079734676
19	0xbcb1f01d	-0.02172094
20	0xbd260de9	-0.04054061
21	0x3d33434d	0.043765355
22	0x3bf93f92	0.007606455
23	0x3d1bfb28	0.03808132
24	0x3d5a50e9	0.05329982
25	0xbc01382c	-0.007886928
26	0xbc6b9066	-0.014377689
27	0x3d2cbf31	0.04217452
28	0x3b96d945	0.0046035373
29	0x3da5621d	0.08075354
30	0xbc8f071a	-0.017459441
31	0x3cf6b1a9	0.030114012
32	0xbce5535d	-0.027993852
33	0xbd2d7daf	-0.04235619
34	0x3d3d1dd7	0.046171036
35	0xbd979986	-0.07402329
36	0xbd0a79df	-0.03380763
37	0xbd0ea3ca	-0.03482417
38	0x3bdd6cff	0.006757378
39	0xbd2a87aa	-0.041633286
40	0x3d9c8d08	0.07644087
41	0xbc4c708c	-0.012478005
42	0x3d43216b	0.04763929
43	0xbd47fea8	-0.048826844
44	0xbc957da0	-0.01824838
45	0xbd32944e	-0.043598466
46	0x3da31c5e	0.07964395
47	0xbd2ace9e	-0.04170095
48	0x3d8d77f4	0.06907645
49	0xbc9aedfa	-0.018912304
50	0xbc911290	-0.017709047
51	0x3ca8b5ca	0.020594496
52	0xbd4338a6	-0.047661446
53	0x3d8593a4	0.06522301
54	0x3cbfd2cf	0.023415951
55	0x3d3d4711	0.046210352
56	0x3c3cff7a	0.01153552
57	0x3d6665bf	0.056249376
58	0xbd0bf5c2	-0.03416992
59	0x3dac286c	0.08406147
60	0xbce98a5f	-0.028508363
61	0x3d4bfc11	0.049800936
62	0x3b9a8d07	0.004716519
63	0x3d548966	0.051888846
64	0xbd5fcc79	-0.05463836
65	0x3ce7bbbf	0.028287767
66	0xbd72eb93	-0.059306692
67	0xbd842c4f	-0.06453764
68	0x3d30e43c	0.04318641
69	0x3d9302d2	0.07178272
70	0x3cf85288	0.030312791
71	0x3ca0d1ed	0.01963135
72	0x3c87f2d8	0.01659529
73	0x3d863aa5	0.06554154
74	0x3d84db0d	0.06487093
75	0x3d081d4b	0.03323106
76	0x3d65e295	0.05612429
77	0xbd090e27	-0.033460762
78	0xbd2f7303	-0.042834293
79	0xbd95958c	-0.073039144
80	0x3d80413c	0.062624425
81	0xbd1cd424	-0.03828825
82	0xbc5adab6	-0.013357809
83	0x3c74d90e	0.014944328
84	0x3da81a79	0.08208174
85	0x3db6c06c	0.0892342
86	0xbcc98879	-0.024601208
87	0xbd396f38	-0.045272082
88	0xbd5cb4b6	-0.053883277
89	0x3da61683	0.081097625
90	0xbd4e438f	-0.050357398
91	0x3dbcb761	0.09214664
92	0x3cc89bc8	0.024488345
93	0xbd552838	-0.05204031
94	0x3d42f3a9	0.047595654
95	0xbcfbfd27	-0.03076036
96	0x3d013a57	0.031549778
97	0x3d711213	0.058855128
98	0x3c902b93	0.017598903
99	0xbd48ee51	-0.0490554
100	0x3d2221b4	0.039582923
101	0xbd987374	-0.07443896
102	0x3d810561	0.06299854
103	0xbd8385f8	-0.06422037
104	0xbd9acef2	-0.07559003
105	0xbd61b84f	-0.05510741
106	0xbd7d8e1c	-0.061903104
107	0xbbed7b61	-0.007247374
108	0xbd837d9e	-0.06420444
109	0xbc82dcfa	-0.01597451
110	0xbdad3c16	-0.08458726
111	0xbc2029ba	-0.009775573
112	0x398ac926	0.00026471278
113	0xbd1223ea	-0.03567878
114	0x3dba2cad	0.090905525
115	0x3c9e2069	0.019302564
116	0x3bfe094d	0.0077525736
117	0x3c38bb12	0.01127507
118	0x3c9c658f	0.019091396
119	0x3d66b312	0.05632312
120	0x3cfd025e	0.030884918
121	0x3d6942c7	0.05694845
122	0xbd6cfed8	-0.057860225
123	0x3cd787f1	0.02630994
124	0xbc890dd6	-0.01673023
125	0x3db2fc0e	0.08739482
126	0x3cd1bf2e	0.025603857
127	0xbb8fa9f7	-0.004384275

batchnorm1.weight f4 [64]
0	0x3f800000	1.0
1	0x3f7fb9d7	0.99892944
2	0x3f7ffc70	0.99994564
3	0x3f803235	1.0015322
4	0x3f80059f	1.0001715
5	0x3f809176	1.0044391
6	0x3f7fcef4	0.9992516
7	0x3f7ff01f	0.9997577
8	0x3f7f81ed	0.99807626
9	0x3f80ed5d	1.0072438
10	0x3f802d51	1.001383
11	0x3f80ac25	1.0052534
12	0x3f7fde80	0.99948883
13	0x3f800000	1.0
14	0x3f800000	1.0
15	0x3f800000	1.0
16	0x3f800388	1.0001078
17	0x3f80119f	1.0005378
18	0x3f7fbe4b	0.9989974
19	0x3f8053a5	1.0025526
20	0x3f7f421b	0.99710244
21	0x3f7f8fb8	0.9982867
22	0x3f7fb15d	0.9988001
23	0x3f8016fb	1.0007013
24	0x3f7ff5e8	0.999846
25	0x3f806788	1.0031595
26	0x3f8015f3	1.0006698
27	0x3f7fc6a9	0.99912506
28	0x3f7f8f7b	0.9982831
29	0x3f807b07	1.0037545
30	0x3f7ff9d9	0.9999061
31	0x3f801254	1.0005593
32	0x3f80066e	1.0001962
33	0x3f804c9f	1.0023383
34	0x3f806545	1.0030905
35	0x3f800000	1.0
36	0x3f801491	1.0006276
37	0x3f800000	1.0
38	0x3f7f4da3	0.9972784
39	0x3f803b8e	1.0018175
40	0x3f7fcf8c	0.99926066
41	0x3f810693	1.0080131
42	0x3f805154	1.0024819
43	0x3f7fd6ee	0.9993733
44	0x3f80045b	1.0001329
45	0x3f7f13f3	0.99639815
46	0x3f808ad9	1.0042373
47	0x3f800000	1.0
48	0x3f7f4d99	0.9972778
49	0x3f7ed487	0.9954304
50	0x3f80ac8c	1.0052657
51	0x3f7f9b52	0.99846375
52	0x3f7fe377	0.9995646
53	0x3f80363a	1.0016549
54	0x3f800000	1.0
55	0x3f8059e3	1.0027431
56	0x3f8012d7	1.000575
57	0x3f800000	1.0
58	0x3f800000	1.0
59	0x3f800000	1.0
60	0x3f801e1f	1.0009192
61	0x3f800685	1.000199
62	0x3f8084a6	1.0040481
63	0x3f8020ea	1.0010045

batchnorm1.bias f4 [64]
0	0x3bc96cff	0.0061470266
1	0x3970315f	0.00022906576
2	0xb9ea1866	-0.00044650136
3	0xbbfe3de6	-0.0077588437
4	0x3b93ecf4	0.004514331
5	0xbbf5d05c	-0.007501645
6	0xbb1d80f4	-0.002403316
7	0x3b8e0557	0.0043341327
8	0xbb6c20c6	-0.0036030277
9	0xbc276375	-0.0102165835
10	0x3b6c13d7	0.0036022568
11	0xbb273b50	-0.002551753
12	0xbc032c44	-0.008006159
13	0x3a02d789	0.00049912237
14	0xbba9bd64	-0.005180048
15	0xbaf36e28	-0.0018572258
16	0x3b3214bc	0.0027173003
17	0x3bb57936	0.005538131
18	0x3adf253a	0.0017024644
19	0xbc0d2b2b	-0.008616249
20	0xbacd0e3c	-0.0015644501
21	0x3b4c5c06	0.003118278
22	0x39b93360	0.00035324227
23	0xbab19371	-0.0013547969
24	0xbc0174f3	-0.007901418
25	0xbb021474	-0.0019848617
26	0xba12e11b	-0.00056030013
27	0xb9b9d765	-0.0003544643
28	0x3bbc49b9	0.005746093
29	0x3a8d81de	0.001079615
30	0xb9e98ee3	-0.00044547682
31	0xbb901f65	-0.004398274
32	0x3a72da60	0.0009264108
33	0xbac25212	-0.0014825484
34	0x3bc4aa66	0.0060017584
35	0x3bde6ade	0.006787642
36	0xbb56fc58	-0.0032804217
37	0x3be385fb	0.006943462
38	0xb97dda33	-0.00024209246
39	0xbb0b8b9e	-0.0021292935
40	0x3b8ac569	0.004234959
41	0xbbdb2dfb	-0.006688831
42	0xbb8f9c02	-0.0043826113
43	0xbc01a9bc	-0.007914003
44	0x3b8c2d60	0.00427787
45	0x3bc62c60	0.0060477704
46	0x3af93aab	0.0019014677
47	0x3b45a3d7	0.003015747
48	0xbbcafa00	-0.006194353
49	0x3b7c282e	0.0038476097
50	0x3b289080	0.0025720894
51	0x3b88168c	0.0041530784
52	0x3bdbcbbf	0.006707638
53	0xbb011712	-0.001969759
54	0x3c01287f	0.00788319
55	0x3b8cc1ba	0.004295555
56	0x3b785b9c	0.00378964
57	0x3aeba967	0.0017979563
58	0xbbddcb11	-0.006768592
59	0x3bd2bc29	0.006431122
60	0x3bb5b226	0.0055449186
61	0xb8e97fb2	-0.00011134091
62	0xbb104d14	-0.0022018598
63	0x3c0a35fa	0.008435721

batchnorm1.running_mean f4 [64]
0	0x00000000	0.0
1	0x42a0e71e	80.4514
2	0x41a227e3	20.269476
3	0x42aa116f	85.03405
4	0x41658ad8	14.346397
5	0x40b6fd9b	5.7184577
6	0x42edaea1	118.84107
7	0x42790ea3	62.264294
8	0x428f15c9	71.54255
9	0x3f88decc	1.0692992
10	0x4273481a	60.82041
11	0x3d81fd7d	0.06347177
12	0x431d19a3	157.10014
13	0x00000000	0.0
14	0x00000000	0.0
15	0x00000000	0.0
16	0x404961a7	3.1465852
17	0x4286ca59	67.39521
18	0x42853447	66.602104
19	0x415e7830	13.904343
20	0x3e89cf10	0.2691579
21	0x421cb075	39.17232
22	0x4310fc50	144.9856
23	0x4151d0bf	13.113463
24	0x423ea6c4	47.662857
25	0x3f347efb	0.70506257
26	0x4316c495	150.7679
27	0x42600a04	56.00978
28	0x3da8436c	0.08215985
29	0x3cfe676c	0.031055175
30	0x4261b4f5	56.426716
31	0x42f197fb	120.79684
32	0x42e1c0d1	112.876595
33	0x4073e5f3	3.81091
34	0x401568fe	2.3345332
35	0x00000000	0.0
36	0x42382c08	46.043
37	0x00000000	0.0
38	0x41472c15	12.448262
39	0x41076085	8.461064
40	0x42817e0d	64.74619
41	0x3d6d2239	0.057893965
42	0x42cf778d	103.7335
43	0x42057637	33.365444
44	0x42f7c23c	123.879364
45	0x40ff9914	7.9874363
46	0x3d246839	0.040138457
47	0x00000000	0.0
48	0x3d8344a4	0.064095765
49	0x3f5e95fc	0.8694761
50	0x3c98db40	0.018659234
51	0x3e1c2578	0.15248668
52	0x42a8f030	84.46912
53	0x42ea6e15	117.215004
54	0x00000000	0.0
55	0x41dfc3c6	27.970592
56	0x42f95c3f	124.68017
57	0x00000000	0.0
58	0x00000000	0.0
59	0x00000000	0.0
60	0x42e619b3	115.05019
61	0x3d8a77bf	0.06761121
62	0x40b64008	5.6953163
63	0x42c977af	100.73376

batchnorm1.running_var f4 [64]
0	0x3db5834b	0.08862933
1	0x48bd44cc	387622.38
2	0x46bf2427	24466.076
3	0x481c52ca	160075.16
4	0x4658535c	13844.84
5	0x4201262e	32.287285
6	0x48edfab1	487381.53
7	0x476d2ac1	60714.754
8	0x489b9ea1	318709.03
9	0x409c9638	4.8933372
10	0x4834e417	185232.36
11	0x3f0b558c	0.5442741
12	0x495b845c	899141.75
13	0x3db5834b	0.08862933
14	0x3db5834b	0.08862933
15	0x3db5834b	0.08862933
16	0x412d7d7f	10.843139
17	0x48212f83	165054.05
18	0x4835d8c1	186211.02
19	0x46872714	17299.54
20	0x3f00a5b7	0.5025286
21	0x477e6732	65127.195
22	0x494c23fa	836159.6
23	0x4678817a	15904.369
24	0x46d4f61c	27259.055
25	0x40438650	3.0550728
26	0x4955b58b	875352.7
27	0x4815a00b	153216.17
28	0x3f46228d	0.7739647
29	0x3e97f7f5	0.29681364
30	0x4862d40f	232272.23
31	0x4952dfb4	863739.25
32	0x4943d9ef	802206.94
33	0x44bb718b	1499.5482
34	0x41c65989	24.793718
35	0x3db5834b	0.08862933
36	0x47f628eb	126033.836
37	0x3db5834b	0.08862933
38	0x42bebe6e	95.37193
39	0x45de17c9	7106.973
40	0x48305a8f	180586.23
41	0x3f14cc10	0.58123875
42	0x491b7fac	636922.75
43	0x47ab77e9	87791.82
44	0x4927b72f	686962.94
45	0x4293493c	73.643036
46	0x3edf70b7	0.43640682
47	0x3db5834b	0.08862933
48	0x3f072fa6	0.5280708
49	0x3fd32972	1.6497023
50	0x3e27b786	0.16378602
51	0x3f7442e5	0.9541457
52	0x48c1a6f1	396599.53
53	0x492476dc	673645.75
54	0x3db5834b	0.08862933
55	0x422416c6	41.02224
56	0x48de7a61	455635.03
57	0x3db5834b	0.08862933
58	0x3db5834b	0.08862933
59	0x3db5834b	0.08862933
60	0x49182602	623200.1
61	0x3e5da99e	0.21646735
62	0x423b0fd5	46.76546
63	0x48c08aa1	394325.03

batchnorm2.weight f4 [128]
0	0x3f807738	1.0036383
1	0x3f7f6e53	0.99777716
2	0x3f801985	1.0007788
3	0x3f7fd183	0.99929065
4	0x3f810875	1.0080706
5	0x3f7e1c28	0.99261713
6	0x3f8011e4	1.000546
7	0x3f801bf9	1.0008537
8	0x3f802b0d	1.0013138
9	0x3f7ecbe9	0.9952989
10	0x3f7e9f9f	0.9946231
11	0x3f7f42d7	0.99711365
12	0x3f8036cc	1.0016723
13	0x3f804b47	1.0022973
14	0x3f80715a	1.0034592
15	0x3f7ff462	0.99982274
16	0x3f80412d	1.001989
17	0x3f7f77d9	0.9979225
18	0x3f8047ed	1.002195
19	0x3f8011f5	1.000548
20	0x3f8025fb	1.0011591
21	0x3f804385	1.0020605
22	0x3f7eb74c	0.9949844
23	0x3f7efea3	0.99607295
24	0x3f7f7f34	0.9980347
25	0x3f805e6c	1.0028815
26	0x3f8082d8	1.003993
27	0x3f80d142	1.006386
28	0x3f800947	1.0002831
29	0x3f8012e9	1.0005771
30	0x3f7f6cc2	0.99775326
31	0x3f8168a3	1.0110058
32	0x3f7ddf86	0.99169195
33	0x3f7e8e0a	0.99435484
34	0x3f81586a	1.0105107
35	0x3f806001	1.0029298
36	0x3f802d56	1.0013835
37	0x3f7e021d	0.99221975
38	0x3f808c7a	1.004287
39	0x3f80dc90	1.006731
40	0x3f7f887c	0.99817634
41	0x3f805e34	1.0028749
42	0x3f80dfdf	1.006832
43	0x3f7d4420	0.98932076
44	0x3f7f69ca	0.99770796
45	0x3f809611	1.0045797
46	0x3f810eb6	1.0082614
47	0x3f80ca82	1.00618
48	0x3f7e32db	0.9929635
49	0x3f7e3dfb	0.99313325
50	0x3f7fec38	0.99969816
51	0x3f80142d	1.0006157
52	0x3f8037c6	1.0017021
53	0x3f7fba31	0.9989348
54	0x3f807dad	1.0038353
55	0x3f80a97f	1.0051726
56	0x3f806189	1.0029765
57	0x3f804551	1.0021154
58	0x3f7ea6a8	0.9947305
59	0x3f81962e	1.0123956
60	0x3f801aea	1.0008214
61	0x3f803618	1.0016508
62	0x3f7f59b3	0.99746245
63	0x3f805bdf	1.0028037
64	0x3f800f88	1.000474
65	0x3f8010b9	1.0005103
66	0x3f7f7e81	0.99802405
67	0x3f8033d8	1.0015821
68	0x3f80d5cb	1.0065244
69	0x3f807861	1.0036737
70	0x3f81726c	1.0113044
71	0x3f8053fd	1.0025631
72	0x3f7e5bf9	0.9935909
73	0x3f80c437	1.005988
74	0x3f7ff100	0.9997711
75	0x3f7f8b94	0.99822354
76	0x3f8079b3	1.003714
77	0x3f7fbc22	0.9989644
78	0x3f80a9dd	1.0051838
79	0x3f7f48b4	0.9972031
80	0x3f8005f0	1.0001812
81	0x3f7def2c	0.9919307
82	0x3f80a792	1.0051138
83	0x3f7f5f97	0.99755234
84	0x3f7e8655	0.99423724
85	0x3f804a05	1.0022589
86	0x3f7f2612	0.99667466
87	0x3f7ff5b2	0.99984276
88	0x3f80793c	1.0036998
89	0x3f7f3d03	0.9970247
90	0x3f7f713d	0.9978216
91	0x3f80a8fe	1.0051572
92	0x3f802f23	1.0014385
93	0x3f804d8b	1.0023664
94	0x3f81895c	1.0120044
95	0x3f807fe6	1.0039032
96	0x3f808fd4	1.0043893
97	0x3f7e33b9	0.9929767
98	0x3f7f581a	0.9974381
99	0x3f7e837f	0.994194
100	0x3f80468e	1.0021532
101	0x3f7fd877	0.99939674
102	0x3f7fadb4	0.99874425
103	0x3f7ed912	0.99549973
104	0x3f7ed39c	0.9954164
105	0x3f80fdf0	1.0077496
106	0x3f81592a	1.0105336
107	0x3f7f9162	0.9983121
108	0x3f805b8e	1.002794
109	0x3f800e7b	1.0004419
110	0x3f8004ea	1.00015
111	0x3f7edae5	0.99552757
112	0x3f7f5169	0.997336
113	0x3f80e66a	1.0070317
114	0x3f80931e	1.0044897
115	0x3f7f7330	0.9978514
116	0x3f7f8fd7	0.9982886
117	0x3f8007e7	1.0002412
118	0x3f80614a	1.002969
119	0x3f80e2aa	1.0069172
120	0x3f7fadca	0.99874556
121	0x3f7ec0dd	0.99513036
122	0x3f800a57	1.0003155
123	0x3f7fdf66	0.99950254
124	0x3f80a0ab	1.0049032
125	0x3f80d5b6	1.0065219
126	0x3f815e49	1.0106899
127	0x3f7fbe0c	0.99899364

batchnorm2.bias f4 [128]
0	0x3c22183a	0.009893471
1	0xbc156a84	-0.009119634
2	0xbc1ccc66	-0.009570217
3	0xbc1aeac0	-0.009455383
4	0xbc1be425	-0.009514843
5	0xbc159237	-0.009129099
6	0xbc19674c	-0.009363007
7	0x3c15921d	0.009129074
8	0x3c1c54f2	0.009541737
9	0xbc148f7e	-0.009067414
10	0x3c0def28	0.008662976
11	0x3c152f44	0.009105507
12	0x3c1dc514	0.009629507
13	0xbc15f761	-0.009153218
14	0xbc1be8e2	-0.009515973
15	0x3c161180	0.009159446
16	0xbc1af0c9	-0.009456822
17	0x3c1c56ce	0.00954218
18	0x3c1839e5	0.009291147
19	0x3c182d1e	0.0092881005
20	0x3c1746de	0.009233205
21	0xbc18b2f9	-0.009320014
22	0xbc0979a9	-0.008390822
23	0xbc1b1d27	-0.0094674
24	0xbc14fa5f	-0.009092896
25	0x3c25bc2a	0.010115663
26	0x3c1cfc1b	0.009581591
27	0xbc1a66bb	-0.009423907
28	0xbc1901c6	-0.009338802
29	0xbc19b39e	-0.009381203
30	0x3c10a475	0.008828272
31	0xbc264c38	-0.010150008
32	0x3c0de819	0.008661293
33	0x3c170cb9	0.009219342
34	0xbc2a2ee7	-0.010387159
35	0x3c15824c	0.0091253035
36	0x3c167ecc	0.009185504
37	0x3c14c455	0.009080012
38	0xbc2c7c5d	-0.010527697
39	0x3c1bd590	0.0095113665
40	0xbc112f25	-0.008861338
41	0x3c22cc25	0.009936367
42	0xbc1bd059	-0.009510123
43	0x3c106d97	0.008815191
44	0x3c148123	0.009063992
45	0x3c180dbb	0.009280617
46	0xbc13117f	-0.008976339
47	0x3c1b6426	0.0094843265
48	0xbc133393	-0.008984464
49	0x3c0b8abb	0.008516963
50	0x3c14a48e	0.009072436
51	0xbc1c129c	-0.009525921
52	0x3c1e0e08	0.0096469
53	0xbc12c31f	-0.008957653
54	0xbc1ffb26	-0.009764468
55	0xbc1ba038	-0.009498648
56	0xbc220bde	-0.009890525
57	0xbc1aa6fd	-0.009439227
58	0x3c2043b1	0.009781764
59	0xbc1968bd	-0.00936335
60	0x3c1cfead	0.009582204
61	0xbc1ac3c0	-0.0094460845
62	0xbc08b303	-0.008343461
63	0xbc1810c5	-0.009281342
64	0x3c114213	0.008865851
65	0xbc21642a	-0.009850541
66	0x3c17a46a	0.009255508
67	0x3c1a1e90	0.009406701
68	0xbc1f8eb0	-0.009738609
69	0xbc1bab36	-0.009501269
70	0xbc236c77	-0.0099745905
71	0xbc219cd1	-0.009864048
72	0xbc07faea	-0.008299569
73	0xbc1e67fc	-0.0096683465
74	0xbc19ab5f	-0.009379237
75	0xbc17c386	-0.009262925
76	0xbc1b3533	-0.009473133
77	0x3c1e52ec	0.009663325
78	0x3c0f6988	0.008753188
79	0x3c1655dd	0.009175745
80	0xbc18a58b	-0.009316812
81	0x3c12f4b8	0.008969478
82	0x3c2b468c	0.010453831
83	0xbc12a91c	-0.008951452
84	0xbc1d50fb	-0.009601827
85	0xbc1866ae	-0.0093018245
86	0x3c1422d7	0.00904151
87	0x3c10c131	0.008835123
88	0x3c1a8af5	0.009432544
89	0xbc13017e	-0.008972524
90	0x3c14dbd1	0.009085611
91	0xbc1ac42b	-0.009446184
92	0xbc1702ce	-0.009216977
93	0x3c18b1dd	0.00931975
94	0xbc1d866e	-0.00961457
95	0x3c1be801	0.009515763
96	0xbc18206a	-0.009285072
97	0xbc147322	-0.009060653
98	0xbc13c0a5	-0.009018098
99	0x3c16bc2f	0.00920014
100	0xbc14e2f7	-0.009087316
101	0x3c16bd0a	0.009200344
102	0xbc14b612	-0.009076612
103	0x3c11451d	0.008866576
104	0x3c1b543c	0.009480532
105	0x3c1fb85a	0.009748543
106	0x3c1e2d80	0.009654403
107	0x3c0c4674	0.008561719
108	0x3c1deb48	0.009638615
109	0x3c195e03	0.009360793
110	0x3c13993a	0.0090087
111	0x3c0dd0fa	0.008655781
112	0x3bbb0750	0.005707659
113	0x3c1d2e6d	0.009593588
114	0xbc1a000e	-0.009399427
115	0xbc12df17	-0.008964322
116	0xbc19284b	-0.0093479855
117	0xbc1933aa	-0.009350697
118	0xbc2732d0	-0.010204986
119	0xbc17ba78	-0.009260766
120	0xbc1900a3	-0.009338531
121	0xbc18ce39	-0.009326511
122	0x3c1384f3	0.0090038655
123	0xbc1df493	-0.009640831
124	0x3c1b1728	0.00946597
125	0xbc12b5e2	-0.008954497
126	0xbc2cc18c	-0.010544192
127	0x3c0a7e0a	0.008452902

batchnorm2.running_mean f4 [128]
0	0x3e267efe	0.16259381
1	0x3de4653a	0.1115212
2	0x3d90d772	0.07072343
3	0x3db0bde7	0.08629971
4	0x3e6e5599	0.2327484
5	0x3e2145f7	0.15749346
6	0x3e413249	0.18866839
7	0x3da41572	0.08011903
8	0x3e169443	0.14704995
9	0x3d023ac2	0.031794317
10	0x3e35a34b	0.17738073
11	0x3deee3c0	0.116645336
12	0x3e0a4f01	0.135067
13	0x3e7164cc	0.23573607
14	0x3e9aeea1	0.30260184
15	0x3d23a5fd	0.03995322
16	0x3e3a3b95	0.18186791
17	0x3daa8560	0.083262205
18	0x3dab4ac9	0.083638735
19	0x3e237ec6	0.15966329
20	0x3e8021cb	0.25025782
21	0x3e5cdbc7	0.21568213
22	0x3da063f4	0.078315645
23	0x3d91003c	0.07080123
24	0x3cfba880	0.030719995
25	0x3eac3b0b	0.33638796
26	0x3e35e345	0.17762478
27	0x3da5eaf9	0.08101458
28	0x3d8d85eb	0.069103085
29	0x3da2ae0f	0.07943355
30	0x3e81c80e	0.25347942
31	0x3df21f00	0.11822319
32	0x3e029cae	0.12755081
33	0x3e7cf41f	0.247025
34	0x3e0851c9	0.13312449
35	0x3dfe3412	0.124122754
36	0x3db10883	0.086442016
37	0x3e0b37b2	0.13595465
38	0x3e80917b	0.25110993
39	0x3ddd7a44	0.10814336
40	0x3dbb1293	0.09134402
41	0x3eb4889e	0.3526048
42	0x3d30b489	0.04314092
43	0x3e85ce68	0.26134038
44	0x3e10333e	0.14082047
45	0x3da5af9b	0.08090135
46	0x3e1e5a21	0.15464069
47	0x3db0b60c	0.08628473
48	0x3e313ba8	0.17307913
49	0x3d9922e7	0.0747736
50	0x3e903a9b	0.28169712
51	0x3d63a978	0.05558154
52	0x3e88094a	0.26569587
53	0x3d6828e1	0.05667961
54	0x3dc3627c	0.09540269
55	0x3e0ff077	0.14056574
56	0x3e9ea20f	0.30983016
57	0x3e408ebf	0.18804453
58	0x3e1cba34	0.15305406
59	0x3eb4c7a1	0.35308555
60	0x3de60891	0.11232103
61	0x3e203fd7	0.15649353
62	0x3de4283f	0.11140489
63	0x3e60caba	0.21952334
64	0x3e2e7a79	0.17038907
65	0x3d8b9548	0.068155825
66	0x3e6e08ee	0.23245594
67	0x3e01279b	0.12612765
68	0x3e77f42f	0.24214242
69	0x3e2a6662	0.16640618
70	0x3e17ef85	0.14837463
71	0x3de398b9	0.11113114
72	0x3e04d646	0.12972364
73	0x3e0db1fc	0.13837427
74	0x3e181072	0.14850023
75	0x3dcf32a6	0.10117082
76	0x3e1d317c	0.15350908
77	0x3e68f35e	0.22749087
78	0x3e3be1ba	0.18347827
79	0x3e76e81f	0.24111985
80	0x3de522f3	0.11188307
81	0x3e53a715	0.20669205
82	0x3e6742d7	0.22584091
83	0x3e032254	0.12806064
84	0x3db1c501	0.08680154
85	0x3e4dff62	0.20116952
86	0x3de14414	0.10999313
87	0x3e13cbb0	0.1443317
88	0x3d46e303	0.04855634
89	0x3df2bd61	0.118525274
90	0x3deff4fb	0.11716648
91	0x3ec6c472	0.3882175
92	0x3e6337a2	0.22189191
93	0x3e504cbe	0.20341775
94	0x3e3c4681	0.1838627
95	0x3da58824	0.080826074
96	0x3e990f71	0.29894593
97	0x3e3c969b	0.18416826
98	0x3dd58cb9	0.10427231
99	0x3e015da7	0.12633382
100	0x3e0135a0	0.12618113
101	0x3eb1200d	0.34594765
102	0x3d527169	0.051377688
103	0x3e1d5a3f	0.15366457
104	0x3db3d929	0.087816544
105	0x3e42b5f6	0.19014725
106	0x3db2577f	0.08708095
107	0x3de5be76	0.11217968
108	0x3e4d733c	0.2006349
109	0x3e154fe8	0.14581263
110	0x3e63d32d	0.22248526
111	0x3e77ad44	0.2418719
112	0x3dc593fe	0.09647368
113	0x3df53d29	0.11974556
114	0x3dfc1ae9	0.1230982
115	0x3e26ca09	0.16288008
116	0x3e06abc2	0.13151458
117	0x3da3e999	0.080035396
118	0x3d98d973	0.0746335
119	0x3eb1747b	0.3465918
120	0x3c899580	0.01679492
121	0x3e92f117	0.28699562
122	0x3d5719d9	0.052514885
123	0x3e14f6fc	0.14547342
124	0x3d8a021c	0.067386836
125	0x3de95857	0.113938026
126	0x3ea89b74	0.329311
127	0x3e0acf26	0.13555583

batchnorm2.running_var f4 [128]
0	0x3e04443e	0.12916657
1	0x3de83a2d	0.11339221
2	0x3de1f2a8	0.11032611
3	0x3ddf69bc	0.10908839
4	0x3e387891	0.18014742
5	0x3df593ee	0.11991106
6	0x3e20b2f7	0.1569327
7	0x3de4e4a3	0.111764215
8	0x3e03d258	0.12873209
9	0x3dc1cd81	0.09463025
10	0x3e30ddda	0.1727213
11	0x3df78591	0.12086023
12	0x3dfdc71e	0.12391494
13	0x3e3ff221	0.18744709
14	0x3eb4eecb	0.35338435
15	0x3dc1eada	0.094686225
16	0x3e4fcbbb	0.20292561
17	0x3ddfb728	0.10923606
18	0x3df87773	0.12132158
19	0x3e2b83df	0.16749524
20	0x3e70d9e4	0.23520619
21	0x3e302df4	0.1720503
22	0x3dc7ddf7	0.09759133
23	0x3ddbaf33	0.10726776
24	0x3dbe60e6	0.09295826
25	0x3eca7ed4	0.39549887
26	0x3e10082b	0.14065616
27	0x3de45077	0.1114816
28	0x3dd47311	0.1037351
29	0x3de9a246	0.11407904
30	0x3e81bcac	0.25339258
31	0x3dffa517	0.1248266
32	0x3e105fed	0.14099093
33	0x3e38fc34	0.18064958
34	0x3e120a59	0.1426176
35	0x3e11b97b	0.14230911
36	0x3e025d73	0.1273096
37	0x3e111b13	0.14170484
38	0x3e726392	0.23670796
39	0x3de2f3d1	0.110816605
40	0x3ddbb330	0.10727537
41	0x3ec668a7	0.38751718
42	0x3dc5aa93	0.09651675
43	0x3e58a3c8	0.21156228
44	0x3e08ece3	0.13371615
45	0x3dee7c07	0.1164475
46	0x3e033afd	0.12815471
47	0x3def885a	0.11695929
48	0x3e0eb5c9	0.13936533
49	0x3de42120	0.111391306
50	0x3e9640bd	0.29346266
51	0x3dc88dff	0.097927086
52	0x3e422bf3	0.18962078
53	0x3dd06ae6	0.10176639
54	0x3df9866e	0.121838436
55	0x3e0c8db4	0.1372593
56	0x3ea82362	0.32839495
57	0x3e2649dc	0.16239113
58	0x3e15b603	0.14620213
59	0x3e9c2f47	0.3050482
60	0x3dfb4fc3	0.12271073
61	0x3e0f7d02	0.1401253
62	0x3e023486	0.12715349
63	0x3e5bb922	0.21457341
64	0x3e49bf33	0.19701843
65	0x3dd5e63b	0.104443036
66	0x3e542857	0.20718513
67	0x3e1c7ba3	0.15281539
68	0x3e5bdf0d	0.21471806
69	0x3e313112	0.17303875
70	0x3e1b77c0	0.151824
71	0x3df15498	0.11783713
72	0x3e07b355	0.13252003
73	0x3e215ef9	0.15758885
74	0x3df932e8	0.12167913
75	0x3de25c8d	0.11052809
76	0x3e088b9e	0.1333451
77	0x3e4dcaf3	0.2009695
78	0x3e3d4a3c	0.1848535
79	0x3e874b7a	0.26424772
80	0x3ddbcc70	0.10732353
81	0x3e464942	0.19363883
82	0x3e60b6f1	0.21944787
83	0x3df3e69e	0.11909221
84	0x3dddeebb	0.1083655
85	0x3e2213a6	0.15827808
86	0x3e06a0c4	0.13147265
87	0x3e011c4d	0.12608452
88	0x3dc27e94	0.09496799
89	0x3e03d4ae	0.128741
90	0x3e087ca1	0.13328792
91	0x3ecb3c4a	0.39694434
92	0x3e695320	0.22785616
93	0x3e528604	0.20558935
94	0x3e216497	0.15761028
95	0x3dcafeb4	0.09911862
96	0x3e9d075f	0.30669686
97	0x3e0fba61	0.14035942
98	0x3e090894	0.13382179
99	0x3e0d66bf	0.13808726
100	0x3e0fccca	0.14042965
101	0x3ed26911	0.41095784
102	0x3dcd29e3	0.10017755
103	0x3e04b952	0.12961319
104	0x3dd97e3e	0.10619782
105	0x3e375184	0.1790219
106	0x3deb1a30	0.11479604
107	0x3e12d7cb	0.14340131
108	0x3e4fc654	0.202905
109	0x3e113f07	0.141842
110	0x3e3d33cd	0.18476792
111	0x3e5d82e3	0.2163196
112	0x3deeda20	0.11662698
113	0x3dd5e606	0.10444264
114	0x3e1d4b6d	0.15360804
115	0x3e0b0535	0.13576205
116	0x3e0d60ae	0.13806412
117	0x3dd3740d	0.10324869
118	0x3de7f8e2	0.113267675
119	0x3e844f92	0.25841957
120	0x3db93b40	0.09044504
121	0x3e932608	0.28739953
122	0x3dc76c9a	0.09737511
123	0x3df98b5b	0.12184783
124	0x3dd682ac	0.104741424
125	0x3e076c88	0.13224995
126	0x3ecc7a92	0.39937264
127	0x3e2dcd4c	0.16972846
