pretrained/trained.pth (torch, 43061 bytes, 13 tensors)

layer1.weight f4 [64, 5]
0	0x3eb9bf00	0.36278534
1	0x3e9fedd1	0.31236127
2	0x3dc6e073	0.09710779
3	0xbed72c9d	-0.42026225
4	0x3da4ee75	0.080532946
5	0x3e9f8896	0.31158894
6	0x3e0f602b	0.14001529
7	0x3e9736cd	0.29533997
8	0x3df3fc6c	0.1191338
9	0x3ae2ab07	0.0017293402
10	0xbdbbc290	-0.09167969
11	0xbecdbb3c	-0.4018191
12	0x3e89eba7	0.269376
13	0x3d580d36	0.052746974
14	0xbe40dd44	-0.18834406
15	0xbe4e7ed1	-0.20165564
16	0xbd6b41db	-0.05743585
17	0x3d93d2cf	0.07217943
18	0xbe8d3426	-0.2757885
19	0xbecc0444	-0.39847004
20	0xbe84953e	-0.25895113
21	0xbed8822f	-0.42286822
22	0xbebfba81	-0.3744698
23	0x3edf8de0	0.4366293
24	0x3e7fa1be	0.24964043
25	0xbe8c1e52	-0.27366883
26	0xbe0576ca	-0.13033596
27	0x3e43568a	0.19075981
28	0xbcfebbc7	-0.031095399
29	0x3ead12f9	0.33803537
30	0xbd789193	-0.060685705
31	0x3da8e8aa	0.08247502
32	0xbed48c0b	-0.41513094
33	0xbe82a532	-0.2551666
34	0xbe8902b8	-0.26759887
35	0xbdbd2194	-0.0923492
36	0x3e79e702	0.24404529
37	0xbeaadfa7	-0.33373758
38	0x3d216658	0.039404243
39	0x3e514fca	0.20440593
40	0x3d72335a	0.059131004
41	0xbe1f4be8	-0.155563
42	0xbe114f1f	-0.14190339
43	0xbce0733b	-0.027398696
44	0x3b8577e8	0.004073132
45	0xbee1f906	-0.44135302
46	0xbddc5f77	-0.10760396
47	0x3e84ac8b	0.2591289
48	0x3e58fb74	0.21189672
49	0xbdf572e2	-0.11984803
50	0xbe87b0d2	-0.2650209
51	0x3eb68fe3	0.35656652
52	0xbd3badd5	-0.045820076
53	0xbc33ae27	-0.010966814
54	0x3e26ee75	0.16301902
55	0xbeaa2979	-0.33234766
56	0xbdf57bdd	-0.11986516
57	0x3ddbe84b	0.10737666
58	0xbe7236a1	-0.23653652
59	0xbe507686	-0.20357713
60	0xbda79ead	-0.08184562
61	0xbed75a47	-0.42061064
62	0xbe85a959	-0.26105765
63	0x3dadff2c	0.08495936
64	0xbe5a248e	-0.21303007
65	0x3e8a4dc3	0.27012452
66	0x3da8f51a	0.082498744
67	0x3eaef4ac	0.34171045
68	0x3e8e4be9	0.2779229
69	0xbeb6cecf	-0.35704657
70	0xbecc46df	-0.3989782
71	0xbdb2006d	-0.086914875
72	0x3d6aeaa9	0.057352696
73	0xbebba1fa	-0.36647016
74	0xbdbef00f	-0.09323131
75	0xbe0433eb	-0.1291043
76	0x3e1ec43d	0.15504546
77	0x3e7ecd39	0.24882974
78	0xbec3d36a	-0.38247234
79	0x3ed5b119	0.41736677
80	0xbe8d147d	-0.27554694
81	0xbd788115	-0.060669977
82	0xbe3524ae	-0.17689773
83	0xbea3240a	-0.31863433
84	0xbdc66645	-0.09687475
85	0x3e033244	0.12812144
86	0x3ce1a223	0.027543133
87	0xbec043a2	-0.375516
88	0xbda26f58	-0.079313934
89	0xbc26a6e0	-0.010171622
90	0xbedd961b	-0.43278584
91	0xbe5c3577	-0.2150477
92	0x3d44fa22	0.048090108
93	0x3e89c2ff	0.26906583
94	0x3eadc114	0.3393637
95	0x3e09c732	0.13454893
96	0x3e8fa399	0.28054503
97	0xbec93aa9	-0.39302567
98	0xbda52e81	-0.080655105
99	0xbea7caa9	-0.32771805
100	0xbe7e0575	-0.24806769
101	0x3d1b77ca	0.037956037
102	0x3dba6b98	0.09102553
103	0x3e8ed761	0.27898696
104	0xbeafa461	-0.343051
105	0xbea634a6	-0.32462043
106	0xbe24616a	-0.16052786
107	0xbdff24c6	-0.12458186
108	0xbd4bb200	-0.0497303
109	0xbe20fd87	-0.15721713
110	0xbd09eac9	-0.033671174
111	0x3e8aed82	0.2713433
112	0xbe215a13	-0.15757017
113	0x3e081866	0.13290557
114	0x3ec15fcb	0.37768397
115	0x3e823040	0.25427437
116	0x3edd61b7	0.43238613
117	0x3e4d06f3	0.20022182
118	0x3e31e8e2	0.17373994
119	0x3e612171	0.21985413
120	0xbe9e1ac0	-0.30879784
121	0x3e7279fd	0.23679347
122	0xbd596fe5	-0.053085227
123	0x3dd771f5	0.105197825
124	0x3ec5c8e3	0.38629827
125	0xbeb16ec7	-0.3465483
126	0x3d4dbc02	0.050228126
127	0xbe8b8502	-0.27249914
128	0x3e9d5b0b	0.30733523
129	0x3e888a6e	0.26668113
130	0x3e562f4a	0.20916477
131	0xbe72340a	-0.23652664
132	0xbd8ed431	-0.06974066
133	0x3da3611e	0.07977508
134	0xbb129bb2	-0.0022370634
135	0x3dbb583b	0.09147688
136	0xbe966531	-0.29374078
137	0x3ddc367f	0.10752582
138	0xbe863520	-0.26212406
139	0xbebfca68	-0.3745911
140	0xbcd8564f	-0.026408343
141	0xbe8da1f5	-0.27662626
142	0x3e4d1782	0.20028499
143	0x3e33788a	0.17526451
144	0x3cc3b62d	0.02389058
145	0x3edc6b6f	0.43050715
146	0x3ee4b732	0.44671017
147	0xbea2ddee	-0.31809944
148	0xbd0aef0b	-0.033919375
149	0x3e7f7915	0.24948533
150	0xbee46342	-0.44606978
151	0xbeb5e9f5	-0.35530058
152	0xbd9803f1	-0.07422627
153	0x3e55ffb5	0.20898326
154	0x3c98ad04	0.018637188
155	0xbe9fe285	-0.31227508
156	0xbba79132	-0.005113744
157	0x3ecea60b	0.40361056
158	0x3db9d749	0.090742655
159	0xbd51b26a	-0.05119554
160	0xbe81f00e	-0.2537846
161	0x3eca0337	0.39455578
162	0xbe8855a9	-0.26627854
163	0x3ec0e2c4	0.37673008
164	0x3ee42564	0.44559777
165	0xbe9d0625	-0.3066875
166	0xbe169f6a	-0.14709249
167	0xbea2fd76	-0.31834
168	0xbe2c831c	-0.1684689
169	0x3ed6d05c	0.4195584
170	0xbe975b5e	-0.29561895
171	0x3e51b8c0	0.20480633
172	0x3ea6fb95	0.32613817
173	0x3de83cd6	0.113397285
174	0x3cb074b4	0.021540023
175	0xbe921d8c	-0.28538167
176	0xbed34ae3	-0.41268072
177	0x3e80e5de	0.25175375
178	0xbd53431b	-0.05157767
179	0x3edb4517	0.4282615
180	0x3d53f919	0.05175123
181	0x3e8aeba3	0.27132902
182	0x3ecfa726	0.40557212
183	0x3ee2a8f2	0.4426952
184	0x3e41873e	0.18899247
185	0x3ed24448	0.4106772
186	0x3d56e709	0.052466426
187	0xbe5a594e	-0.2132313
188	0xbee4f92c	-0.44721353
189	0xbed9bbb0	-0.42526007
190	0xbe6a94e4	-0.2290836
191	0x3ed86580	0.42264938
192	0xbecdfe46	-0.40233058
193	0x3db4e681	0.08833028
194	0x3edcc0a8	0.43115735
195	0x3ea6e982	0.32600027
196	0x3e991c7c	0.29904544
197	0xbebb9f6e	-0.36645073
198	0x3e9cc535	0.30619207
199	0xbecc15f1	-0.3986049
200	0xbd56adaf	-0.05241173
201	0xbd4ab06d	-0.04948466
202	0x3e4b669f	0.19863366
203	0x3ebc68d4	0.36798728
204	0x3d498a51	0.049204174
205	0xbe2aba08	-0.16672528
206	0x3dff0fcf	0.12454187
207	0x3e04de6e	0.12975475
208	0xbedcfca9	-0.43161514
209	0xbd55cfec	-0.052200243
210	0xbecdfbbb	-0.40231118
211	0x3e8e9e5d	0.27855197
212	0xbde5dcac	-0.112237304
213	0xbd8effb4	-0.06982365
214	0xbd66c90d	-0.05634408
215	0xbe005ee8	-0.12536204
216	0x3ed0fd46	0.40818232
217	0x3ee03aba	0.43794805
218	0x3ed8dc79	0.42355707
219	0x3ca8fbcb	0.020627877
220	0xbd83d8c6	-0.064378306
221	0x3e80bc5b	0.25143704
222	0xbda86d83	-0.08224013
223	0xbe1d75d6	-0.15376982
224	0x3e5123e1	0.20423843
225	0xbecc6641	-0.39921764
226	0x3ecb4891	0.397038
227	0x3edd4b07	0.43221304
228	0xbd8d0730	-0.068861365
229	0xbe8cd017	-0.2750251
230	0x3e8c51a8	0.2740605
231	0xbd97d5fc	-0.07413861
232	0x3de32731	0.110914595
233	0xbe1d29a6	-0.15347919
234	0xbeb85505	-0.36002365
235	0x3e49c52f	0.19704126
236	0xbdb30b3a	-0.08742376
237	0xbeac360e	-0.3363499
238	0x3e91e4ba	0.28494817
239	0x3e15f26d	0.1464326
240	0x3daf35eb	0.08555206
241	0x3d806b15	0.06270424
242	0xbed09e0c	-0.4074558
243	0xbe8c2f47	-0.2737982
244	0xbeb4fa3c	-0.35347164
245	0xbeb3e6ac	-0.35136926
246	0xbd1c66c1	-0.03818393
247	0x3e713bac	0.2355792
248	0x3d50c773	0.05097146
249	0xbe4847b8	-0.19558609
250	0x3e8f5712	0.27996117
251	0xbe4d519a	-0.2005066
252	0x3eccc3ae	0.39993042
253	0x3d8320aa	0.064027146
254	0x3ea4ac3f	0.32162663
255	0x3e6be6ca	0.23037258

layer1.bias f4 [64]
0	0x3e94a2f5	0.29030576
1	0x3e7ffc60	0.24998617
2	0xbe7b5838	-0.24545372
3	0xbe8cc5a6	-0.27494544
4	0x3eada0a3	0.3391162
5	0xbdfd5796	-0.12370221
6	0x3edc18a1	0.4298754
7	0xbed5d14f	-0.41761252
8	0x3d77b966	0.060479544
9	0xbe92b7f5	-0.28655973
10	0xbea8ddcc	-0.32981718
11	0x3d18b42e	0.037281208
12	0xbe3b471d	-0.18288846
13	0xbe928ec9	-0.2862456
14	0xbece2587	-0.40263006
15	0x3e5bcc01	0.2146454
16	0xbc3980b7	-0.011322192
17	0xbeb48e25	-0.35264698
18	0x3e254d1e	0.16142699
19	0x3ed2bd08	0.41159844
20	0x3d861228	0.06546432
21	0x3ee117bd	0.43963423
22	0x3e0a846f	0.13527082
23	0x3e7635e4	0.24043995
24	0xbece9d14	-0.40354216
25	0x3ed65358	0.4186046
26	0xbe9bd290	-0.30434084
27	0xbe4fd2e5	-0.20295294
28	0x3ea0f453	0.31436405
29	0x3ed75d74	0.42063487
30	0xbdb858b0	-0.09001291
31	0x3e4c2d98	0.19939268
32	0x3c0bd287	0.00853408
33	0x3ed46d4c	0.41489637
34	0x3ea117d5	0.31463495
35	0xbe15ba17	-0.14621769
36	0xbe9d1913	-0.30683193
37	0xbdfa1ab5	-0.12212125
38	0xbd978abf	-0.073995106
39	0xbec55265	-0.38539425
40	0xbee36978	-0.44416404
41	0xbe88c956	-0.26716107
42	0xbda13d65	-0.07873038
43	0xbe1f2f7f	-0.15545462
44	0x3e2848b3	0.16433983
45	0xbcf2a16f	-0.029617993
46	0xbed3b500	-0.4134903
47	0xbe14fbcb	-0.14549176
48	0x3e8ab231	0.27089074
49	0xbe915edb	-0.2839268
50	0xbd57786f	-0.05260509
51	0x3e343185	0.17597015
52	0xbe0908b1	-0.13382222
53	0x3e2f1e56	0.17101416
54	0x3ee317ce	0.443541
55	0x3e2af892	0.16696385
56	0x3ee1b327	0.44081995
57	0x3b9ffe2a	0.0048825936
58	0xbeab350d	-0.33438912
59	0xbe4082c0	-0.18799877
60	0x3d107b17	0.035273638
61	0xbea67ee5	-0.32518688
62	0xbe612b68	-0.21989214
63	0xbece3def	-0.40281627

layer2.weight f4 [128, 64]
0	0xbbb1810d	-0.0054169954
1	0xbd965a41	-0.07341433
2	0xbdd26612	-0.102733746
3	0x3d4cf55f	0.05003869
4	0xbdeed6bd	-0.11662052
5	0xbdab2329	-0.08356316
6	0x3d5baf3d	0.053633917
7	0x3dc74f52	0.09731926
8	0xba1ddb99	-0.00060217973
9	0xbae1f890	-0.0017240215
10	0x3d99b9a7	0.075061135
11	0x3dd40b9f	0.10353779
12	0x3da406b9	0.08009095
13	0x3d322cfe	0.04349994
14	0xbdd9d916	-0.10637109
15	0xbdd5f998	-0.10447997
16	0xbd87ec89	-0.066369124
17	0x3d87abe7	0.06624585
18	0x3d866678	0.06562513
19	0x3c53b725	0.012922083
20	0x3d11c480	0.035587788
21	0xbbb99294	-0.0056632254
22	0x3d302d9e	0.043012254
23	0xbd0ec192	-0.03485257
24	0xbc1e947a	-0.009678954
25	0xbdbe3dea	-0.09289153
26	0xbd0e6588	-0.034764796
27	0x3deed72f	0.11662137
28	0xbcf59633	-0.029978847
29	0x3da346e7	0.07972508
30	0x3c52c10c	0.012863409
31	0xbdbe2643	-0.092846416
32	0xbc603f5a	-0.013686979
33	0x3d2eb5c0	0.0426538
34	0x3d2d570c	0.042319342
35	0x3da6cbe8	0.08144361
36	0xbd8d4436	-0.06897776
37	0xba367114	-0.0006959599
38	0x3cc619e8	0.024182275
39	0x3dcdc289	0.1004687
40	0xbd9833a6	-0.07431726
41	0x3c6bb1fd	0.014385697
42	0xbdb08997	-0.08619993
43	0xbdeb25bb	-0.11481806
44	0xbdd8faab	-0.10594686
45	0x3dc47686	0.09592919
46	0x3cb24ca6	0.021765064
47	0xbd65382c	-0.055961773
48	0xbca95d74	-0.020674445
49	0xbd2dc580	-0.04242468
50	0x3d838241	0.06421328
51	0xbcaeb459	-0.02132623
52	0xbc43569f	-0.011922508
53	0xbdcd758a	-0.100321844
54	0xbd59555f	-0.05305993
55	0xbcc89d72	-0.024489138
56	0x3deb0efc	0.114774674
57	0x3d9c9b59	0.07646818
58	0xbd8e96c2	-0.069623485
59	0xbdfd2cce	-0.123620614
60	0x3da97e93	0.08276095
61	0xbcccc3b0	-0.024995655
62	0xbbed7959	-0.007247132
63	0x3db28d96	0.087184116
64	0xbbe3a674	-0.006947333
65	0x3d79863d	0.060919035
66	0xbd96e442	-0.073677555
67	0xbda901e8	-0.08252317
68	0xbd43b7c4	-0.047782674
69	0x3db0f7db	0.08641025
70	0x3e09a3c3	0.13441376
71	0x3d78b235	0.060716826
72	0xbc70d16c	-0.014698368
73	0x3c66e95c	0.014093723
74	0xbd665b56	-0.05623945
75	0x3daf45d4	0.085582405
76	0xbe058891	-0.13040377
77	0xbd04070d	-0.032233287
78	0x3a609219	0.0008566692
79	0xbdacd13f	-0.08438348
80	0xbdd1b989	-0.10240466
81	0xbdfd0502	-0.12354471
82	0xbda695f5	-0.08134071
83	0xbbe9c7a5	-0.007134395
84	0xbd892b13	-0.06697669
85	0xbdbd9e5d	-0.09258721
86	0xbd49e21d	-0.049287904
87	0xbdb72699	-0.08942909
88	0xbd344335	-0.044009406
89	0xbc6e9c9d	-0.014563707
90	0x3d33d24b	0.043901723
91	0x3db99097	0.090607814
92	0x3dde02a9	0.10840351
93	0xbc4e09ce	-0.01257558
94	0xbd52cf6e	-0.05146735
95	0xbddc7532	-0.10764541
96	0xbdb4b098	-0.08822745
97	0x3dbe42a7	0.09290057
98	0xbd87ac06	-0.06624608
99	0x3d8a9711	0.06767095
100	0xbd629149	-0.055314336
101	0xbe0e91cf	-0.13922809
102	0xbd251801	-0.040306095
103	0xbe10c51e	-0.14137694
104	0xbdced81e	-0.10099815
105	0xbda94a64	-0.08266142
106	0x3c799220	0.015232593
107	0xbbf55daa	-0.0074879723
108	0xbdf5a954	-0.119951874
109	0xbd0d9445	-0.03456523
110	0xbd39cee9	-0.04536334
111	0x3db988ec	0.09059319
112	0xbe08d175	-0.13361152
113	0xbde94758	-0.11390561
114	0x3da799f0	0.08183658
115	0xbd899a0d	-0.06718836
116	0xbe0fe324	-0.14051491
117	0xbdc6ce5d	-0.097073294
118	0x3d97c700	0.07411003
119	0xbda84048	-0.08215386
120	0xbda4d6ea	-0.08048804
121	0xbe0c9da3	-0.13732009
122	0xbd271a16	-0.040796362
123	0x3dbe86dd	0.09303067
124	0xbd9bfdf8	-0.076168
125	0x3e08287b	0.13296692
126	0xbd9c6d18	-0.076379955
127	0x3c5bd158	0.013416611
128	0x3de8a460	0.11359477
129	0xbcd1894b	-0.025578162
130	0xbdcf3f8c	-0.101195425
131	0x3b160eeb	0.0022897075
132	0xbdac48b3	-0.08412304
133	0x3db10902	0.08644296
134	0xbdfd59b4	-0.12370625
135	0xbd897a97	-0.06712835
136	0xbda313db	-0.079627715
137	0x3ce26f3a	0.027640928
138	0xbb0d259f	-0.0021537316
139	0xbd088fac	-0.03334014
140	0x3df5fc33	0.12010994
141	0x3da661e3	0.08124139
142	0xbd0429f8	-0.032266587
143	0xbce287a8	-0.027652577
144	0x3db14318	0.08655375
145	0x3dae36ed	0.0850657
146	0xbdbd9492	-0.09256853
147	0x3c2f4fb9	0.01070016
148	0x3df32ea4	0.1187413
149	0x3d638d6b	0.05555479
150	0x3d04fc6e	0.0324673
151	0x3cefa4fd	0.029253477
152	0xbc950362	-0.01819009
153	0xbd83c3b7	-0.06433814
154	0x3da4deb7	0.08050292
155	0x3d7a644e	0.061130814
156	0xbcdfdf3a	-0.027328122
157	0x3d34ec1b	0.04417048
158	0xbdf05028	-0.117340386
159	0x3db8f1db	0.09030505
160	0xbdbac31b	-0.09119245
161	0x3d370268	0.04468003
162	0x3d8edc69	0.06975634
163	0xbd90f294	-0.07077518
164	0xbdd8d25d	-0.105869986
165	0x3d206db7	0.039167132
166	0xbd7122cc	-0.058871076
167	0x3d522461	0.051304225
168	0x3dbe7f1c	0.09301588
169	0xbd055b0c	-0.032557532
170	0x3d612fff	0.054977413
171	0x3dde9689	0.10868556
172	0xbdb3623c	-0.08758971
173	0x3d10d92a	0.035363354
174	0x3ccdd5c1	0.02512634
175	0x3c32400f	0.010879531
176	0x3c9963fb	0.018724432
177	0x3ddf3c2c	0.10900149
178	0x3d023465	0.03178825
179	0x3da33b89	0.0797034
180	0xbdc1d5ac	-0.09464583
181	0x3dc2eb34	0.09517518
182	0xbc889c44	-0.016676076
183	0x3dcd3863	0.100205205
184	0x3dc96b0a	0.09834869
185	0x3df55f46	0.119810626
186	0xbd7be089	-0.06149343
187	0x3e02204e	0.12707636
188	0x3dc147f9	0.09437556
189	0x3c6617bf	0.014043747
190	0x3ddf0e51	0.108914025
191	0x3dbf5a60	0.093434095
192	0xbdde55db	-0.108562194
193	0xbd795999	-0.060876463
194	0xbd95eb51	-0.07320274
195	0xbdbbd243	-0.091709636
196	0x3cac6908	0.021046177
197	0xbd580c82	-0.052746303
198	0x3c57e4c3	0.0131771
199	0xbdea86f8	-0.114515245
200	0x3ce5e530	0.028063387
201	0xbd0c68d9	-0.034279678
202	0xbd71e485	-0.059055824
203	0x3d88c0ef	0.06677424
204	0xbcc8138a	-0.02442338
205	0x3d9c52cb	0.07632979
206	0xbd60ebb9	-0.054912303
207	0xbcf1a400	-0.029497147
208	0xbc4cd82f	-0.012502714
209	0xbd42010e	-0.047364287
210	0x3bcf03ad	0.006317577
211	0xbd799de2	-0.060941584
212	0x3d9b5966	0.07585411
213	0xbac47827	-0.0014989421
214	0xbdc9eba5	-0.09859399
215	0xbdca7e8d	-0.09887419
216	0x3ceb7a31	0.028744789
217	0xbd438c67	-0.04774132
218	0xbd9154d2	-0.07096256
219	0x3ccb6cb5	0.024832109
220	0x3d60df4c	0.054900452
221	0x3df83329	0.12119133
222	0x3be244e0	0.006905183
223	0xbdf88528	-0.121347725
224	0x3dd7f29e	0.105443224
225	0xbda7835f	-0.08179354
226	0x3c959ed7	0.018264217
227	0xbd992e74	-0.07479563
228	0x3d31f9af	0.043451007
229	0xbd925b25	-0.07146291
230	0x3e0152cc	0.12629241
231	0xbc93dabc	-0.018048637
232	0x3ddc6d43	0.107630275
233	0x3d29d923	0.041466843
234	0xbd1ca33d	-0.038241614
235	0xbd87e909	-0.06636245
236	0xbc9c00f9	-0.019043433
237	0x3d011a0b	0.031518977
238	0x3d857b9b	0.065177165
239	0xbc8c552a	-0.017130453
240	0x3d996eed	0.074918605
241	0x3b22ce94	0.0024842368
242	0x3d84e768	0.0648945
243	0xbd3e2536	-0.046422206
244	0xbda1e27f	-0.07904529
245	0x3c0683d7	0.008210144
246	0xbdd982c1	-0.106206425
247	0x3e05b08d	0.1305563
248	0x3c4ae220	0.012383014
249	0x3d836f16	0.06417672
250	0x3d47eb42	0.048808344
251	0xbdc82cf1	-0.09774197
252	0xbd63ac65	-0.05558433
253	0xbdc0edfa	-0.094203904
254	0xbd079a68	-0.033106238
255	0xbd4fdb59	-0.050746296

layer2.bias f4 [128]
0	0x3dbe8479	0.09302611
1	0xbdcf8be7	-0.10134106
2	0xbc8b5c58	-0.017011806
3	0x3da66ab8	0.08125824
4	0x3d383e8e	0.04498153
5	0xbd9d2124	-0.07672337
6	0xbdf41d39	-0.11919636
7	0x3ddf9411	0.10916913
8	0xbcbbffa6	-0.022949051
9	0xbddda842	-0.10823108
10	0x3d90df95	0.07073895
11	0xbdb41848	-0.08793694
12	0xbbd8de0b	-0.0066182665
13	0x3ccd128e	0.025033262
14	0xbda6356d	-0.08115659
15	0x3d91a673	0.07111826
16	0x3cafbc51	0.021452101
17	0x3e016148	0.12634766
18	0x3e01b91c	0.1266827
19	0xbd431d20	-0.047635198
20	0x3ce8abe6	0.02840228
21	0xbba91ab6	-0.005160655
22	0xbca0fed0	-0.019652754
23	0xbd87fe89	-0.066403456
24	0xbd1edd4a	-0.038785256
25	0x3d30e1f1	0.043184225
26	0x3cbcb665	0.023036191
27	0xbdb0372b	-0.086042725
28	0x3db5e824	0.08882168
29	0xbd7f76d9	-0.0623692
30	0xbd9b740a	-0.07590492
31	0x3d61ce6d	0.055128504
32	0xbd25efee	-0.040512018
33	0x3e1bfb23	0.1523252
34	0xbc906bc7	-0.017629517
35	0xbdbb041b	-0.091316424
36	0xbdbc139e	-0.09183429
37	0x3d6bd2c3	0.057574045
38	0x3da3fd40	0.08007288
39	0xbd3691dd	-0.0445727
40	0x3d9841eb	0.07434448
41	0x3d86589f	0.06559872
42	0xbbc7a925	-0.0060931616
43	0xbd260766	-0.0405344
44	0xbcac322e	-0.021020021
45	0xbcbcc1ef	-0.023041693
46	0xbdd9de05	-0.1063805
47	0x3e042fdb	0.1290888
48	0x3e0e4df8	0.1389693
49	0xbd8240ca	-0.06360014
50	0x3d4a0b12	0.049326964
51	0x3d717efa	0.058958985
52	0xbd84431c	-0.064581126
53	0x3de5bde9	0.11217863
54	0x3db89a9b	0.09013864
55	0xbc818819	-0.015811967
56	0x3db1e3e3	0.08686044
57	0x3cff244d	0.03114524
58	0xbcc06e98	-0.023490235
59	0x3d9f176f	0.077681415
60	0x3d726917	0.059182253
61	0x3e06de1f	0.1317067
62	0xbdbf7cb1	-0.09349955
63	0x3d284c01	0.041088108
64	0x3a900ee9	0.0010990772
65	0xbd871945	-0.06596617
66	0x3d937ab3	0.072011374
67	0xbc8df280	-0.017327547
68	0xbdb7dec5	-0.08978037
69	0x3dcd278b	0.10017308
70	0xbe038473	-0.12843494
71	0xbe0b2441	-0.13588049
72	0xbdd0ecfd	-0.10201452
73	0xbd7a796c	-0.061150953
74	0xbd4fe4fa	-0.05075548
75	0xbdfbd921	-0.122972734
76	0xbdd84650	-0.10560286
77	0x3b101346	0.0021984144
78	0x3d76761b	0.060171228
79	0xbdce262c	-0.100658745
80	0xbc13a471	-0.009011374
81	0x3dc2b953	0.09508004
82	0xbd6850af	-0.05671757
83	0x3e042785	0.129057
84	0x3d8fb494	0.070168644
85	0xbc054269	-0.008133509
86	0xbdcc35f7	-0.099712305
87	0x3dcbb4dc	0.099466056
88	0x3db5f09b	0.088837825
89	0xbd061de8	-0.032743365
90	0x3dd47af3	0.10375013
91	0xbd9fd9ad	-0.0780519
92	0xbb8bacec	-0.0042625573
93	0x3d3ff0ac	0.046860382
94	0x3dabe70f	0.0839368
95	0x3dae67a5	0.085158624
96	0x3ddc2e3a	0.107510045
97	0x3e0c5e3d	0.13707824
98	0xbdd9baad	-0.10631309
99	0xbd8094e6	-0.062784
100	0x3d899371	0.06717575
101	0x3da1cf3d	0.07900856
102	0xbdd7587d	-0.10514925
103	0x3d8d20e1	0.06891037
104	0xbca5134e	-0.020150807
105	0xbde682ec	-0.1125544
106	0x3d792adb	0.060831886
107	0xbe04081b	-0.12893717
108	0xbd4b957d	-0.04970311
109	0xbd45af63	-0.048262965
110	0x3d25ec85	0.040508766
111	0x3d1e6baf	0.038676914
112	0x3be328b5	0.006932343
113	0xbd1894f7	-0.03725144
114	0x3cebd78c	0.028789304
115	0x3db874ec	0.09006676
116	0xbdb0ffdb	-0.086425506
117	0xbd85535a	-0.06510039
118	0x3d02ece6	0.031964205
119	0xbc79815d	-0.0152285965
120	0x3dc13d22	0.09435488
121	0xbaf1db96	-0.0018452283
122	0xbd6912ac	-0.056902573
123	0xbc3df34f	-0.011593654
124	0xbdca38e2	-0.09874131
125	0xbdad1f51	-0.08453239
126	0x3d9f524b	0.07779368
127	0x3ddb0109	0.10693557

layer3.weight f4 [1, 128]
0	0x3d98bb7a	0.07457633
1	0xbd3b221f	-0.045686837
2	0x3d98df32	0.07464446
3	0x3dc751b4	0.097323805
4	0xbc873e12	-0.01650909
5	0x3da3458a	0.07972248
6	0x3d6e33af	0.058154758
7	0xbd58599b	-0.05281983
8	0xbd857c6a	-0.06517871
9	0x3b968ac8	0.0045941807
10	0x3d186632	0.037206836
11	0x3d8b4135	0.06799547
12	0x3cb41b7f	0.021985767
13	0xbd4a652b	-0.049412888
14	0xbd475461	-0.048664454
15	0xbdcb854e	-0.09937535
16	0x3c4f51c0	0.012653768
17	0xbd6eeb7e	-0.05833005
18	0xbcc70d22	-0.024298254
19	0x3c892ae7	0.01674409
20	0xbc8f5c68	-0.017500117
21	0xbda8c41b	-0.08240529
22	0xbd9d4c27	-0.076805405
23	0xbd274103	-0.040833484
24	0x3d10e72a	0.035376705
25	0xbda26e24	-0.07931164
26	0xbc59ac3d	-0.013285694
27	0x3dd4fd8b	0.10399922
28	0xbc9a5568	-0.018839553
29	0x3cf1ceae	0.029517498
30	0x3cb42874	0.021991946
31	0x3d1ef068	0.038803488
32	0x3cf0bae2	0.029385988
33	0xbd977532	-0.073954
34	0xbcc7e8bf	-0.024402974
35	0xbd8361df	-0.06415152
36	0x3c05536f	0.008137568
37	0xbdb1da82	-0.08684255
38	0xbd93ce15	-0.072170414
39	0xbd78e3cb	-0.060764115
40	0x3c8e646f	0.017381875
41	0x3d8497e8	0.06474286
42	0x3cb18081	0.02166772
43	0xbd23a19e	-0.039949052
44	0x3d8b2ca9	0.067956276
45	0x3cfd7587	0.03093983
46	0xbd891b8f	-0.066947095
47	0xbd0184c6	-0.031620763
48	0xbcf90cd7	-0.03040163
49	0xbd16f8a1	-0.036858205
50	0x3dc26be8	0.09493238
51	0xbd725c7f	-0.059170242
52	0x3c8bedad	0.017081106
53	0x3d84d8fe	0.064867005
54	0xbdac9521	-0.084268816
55	0x3d95d4a0	0.073159456
56	0xbd230b21	-0.039805535
57	0x3d900bac	0.07033476
58	0xbd2f6c73	-0.042828035
59	0x3dc332e0	0.09531188
60	0xbd5890da	-0.052872516
61	0xbd1bb56f	-0.038014825
62	0xbd66ea42	-0.05637575
63	0x3c2413b7	0.010014466
64	0xbd8354dd	-0.06412671
65	0x3b850de1	0.0040604924
66	0xbd636743	-0.0555184
67	0xbc35a497	-0.011086605
68	0xbda499bd	-0.08037136
69	0xbdc951b4	-0.09830037
70	0x3d966a30	0.073444724
71	0x3d7c7b63	0.06164111
72	0xbc03b0b5	-0.008037736
73	0xbda9b96b	-0.08287319
74	0x3cc88e05	0.024481783
75	0xbd24d27c	-0.040239796
76	0x3d1f619f	0.038911458
77	0xbd46f1da	-0.04857049
78	0x3d98b79f	0.07456898
79	0x3da80ba0	0.08205342
80	0x3ca9eca9	0.020742731
81	0x3da916d9	0.08256311
82	0xbd875788	-0.06608492
83	0xbcaa5997	-0.020794673
84	0x3b8d9e18	0.0043218248
85	0x3cda25b4	0.026629306
86	0xbc554ae3	-0.013018343
87	0x3d2d0f3e	0.042250864
88	0xbd1191f7	-0.035539594
89	0xbcc8e5c6	-0.024523627
90	0x3d8f77cb	0.070052706
91	0xbce770b9	-0.028251993
92	0xbda12064	-0.07867506
93	0x3cd83b2f	0.026395408
94	0x3d7a6f5c	0.061141357
95	0xbd8b07c4	-0.067885906
96	0x3d946970	0.07246673
97	0xbd8d0b66	-0.0688694
98	0x3d9718e1	0.07377792
99	0xbda4f864	-0.08055189
100	0xbc98633c	-0.018602006
101	0x3d1842b8	0.037173003
102	0x3cfdc2d5	0.030976692
103	0x3d453f64	0.048156157
104	0x3a81976e	0.0009887049
105	0x3d76f98a	0.060296573
106	0xbd3e4705	-0.04645445
107	0x3d57ca3a	0.052683093
108	0x3da7c454	0.081917435
109	0xbda6a90d	-0.08137713
110	0x3d2a28ee	0.04154294
111	0xbd5b11f7	-0.05348393
112	0x3d6d9f56	0.058013283
113	0xbd8726be	-0.06599186
114	0x3d7ad64a	0.06123952
115	0x3d858e38	0.06521267
116	0x3cfd082d	0.030887688
117	0xbd545215	-0.051836092
118	0x3d9b6266	0.075871274
119	0x3d08b7c5	0.03337838
120	0x3cbc8ad0	0.02301541
121	0xbced0b3f	-0.028936027
122	0xbc8bf22a	-0.017083246
123	0xbd338a7a	-0.043833233
124	0x3ddde534	0.10834733
125	0xbd45c0cf	-0.04827958
126	0xbcd277f9	-0.025691973
127	0x3d1ae1b6	0.03781291

batchnorm1.weight f4 [64]
0	0x3f802c1d	1.0013462
1	0x3f804720	1.0021706
2	0x3f7fadcc	0.9987457
3	0x3f80ea21	1.007145
4	0x3f800000	1.0
5	0x3f803975	1.0017534
6	0x3f800000	1.0
7	0x3f800000	1.0
8	0x3f825ccb	1.0184568
9	0x3f80150d	1.0006424
10	0x3f800000	1.0
11	0x3f7f4fb3	0.99730986
12	0x3f800000	1.0
13	0x3f801c25	1.0008589
14	0x3f7f6398	0.99761343
15	0x3f804cfe	1.0023496
16	0x3f800000	1.0
17	0x3f85375e	1.0407522
18	0x3f7f3ffd	0.99707013
19	0x3f81c546	1.0138328
20	0x3f80576d	1.002668
21	0x3f800000	1.0
22	0x3f800000	1.0
23	0x3f800975	1.0002886
24	0x3f800000	1.0
25	0x3f800000	1.0
26	0x3f8220c7	1.0166253
27	0x3f7f1a67	0.9964966
28	0x3f8059e3	1.0027431
29	0x3f83772b	1.0270742
30	0x3f800000	1.0
31	0x3f8031cb	1.0015196
32	0x3f800000	1.0
33	0x3f800000	1.0
34	0x3f7f985f	0.99841875
35	0x3f7fd13a	0.9992863
36	0x3f800680	1.0001984
37	0x3f818244	1.0117879
38	0x3f800000	1.0
39	0x3f8469ea	1.0344822
40	0x3f7ffb87	0.99993175
41	0x3f8033c8	1.0015802
42	0x3f800000	1.0
43	0x3f7ffc65	0.999945
44	0x3f800000	1.0
45	0x3f7f9e52	0.9985095
46	0x3f808793	1.0041374
47	0x3f816c24	1.0111127
48	0x3f7e50ab	0.9934184
49	0x3f802eaf	1.0014247
50	0x3f7f83b8	0.9981036
51	0x3f80415d	1.0019947
52	0x3f800000	1.0
53	0x3f8033b9	1.0015785
54	0x3f7ff54f	0.99983686
55	0x3f800000	1.0
56	0x3f7f52f9	0.9973598
57	0x3f805dba	1.0028603
58	0x3f82d6e9	1.0221835
59	0x3f7f7953	0.997945
60	0x3f800873	1.0002578
61	0x3f800000	1.0
62	0x3f80ee21	1.0072671
63	0x3f80173e	1.0007093

batchnorm1.bias f4 [64]
0	0xbb4d53e7	-0.0031330527
1	0x3c888b1e	0.016667899
2	0xbce15eb5	-0.02751098
3	0xbccb704c	-0.02483382
4	0xbcd42710	-0.025897533
5	0xbbf4b191	-0.0074674566
6	0x3cddb2a5	0.027062723
7	0x3c884ecb	0.016639134
8	0xbc7a28a7	-0.015268481
9	0x3c5d0922	0.013490947
10	0x3d03b869	0.03215829
11	0x3c962cc2	0.018331889
12	0xbc9da0ac	-0.019241653
13	0x3ca55e63	0.020186609
14	0x3b2d727e	0.0026465948
15	0xbba92e14	-0.0051629636
16	0xbce5edc6	-0.02806748
17	0xbcf747c8	-0.030185595
18	0xba9bb8d0	-0.001188064
19	0xbc79e0bb	-0.015251334
20	0xbc0c9177	-0.008579603
21	0xbcb462df	-0.022019802
22	0xbd022289	-0.031771217
23	0x3c7701f9	0.015076154
24	0xbcc16d71	-0.023611756
25	0xbd004745	-0.031317968
26	0x3c05d06b	0.0081673665
27	0x3c1b06c0	0.009462059
28	0xbc5ca5ad	-0.013467235
29	0xbc658287	-0.014008171
30	0x3c9cc3ab	0.01913627
31	0x3bcea836	0.0063066734
32	0xbce495f6	-0.027903538
33	0x3cd7e9d1	0.02635661
34	0x3c73b212	0.014873998
35	0xbb1a8b4c	-0.0023581563
36	0xbc4cf465	-0.01250944
37	0xbc6d428e	-0.0144812
38	0xbcd12470	-0.02553007
39	0xbcc0b0b3	-0.023521757
40	0x3bb35aed	0.0054734857
41	0xbc8ee43d	-0.017442817
42	0xbcf9b20e	-0.03048041
43	0xbc43d2b2	-0.011952089
44	0xbce0da26	-0.027447771
45	0xbc16a766	-0.009195184
46	0x3c8a334a	0.01687016
47	0xbc960a66	-0.018315505
48	0x3c4c858f	0.012483015
49	0xbc9b6abf	-0.018971799
50	0x3c92f4da	0.01793902
51	0x3bf26a4e	0.0073979264
52	0xbc95d773	-0.01829121
53	0xbcd259b9	-0.025677549
54	0x3c9f2e95	0.019431392
55	0xbcafc6ac	-0.021457039
56	0x3ad4649e	0.0016204303
57	0xbbe892e3	-0.0070975884
58	0xbc4c40b6	-0.0124666
59	0x3c22d647	0.009938783
60	0xbc330dd6	-0.010928592
61	0x3c953166	0.018212032
62	0xbc20b07d	-0.009807703
63	0xbc96b374	-0.018396117

batchnorm1.running_mean f4 [64]
0	0x4239f5d4	46.490067
1	0x42ab6957	85.70574
2	0x426fdf9b	59.968365
3	0x41216a60	10.08847
4	0x00000000	0.0
5	0x4201c121	32.438602
6	0x00000000	0.0
7	0x00000000	0.0
8	0x3de97419	0.11399097
9	0x422487ee	41.132744
10	0x00000000	0.0
11	0x4163843f	14.219787
12	0x00000000	0.0
13	0x42be5109	95.15827
14	0x40d1b38d	6.553168
15	0x424d186c	51.27385
16	0x00000000	0.0
17	0x3e31d6d0	0.173671
18	0x40a5a374	5.176203
19	0x3e9cb8eb	0.3060983
20	0x41476e4d	12.464429
21	0x00000000	0.0
22	0x00000000	0.0
23	0x427dc5bf	63.44311
24	0x00000000	0.0
25	0x00000000	0.0
26	0x409fef17	4.997936
27	0x41f496f7	30.573713
28	0x42367de1	45.62293
29	0x40ef75a8	7.4831123
30	0x00000000	0.0
31	0x4297ace6	75.83769
32	0x00000000	0.0
33	0x00000000	0.0
34	0x427420fc	61.03221
35	0x42340246	45.00222
36	0x42ca4432	101.133194
37	0x411c67b9	9.775323
38	0x00000000	0.0
39	0x40064d76	2.0984778
40	0x42285b45	42.08913
41	0x41ba0c81	23.256105
42	0x00000000	0.0
43	0x42c2f645	97.480995
44	0x00000000	0.0
45	0x42a27a5e	81.239
46	0x422337e7	40.804592
47	0x3f26a2a1	0.650919
48	0x3e29f470	0.16597152
49	0x422185aa	40.38053
50	0x42df73bb	111.726036
51	0x41b3ba17	22.465864
52	0x00000000	0.0
53	0x42089dee	34.15423
54	0x4267a8a1	57.914677
55	0x00000000	0.0
56	0x427b128b	62.76811
57	0x4128a792	10.540911
58	0x3eea32f8	0.4574201
59	0x41154167	9.328467
60	0x4291c9d9	72.89423
61	0x00000000	0.0
62	0x3da24210	0.07922757
63	0x42316b27	44.35464

batchnorm1.running_var f4 [64]
0	0x46b21d1e	22798.559
1	0x483c349d	192722.45
2	0x483b4858	191777.38
3	0x464d0ba6	13122.912
4	0x3db5834b	0.08862933
5	0x47b1011f	90626.24
6	0x3db5834b	0.08862933
7	0x3db5834b	0.08862933
8	0x3ee75268	0.45180058
9	0x481d9e37	161400.86
10	0x3db5834b	0.08862933
11	0x46da56f5	27947.479
12	0x3db5834b	0.08862933
13	0x48857855	273346.66
14	0x460a3f9b	8847.901
15	0x48149745	152157.08
16	0x3db5834b	0.08862933
17	0x3f7e5492	0.99347794
18	0x45be5acc	6091.3496
19	0x402af67b	2.671294
20	0x469751c9	19368.893
21	0x3db5834b	0.08862933
22	0x3db5834b	0.08862933
23	0x47be783e	97520.484
24	0x3db5834b	0.08862933
25	0x3db5834b	0.08862933
26	0x4187703e	16.929806
27	0x46e814c0	29706.375
28	0x47c0a88f	98641.12
29	0x428ac15f	69.37768
30	0x3db5834b	0.08862933
31	0x48bdd74f	388794.47
32	0x3db5834b	0.08862933
33	0x3db5834b	0.08862933
34	0x4880037b	262171.84
35	0x481add94	158582.31
36	0x48cb2a59	416082.78
37	0x429c101f	78.03149
38	0x3db5834b	0.08862933
39	0x4194d30f	18.603056
40	0x47b46a1b	92372.21
41	0x472c534b	44115.293
42	0x3db5834b	0.08862933
43	0x48eb1770	481467.5
44	0x3db5834b	0.08862933
45	0x48e55e61	469747.03
46	0x46dea496	28498.293
47	0x40ca2038	6.316433
48	0x3f6a3f20	0.9150257
49	0x480b41ae	142598.72
50	0x48c191bc	396429.88
51	0x455d8fc6	3544.9858
52	0x3db5834b	0.08862933
53	0x47e77de3	118523.77
54	0x48865f93	275196.6
55	0x3db5834b	0.08862933
56	0x4805c208	136968.12
57	0x4297679a	75.70235
58	0x40158215	2.3360646
59	0x466a538e	14996.889
60	0x48b56e7b	371571.84
61	0x3db5834b	0.08862933
62	0x3e8dcb05	0.27693954
63	0x48181ec9	155771.14

batchnorm2.weight f4 [128]
0	0x3f83a318	1.0284147
1	0x3f80a393	1.0049919
2	0x3f809058	1.004405
3	0x3f853e87	1.0409707
4	0x3f7f9e3e	0.99850833
5	0x3f82c0c3	1.0215076
6	0x3f818ff5	1.0122057
7	0x3f82bf9e	1.0214727
8	0x3f804d74	1.0023637
9	0x3f81a2e7	1.0127839
10	0x3f7fef25	0.9997428
11	0x3f8133e1	1.0093957
12	0x3f7fd351	0.9993182
13	0x3f7e4b03	0.9933321
14	0x3f82b554	1.0211587
15	0x3f8416d3	1.0319465
16	0x3f80424d	1.0020233
17	0x3f83d368	1.0298891
18	0x3f801539	1.0006477
19	0x3f821790	1.0163441
20	0x3f84123e	1.0318067
21	0x3f8247b5	1.0178133
22	0x3f809ed3	1.0048469
23	0x3f83b7ad	1.0290428
24	0x3f809530	1.0045528
25	0x3f80a84d	1.0051361
26	0x3f7dac6d	0.99091226
27	0x3f837c6c	1.0272346
28	0x3f7e12cc	0.9924743
29	0x3f7ded98	0.99190664
30	0x3f800a40	1.0003128
31	0x3f7e1f82	0.9926683
32	0x3f83e6be	1.0304792
33	0x3f875e02	1.0575564
34	0x3f7fb4c4	0.998852
35	0x3f815710	1.0104694
36	0x3f823e55	1.0175272
37	0x3f8101a6	1.0078628
38	0x3f82a463	1.0206417
39	0x3f7c2091	0.9848719
40	0x3f7dff30	0.9921751
41	0x3f81978c	1.0124373
42	0x3f8427c4	1.0324636
43	0x3f7ffb2e	0.99992645
44	0x3f81ead6	1.0149791
45	0x3f81cbd8	1.0140333
46	0x3f7e02fc	0.99223304
47	0x3f8183f0	1.0118389
48	0x3f80b67c	1.005569
49	0x3f80060c	1.0001845
50	0x3f81c292	1.0137503
51	0x3f7b95a7	0.98275226
52	0x3f841f33	1.0322021
53	0x3f809b2a	1.0047352
54	0x3f8060ab	1.0029501
55	0x3f7ccdad	0.98751336
56	0x3f8257f1	1.0183088
57	0x3f816985	1.0110327
58	0x3f7e26b2	0.99277794
59	0x3f81356d	1.0094429
60	0x3f7c7b06	0.9862522
61	0x3f8068f6	1.0032032
62	0x3f7f9860	0.9984188
63	0x3f82bac7	1.021325
64	0x3f80fc95	1.0077082
65	0x3f800d8a	1.0004132
66	0x3f7e8653	0.9942371
67	0x3f8060d5	1.0029551
68	0x3f7e2a71	0.9928351
69	0x3f8355d1	1.0260564
70	0x3f80c30c	1.0059524
71	0x3f818201	1.0117799
72	0x3f800e48	1.0004358
73	0x3f7f30f9	0.996841
74	0x3f80ae3b	1.0053171
75	0x3f7f73a4	0.9978583
76	0x3f837b9c	1.0272098
77	0x3f7fd927	0.99940723
78	0x3f801268	1.0005617
79	0x3f80b321	1.0054666
80	0x3f821cbb	1.0165018
81	0x3f803907	1.0017403
82	0x3f7f6ff2	0.9978019
83	0x3f802aed	1.00131
84	0x3f80747f	1.0035552
85	0x3f8081a6	1.0039566
86	0x3f817c68	1.0116091
87	0x3f80bbbb	1.0057291
88	0x3f7e6fc5	0.99389297
89	0x3f80dae1	1.0066797
90	0x3f80c350	1.0059605
91	0x3f805c05	1.0028082
92	0x3f802932	1.0012572
93	0x3f7befa4	0.9841254
94	0x3f7cbeb3	0.98728484
95	0x3f827a52	1.0193579
96	0x3f814225	1.0098311
97	0x3f7fa963	0.9986784
98	0x3f80bc55	1.0057474
99	0x3f82a845	1.0207602
100	0x3f7edfac	0.99560046
101	0x3f821360	1.0162163
102	0x3f807c31	1.00379
103	0x3f81b047	1.013192
104	0x3f7fc386	0.9990772
105	0x3f7ff3d6	0.9998144
106	0x3f83045e	1.0235708
107	0x3f807d96	1.0038326
108	0x3f7ef48b	0.9959189
109	0x3f7ec538	0.9951968
110	0x3f7c0b59	0.98454815
111	0x3f81f0de	1.0151632
112	0x3f80d91e	1.0066259
113	0x3f8011c8	1.0005426
114	0x3f8095ab	1.0045675
115	0x3f81d3b7	1.0142735
116	0x3f832091	1.0244313
117	0x3f7b2adf	0.9811229
118	0x3f8356e3	1.0260891
119	0x3f81a572	1.0128615
120	0x3f83632e	1.0264642
121	0x3f81836c	1.0118232
122	0x3f7eb622	0.9949666
123	0x3f7d1907	0.98866314
124	0x3f836f86	1.0268409
125	0x3f82913d	1.0200573
126	0x3f807384	1.0035253
127	0x3f84fb8f	1.038927

batchnorm2.bias f4 [128]
0	0xbc94c617	-0.018160863
1	0x3c91d0dc	0.017799787
2	0xbc8db3b0	-0.017297596
3	0xbc90fc8d	-0.01769855
4	0x3c82ee40	0.015982747
5	0xbc917580	-0.017756224
6	0xbc8f0ec2	-0.017463092
7	0x3c8eb71a	0.017421294
8	0x3c8767b6	0.016528945
9	0xbc9c9fc9	-0.01911916
10	0xbc8d1fe8	-0.017227128
11	0xbc8e6a18	-0.017384574
12	0xbc879e4a	-0.01655497
13	0x3c82937c	0.015939467
14	0x3c986771	0.018604012
15	0x3c901197	0.017586512
16	0xbc88088e	-0.016605642
17	0x3c9874da	0.018610407
18	0x3c81eb0d	0.015859151
19	0xbcacd361	-0.021096887
20	0x3c94f967	0.01818533
21	0x3c8ca0ab	0.017166456
22	0x3c8aa9cb	0.016926667
23	0x3c8f5b29	0.017499523
24	0xbc8f5028	-0.017494276
25	0x3c8c3d50	0.01711908
26	0x3c7f53ea	0.0155839715
27	0xbc93fd9b	-0.018065264
28	0x3c826426	0.015916895
29	0xbc81a4a0	-0.01582557
30	0xbc8ec47e	-0.01742768
31	0xbc8b7652	-0.017024193
32	0xbca76296	-0.020432752
33	0x3c9b15ba	0.018931258
34	0x3c7faba9	0.015604892
35	0x3c8da32f	0.017289726
36	0xbcc66d55	-0.024222055
37	0x3c89a914	0.016804256
38	0x3c8be7af	0.017078249
39	0x3c836aaf	0.016042082
40	0xbc86afbe	-0.016441222
41	0xbc8fe793	-0.017566478
42	0xb944e6e8	-0.00018778036
43	0x3c89416b	0.016754827
44	0xbc8f89fc	-0.01752185
45	0xbc9beaf9	-0.019032942
46	0x3c883f16	0.016631644
47	0x3c8e663f	0.01738274
48	0x3c8a1679	0.016856419
49	0x3c8897dc	0.016673975
50	0xbc91e920	-0.017811358
51	0x3c899e6a	0.01679917
52	0xbcc069d6	-0.023487967
53	0xbc8fce47	-0.017554415
54	0x3c8f438b	0.017488262
55	0xbc85c0b2	-0.016327236
56	0x3c970175	0.018433312
57	0xbc895757	-0.01676528
58	0x3c85cfca	0.016334433
59	0xbc8d02df	-0.017213283
60	0x3c859101	0.016304495
61	0x3c898fe3	0.016792243
62	0x3c8bc328	0.017060831
63	0xbcd8700c	-0.026420616
64	0x3c892cf5	0.01674507
65	0xbc917c62	-0.017759506
66	0x3c888093	0.016662871
67	0x3c74b3e7	0.01493547
68	0x3c87e9b9	0.01659094
69	0x3c9262fe	0.017869469
70	0xbc8d4dab	-0.017248949
71	0xbc8f8712	-0.017520461
72	0x3c843413	0.016138112
73	0x3c868e7f	0.01642537
74	0xbc93332d	-0.017968738
75	0x3c889861	0.016674222
76	0xbca2861d	-0.01983934
77	0x3c89ce91	0.016822131
78	0xbc8b7d46	-0.017027508
79	0xbc8d38c6	-0.017238986
80	0xbc9a5028	-0.01883705
81	0xbc8c8599	-0.017153548
82	0x3c85c6fa	0.016330231
83	0x3c875f95	0.01652507
84	0xbcb5add1	-0.022177609
85	0xbc936bcf	-0.017995743
86	0x3cabf6aa	0.020991642
87	0xbc8e9d2f	-0.017408935
88	0x3c80b0c9	0.015709298
89	0x3c931070	0.017952174
90	0xbc8ea67d	-0.017413372
91	0x3c8b4625	0.017001221
92	0x3c8a77ac	0.016902767
93	0xbc79c57e	-0.01524484
94	0xbc841bea	-0.016126592
95	0x3c9355b4	0.017985202
96	0xbc903210	-0.017601997
97	0x3c8ab036	0.016929727
98	0xbc8df10d	-0.017326856
99	0x3c85aae3	0.016316837
100	0x3c7f3530	0.015576646
101	0xbc98b9c1	-0.018643262
102	0xbc8ebe9c	-0.017424874
103	0xbc909690	-0.017649919
104	0x3af0b3f0	0.0018364172
105	0xbc8ba706	-0.017047416
106	0x3c9b3649	0.018946784
107	0xbc8c861c	-0.017153792
108	0xbc877f0d	-0.016540075
109	0x3c8950a1	0.01676208
110	0xbc828af6	-0.015935402
111	0x3c9468fd	0.018116469
112	0xbc90675e	-0.017627414
113	0x3c8830c5	0.016624818
114	0xbc8f81a8	-0.01751788
115	0xbc93ab53	-0.01802603
116	0xbca08f6a	-0.019599635
117	0x3c85c1ee	0.016327824
118	0xbc95ce4b	-0.018286845
119	0xbc8faa26	-0.017537188
120	0xbca6678d	-0.020313049
121	0x3c9a9a23	0.018872326
122	0x3c6f9c49	0.014624664
123	0x3c8531ee	0.01625916
124	0xbc8d91da	-0.017281462
125	0x3c9a23a4	0.018815823
126	0x3c8abfd3	0.016937172
127	0xbcb05a42	-0.021527413

batchnorm2.running_mean f4 [128]
0	0x3e0f7dec	0.14012879
1	0x3e1c1136	0.1524094
2	0x3e97385d	0.2953519
3	0x3e1a8ffd	0.1509399
4	0x3e83e728	0.25762296
5	0x3e46c761	0.19411995
6	0x3df94c74	0.121727854
7	0x3e82ac2a	0.25521976
8	0x3da3b487	0.07993417
9	0x3df149fb	0.11781689
10	0x3e88dbc8	0.2673018
11	0x3e329ba3	0.17442183
12	0x3d9f8d0d	0.07790575
13	0x3d91c2f3	0.07117262
14	0x3d18679d	0.03720819
15	0x3de962da	0.113958076
16	0x3e047a4d	0.12937279
17	0x3e169a9c	0.14707416
18	0x3e194473	0.14967518
19	0x3da40741	0.08009196
20	0x3dfb5fef	0.12274157
21	0x3da725d9	0.08161516
22	0x3e31ad66	0.17351303
23	0x3d81cdd8	0.0633809
24	0x3e6c08ab	0.23050182
25	0x3e0561d7	0.13025604
26	0x3da0ef4f	0.078581445
27	0x3d87a146	0.06622557
28	0x3e593690	0.2121222
29	0x3dcf5c69	0.10125048
30	0x3dbe34d3	0.09287419
31	0x3e4d5427	0.20051633
32	0x3d97b080	0.074067116
33	0x3e0edb40	0.13950825
34	0x3da587a5	0.08082513
35	0x3d9afb5c	0.07567474
36	0x3d52b6f6	0.051444016
37	0x3e01f2b5	0.12690242
38	0x3dc69312	0.0969602
39	0x3dd36b59	0.10323209
40	0x3e094c99	0.13408126
41	0x3e57c55f	0.21071385
42	0x3ddb792a	0.107164696
43	0x3cfab79e	0.030605134
44	0x3ddb9b3e	0.107229695
45	0x3e503dbb	0.20336048
46	0x3d170fe8	0.036880404
47	0x3e75d271	0.24006058
48	0x3ed5fea2	0.41795832
49	0x3e78e242	0.2430506
50	0x3e3bbbab	0.18333308
51	0x3e0754ba	0.13215914
52	0x3d709a3e	0.058740847
53	0x3ed023a1	0.40652183
54	0x3e143274	0.14472371
55	0x3e1379cb	0.14401929
56	0x3dc8c679	0.09803481
57	0x3e16f5cb	0.147422
58	0x3dff2e9a	0.124600604
59	0x3dff3600	0.124614716
60	0x3daba04a	0.08380182
61	0x3e656e15	0.22405274
62	0x3e224a4d	0.15848656
63	0x3e520a0a	0.20511642
64	0x3d90ec4c	0.0707632
65	0x3cfa071e	0.030520972
66	0x3e2faa56	0.17154822
67	0x3dcda10c	0.10040483
68	0x3d76cfed	0.060256887
69	0x3e44ee55	0.19231541
70	0x3e7f2d5d	0.24919648
71	0x3e32fac0	0.17478466
72	0x3dc443bd	0.095832326
73	0x3e331445	0.17488201
74	0x3d858d41	0.06521083
75	0x3d59d362	0.053180106
76	0x3d8ef934	0.069811255
77	0x3eab8e27	0.3350689
78	0x3e2a9cc3	0.16661362
79	0x3db8a70d	0.090162374
80	0x3d8c7ace	0.06859361
81	0x3ed238c3	0.4105893
82	0x3e163acc	0.14670867
83	0x3e81ac51	0.2532678
84	0x3de4733b	0.11154791
85	0x3e132ded	0.14372988
86	0x3da645b5	0.08118764
87	0x3e312fcd	0.17303391
88	0x3dcb05b9	0.09913201
89	0x3d99cdbf	0.07509946
90	0x3e31fc70	0.17381454
91	0x3d2a2018	0.041534513
92	0x3dfe40a1	0.12414671
93	0x3e220bc2	0.15824798
94	0x3e2dd868	0.16977084
95	0x3e4a78e9	0.19772686
96	0x3e08954d	0.13338204
97	0x3e6a085a	0.22854748
98	0x3d2cd9e8	0.0422
99	0x3dab860d	0.083751775
100	0x3e8c295b	0.27375302
101	0x3e3fdcf3	0.18736629
102	0x3cd20585	0.025637398
103	0x3e18f163	0.14935832
104	0x3e23d27b	0.1599826
105	0x3d0468ca	0.032326497
106	0x3e1f6bf5	0.15568526
107	0x3dc8a2a9	0.0979665
108	0x3df5d058	0.12002629
109	0x3d1c4c84	0.03815891
110	0x3e46fd3c	0.19432539
111	0x3d977ffb	0.07397457
112	0x3d424491	0.04742867
113	0x3e246e12	0.16057613
114	0x3e9ca90f	0.3059773
115	0x3e070521	0.1318555
116	0x3da325d6	0.07966201
117	0x3e83a7e1	0.2571402
118	0x3e0d356b	0.13789909
119	0x3e25df1a	0.16198388
120	0x3e06dc92	0.13170078
121	0x3dd3831b	0.10327741
122	0x3dfc9b67	0.12334328
123	0x3deacf30	0.11465299
124	0x3d488f26	0.048964642
125	0x3d5fbc53	0.05462296
126	0x3de526af	0.11189019
127	0x3e6a24ab	0.2286555

batchnorm2.running_var f4 [128]
0	0x3dfaf7de	0.12254308
1	0x3e120011	0.14257838
2	0x3ed38087	0.41308996
3	0x3df02b14	0.117269665
4	0x3ea3d660	0.31999493
5	0x3e3b18e4	0.18271214
6	0x3e1dacfe	0.15398023
7	0x3e3c0665	0.18361814
8	0x3dde06ea	0.108411625
9	0x3e120894	0.14261085
10	0x3e98f202	0.29872137
11	0x3e3b2ae0	0.18278074
12	0x3dd73657	0.105084114
13	0x3dd80b2e	0.10549007
14	0x3dcee506	0.101022765
15	0x3df4bb0f	0.11949741
16	0x3df1210c	0.11773881
17	0x3df19fd5	0.11798064
18	0x3dfb9ba3	0.12285545
19	0x3ddc36d1	0.10752643
20	0x3df48d21	0.11940981
21	0x3df05e55	0.117367424
22	0x3e321223	0.17389731
23	0x3dcd66f1	0.100294
24	0x3e9207dd	0.28521624
25	0x3e0e08ec	0.13870591
26	0x3ddd5910	0.10808003
27	0x3de11bff	0.10991668
28	0x3e746d34	0.23869783
29	0x3dfe8774	0.124281794
30	0x3debac99	0.1150753
31	0x3e4009fa	0.18753806
32	0x3dd17d0c	0.10228929
33	0x3ded141c	0.11576101
34	0x3de3bdfe	0.111202225
35	0x3de488c7	0.11158901
36	0x3dcae307	0.09906583
37	0x3e094e0c	0.13408679
38	0x3df04fbb	0.117339574
39	0x3dec4a6b	0.115376316
40	0x3df0e40e	0.11762248
41	0x3e62f9b4	0.22165567
42	0x3df4bdc2	0.11950256
43	0x3dc07b35	0.093985
44	0x3e07655f	0.13222264
45	0x3e2ad7d0	0.16683888
46	0x3dc4503b	0.09585615
47	0x3e5f0e27	0.21782742
48	0x3eb1fc3f	0.3476276
49	0x3e8bdff7	0.2731931
50	0x3e236a7f	0.15958594
51	0x3e0eb16f	0.13934873
52	0x3dd69d6e	0.10479246
53	0x3f1c2638	0.6099582
54	0x3e12a03b	0.14318936
55	0x3e0b0e1b	0.135796
56	0x3dd8d8fe	0.10588263
57	0x3e0c6052	0.13708618
58	0x3e0a5925	0.13510568
59	0x3ddb6855	0.10713259
60	0x3dc87b8c	0.0978919
61	0x3e265baf	0.16245912
62	0x3e4786f9	0.19485082
63	0x3e54cc51	0.20781066
64	0x3dce6454	0.1007773
65	0x3dbcd9f8	0.09221262
66	0x3e3fba20	0.18723345
67	0x3e06ac6c	0.13151711
68	0x3dcc3e12	0.099727765
69	0x3e3032d5	0.17206891
70	0x3ec2fb00	0.38082123
71	0x3e312482	0.17299083
72	0x3e0276a3	0.12740569
73	0x3e5b2e23	0.21404319
74	0x3de10f3e	0.10989235
75	0x3dcb078f	0.09913551
76	0x3de9fcba	0.11425157
77	0x3ee77e5b	0.4521359
78	0x3e1fbaa0	0.15598536
79	0x3df828d5	0.12117163
80	0x3dd01181	0.101595886
81	0x3f052316	0.5200666
82	0x3e45bd9e	0.19310614
83	0x3e98a7cc	0.2981552
84	0x3deba94d	0.11506901
85	0x3e25fbba	0.16209307
86	0x3decdc10	0.11565411
87	0x3e21199d	0.15732427
88	0x3dd5ec32	0.10445441
89	0x3dcda6a7	0.10041552
90	0x3e1ba5f7	0.1520003
91	0x3dcbb151	0.0994593
92	0x3e09e287	0.1346532
93	0x3e0a7e20	0.13524675
94	0x3e0d24ee	0.13783619
95	0x3e2e9551	0.17049147
96	0x3de1cb05	0.11025051
97	0x3e8481c6	0.2588026
98	0x3dc05c68	0.09392625
99	0x3df1afad	0.118010856
100	0x3eaf521e	0.34242338
101	0x3e071445	0.13191326
102	0x3dbd8f43	0.09255841
103	0x3e235264	0.15949398
104	0x3e3683df	0.17823742
105	0x3dc1d68b	0.09464749
106	0x3e170afc	0.14750284
107	0x3e082aab	0.13297527
108	0x3e06ebf1	0.13175942
109	0x3dc1416e	0.09436308
110	0x3e21cd19	0.15800895
111	0x3dd681b1	0.104739554
112	0x3dc574cf	0.0964142
113	0x3e3442a7	0.17603551
114	0x3ed211bb	0.41029152
115	0x3dfc0b33	0.123068236
116	0x3dead46e	0.11466299
117	0x3e8b6525	0.27225605
118	0x3e0bc76e	0.13650295
119	0x3e4547c5	0.19265659
120	0x3e0f1d8d	0.13976116
121	0x3deba37b	0.11505791
122	0x3e168b0a	0.14701477
123	0x3e006ed0	0.12542272
124	0x3dc8747d	0.097878434
125	0x3dd907b0	0.105971694
126	0x3dec46db	0.11536952
127	0x3e174f21	0.14776279
