pretrained/trained.pth (torch, 52113 bytes, 25 tensors)

clinical.layer1.weight f4 [64, 5]
0.31312078 -0.33274144 0.4359192 0.23556933 -0.20187269 -0.0763395 0.13513844 -0.43617555
-0.28229144 -0.414685 0.1314334 0.013909049 -0.2889009 -0.3769225 -0.23095717 0.46585053
-0.031128842 0.0051959124 0.4555168 -0.39506048 0.42677584 0.23163505 -0.2981149 -0.05955224
0.008349818 0.44959614 0.3299189 0.27404413 0.38099283 -0.17452806 0.19916682 0.24845874
-0.19015317 0.22544098 0.4504751 0.20295027 0.29401693 0.20752257 0.006252269 0.0554615
0.15342681 -0.3332677 0.20351243 0.41448253 0.26693693 -0.10569257 -0.03939538 0.20504875
-0.23584013 0.09091839 0.3277516 -0.040109105 -0.43034378 -0.34082985 -0.20266673 0.20955648
0.39103973 0.38827425 0.37763435 -0.25484088 -0.063042976 -0.020885948 0.1631548 0.26683488
-0.30799615 -0.34933177 0.033834577 -0.012686021 0.005235773 -0.36867636 0.42161664 0.025105327
-0.30913904 0.1230245 -0.28303975 0.22286886 0.41241428 -0.19385098 0.37051797 0.22096251
0.30377552 0.048304345 -0.41933286 -0.0019007708 -0.09722875 -0.26754683 -0.22503577 -0.16178736
-0.32180208 -0.32503423 0.10204827 0.31400406 0.038008686 -0.081445664 -0.016042953 0.08448334
-0.20973256 -0.16961439 -0.29786462 0.33876848 0.11378202 -0.18620561 -0.16620474 0.20959145
-0.018291986 -0.04892097 0.33296674 -0.195875 -0.20297962 -0.108618215 -0.077343814 -0.34990463
0.095710225 -0.02237024 -0.06384663 -0.0864336 0.16689764 -0.075210616 0.0388611 -0.075661585
-0.020929176 -0.41243598 -0.008054806 0.19435044 0.4297604 0.2184818 0.1880486 0.087435104
-0.1275397 0.1464229 0.31924716 0.0323864 -0.18674234 0.33441642 -0.17530583 -0.003487158
0.3660312 0.46572742 -0.2794263 0.43756643 0.07511293 0.3578341 -0.03330618 0.2703579
-0.10506022 0.05580935 -0.38538718 -0.13926119 0.37953368 0.3181528 -0.28257424 0.19446284
0.29726768 -0.25942788 -0.22534485 -0.33977783 -0.36981 0.027066333 -0.13800812 0.012073412
0.31002977 -0.18106718 0.011135496 0.4409724 0.3412845 0.084331065 -0.38459128 0.11619338
0.032568384 -0.07076307 -0.42716885 -0.38720703 -0.05890903 0.07194717 0.36114603 0.24416794
-0.44065517 0.13009682 0.11469173 0.41085425 -0.2888612 -0.098215766 0.16112635 0.24422021
-0.38695973 0.22559805 -0.048767965 0.2707895 -0.023114225 -0.07296963 0.15563859 0.29530776
0.101014964 0.14022066 -0.30119237 0.4059453 -0.031159721 0.4112313 0.27976027 0.2037298
-0.25710633 0.10708792 0.04509767 0.09225456 0.32521704 -0.3530448 0.23230363 -0.03505814
0.08957484 -0.17048249 -0.13953918 0.3867743 -0.25091338 0.4328605 0.17271456 -0.019062229
0.2140725 0.1907282 0.026314467 0.096766375 -0.17800812 0.12531613 -0.39948574 0.27842486
-0.11580185 -0.034635402 0.3835029 0.20806798 -0.0022548141 -0.42411733 0.37803096 -0.05087295
-0.25281352 -0.043715134 -0.11949409 -0.41191572 -0.273032 0.058641415 0.33126315 0.38524535
0.16880032 -0.104706205 0.3209437 0.35523725 -0.38475448 0.018923473 -0.35142457 -0.42214835
0.0039830473 -0.31524315 0.32276952 -0.42694092 0.26929224 0.43329802 0.17664018 -0.41882345
00000000: 5e51 a03e 165d aabe cd30 df3e 1639 713e
00000010: b7b7 4ebe e257 9cbd bb61 0a3e 6752 dfbe
00000020: 8188 90be 9851 d4be 7a96 063e c8e2 633c
00000030: d2ea 93be fcfb c0be 0980 6cbe f683 ee3e
00000040: ea01 ffbc 7942 aa3b 7f39 e93e 5e45 cabe
00000050: 5d82 da3e bd31 6d3e 84a2 98be 0ded 73bd
00000060: adcd 083c 7731 e63e 21eb a83e 834f 8c3e
00000070: 7e11 c33e 7cb7 32be 63f2 4b3e f86b 7e3e
00000080: 83b7 42be 00da 663e aca4 e63e 32d2 4f3e
00000090: 6389 963e cc80 543e d5df cc3b 992b 633d
000000a0: eb1b 1d3e 10a2 aabe 9065 503e 0e37 d43e
000000b0: f5ab 883e 5975 d8bd 0d5d 21bd 4df8 513e
000000c0: 1380 71be 6c33 ba3d 0fcf a73e 7249 24bd
000000d0: 0556 dcbe 4081 aebe de87 4fbe f995 563e
000000e0: 5c36 c83e e2cb c63e 4a59 c13e 817a 82be
000000f0: ad1c 81bd 0219 abbc 0d12 273e 959e 883e
00000100: acb1 9dbe 9ddb b2be 2096 0a3d 07d9 4fbc
00000110: d990 ab3b 26c3 bcbe 23de d73e b0a9 cd3c
00000120: 7947 9ebe 45f4 fb3d 96ea 90be bc37 643e
00000130: f727 d33e df80 46be 88b4 bd3e ff43 623e
00000140: 7788 9b3e c7da 453d ccb2 d6be 4923 f9ba
00000150: de1f c7bd e6fb 88be c76f 66be 96ab 25be
00000160: 3ec3 a4be e36a a6be affe d03d 24c5 a03e
00000170: ffae 1b3d fccc a6bd 836c 83bc 9a05 ad3d
00000180: 22c4 56be 65af 2dbe b681 98be 1073 ad3e
00000190: 8c06 e93d afac 3ebe 9331 2abe 249f 563e
000001a0: 13d9 95bc 5b61 48bd 9e7a aa3e 7593 48be
000001b0: e4d9 4fbe 3a73 debd 6f66 9ebd b326 b3be
000001c0: b903 c43d cb41 b7bc 06c2 82bd 1904 b1bd
000001d0: 37e7 2a3e 0608 9abd d12c 1f3d 76f4 9abd
000001e0: aa73 abbc cf2a d3be 4ef8 03bc cd03 473e
000001f0: 8e09 dc3e b1b9 5f3e d08f 403e 2d11 b33d
00000200: c499 02be e2ef 153e 5d74 a33e 9aa7 043d
00000210: 6239 3fbe a138 ab3e 5f83 33be ce88 64bb
00000220: 7168 bb3e d373 ee3e f710 8fbe b508 e03e
00000230: cfd4 993d 0836 b73e 106c 08bd 5a6c 8a3e
00000240: d029 d7bd 5898 643d 7851 c5be 7c9a 0ebe
00000250: 3d52 c23e ece4 a23e 92ad 90be 4421 473e
00000260: 7833 983e bbd3 84be cdc0 66be 5cf7 adbe
00000270: bc57 bdbe 37ba dd3c 0052 0dbe 8fcf 453c
00000280: 39bc 9e3e ad69 39be a871 363c 22c7 e13e
00000290: d8bc ae3e c4b5 ac3d 26e9 c4be cbf6 ed3d
000002a0: 6d66 053d 3aec 90bd e0b5 dabe 0040 c6be
000002b0: 984a 71bd 0a59 933d 22e8 b83e 2907 7a3e
000002c0: 8e9d e1be 1a38 053e 7fe3 ea3d 7d5b d23e
000002d0: 9de5 93be 5925 c9bd 4efe 243e dd14 7a3e
000002e0: 961f c6be 2d03 673e ebc0 47bd eca4 8a3e
000002f0: 0b5a bdbc 1a71 95bd b95f 1f3e 9432 973e
00000300: efe0 ce3d 0196 0f3e e335 9abe 10d8 cf3e
00000310: ac42 ffbc e98c d23e bd3c 8f3e 8b9e 503e
00000320: 71a3 83be e950 db3d 56b8 383d f5ef bc3d
00000330: d982 a63e 4ac2 b4be 01e1 6d3e 2099 0fbd
00000340: 0473 b73d f692 2ebe 5ce3 0ebe 4807 c63e
00000350: b877 80be e49f dd3e 16dc 303e 6428 9cbc
00000360: d235 5b3e 414e 433e 7091 d73c 732d c63d
00000370: c347 36be df52 003e 6589 ccbe b48d 8e3e
00000380: 8529 edbd dadd 0dbd 7e5a c43e c60f 553e
00000390: 81c5 13bb e825 d9be 468d c13e 2860 50bd
000003a0: c670 81be a40e 33bd 51b9 f4bd 9ee6 d2be
000003b0: daca 8bbe fb31 703d 539b a93e e13e c53e
000003c0: fed9 2c3e 3570 d6bd bc52 a43e a8e1 b53e
000003d0: 8afe c4be 6605 9b3c eced b3be d423 d8be
000003e0: 3984 823b 8d67 a1be 0c42 a53e 0098 dabe
000003f0: ace0 893e 3dd9 dd3e 2ae1 343e 0770 d6be

clinical.layer1.bias f4 [64]
0.31437346 -0.30709133 -0.42033574 0.16470885 0.26648736 -0.17212975 0.33891317 -0.24982755
0.30583617 0.20420386 0.3371237 -0.30516487 -0.06885029 0.39331385 -0.41881832 -0.2887994
-0.11445502 0.18412146 -0.07175006 -0.2779461 0.23508482 0.28679994 0.27067673 -0.07575728
-0.35723746 -0.096537665 0.16583513 0.11297753 0.06702712 0.42627776 0.09333196 0.04100509
0.3532514 0.34732103 0.04913518 0.023018328 -0.17479892 -0.036658335 -0.2059749 0.14052719
0.16119894 -0.42843965 0.32435495 0.27746582 0.023010477 -0.31046733 0.18887259 0.3734837
0.18485957 0.12271034 -0.03016841 0.064966924 0.31365794 0.28883538 -0.14129944 0.20755965
-0.040485878 -0.41208577 0.25762892 -0.3649719 -0.40279618 -0.04046398 -0.073310524 0.38061208
00000000: 8ff5 a03e 133b 9dbe 3f36 d7be 70a9 283e
00000010: 0871 883e c842 30be 0786 ad3e cbd2 7fbe
00000020: 8f96 9c3e d11a 513e 7a9b ac3e 923e 9cbe
00000030: 6101 8dbd 6f60 c93e 5b6f d6be 84dd 93be
00000040: 6567 eabd 568a 3c3e b2f1 92bd f44e 8ebe
00000050: 13ba 703e 71d7 923e 2496 8a3e a226 9bbd
00000060: d4e7 b6be 8ab5 c5bd afd0 293e c360 e73d
00000070: 8445 893d 1441 da3e d424 bf3d f4f4 273d
00000080: 5edd b43e 10d4 b13e f841 493d ef90 bc3c
00000090: 7dfe 32be 0d27 16bd 16eb 52be 5ce6 0f3e
000000a0: 5611 253e 715c dbbe da11 a63e 0010 8e3e
000000b0: 7880 bc3c 93f5 9ebe d167 413e 4139 bf3e
000000c0: d44b 3d3e 8f4f fb3d be23 f7bc 610d 853d
000000d0: c697 a03e 3be2 933e cdb0 10be 848a 543e
000000e0: 85d4 25bd e8fc d2be f0e7 833e 99dd babe
000000f0: 4d3b cebe 8fbd 25bd d423 96bd 96df c23e

clinical.layer2.weight f4 [128, 64]
-0.08223579 0.01720036 -0.0012552392 -0.04045194 0.06832321 -0.12046534 -0.008280571 -0.046188038
-0.07983399 -0.08992391 0.06225084 -0.079932384 0.11114086 0.08732485 -0.10841432 -0.1305812
-0.010523709 0.0106082065 -0.12114436 -0.022071812 -0.12900342 0.08120769 -0.018920774 -0.08975603
-0.06698458 0.053929884 -0.005277086 -0.02819354 -0.09517451 0.10920241 0.028722128 0.08154642
-0.0061621354 -0.07726824 -0.06376681 -0.090117484 0.0546714 -0.056375638 0.020932958 -0.1003683
-0.062001508 -0.054882053 0.027949292 -0.011895531 0.10784154 -0.017147997 -0.025266537 -0.119565405
-0.1161844 0.020892188 -0.0053813653 -0.061147712 -0.11207527 -0.10880067 0.087803334 -0.053992447
-0.0027447417 0.054002374 0.0814822 -0.097163945 0.00015489002 0.02121158 0.034937847 -0.12884912
0.0017788775 -0.043668464 0.106046505 0.057587333 0.13684316 -0.054254185 -0.037262395 -0.032783847
-0.0415286 0.00048175408 0.103436835 -0.054253224 0.04607539 -0.019262329 0.104932256 0.0074445046
0.07948616 0.09660341 0.092958905 -0.0911143 0.11118491 0.020916982 0.04695621 0.08355479
-0.046803277 -0.1201863 0.03163452 0.052092757 -0.015229054 -0.08476392 -0.005288594 0.0049419887
0.059841473 0.057806518 0.07118068 0.041499536 -0.04210278 -0.061143618 0.045797274 -0.10521524
0.07010523 0.02386202 -0.037313383 -0.076661855 0.060128417 0.05900751 0.027005548 -0.054923315
0.0033514542 -0.055202886 -0.104018316 -0.10798766 0.08082696 -0.07193445 -0.0088959215 0.04519089
-0.032533556 -0.10087945 -0.038819574 -0.08354895 0.042900454 -0.107273996 0.081657045 0.036778018
0.017663965 -0.15073955 0.026636342 -0.10453483 0.08130013 0.009875741 0.09663764 0.09555437
0.037802797 -0.12326658 0.0012727762 0.10560778 -0.08577899 -0.10733792 -0.097630166 0.09372116
0.11922603 0.11265661 0.054483265 0.011289493 -0.028142545 -0.061995115 -0.015107819 -0.02886221
-0.012158363 0.11676641 -0.107844934 0.09525068 0.12063679 -0.02674002 -0.023202391 0.09315271
-0.08872576 -0.08999344 0.023496404 0.0470257 0.022092868 -0.08948684 -0.12386338 -0.03672877
0.049502533 0.0637738 0.12382833 0.020516695 0.1393138 -0.123197995 -0.09369742 0.068678446
-0.1007722 0.05424836 0.053122945 0.014008692 0.0068926923 -7.923277e-05 -0.04377277 0.06207194
0.06910276 -0.09085843 -0.015771285 -0.062612295 -0.026605483 -0.022204954 0.0025129549 -0.067425035
-0.075649574 0.05224042 0.025450282 0.057244804 -0.03611309 0.08993146 0.13729277 -0.0420464
0.080728665 0.089330755 -0.079109095 -0.109258205 -0.086462125 -0.054331023 0.033879608 0.060423482
0.027048737 0.015647197 0.00320183 0.07090365 0.0837533 -0.06154469 -0.075904295 -0.07735184
0.0011071593 0.030497182 -0.0148272645 -0.05441108 0.073238164 0.07561173 -0.0051097698 -0.014150816
0.10937203 0.09407034 0.015126563 0.006209417 0.11003408 0.031985883 0.074930385 0.053382784
-0.008775223 0.059159014 -0.0860385 -0.074902095 -0.13214612 -0.07746223 -0.009544709 0.032163624
0.031111343 0.11343431 0.019957718 -0.08519903 -0.030234218 -0.08149462 0.044236653 0.024554603
-0.06848 0.07957062 -0.03244124 -0.06896993 0.019616721 -0.09624958 -0.107093096 0.10461828
00000000: 3d6b a8bd c5e7 8c3c d786 a4ba efb0 25bd
00000010: 0aed 8b3d 88b6 f6bd 3bab 07bc ab2f 3dbd
00000020: 0180 a3bd 072a b8bd bdfa 7e3d 97b3 a3bd
00000030: d29d e33d 5fd7 b23d 5408 debd 14b7 05be
00000040: a26b 2cbc 0bce 2d3c 891a f8bd f2cf b4bc
00000050: 7919 04be 3850 a63d bdff 9abc 02d2 b7bd
00000060: 362f 89bd 95e5 5c3d 68eb acbb 24f6 e6bc
00000070: daea c2bd 83a5 df3d ab4a eb3c cf01 a73d
00000080: bdeb c9bb d03e 9ebd 2c98 82bd 848f b8bd
00000090: 1eef 5f3d 24ea 66bd 987b ab3c e58d cdbd
000000a0: 4bf5 7dbd 01cc 60bd eaf5 e43c 79e5 42bc
000000b0: 06dc dc3d f579 8cbc c5fb cebc b5de f4bd
000000c0: 16f2 edbd 1826 ab3c 2a56 b0bb 0676 7abd
000000d0: b887 e5bd e3d2 debd 3cd2 b33d 2f27 5dbd
000000e0: 20e1 33bb 9831 5d3d 24e0 a63d e4fd c6bd
000000f0: f969 2239 e8c3 ad3c fd1a 0f3d 06f1 03be
00000100: 3929 e93a b4dd 32bd e92e d93d b2e0 6b3d
00000110: 9d20 0c3e a339 5ebd 74a0 18bd 5b48 06bd
00000120: e519 2abd f093 fc39 b1d6 d33d a138 5ebd
00000130: 8cb9 3c3d 08cc 9dbc b9e6 d63d 08f1 f33b
00000140: a4c9 a23d 02d8 c53d 3d61 be3d 229a babd
00000150: eab4 e33d 175a ab3c 2855 403d c61e ab3d
00000160: cbb4 3fbd 3c24 f6bd 3393 013d 375f 553d
00000170: 4883 79bc b598 adbd f14b adbb 68f0 a13b
00000180: 551c 753d 87c6 6c3d 2dc7 913d 6bfb 293d
00000190: f773 2cbd bb71 7abd ec95 3b3d 167b d7bd
000001a0: 5593 8f3d 487a c33c ebd5 18bd e400 9dbd
000001b0: 3749 763d dcb1 713d bd3a dd3c 45f7 60bd
000001c0: 12a4 5b3b 6c1c 62bd 8e07 d5bd a228 ddbd
000001d0: 9b88 a53d 5e52 93bd 33c0 11bc 151a 393d
000001e0: e841 05bd e399 cebd 4601 1fbd b61b abbd
000001f0: 63b8 2f3d 78b2 dbbd cf3b a73d 8ca4 163d
00000200: 05b4 903c 785b 1abe 7534 da3c 5b16 d6bd
00000210: af80 a63d dccd 213c f4e9 c53d 02b2 c33d
00000220: 1bd7 1a3d 3073 fcbd 48d3 a63a e448 d83d
00000230: e5ac afbd fcd3 dbbd 53f2 c7bd e1f0 bf3d
00000240: c72c f43d 82b8 e63d d829 5f3d 91f7 383c
00000250: 328b e6bc 97ee 7dbd c986 77bc 7170 ecbc
00000260: df33 47bc 3a23 ef3d cedd dcbd ca12 c33d
00000270: 6c10 f73d e30d dbbc f112 bebc d9c6 be3d
00000280: dab5 b5bd 7b4e b8bd 887b c03c 059e 403d
00000290: 1afc b43c e044 b7bd 15ac fdbd e870 16bd
000002a0: 2bc3 4a3d d79b 823d b599 fd3d a112 a83c
000002b0: 47a8 0e3e 3b4f fcbd 6fe4 bfbd 49a7 8c3d
000002c0: a861 cebd 8733 5e3d 7297 593d b684 653c
000002d0: 18dc e13b c529 a6b8 134b 33bd 263f 7e3d
000002e0: bf85 8d3d fc13 babd c832 81bc e03a 80bd
000002f0: bef3 d9bc 2ae7 b5bc 63b0 243b 2316 8abd
00000300: 2aee 9abd 0dfa 553d 1c7d d03c 8779 6a3d
00000310: 52eb 13bd fc2d b83d 7a96 0c3e d938 2cbd
00000320: 1255 a53d 0bf3 b63d f303 a2bd c4c2 dfbd
00000330: 0e13 b1bd 358a 5ebd 58c5 0a3d 9d7e 773d
00000340: 5095 dd3c 8d2e 803c cbd5 513b ef35 913d
00000350: da86 ab3d 4916 7cbd b673 9bbd a46a 9ebd
00000360: 1a1e 913a 3ad5 f93c 0eee 72bc 27de 5ebd
00000370: e4fd 953d 53da 9a3d db6f a7bb d3d8 67bc
00000380: 71fe df3d f3a7 c03d 67d5 773c 5d78 cb3b
00000390: 8c59 e13d a103 033d 1a75 993d e8a7 5a3d
000003a0: f4c5 0fbc b950 723d f434 b0bd 4566 99bd
000003b0: 5051 07be 85a4 9ebd 6961 1cbc 01be 033d
000003c0: 37dd fe3c 3f50 e83d 5e7e a33c d47c aebd
000003d0: c0ad f7bc a7e6 a6bd 7e31 353d bc26 c93c
000003e0: 3e3f 8cbd ecf5 a23d 1be1 04bd 1b40 8dbd
000003f0: 3fb3 a03c 801e c5bd a053 dbbd 1c42 d63d

clinical.layer2.bias f4 [128]
-0.044612188 0.07902673 0.006007158 0.07927678 0.07621513 0.12651066 0.019242007 0.023931906
0.059951928 -0.07473718 -0.028523639 -0.12243284 -0.06662247 -0.10264472 -0.051060192 -0.04840764
0.02784213 0.018983165 -0.056424584 0.113465235 -0.05623436 0.15194337 0.068082474 -0.108493604
0.0072790254 -0.099634066 0.01820318 -0.04964704 -0.00034673006 0.057053912 -0.08157507 -0.04498644
0.117190495 -0.116363935 -0.1243958 0.10377669 -0.09537362 -0.04288477 0.04535311 -0.023178214
0.06383171 -0.022057947 0.0071724528 0.12869324 0.0058189845 -0.05256991 0.04134632 0.00032303447
-0.105453156 -0.0012534593 -0.051243242 0.055816658 0.074760914 -0.028894106 0.13285747 0.045540567
0.05954217 0.10491629 0.022155594 -0.0040282025 0.12624687 -0.047315575 0.10902934 0.0029124995
0.09797564 0.08929697 0.0013989956 0.014190755 0.07508283 -0.03774695 0.13649364 -0.114906885
0.049427725 0.039764274 -0.040651917 0.072147265 0.039112903 0.07322922 0.09929098 0.08073805
0.08367326 -0.09895977 -0.11081209 0.07015659 -0.0029810977 -0.006477885 -0.08847769 0.09683831
0.003437607 0.06488362 0.105364375 0.06957252 0.11804591 0.0060832095 -0.008076955 -0.13057362
0.076709695 -0.06533564 -0.060727116 -0.08865477 0.054746415 -4.997338e-05 0.04687749 -0.024122845
-0.0009306886 -0.045816157 0.0008580365 0.0696449 -0.057150483 0.036413673 0.06901868 -0.062461838
0.116879955 0.011275106 0.027336065 0.08004751 0.087057516 0.079901 -0.078755416 -0.110500365
0.07028784 -0.08074918 0.09153672 0.06076007 -0.043228567 0.02728988 -0.017718108 -0.072488494
00000000: 45bb 36bd c4d8 a13d b2d7 c43b dd5b a23d
00000010: ae16 9c3d 038c 013e 6aa1 9d3c d80c c43c
00000020: 2790 753d ce0f 99bd 68aa e9bc 12be fabd
00000030: 5d71 88bd 6537 d2bd 7e24 51bd 1747 46bd
00000040: 2e15 e43c 9582 9b3c 771d 67bd 7660 e83d
00000050: 0056 66bd 0b97 1b3e d36e 8b3d e531 debd
00000060: e484 ee3b f20c ccbd d61e 953c b25a 4bbd
00000070: 52c9 b5b9 5db1 693d d510 a7bd b443 38bd
00000080: 9201 f03d 3750 eebd 3ac3 febd e088 d43d
00000090: 3f53 c3bd f1a7 2fbd 2fc4 393d 3de0 bdbc
000000a0: 33ba 823d deb2 b4bc e506 eb3b 29c8 033e
000000b0: 2ead be3b 8c53 57bd c25a 293d f45c a939
000000c0: d3f7 d7bd 1d4b a4ba 6fe4 51bd 02a0 643d
000000d0: 401c 993d 55b3 ecbc ca0b 083e bf88 3a3d
000000e0: 7ee2 733d 5ade d63d a67f b53c 03ff 83bb
000000f0: dc46 013e facd 41bd c64a df3d a2df 3e3b
00000100: 74a7 c83d 54e1 b63d 815e b73a 5780 683c
00000110: 07c5 993d 8c9c 1abd fdc4 0b3e 4d54 ebbd
00000120: ba74 4a3d dddf 223d a082 26bd f2c1 933d
00000130: da34 203d 34f9 953d 1259 cb3d fe59 a53d
00000140: e35c ab3d 6bab cabd 73f1 e2bd 42ae 8f3d
00000150: 855e 43bb 7044 d4bb cb33 b5bd 2a53 c63d
00000160: 7a49 613b b4e1 843d 47c9 d73d 0a7c 8e3d
00000170: 0ec2 f13d a955 c73b 3455 04bc 17b5 05be
00000180: f919 9d3d b1ce 85bd ffbc 78bd a290 b5bd
00000190: c73d 603d 829a 51b8 9c02 403d 469d c5bc
000001a0: 74f9 73ba b9a9 3bbd dbed 603a fca1 8e3d
000001b0: a016 6abd 8126 153d aa59 8d3d fcd7 7fbd
000001c0: c25e ef3d 39bb 383c e2ef df3c f3ef a33d
000001d0: 364b b23d 23a3 a33d 854a a1bd 044e e2bd
000001e0: 12f3 8f3d d35f a5bd 9b77 bb3d 8ddf 783d
000001f0: 7010 31bd 078f df3c 9125 91bc d974 94bd

clinical.layer3.weight f4 [4, 128]
0.045571912 0.054755896 0.0836198 -0.0075731543 -0.10272174 -0.09994557 0.011024306 0.031306252
0.068617925 -0.061630085 0.0458448 -0.009519434 0.008540846 -0.056239266 0.08748944 0.029027702
0.04277088 0.055778172 0.08002852 0.07832485 -0.010847173 0.03849668 0.07692291 0.065065056
-0.09041769 0.037629392 0.11218422 0.055377867 0.029508248 -0.0664002 -0.022287205 0.057876386
0.055716645 0.022396693 -0.042310398 -0.09560271 0.02840092 0.05891184 -0.0075845853 0.09501091
0.06375448 0.029763198 -0.111520015 -0.08332281 -0.041578587 0.04105327 -0.044722628 0.10857624
0.081571616 -0.04974033 0.113230444 -0.03841679 0.051941495 0.05813209 -0.06923704 -0.1054336
0.0871279 -0.00043673228 0.0004899634 -0.074095145 -0.085453995 0.026244096 0.028547127 0.052977644
-0.031892236 0.08863084 0.08269579 0.02440108 0.046576876 0.11820158 -0.053350445 0.09297817
-0.0016433067 -0.086183414 0.00046495404 -0.13081504 -0.040988233 0.09268491 0.057241093 -0.06916112
0.0025836495 -0.035619218 0.08269505 0.07841074 0.08884764 0.08772248 0.06881712 0.0055484893
0.011683378 0.074936226 0.05413161 -0.12846355 0.08412529 0.004535533 0.055914927 -0.041375507
0.078781515 0.02066639 0.0036183496 -0.019840717 -0.0029604721 -0.094113305 0.020536557 0.047946814
0.05106606 -0.04329581 -0.06386536 0.044166494 0.10345869 0.023930026 0.044659644 -0.02044071
0.10923431 -0.07441605 -0.06775492 -0.032259226 0.031555884 -0.017978841 0.066605285 -0.012838624
-0.070761755 -0.016964162 -0.04156635 -0.1076613 -0.10437865 0.0033785088 0.03251295 0.010586509
-0.0326781 0.09699816 -0.008710041 0.095063455 -0.08459854 0.028518636 0.096738294 -0.074170224
0.06846725 -0.06297992 0.009632548 0.036516786 -0.08319801 0.030918747 -0.018200202 0.04732133
-0.0012844872 -0.035426952 0.013704907 0.099392645 0.008396537 -0.08392356 -0.032784965 0.0044185044
-0.047257133 -0.020351771 -0.023516877 -0.06971325 -0.07364182 0.02264223 -0.0033326575 0.07372164
-0.09231538 -0.031924576 -0.07678412 -0.045214295 -0.016967518 0.08656229 -0.033776164 0.057255737
0.040675078 0.094586514 -0.08146293 -0.025912935 -0.034067936 0.06760961 -0.040292922 0.01907887
0.04438717 -0.0090251975 -0.04309272 -0.035345513 -0.09504618 -0.06437977 -0.074022435 -0.02997488
0.08981211 -0.055930756 0.030060908 0.0094520915 0.07842115 0.08076319 -0.024962813 -0.05348845
-0.08123221 0.10163993 0.028643372 -0.03237468 0.0056055025 0.02453781 -0.103658676 -0.0044365786
0.10248627 -0.053508732 -0.11801763 -0.03149784 -0.05081864 0.03525195 0.09877805 -0.109981626
0.06257897 0.0568123 -0.050333284 0.09453392 0.008872967 0.03785135 0.0065766997 0.008665045
-0.07903852 -0.031618707 -0.047923017 -0.1332713 0.042132586 0.026273513 0.03728594 -0.009274724
0.031495538 -0.07895919 0.08516921 -0.008545039 0.03635798 -0.050290424 0.007835881 0.03560128
0.0805407 -0.043178365 -0.043161165 0.023824621 0.09307903 -0.046749715 0.0786962 -0.061136246
-0.05523595 0.05076623 -0.11887797 -0.06893872 0.0131596085 -0.03050138 -0.05490969 -0.0771991
-0.069255754 0.012245271 -0.10196193 0.038755227 -0.036791667 0.071536966 -0.06714235 -0.06067224
00000000: 9da9 3a3d b847 603d dc40 ab3d 3928 f8bb
00000010: c75f d2bd 43b0 ccbd 4a9f 343c fc3a 003d
00000020: 8e87 8c3d d46f 7cbd c2c7 3b3d 66f7 1bbc
00000030: e8ee 0b3c 255b 66bd aa2d b33d 81cb ed3c
00000040: 8530 2f3d a777 643d fee5 a33d c768 a03d
00000050: 57b8 31bc b2ae 1d3d c289 9d3d d440 853d
00000060: e92c b9bd 4721 1a3d d7c0 e53d e7d3 623d
00000070: 48bb f13c d4fc 87bd a893 b6bc ca0f 6d3d
00000080: 2337 643d 4579 b73c ab4d 2dbd 5bcb c3bd
00000090: 0ca9 e83c 8b4d 713d 1d88 f8bb 1495 c23d
000000a0: b591 823d f3d1 f33c 9b64 e4bd 26a5 aabd
000000b0: 4f4e 2abd 7927 283d 132f 37bd 385d de3d
000000c0: 050f a73d 84bc 4bbd 5de5 e73d ed5a 1dbd
000000d0: 9bc0 543d ea1b 6e3d 26cc 8dbd 92ed d7bd
000000e0: 1d70 b23d 37f9 e4b9 e370 003a 32bf 97bd
000000f0: 8102 afbd dcfd d63c aadb e93c 16ff 583d
00000100: 6fa1 02bd 1684 b53d 695c a93d c6e4 c73c
00000110: 65c7 3e3d ac13 f23d ff85 5abd 576b be3d
00000120: 3964 d7ba ee80 b0bd 13c5 f339 61f4 05be
00000130: 47e3 27bd 96d1 bd3d a375 6a3d 58a4 8dbd
00000140: 7252 293b 75e5 11bd 065c a93d cf95 a03d
00000150: c0f5 b53d d8a7 b33d fdef 8c3d 1ad0 b53b
00000160: a46b 3f3c 2a78 993d 1bb9 5d3d f38b 03be
00000170: e149 ac3d cf9e 943b 0d07 653d 5d79 29bd
00000180: 3458 a13d 904c a93c d521 6d3b 0089 a2bc
00000190: 7b04 42bb 7abe c0bd 483c a83c e163 443d
000001a0: a52a 513d f356 31bd d8cb 82bd ede7 343d
000001b0: 26e2 d33d e708 c43c 08ed 363d 4773 a7bc
000001c0: 3db6 df3d 7167 98bd 17c3 8abd 4022 04bd
000001d0: be40 013d 5d48 93bc 5a68 883d 1859 52bc
000001e0: 8aeb 90bd 6df8 8abc 7a41 2abd 877d dcbd
000001f0: 79c4 d5bd f969 5d3b 4d2c 053d 0973 2d3c
00000200: 79d9 05bd f9a6 c63d 8fb4 0ebc a1b0 c23d
00000210: 0042 adbd ea9f e93c ba1e c63d 8fe6 97bd
00000220: 8f38 8c3d 9efb 80bd d6d1 1d3c a092 153d
00000230: b863 aabd 5049 fd3c 9718 95bc 03d4 413d
00000240: 3d5c a8ba da1b 11bd 8c8a 603c 5f8e cb3d
00000250: a191 093c 1ee0 abbd 8749 06bd 1ac9 903b
00000260: b290 41bd c2b8 a6bc 77a6 c0bc d2c5 8ebd
00000270: 86d1 96bd 337c b93c b768 5abb 5ffb 963d
00000280: d90f bdbd 58c3 02bd fe40 9dbd a032 39bd
00000290: 77ff 8abc 9247 b13d e058 0abd fe84 6a3d
000002a0: e99a 263d 93b6 c13d 09d6 a6bd 5d47 d4bc
000002b0: d28a 0bbd e876 8a3d 310a 25bd 4a4b 9c3c
000002c0: 52cf 353d 6cde 13bc fe81 30bd 75c6 10bd
000002d0: 92a7 c2bd 8ad9 83bd 1399 97bd e18d f5bc
000002e0: 69ef b73d a617 65bd 4b42 f63c f2dc 1a3c
000002f0: 459b a03d 2c67 a53d d07e ccbc b416 5bbd
00000300: 135d a6bd 9828 d03d 81a5 ea3c 509b 04bd
00000310: 5dae b73b 8403 c93c 004b d4bd b860 91bb
00000320: 52e4 d13d f92b 5bbd 3ab3 f1bd e103 01bd
00000330: 3527 50bd 5964 103d 254c ca3d 0c3e e1bd
00000340: 6729 803d 04b4 683d 462a 4ebd 009b c13d
00000350: ec5f 113c 040a 1b3d 5b81 d73b d5f7 0d3c
00000360: f3de a1bd 9e82 01bd ed4a 44bd 4678 08be
00000370: 3893 2c3d 8d3b d73c 24b9 183d 03f5 17bc
00000380: 7701 013d 5bb5 a1bd 326d ae3d 7e00 0cbc
00000390: 1bec 143d 55fd 4dbd 1162 003c a6d2 113d
000003a0: 86f2 a43d ccdb 30bd c3c9 30bd da2b c33c
000003b0: 38a0 be3d a17c 3fbd 792b a13d 006a 7abd
000003c0: 173f 62bd 40f0 4f3d 4b76 f3bd be2f 8dbd
000003d0: 669b 573c 08de f9bc fce8 60bd 901a 9ebd
000003e0: f6d5 8dbd 64a0 483c 6bd1 d0bd cdbd 1e3d
000003f0: dcb2 16bd f981 923d ee81 89bd 7483 78bd

clinical.layer3.bias f4 [4]
-0.001523247 -0.051646203 -0.072469845 -0.016484944
00000000: b0a7 c7ba f88a 53bd 126b 94bd 6f0b 87bc

clinical.batchnorm1.weight f4 [64]
1.0118834 1.0 1.0027235 1.0166574 1.0276688 0.99152493 1.0468895 0.9995265
0.986427 1.0108021 1.0161192 0.99559367 1.0125201 1.0 1.0137725 1.0429013
1.0270697 1.0 1.0045084 1.0072442 1.009283 1.0 1.0137265 1.0
1.0 0.9953221 1.0181416 1.0051584 1.0517966 1.021436 1.0115465 1.0215001
1.0135559 1.014611 1.0 1.0203024 1.0010091 1.0120987 1.0022255 1.0050944
0.99955523 1.0 1.0 1.0086651 1.0 1.008781 1.0181398 1.0256938
1.0027418 1.0 1.0155439 1.0 0.9944794 0.9924604 1.0 0.996548
1.0078971 1.0 1.0075684 1.0125666 0.99865764 1.0 1.0 1.0084889
00000000: 6585 813f 0000 803f 3e59 803f d421 823f
00000010: a78a 833f 94d4 7d3f 7a00 863f f8e0 7f3f
00000020: 7b86 7c3f f761 813f 3210 823f 3adf 7e3f
00000030: 429a 813f 0000 803f 4cc3 813f ca7d 853f
00000040: 0577 833f 0000 803f bb93 803f 61ed 803f
00000050: 2f30 813f 0000 803f cac1 813f 0000 803f
00000060: 0000 803f 6ecd 7e3f 7752 823f 08a9 803f
00000070: 45a1 863f 6abe 823f 5b7a 813f 84c0 823f
00000080: 33bc 813f c6de 813f 0000 803f 4599 823f
00000090: 1121 803f 738c 813f ed48 803f efa6 803f
000000a0: dae2 7f3f 0000 803f 0000 803f f01b 813f
000000b0: 0000 803f bc1f 813f 6852 823f ef49 833f
000000c0: d859 803f 0000 803f 58fd 813f 0000 803f
000000d0: 3496 7e3f e311 7e3f 0000 803f c51d 7f3f
000000e0: c602 813f 0000 803f 00f8 803f c89b 813f
000000f0: 07a8 7f3f 0000 803f 0000 803f 2a16 813f

clinical.batchnorm1.bias f4 [64]
0.02167603 -0.034632806 -0.02088067 0.030570531 -0.028258568 0.020849098 -0.027349887 -0.027744675
0.023746407 0.023161482 0.007097369 0.009781341 0.020592889 -0.0353393 -0.030581232 -0.009160535
-0.02169934 0.03864311 -0.010382458 -0.033970244 -0.011746883 0.031818878 -0.015739813 -0.02915463
-0.029801805 -0.011743427 -0.029657258 0.011147896 -0.026894618 -0.027143158 -0.036443684 -0.029565906
0.026496036 0.023439847 0.028901929 0.019236183 0.008603295 -0.0028030444 -0.024592716 0.011363292
0.008069933 -0.03941524 0.039499007 0.021716723 0.03703253 -0.014688708 -0.0013129084 -0.044807956
-0.02824725 -0.034992807 0.02937041 0.030142361 0.0030135438 0.017005151 -0.03574593 -0.0025309094
0.018740553 -0.025942491 -0.00021640863 0.011075832 0.0063222283 0.039402157 0.032506768 -0.01590527
00000000: ee91 b13c 21db 0dbd f00d abbc 0d6f fa3c
00000010: 837e e7bc bacb aa3c df0c e0bc cd48 e3bc
00000020: d387 c23c 26bd bd3c 0c91 e83b eb41 203c
00000030: 6bb2 a83c f1bf 10bd 7e85 fabc 1216 16bc
00000040: d0c2 b1bc 3d48 1e3d 2f1b 2abc 6224 0bbd
00000050: 0076 40bc 8354 023d c8f0 80bc b1d5 eebc
00000060: ea22 f4bc 8167 40bc c7f3 f2bc aaa5 363c
00000070: 1a52 dcbc 545b debc f945 15bd 3334 f2bc
00000080: 370e d93c ec04 c03c bdc3 ec3c 3395 9d3c
00000090: d6f4 0c3c 48b3 37bb aa76 c9bc 1a2d 3a3c
000000a0: c137 043c e071 21bd b6c9 213d 45e7 b13c
000000b0: 6caf 173d e8a8 70bc e515 acba 8c88 37bd
000000c0: c766 e7bc 9e54 0fbd 379a f03c 1ded f63c
000000d0: e07e 453b 634e 8b3c 536a 12bd 9ddd 25bb
000000e0: ca85 993c 5985 d4bc c0eb 62b9 6877 353c
000000f0: b22a cf3b 2864 213d d125 053d c54b 82bc

clinical.batchnorm1.running_mean f4 [64]
82.21517 0.0 0.056722667 23.339605 5.0831833 69.02247 1.1773443 51.818565
37.95416 19.336147 0.6481747 72.25018 15.238245 0.0 3.912594 1.5437706
0.4848687 0.0 15.646325 0.029620674 0.14359312 0.0 9.133299 0.0
0.0 30.417894 5.4213996 69.61712 6.348759 0.012402524 34.870087 0.09123743
16.798233 16.651659 0.0 30.127237 9.070846 54.975433 31.310402 86.02896
0.8259057 0.0 0.0 23.390774 0.0 33.07013 3.5285294 0.5516211
66.5683 0.0 55.726086 0.0 59.720127 8.241245 0.0 76.525314
81.15869 0.0 35.0506 11.882335 0.026539506 0.0 0.0 3.148817
00000000: 2b6e a442 0000 0000 0756 683d 83b7 ba41
00000010: 70a9 a240 810b 8a42 38b3 963f 3646 4f42
00000020: 0fd1 1742 6eb0 9a41 c7ee 253f 1880 9042
00000030: dacf 7341 0000 0000 f167 7a40 469a c53f
00000040: b640 f83e 0000 0000 5957 7a41 0ea7 f23c
00000050: 130a 133e 0000 0000 fe21 1241 0000 0000
00000060: 0000 0000 d957 f341 1b7c ad40 f73b 8b42
00000070: 0929 cb40 f533 4b3c f87a 0b42 b1da ba3d
00000080: c862 8641 9936 8541 0000 0000 9504 f141
00000090: 2f22 1141 d8e6 5b42 b47b fa41 d40e ac42
000000a0: 8e6e 533f 0000 0000 0000 0000 4e20 bb41
000000b0: 0000 0000 d047 0442 6dd3 6140 0a37 0d3f
000000c0: f822 8542 0000 0000 83e7 5e42 0000 0000
000000d0: 69e1 6e42 24dc 0341 0000 0000 f60c 9942
000000e0: 4051 a242 0000 0000 d033 0c42 0b1e 3e41
000000f0: 6169 d93c 0000 0000 0000 0000 3886 4940

clinical.batchnorm1.running_var f4 [64]
4309.216 0.08862938 0.40079004 60.936546 69.71404 1827.4856 6.416652 1452.3606
935.1348 776.18225 5.3397355 3725.5432 443.3912 0.08862938 48.66042 9.649897
3.7590675 0.08862938 67.8483 0.19805843 0.5067742 0.08862938 202.1744 0.08862938
0.08862938 262.81528 54.983784 5162.9844 3.5825105 0.1218341 2679.405 1.149686
19.395464 182.49036 0.08862938 285.2319 467.5385 1742.452 417.65118 3882.1633
16.748066 0.08862938 0.08862938 676.85266 0.08862938 1244.0216 38.31035 15.767518
3111.9067 0.08862938 1490.2556 0.08862938 4310.031 323.61887 0.08862938 3446.1077
3499.2688 0.08862938 134.20459 75.45808 0.21566938 0.08862938 0.08862938 129.88063
00000000: baa9 8645 5283 b53d 5a34 cd3e 06bf 7342
00000010: 976d 8b42 8a6f e444 3755 cd40 8a8b b544
00000020: a1c8 6944 aa0b 4244 1ddf aa40 b1d8 6845
00000030: 13b2 dd43 5283 b53d 45a4 4242 fa65 1a41
00000040: 9094 7040 5283 b53d 54b2 8742 d4cf 4a3e
00000050: f4bb 013f 5283 b53d a52c 4a43 5283 b53d
00000060: 5283 b53d 5b68 8343 65ef 5b42 e057 a145
00000070: da47 6540 2884 f93d 7b76 2745 e928 933f
00000080: e929 9b41 887d 3643 5283 b53d af9d 8e43
00000090: eec4 e943 77ce d944 5ad3 d043 9da2 7245
000000a0: 0afc 8541 5283 b53d 5283 b53d 9236 2944
000000b0: 5283 b53d b180 9b44 cc3d 1942 c147 7c41
000000c0: 827e 4245 5283 b53d 2e48 ba44 5283 b53d
000000d0: 3fb0 8645 37cf a143 5283 b53d b961 5745
000000e0: 4db4 5a45 5283 b53d 6034 0643 89ea 9642
000000f0: 6fd8 5c3e 5283 b53d 5283 b53d 71e1 0143

clinical.batchnorm2.weight f4 [128]
0.995926 1.023722 1.0119356 1.0224516 1.0354326 1.0473679 1.0273956 1.001755
1.0252383 0.98148817 1.0367618 1.006177 1.0505197 1.0073575 1.001163 1.0074154
0.9974517 1.0208086 1.0138534 1.015157 1.0342689 1.0612255 1.0342814 0.9876246
1.0569271 1.0015867 1.0503733 1.0159674 1.0082606 1.0693555 0.98923945 1.0135351
1.0134001 0.98733675 1.0016747 1.0091493 1.032656 1.027006 0.99126005 1.0244938
1.0235463 1.030881 1.0353943 1.069331 1.0053355 1.0130863 1.0101537 1.0004627
0.9979044 1.0177127 1.0342649 1.0313487 1.0087566 1.0271107 1.0283759 1.0202287
1.0347005 1.053144 1.0396328 1.0042243 0.99648756 1.0438551 1.0250754 1.030533
1.047611 1.0266036 0.99774545 1.0515052 1.0044358 1.0483441 1.0180433 0.98408943
1.0444305 1.0082799 1.042593 1.0581541 0.98899484 1.0345405 1.033491 1.0571268
1.0281626 1.0051572 1.0058647 1.0266681 1.0216234 1.0107789 1.0060215 1.0102283
0.9911226 0.99429667 0.9948096 1.0617757 1.04034 1.0283984 1.008847 0.984733
1.046833 1.012623 1.0073637 1.0286788 1.0437434 1.0660386 1.0113716 1.0058901
1.050588 0.99118507 1.0518461 1.0056047 1.031984 0.98819983 1.0222222 1.0630647
1.0128682 1.0065167 1.0370665 1.0082489 1.0102174 1.0410973 1.009465 0.9934566
1.0149819 1.0358346 1.0434834 1.0401541 1.0207582 1.027765 1.0411326 0.99422127
00000000: 02f5 7e3f 5309 833f 1b87 813f b2df 823f
00000010: 0e89 843f 2710 863f b381 833f 8239 803f
00000020: 023b 833f cf42 7b3f 9cb4 843f 68ca 803f
00000030: 6e77 863f 17f1 803f 1c26 803f fdf2 803f
00000040: ff58 7f3f dba9 823f f3c5 813f aaf0 813f
00000050: ec62 843f 3dd6 873f 5563 843f f7d4 7c3f
00000060: 6349 873f fe33 803f a272 863f 380b 823f
00000070: af0e 813f a4e0 883f cc3e 7d3f 85bb 813f
00000080: 18b7 813f 1ac2 7c3f e036 803f ce2b 813f
00000090: 122e 843f ef74 833f 38c3 7d3f 9d22 833f
000000a0: 9103 833f e9f3 833f cd87 843f d7df 883f
000000b0: d5ae 803f d0ac 813f b74c 813f 290f 803f
000000c0: aa76 7f3f 6944 823f cb62 843f 3c03 843f
000000d0: f01e 813f 5d78 833f d2a1 833f db96 823f
000000e0: 1171 843f 6ccd 863f b012 853f 6c8a 803f
000000f0: cf19 7f3f 0b9d 853f ac35 833f 81e8 833f
00000100: 1e18 863f bf67 833f 3f6c 7f3f b997 863f
00000110: 5a91 803f 2430 863f 3e4f 823f 49ed 7b3f
00000120: e6af 853f 510f 813f b073 853f 9871 873f
00000130: c42e 7d3f d36b 843f 6f49 843f ee4f 873f
00000140: d59a 833f fea8 803f 2dc0 803f dc69 833f
00000150: 8ec4 823f 3461 813f 50c5 803f 294f 813f
00000160: 36ba 7d3f 3a8a 7e3f d8ab 7e3f 44e8 873f
00000170: dc29 853f 8fa2 833f e621 813f 7617 7c3f
00000180: a0fe 853f a19d 813f 4bf1 803f bfab 833f
00000190: 6299 853f f473 883f a074 813f 02c1 803f
000001a0: ab79 863f 4ebe 7d3f e5a2 863f a8b7 803f
000001b0: 0d18 843f aafa 7c3f 2dd8 823f 8112 883f
000001c0: aaa5 813f 8ad5 803f 98be 843f 4d0e 813f
000001d0: ce4e 813f ad42 853f 2636 813f 2c53 7e3f
000001e0: edea 813f 3a96 843f dd90 853f c523 853f
000001f0: 34a8 823f ce8d 833f d543 853f 4985 7e3f

clinical.batchnorm2.bias f4 [128]
0.01566264 -0.019226907 -0.019876547 -0.018199954 -0.005560027 0.02109915 -0.02016325 0.017394844
-0.020077275 0.016181251 -0.012538911 -0.018794117 0.02048729 -0.019525848 -0.018292803 -0.019033989
-0.019017719 -0.022082433 -0.019777212 -0.018985061 -0.020337904 0.021823896 -0.020509271 0.014353782
0.023859039 -0.018848905 -0.024976667 0.019292492 0.018314155 0.02288135 0.018116033 -0.019002514
0.019181365 0.015651409 0.017516231 0.021127984 -0.023758473 -0.019185206 0.016531885 -0.021006847
-0.021310344 -0.021016203 -0.00030119144 0.027186781 0.018783322 -0.0193007 -0.022680856 0.006989906
0.019463276 0.019226737 -0.021570578 0.02157284 0.018121315 -0.022668561 0.019399762 0.018722268
-0.019633926 -0.026462076 -0.020838488 -0.018423693 0.018584294 -0.022822792 -0.0025539023 0.020417163
0.02120375 -0.019472407 -0.018509202 0.02388158 0.018867275 -0.021095764 0.019023484 0.015480338
-0.020033041 0.019033523 0.02077944 0.02230767 0.017081026 -0.020084787 -0.019413413 0.021350175
0.019398194 -0.01882396 -0.00913791 -0.02097447 -0.020123512 -0.019345405 -0.01942569 0.02207865
-0.015652403 -0.014053595 0.017823996 0.021083787 -0.021345196 -0.019366456 -0.019231306 0.01734003
-0.021625724 -0.018457353 -0.018517688 -0.020524163 -0.022711338 0.021889772 -0.021641081 -0.020003315
-0.021442011 0.017924272 0.021007879 -0.018418994 -0.018895123 0.014504278 -0.018287059 0.009202134
-0.012711406 0.01974781 0.019133328 -0.01947032 -0.019274136 -0.023666017 0.018981224 0.0168506
0.017952112 0.023106324 0.019487103 0.019744158 0.018835869 -0.020379532 0.021526702 0.01741864
00000000: f04e 803c bf81 9dbc 24d4 a2bc 1218 95bc
00000010: e330 b6bb 20d8 ac3c 662d a5bc a27f 8e3c
00000020: 1979 a4bc 8b8e 843c 0170 4dbc 1ff6 99bc
00000030: f6d4 a73c acf4 9fbc cada 95bc 2bed 9bbc
00000040: 0ccb 9bbc 38e6 b4bc d203 a2bc 8f86 9bbc
00000050: ad9b a6bc 07c8 b23c 0f03 a8bc 202c 6b3c
00000060: 0874 c33c 0569 9abc de9b ccbc 4a0b 9e3c
00000070: 9107 963c ab71 bb3c 1368 943c 29ab 9bbc
00000080: 3d22 9d3c 6237 803c 337e 8f3c 9814 ad3c
00000090: 21a1 c2bc 4b2a 9dbc e06d 873c 8d16 acbc
000000a0: 0893 aebc 2c2a acbc 3be9 9db9 d0b6 de3c
000000b0: 7bdf 993c 801c 9ebc 34cd b9bc 950b e53b
000000c0: 7371 9f3c 6481 9d3c c8b4 b0bc 86b9 b03c
000000d0: 2773 943c 6bb3 b9bc 40ec 9e3c 715f 993c
000000e0: 54d7 a0bc ffc6 d8bc 7ab5 aabc 49ed 96bc
000000f0: 173e 983c ddf6 babc 5f5f 27bb e541 a73c
00000100: 7db3 ad3c 9984 9fbc 9ca0 97bc 4ea3 c33c
00000110: 8b8f 9a3c 06d1 acbc 23d7 9b3c 3ea1 7d3c
00000120: 551c a4bc 31ec 9b3c a539 aa3c 93be b63c
00000130: 82ed 8b3c da88 a4bc e108 9fbc 90e6 ae3c
00000140: f6e8 9e3c b534 9abc 2cb7 15bc a7d2 abbc
00000150: 10da a4bc 417a 9ebc a022 9fbc 49de b43c
00000160: 7839 80bc 0d41 66bc a103 923c e8b7 ac3c
00000170: 1fdc aebc 67a6 9ebc f98a 9dbc ae0c 8e3c
00000180: 6e28 b1bc e033 97bc 68b2 97bc 4a22 a8bc
00000190: 210d babc 2e52 b33c a348 b1bc fedd a3bc
000001a0: 28a7 afbc ecd5 923c b718 ac3c 6ee3 96bc
000001b0: f2c9 9abc 5aa3 6d3c bece 95bc 8cc4 163c
000001c0: 8043 50bc 29c6 a13c 7fbd 9c3c 3880 9fbc
000001d0: cbe4 9dbc 3cdf c1bc 837e 9b3c 450a 8a3c
000001e0: 4f10 933c 7949 bd3c 6ba3 9f3c 80be a13c
000001f0: ae4d 9a3c faf2 a6bc c458 b03c 89b1 8e3c

clinical.batchnorm2.running_mean f4 [128]
0.42783067 0.18962577 0.077311926 0.20965865 0.1295583 0.22352716 0.10694344 0.2668572
0.23874137 0.20389874 0.17978865 0.090150096 0.027885275 0.051624972 0.114265956 0.13955608
0.23630488 0.087433435 0.17962693 0.16484316 0.08108042 0.18101537 0.40686154 0.089187644
0.08088816 0.34969687 0.1955931 0.1802188 0.12562956 0.11980626 0.103214264 0.09636796
0.22709128 0.14897414 0.06393875 0.15903014 0.17174374 0.20789684 0.09414216 0.052346215
0.12703614 0.10520411 0.2550448 0.13990135 0.28741398 0.038972292 0.13260166 0.07148688
0.26133817 0.28649142 0.079569876 0.18666935 0.11745359 0.052182756 0.37917876 0.11077179
0.31142852 0.1623962 0.21220939 0.070344865 0.1490109 0.2057081 0.1908806 0.15996426
0.17406067 0.19697586 0.22788343 0.134641 0.11617605 0.22619723 0.19849984 0.2132216
0.20770396 0.1913449 0.07279914 0.15651931 0.094091594 0.19516718 0.18687296 0.11965311
0.22019845 0.06548834 0.04074818 0.11808564 0.16714923 0.104988985 0.042863566 0.24122295
0.07622857 0.10694132 0.115655765 0.12420664 0.21788073 0.07212371 0.11287822 0.067710795
0.1313949 0.119183 0.26660237 0.090260945 0.319083 0.067471474 0.17608821 0.14956468
0.07705777 0.06697922 0.07674608 0.22363886 0.05409729 0.208356 0.13924366 0.079336226
0.16317722 0.10979928 0.07134042 0.22375467 0.15174721 0.35622883 0.1839332 0.057106815
0.11833199 0.041766193 0.16589884 0.09661073 0.09197107 0.062876806 0.020180799 0.05118096
00000000: 9f0c db3e 422d 423e b755 9e3d c2b0 563e
00000010: eeaa 043e 4ee4 643e 2a05 db3d 82a1 883e
00000020: 9e78 743e d5ca 503e 841a 383e 9da0 b83d
00000030: a96f e43c b574 533d 4504 ea3d cae7 0e3e
00000040: e8f9 713e 4d10 b33d 1ff0 373e a5cc 283e
00000050: 7e0d a63d 185c 393e 2850 d03e 03a8 b63d
00000060: b1a8 a53d 780b b33e 8f49 483e 478b 383e
00000070: 09a5 003e fc5c f53d 0062 d33d 915c c53d
00000080: 9e8a 683e ad8c 183e 52f2 823d ccd8 223e
00000090: 97dd 2f3e e9e2 543e 9bcd c03d fc68 563d
000000a0: c315 023e 4175 d73d 3b95 823e 4d42 0f3e
000000b0: ed27 933e 69a1 1f3d bbc8 073e b767 923d
000000c0: 1ece 853e 01af 923e 88f5 a23d 4026 3f3e
000000d0: 828b f03d 96bd 553d b823 c23e 52dc e23d
000000e0: 8f73 9f3e 304b 263e 6b4d 593e f810 903d
000000f0: 5096 183e 25a5 523e 3476 433e accd 233e
00000100: f63c 323e 0ab4 493e 465a 693e 55df 093e
00000110: b5ed ed3d 3fa0 673e 8b43 4b3e c356 5a3e
00000120: 59b0 543e ebef 433e b717 953d 9946 203e
00000130: 18b3 c03d e8d9 473e a05b 3f3e b10c f53d
00000140: b47b 613e c01e 863d 90e7 263d e2d6 f13d
00000150: 2b29 2b3e 7704 d73d b591 2f3d 2603 773e
00000160: b91d 9c3d 0d04 db3d eedc ec3d 0d60 fe3d
00000170: 201c 5f3e 98b5 933d b22c e73d f5ab 8a3d
00000180: 628c 063e 3716 f43d 1b80 883e bbda b83d
00000190: d95e a33e 7c2e 8a3d 7850 343e 7c27 193e
000001a0: 77d0 9d3d 672c 893d 0c2d 9d3d 9601 653e
000001b0: 1f95 5d3d 465b 553e e495 0e3e 087b a23d
000001c0: ee17 273e 72de e03d ed1a 923d f21f 653e
000001d0: 9f63 1b3e a063 b63e fc58 3c3e d6e8 693d
000001e0: 0b58 f23d 0713 2b3d 63e1 293e d9db c53d
000001f0: 545b bc3d 8ec5 803d 3452 a53c 20a3 513d

clinical.batchnorm2.running_var f4 [128]
0.46117085 0.17344302 0.1143011 0.20510691 0.116813205 0.19058345 0.11429431 0.23561026
0.18873031 0.20856018 0.179144 0.116435364 0.09200359 0.10547489 0.13631666 0.137608
0.18919174 0.10340985 0.1584327 0.13302736 0.11454403 0.13005272 0.37648678 0.12006351
0.10337483 0.4939688 0.16933434 0.17232692 0.15350695 0.12777627 0.13675642 0.12410858
0.2572186 0.1549962 0.10692359 0.1280712 0.17808214 0.1983491 0.10692282 0.0978644
0.1262142 0.12590043 0.2567132 0.11686655 0.35540375 0.09407041 0.13689646 0.10709621
0.29420823 0.38097134 0.10375771 0.13902225 0.104135685 0.096784584 0.40311563 0.112378
0.31060952 0.15881822 0.20128135 0.0990814 0.1380593 0.19129613 0.1486777 0.16717651
0.16291054 0.19278179 0.21552391 0.12554759 0.124486275 0.1846678 0.16946903 0.22009678
0.1740647 0.17460375 0.103840895 0.13071424 0.105734035 0.16296 0.15069516 0.12613969
0.17610598 0.10068201 0.097146966 0.11234408 0.13439776 0.11158812 0.09750313 0.25270286
0.101723745 0.11388281 0.10928367 0.12090116 0.18257 0.10304337 0.126747 0.11142503
0.1474198 0.13083588 0.33134902 0.12234558 0.29207617 0.10324507 0.17168264 0.17620735
0.10782294 0.10609168 0.107951425 0.17927234 0.1012844 0.18887146 0.11290296 0.10733609
0.13182582 0.12213707 0.099446505 0.23019409 0.12364084 0.40259594 0.21516511 0.100940764
0.12456401 0.09899115 0.17317379 0.113003194 0.116342895 0.09875145 0.09084154 0.10162337
00000000: 961e ec3e 0c9b 313e b216 ea3d 8c07 523e
00000010: c33b ef3d 4f28 433e 2313 ea3d d143 713e
00000020: 8542 413e cd90 553e 8671 373e aa75 ee3d
00000030: 616c bc3d 3803 d83d 9896 0b3e 1de9 0c3e
00000040: 7bbb 413e 8bc8 d33d 2f3c 223e 5338 083e
00000050: 0f96 ea3d 8a2c 053e e0c2 c03e dce3 f53d
00000060: 2fb6 d33d 7be9 fc3e fb65 2d3e 7876 303e
00000070: ed30 1d3e c8d7 023e e009 0c3e a42c fe3d
00000080: 28b2 833e 53b7 1e3e c1fa da3d 1925 033e
00000090: 2a5b 363e 071c 4b3e 5afa da3d 216d c83d
000000a0: 4c3e 013e 0bec 003e ea6f 833e bb57 ef3d
000000b0: 7bf7 b53e fda7 c03d 962e 0c3e 4255 db3d
000000c0: 76a2 963e ad0e c33e ec7e d43d d95b 0e3e
000000d0: 1745 d53d ff36 c63d 2c65 ce3e 7026 e63d
000000e0: 3608 9f3e 3ea1 223e b31c 4e3e 30eb ca3d
000000f0: 6b5f 0d3e 22e3 433e f83e 183e 5230 2b3e
00000100: 05d2 263e 9768 453e 4db2 5c3e 8c8f 003e
00000110: a9f2 fe3d 8e19 3d3e 4a89 2d3e 0d61 613e
00000120: 043e 323e 53cb 323e 89aa d43d f4d9 053e
00000130: 168b d83d fcde 263e d54f 1a3e c32a 013e
00000140: 2055 343e 5f32 ce3d fdf4 c63d a714 e63d
00000150: 919f 093e 5088 e43d b9af c73d 4562 813e
00000160: 8a54 d03d 643b e93d 1ed0 df3d 079b f73d
00000170: a1f3 3a3e 6708 d33d f7c9 013e ce32 e43d
00000180: 37f5 163e d7f9 053e 94a6 a93e 5290 fa3d
00000190: 028b 953e 2772 d33d 93cd 2f3e b36f 343e
000001a0: 46d2 dc3d 9846 d93d a315 dd3d 2b93 373e
000001b0: 326e cf3d 8567 413e ab39 e73d 06d3 db3d
000001c0: 59fd 063e 0023 fa3d 9caa cb3d 00b8 6b3e
000001d0: 6937 fd3d 0e21 ce3e 3e54 5c3e 08ba ce3d
000001e0: 6a1b ff3d dfbb ca3d 7854 313e 386e e73d
000001f0: 2f45 ee3d 333e ca3d 210b ba3d ea1f d03d

lstm.lstm.weight_ih_l0 f4 [8, 4]
-0.5830163 -0.47119045 0.48402706 -0.3476975 0.16836663 -0.49954358 0.54889953 -0.26740295
-0.3745592 0.55433774 -0.66243744 -0.6981148 0.57923275 -0.60888916 0.6517019 0.0093553355
0.1581407 -0.46560237 0.16777244 -0.242568 0.060104188 0.50743675 -0.45131242 0.34234545
-0.005427081 -0.17006877 -0.58487576 0.16047919 -0.32027516 -0.2004301 0.0013930376 -0.57409006
00000000: 8e40 15bf e03f f1be 65d2 f73e 6805 b2be
00000010: 4d68 2c3e 2dc4 ffbe ae84 0c3f 0ae9 88be
00000020: 39c6 bfbe 14e9 0d3f 8095 29bf a7b7 32bf
00000030: 9948 143f 29e0 1bbf f0d5 263f 1f47 193c
00000040: a3ef 213e 6f63 eebe 8acc 2b3e bf63 78be
00000050: cf2f 763d 60e7 013f 6c12 e7be e747 af3e
00000060: a8d5 b1bb 8226 2ebe 6bba 15bf a854 243e
00000070: 1bfb a3be 8c3d 4dbe 9696 b63a 91f7 12bf

lstm.lstm.weight_hh_l0 f4 [8, 2]
-0.65305656 0.0344655 0.46913773 0.047567524 0.010265623 0.5665322 0.584644 0.06067907
-0.55366796 0.65587616 -0.40235582 0.27571565 0.019440064 0.155489 -0.28147343 -0.44276056
00000000: b72e 27bf b22b 0d3d d232 f03e 2ad6 423d
00000010: 2531 283c 4108 113f 3bab 153f 9e8a 783d
00000020: 2fbd 0dbf 80e7 273f 9501 cebe 9a2a 8d3e
00000030: c540 9f3c 8238 1f3e 491d 90be 83b1 e2be

lstm.lstm.bias_ih_l0 f4 [8]
-0.59467137 0.6065834 0.7046653 -0.4589424 -0.69767475 0.57712954 0.18277672 0.3650127
00000000: 623c 18bf 0d49 1b3f f264 343f 80fa eabe
00000010: d09a 32bf c3be 133f d229 3b3e f2e2 ba3e

lstm.lstm.bias_hh_l0 f4 [8]
-0.29229674 -0.65276617 -0.4671511 -0.58226866 0.32650572 -0.13523355 0.5775474 -0.6377483
00000000: eba7 95be af1b 27bf 6e2e efbe 8f0f 15bf
00000010: c22b a73e aa7a 0abe 25da 133f 7943 23bf

lstm.fc_1.weight f4 [128, 2]
-0.0056461603 0.7009107 0.3848733 -0.008444177 -0.22053802 -0.57728326 -0.24262263 0.49641114
0.07060656 -0.039568055 0.26688716 0.3881616 -0.49662152 0.5511898 0.095738396 0.27350208
0.4561532 0.42814004 0.3105176 0.18212904 -0.6803311 -0.30025786 0.6162967 0.035039257
0.43690908 0.47265115 -0.18558542 -0.44544423 0.51192075 -0.24797818 0.058515042 0.6187926
-0.54970694 -0.26038408 0.3496951 0.56462586 0.10962083 0.05859786 -0.4516443 -0.2649422
-0.38374746 0.4639304 0.24560395 -0.09562429 0.60288435 0.22232226 -0.63409495 -0.5967276
-0.62683153 -0.55859137 -0.5579316 0.42580286 -0.09415628 -0.6547481 -0.34780025 0.49603638
-0.65707695 0.13341497 -0.5908752 -0.4217818 -0.65339863 -0.65587056 -0.33491224 0.0053250855
-0.57257974 0.14058638 0.6400557 0.07390122 0.033175215 -0.66757077 0.13319671 0.509707
0.6961377 0.63971794 0.46647334 0.114983134 0.08134106 -0.4624739 -0.32333654 0.19360037
-0.14856106 -0.58017784 -0.5868467 -0.38922215 0.08961434 -0.014962137 0.6538305 -0.08471229
0.5065336 0.074443005 0.5873564 0.6682327 0.46678486 -0.44926137 0.60765463 -0.6251575
-0.6869798 0.21435747 -0.17613539 -0.5303009 -0.47144553 0.23854071 0.5100985 -0.22805847
-0.48923385 -0.56548196 0.23557997 0.47686172 0.5933276 0.33299017 -0.577202 -0.13552268
0.08293796 -0.17987859 -0.34538493 -0.10877441 -0.36083913 -0.6017802 0.39199123 0.527763
-0.012312358 -0.2591071 0.2043138 0.41889548 0.36342028 0.28910443 0.28187576 0.20678961
0.40587735 -0.19789802 -0.55859697 -0.4649256 -0.029444547 -0.12124662 -0.6327079 -0.52772015
-0.42071414 0.58545554 -0.6764224 0.4262133 -0.5882717 0.51053333 0.57523096 -0.1758675
-0.6954435 0.6590766 0.1997705 -0.5888783 0.52549917 0.48770136 -0.68060035 -0.6334476
-0.40944168 0.16959198 -0.65032136 -0.39499176 -0.37988636 0.16501857 0.060128562 0.2094767
0.42915606 0.014181642 0.2927757 0.46287948 -0.5859199 0.41332197 -0.6351565 -0.21461879
-0.6081359 -0.15545848 -0.23369811 0.32698983 0.73029864 -0.54693407 0.15186875 -0.43969363
-0.02920382 0.63594294 0.6220666 0.6324581 -0.26611626 -0.59407985 -0.11026568 0.47778106
0.5539449 0.38117766 0.5127715 -0.70022726 -0.6251689 -0.049346626 -0.5816808 -0.23938608
-0.4676273 -0.6211095 -0.22740462 0.12379719 0.67649686 0.09366457 -0.47247258 0.44304824
-0.46691415 -0.3775931 0.25889966 -0.5415629 0.5831993 0.27237976 -0.46062586 0.63201296
-0.012011767 -0.6155141 -0.14930616 -0.40978664 0.09845345 -0.3458939 -0.22887483 -0.4109111
0.023757657 0.6620867 0.022518517 0.5529388 0.044881567 -0.35590142 -0.18894769 0.7018164
-0.25639233 -0.43364707 -0.0074567045 -0.106620565 0.5860006 0.3026835 0.09679808 -0.23813449
-0.04078609 -0.077123515 -0.31966504 -0.204079 -0.6909433 -0.62904364 -0.24821804 -0.42279494
0.24066171 0.7159693 -0.28899908 0.22303411 -0.45689562 -0.22166088 -0.20358124 -0.46679077
-0.022993045 0.19781177 -0.24171251 -0.20606606 -0.26075253 0.25951546 0.36714914 0.24298069
00000000: 6d03 b9bb e26e 333f 1d0e c53e 7259 0abc
00000010: b8d4 61be d6c8 13bf 1172 78be 9a29 fe3e
00000020: 2c9a 903d 1d12 22bd 6fa5 883e 1ebd c63e
00000030: 2d45 febe c61a 0d3f 7e12 c43d 7708 8c3e
00000040: ea8c e93e 2c35 db3e 2afc 9e3e 0980 3a3e
00000050: 2e2a 2ebf 66bb 99be 9fc5 1d3f 5385 0f3d
00000060: 8cb2 df3e 55ff f13e 1b0a 3ebe 4411 e4be
00000070: 3d0d 033f feed 7dbe 78ad 6f3d 3169 1e3f
00000080: 98b9 0cbf 1051 85be 3c0b b33e 528b 103f
00000090: e380 e03d 4f04 703d ec3d e7be 81a6 87be
000000a0: 8c7a c4be 4988 ed3e 9a7f 7b3e abd6 c3bd
000000b0: a156 1a3f 72a8 633e 0c54 22bf 24c3 18bf
000000c0: 0878 20bf d8ff 0ebf 9bd4 0ebf d502 da3e
000000d0: 02d5 c0bd 929d 27bf e012 b2be 7bf8 fd3e
000000e0: 3236 28bf ef9d 083e 9943 17bf c9f3 d7be
000000f0: 2245 27bf 22e7 27bf 9e79 abbe 0e7e ae3b
00000100: 9694 12bf e0f5 0f3e b1da 233f 8659 973d
00000110: bce2 073d ebe5 2abf b864 083e 287c 023f
00000120: 1536 323f 8ec4 233f 98d5 ee3e 477c eb3d
00000130: 2496 a63d 61c9 ecbe 5e8c a5be 2d3f 463e
00000140: 6420 18be 8986 14bf 963b 16bf 2048 c7be
00000150: b987 b73d c023 75bc 7061 273f a37d adbd
00000160: 30ac 013f 9375 983d fd5c 163f 4c11 2b3f
00000170: 6dfe ee3e 9605 e6be 418f 1b3f 520a 20bf
00000180: e8dd 2fbf 8680 5b3e d65c 34be cdc1 07bf
00000190: 4f61 f1be 0444 743e d195 023f 2988 69be
000001a0: dc7c fabe 6dc3 10bf e03b 713e 3827 f43e
000001b0: 51e4 173f b07d aa3e 83c3 13bf 75c6 0abe
000001c0: 61db a93d 1832 38be 4bd6 b0be 1ec5 debd
000001d0: e8bf b8be 440e 1abf 13b3 c83e 7a1b 073f
000001e0: c6b9 49bc b0a9 84be a337 513e 7879 d63e
000001f0: 3912 ba3e 7f05 943e 0552 903e a8c0 533e
00000200: 28cf cf3e c7a5 4abe 3600 0fbf ba0a eebe
00000210: b135 f1bc 2650 f8bd 25f9 21bf ab18 07bf
00000220: d867 d7be 6ae0 153f 052a 2dbf a138 da3e
00000230: f998 16bf 50b2 023f 5642 133f 9c16 34be
00000240: 9608 32bf 3eb9 283f a390 4c3e bac0 16bf
00000250: 1d87 063f feb3 f93e d33b 2ebf 9f29 22bf
00000260: 57a2 d1be 85a9 2d3e 767b 26bf 5c3c cabe
00000270: 7780 c2be a1fa 283e 5e49 763d 0f81 563e
00000280: 58ba db3e 1e5a 683c b2e6 953e 8afe ec3e
00000290: d9fe 15bf f09e d33e 9e99 22bf 07c5 5bbe
000002a0: cbae 1bbf 8230 1fbe 8f4e 6fbe 366b a73e
000002b0: daf4 3a3f df03 0cbf 7b83 1b3e 861f e1be
000002c0: d93c efbc 28cd 223f c23f 1f3f c6e8 213f
000002d0: 6440 88be 9e15 18bf f9d2 e1bd b89f f43e
000002e0: 55cf 0d3f b829 c33e fe44 033f 1842 33bf
000002f0: 120b 20bf b01f 4abd 08e9 14bf a021 75be
00000300: d86c efbe 0801 1fbf c2dc 68be 6289 fd3d
00000310: e62e 2d3f 36d3 bf3d ede7 f1be 38d7 e23e
00000320: 5f0f efbe e253 c1be 7f8e 843e dea3 0abf
00000330: 8d4c 153f 5c75 8b3e 27d7 ebbe 9acb 213f
00000340: 01cd 44bc 5592 1dbf b7e3 18be 8ecf d1be
00000350: f6a1 c93d 0119 b1be 2a5e 6abe f162 d2be
00000360: 6b9f c23c 847e 293f c178 b83c 668d 0d3f
00000370: bcd5 373d b638 b6be 817b 41be 3daa 333f
00000380: db45 83be fd06 debe 5f57 f4bb e25b dabd
00000390: 2304 163f 55f9 9a3e 123e c63d 87d9 73be
000003a0: 510f 27bd eff2 9dbd 23ab a3be 16fa 50be
000003b0: a9e1 30bf 0109 21bf df2c 7ebe 9478 d8be
000003c0: 0670 763e c449 373f b0f7 93be 0e63 643e
000003d0: 39ee e9be 12fb 62be 9a77 50be 33ff eebe
000003e0: e95b bcbc 2b8f 4a3e 7c83 77be fb02 53be
000003f0: 5b81 85be 36df 843e f9fa bb3e eecf 783e
