pretrained/trained.pth (torch, 43317 bytes, 13 tensors)

layer1.weight f4 [64, 6]
0	0x3d2e173e	0.042502634
1	0x3ea1e42f	0.31619403
2	0xbe1e2643	-0.15444283
3	0x3eb96181	0.36207202
4	0x3ce85103	0.028358942
5	0xbe0191bb	-0.12653248
6	0x3e2a0ec2	0.16607192
7	0x3eb74a50	0.35798883
8	0xbe25f56e	-0.16206905
9	0xbdb83e28	-0.0899623
10	0x3d9e9c0b	0.077446066
11	0x3ec1557c	0.37760532
12	0x3d6f9acd	0.05849724
13	0xbe3755f1	-0.17903878
14	0x3e5e45c1	0.21706297
15	0xbe2ba3ae	-0.16761658
16	0x3e5324cc	0.20619506
17	0x3e325855	0.17416508
18	0xbdc1b853	-0.09458985
19	0xbe7b615f	-0.24548863
20	0xbebc24cd	-0.36746827
21	0x3a4af7b6	0.00077426
22	0x3e8b3813	0.2719122
23	0xbeac105c	-0.3360623
24	0xbe5d0c98	-0.21586835
25	0x3d5c50d6	0.05378803
26	0x3e073874	0.13205129
27	0x3e18668e	0.14882872
28	0x3e92af14	0.286492
29	0x3e87bd25	0.26511493
30	0xbe391468	-0.1807419
31	0xbbd3b0ec	-0.0064602997
32	0xbe879dec	-0.26487672
33	0xbd0637cf	-0.032768067
34	0x3e0cedc8	0.13762581
35	0xbd910902	-0.07081796
36	0xbe646852	-0.2230542
37	0xbea1115a	-0.3145855
38	0x3ecea76b	0.40362105
39	0xbe5bf558	-0.2148031
40	0xbbea61e3	-0.0071527823
41	0x3ea39d46	0.31955928
42	0x3e9c779a	0.3056
43	0x3e94084b	0.28912577
44	0x3eb21f0b	0.3478931
45	0x3ce78c3b	0.02826511
46	0xbe383791	-0.17989947
47	0xbe924de8	-0.28575063
48	0xbe774bf3	-0.24150066
49	0x3e9d3203	0.30702218
50	0xbc2b82be	-0.010468183
51	0x3e7cebee	0.24699375
52	0xbe083c04	-0.13304144
53	0x3e17540a	0.14778152
54	0x3ea111d0	0.31458902
55	0x3e513c18	0.2043308
56	0xbec78d22	-0.38974863
57	0x3e8d6f01	0.27623752
58	0x3e8dc621	0.27690223
59	0x3c3c0abd	0.01147717
60	0xbebf3d68	-0.37351537
61	0xbb1d9e38	-0.0024050605
62	0x3d25dc13	0.040493082
63	0x3e600203	0.21875767
64	0x3e6c9aa5	0.23105867
65	0x3e095006	0.13409433
66	0xbd585d31	-0.05282325
67	0x3cd13561	0.025538148
68	0x3e74c2d1	0.23902442
69	0xbece9630	-0.4034896
70	0xbd395191	-0.045243803
71	0xbe2006a2	-0.1562753
72	0xbea766d3	-0.32695636
73	0x3e7378ae	0.23776504
74	0x3e9dbe1b	0.308091
75	0x3dfe6a89	0.12422664
76	0xbe143715	-0.14474137
77	0xbc872754	-0.016498245
78	0xbde9770e	-0.11399661
79	0x3ec8f589	0.39249828
80	0xbccb296d	-0.024800027
81	0x3e443198	0.19159544
82	0x3e793030	0.24334788
83	0x3ea3c4e1	0.31986144
84	0xbe36eba3	-0.17863326
85	0xbe9f7baa	-0.31149036
86	0x3e9a13d4	0.30093253
87	0xbe93cf6a	-0.28869182
88	0x3e4b3222	0.19843343
89	0x3dcb13ff	0.09915923
90	0x3e8180ec	0.25293672
91	0x3d9c8894	0.07643238
92	0x3db9f4a2	0.09079863
93	0xbe83c0f4	-0.2573315
94	0x3e553a59	0.20823039
95	0xbdc75535	-0.09733049
96	0xbe1be5ff	-0.15224455
97	0xbe13c093	-0.1442893
98	0xbeceb8ca	-0.40375358
99	0xbe8c4686	-0.27397555
100	0xbea185ae	-0.31547302
101	0xbed0d0cc	-0.407843
102	0xbeb3ed34	-0.3514191
103	0xbd7a8a0d	-0.06116681
104	0x3e54b191	0.20770861
105	0x3e906361	0.2820082
106	0x3e2db005	0.16961677
107	0x3d735953	0.059411358
108	0xbec484de	-0.3838262
109	0x3e2ca2fc	0.16859049
110	0xbe2bb943	-0.1676989
111	0xbe74eeae	-0.23919174
112	0xbe50f73d	-0.20406814
113	0x3ed01b4f	0.40645835
114	0xbde1ebdc	-0.11031315
115	0x3eb86100	0.36011505
116	0xbd64b2a4	-0.055834427
117	0x3df12f76	0.117766306
118	0xbec641d0	-0.38722086
119	0xbd619826	-0.05507674
120	0x3e9632b2	0.29335552
121	0x3d956c2b	0.07296022
122	0xbe28040a	-0.16407791
123	0x3c05c572	0.00816475
124	0xbe499631	-0.196862
125	0xbdeedadc	-0.11662838
126	0x3e01a2c1	0.12659742
127	0x3bfca7ff	0.0077104564
128	0x3ec9796e	0.39350456
129	0x3de0cd9f	0.10976719
130	0xbdc63a25	-0.09679059
131	0xbce4936d	-0.02790233
132	0x3eab21f6	0.33424348
133	0xbebb87b5	-0.36626974
134	0xbe82ddbd	-0.25559798
135	0xbeaab1db	-0.33338818
136	0x3e757a21	0.2397237
137	0x3e07270b	0.13198487
138	0x3d1ca5a9	0.038243923
139	0xbd743f7a	-0.05963085
140	0x3e0b64ac	0.13612622
141	0xbe9e9195	-0.30970445
142	0xbce5a3f6	-0.028032284
143	0x3e4acf8c	0.19805735
144	0xbd587b94	-0.05285223
145	0x3e6cd6f2	0.2312887
146	0x3eac2bf5	0.33627287
147	0xbc6640e1	-0.014053554
148	0x3d8a78d9	0.06761331
149	0x3e495755	0.19662221
150	0xbe4fba7d	-0.20285983
151	0xbdc5f367	-0.09665566
152	0x3db19da0	0.08672643
153	0xbd7dacb9	-0.0619323
154	0xbe391f1f	-0.18078278
155	0xbecca709	-0.39971188
156	0xbe9822d8	-0.29714084
157	0xbe420c42	-0.18949988
158	0xbdbdf08d	-0.09274397
159	0x3ea5b8e2	0.32367617
160	0x3ec42f4e	0.3831734
161	0xbd0d7044	-0.034530893
162	0xbdf32175	-0.11871616
163	0x3e38b305	0.1803704
164	0x3d74c9ca	0.059762754
165	0x3eb80adb	0.35945782
166	0xbe987db5	-0.29783407
167	0x3b072d8a	0.0020626509
168	0xbc0381fe	-0.008026598
169	0x3dbc3a9e	0.09190868
170	0x3e1d7a5b	0.15378706
171	0xbebf6260	-0.37379742
172	0x3e84da93	0.2594801
173	0x3e8cd2b4	0.27504504
174	0xbe49fb8e	-0.19724867
175	0xbecec3a4	-0.40383637
176	0x3e26ae6d	0.16277476
177	0x3e8d1a6c	0.2755922
178	0xbeb54844	-0.35406697
179	0xbdbade06	-0.09124379
180	0x3e9a6353	0.30153903
181	0x3e83e792	0.25762612
182	0x3c8d3bb0	0.017240375
183	0x3df4a4b6	0.119454786
184	0x3e9e0d74	0.3086964
185	0xbe0eea20	-0.13956499
186	0x3e1d848a	0.15382591
187	0x3d3e1497	0.046406355
188	0xbdd3c101	-0.10339547
189	0xbebf019e	-0.3730592
190	0xbe78468f	-0.24245666
191	0xbec06d70	-0.37583494
192	0xbeb7aa8a	-0.35872298
193	0xbde6c1a2	-0.11267401
194	0xbdc574e6	-0.09641437
195	0xbca3c24e	-0.019990113
196	0xbe3abb60	-0.1823554
197	0x3e721724	0.2364164
198	0xbd8b9b23	-0.06816699
199	0x3ecc0900	0.39850616
200	0x3e6402f0	0.22266746
201	0x3ecf7894	0.4052168
202	0xbe37f413	-0.179642
203	0x3e8825db	0.2659138
204	0xbebec312	-0.37258202
205	0x3e5f2352	0.21790817
206	0xbeac625e	-0.33668798
207	0x3e3384fc	0.17531198
208	0x3ecab662	0.39592272
209	0x3d8b0c0d	0.06789408
210	0xbd66290d	-0.056191493
211	0xbe503129	-0.20331253
212	0x3d84c645	0.064831294
213	0xbc65c1f7	-0.014023296
214	0xbe88fb1f	-0.2675409
215	0xbeb2758d	-0.3485531
216	0x3e84b8fc	0.25922382
217	0x3ec0191e	0.37519163
218	0xbeadf704	-0.3397752
219	0x3eac0d7e	0.33604044
220	0xbe87eb60	-0.26546764
221	0xbeb3521a	-0.35023576
222	0x3e9b0aae	0.30281585
223	0x3de68b32	0.11257018
224	0x3ea1eca3	0.31625852
225	0xbdae6faa	-0.08517392
226	0xbda73735	-0.08164827
227	0xbe05cd90	-0.13066697
228	0xbe89eca6	-0.2693836
229	0x3eaf6a7a	0.34260923
230	0xbd3cb23c	-0.046068415
231	0xbd4f3bf8	-0.0505943
232	0xbe42e6e2	-0.19033387
233	0x3dd01522	0.10160281
234	0xbdddf213	-0.108371876
235	0xbeadb5de	-0.33927816
236	0xbd648369	-0.055789385
237	0x3ec72fd4	0.38903677
238	0xbe9ea1be	-0.30982774
239	0x3e95b079	0.292362
240	0x3dbdda49	0.0927015
241	0xbe8221b4	-0.25416338
242	0x3d6193a1	0.05507243
243	0x3e47551a	0.19466057
244	0xbe5f317e	-0.21796224
245	0x3dc58f97	0.09646528
246	0xbe544fe0	-0.20733595
247	0x3e026af1	0.12736107
248	0x3d50e92a	0.051003613
249	0x3ea569c5	0.32307258
250	0xbec0d084	-0.37659085
251	0xbd2e62f7	-0.04257485
252	0xbd92caf3	-0.07167616
253	0x3d1e4a6c	0.038645193
254	0xbec9b134	-0.39393008
255	0xbe701461	-0.23445274

layer1.bias f4 [64]
0	0xbec6fdd7	-0.3886554
1	0xbecc7f87	-0.39941046
2	0x3e1352d1	0.1438706
3	0x3e822d47	0.2542517
4	0xbebb5fb0	-0.3659644
5	0xbe94253f	-0.28934667
6	0xbe129dd3	-0.14318018
7	0xbe9fa299	-0.3117874
8	0x3d2257d4	0.03963454
9	0xbe392e5c	-0.18084091
10	0x3e3a3cc3	0.18187241
11	0xbeacfdbd	-0.33787337
12	0xbe9f7942	-0.311472
13	0x3eacd1f0	0.3375392
14	0x3e9bb632	0.30412441
15	0xbe800048	-0.25000215
16	0xbeb35b1d	-0.3503045
17	0x3e27c45c	0.16383499
18	0x3e96f105	0.29480758
19	0xbec3693e	-0.3816623
20	0x3d690eb1	0.056898776
21	0x3e067045	0.13128765
22	0xbdf00cf5	-0.11721221
23	0xbd8f09f3	-0.069843195
24	0x3d0fb97b	0.035088997
25	0xbebf8e62	-0.37413317
26	0x3ecb1b9d	0.39669505
27	0x3dc4ef05	0.09615902
28	0x3e495c74	0.19664174
29	0xbeb929da	-0.36164743
30	0xbe971978	-0.2951162
31	0x3e4035e4	0.18770558
32	0xbdb4a947	-0.088213496
33	0xbe0171e7	-0.12641107
34	0xbeb446ed	-0.35210362
35	0x3ebf3bd9	0.37350348
36	0x3e9e85f2	0.30961567
37	0x3da55623	0.0807307
38	0x3c4e5d2b	0.012595455
39	0x3ead12af	0.33803317
40	0xbe874503	-0.2641984
41	0xbe51043e	-0.20411775
42	0xbe2eaed8	-0.17058885
43	0xbe0cd26c	-0.13752145
44	0x3e66e119	0.22546805
45	0xbea8942f	-0.32925555
46	0xbeab36f8	-0.33440375
47	0x3e95f47e	0.29288095
48	0x3eabc823	0.3355113
49	0x3e608309	0.21924986
50	0xbd27cef3	-0.040968847
51	0x3ea021f8	0.31275916
52	0x3e07a55c	0.13246673
53	0xbecc9c1c	-0.39962852
54	0x3ea014ac	0.3126577
55	0xbe9c4b3a	-0.30526143
56	0xbdb09e64	-0.086239606
57	0x3e9cc933	0.30622253
58	0x3ec43858	0.38324237
59	0x3e047bc0	0.12937832
60	0xbd9d40a7	-0.07678347
61	0xbe1a1069	-0.15045322
62	0xbea81b9c	-0.32833564
63	0x3d838302	0.06421472

layer2.weight f4 [128, 64]
0	0x3d9a5b6e	0.0753697
1	0xbc98b7b9	-0.018642293
2	0x3ddd8978	0.10817236
3	0x3cdeffc9	0.027221577
4	0x3dac64d7	0.08417671
5	0x3db63c9d	0.0889828
6	0xbdd0c5e4	-0.10193995
7	0x3d3708fd	0.044686306
8	0xbd1ad444	-0.03780009
9	0xbd234d4e	-0.039868645
10	0x3dd1523a	0.102207616
11	0x3c9696ac	0.018382393
12	0xba99d939	-0.0011737711
13	0x3d98fd2f	0.07470166
14	0x3d8f414d	0.06994877
15	0x3ccdf026	0.025138926
16	0xbda9b6a7	-0.08286791
17	0x3a391764	0.00070606754
18	0xbdecae1c	-0.11556646
19	0x3c974afb	0.01846837
20	0xbc4a4855	-0.012346347
21	0xbd7f25cb	-0.0622919
22	0x3cc5c080	0.024139643
23	0x3dbc8750	0.09205496
24	0x3c8f4b34	0.017491914
25	0xbd3ca639	-0.04605696
26	0x3d8a4b69	0.067526646
27	0x3dd787f4	0.10523978
28	0xbd9a86c9	-0.075452395
29	0x3c812ce9	0.015768485
30	0x3c93daef	0.018048732
31	0xbc25aa35	-0.010111381
32	0x3d5ad798	0.053428262
33	0x3ddbcbc4	0.107322246
34	0xbda60638	-0.08106655
35	0xbde75802	-0.11296083
36	0xbd90d9d7	-0.070728
37	0xbdde529d	-0.10855601
38	0xbc346834	-0.011011172
39	0x3cbdeaaf	0.023183195
40	0x3d8e2cc0	0.06942129
41	0xbdd5073d	-0.10401771
42	0x3d6fe18f	0.05856472
43	0x3cc729c9	0.024311917
44	0xbda43d0c	-0.08019456
45	0xbdd1b8b8	-0.102403104
46	0xbc97c706	-0.018527519
47	0x3dac8dc4	0.08425477
48	0x3d91fd4e	0.07128392
49	0xbdb41269	-0.08792574
50	0x3d8e8df6	0.06960671
51	0x3d80b84a	0.0628515
52	0x3ceaa74a	0.028644223
53	0x3cf83703	0.03029967
54	0x3da89514	0.082315594
55	0x3d0fa910	0.03507334
56	0xbdfd3693	-0.12363925
57	0xbd505c46	-0.05086925
58	0x3d28a17a	0.04116962
59	0xbde9f1ed	-0.11423097
60	0xbdce6c05	-0.10079197
61	0xbb3ba860	-0.0028634295
62	0xbd428881	-0.04749346
63	0x3dab6a61	0.083698995
64	0x3d97ddf7	0.07415383
65	0xbd13c592	-0.03607709
66	0xbdd812d1	-0.10550464
67	0x3db17e6e	0.08666693
68	0xbddd81b9	-0.10815758
69	0xbdc033c5	-0.09384874
70	0xbc3d0369	-0.011536458
71	0x3d9bb470	0.07602775
72	0xbdcf3ca8	-0.10118991
73	0x3d55eb51	0.05222637
74	0xbde53982	-0.11192609
75	0x3d00569a	0.03133259
76	0x3d3ba703	0.04581357
77	0x3de3725e	0.11105798
78	0x3df15df7	0.117855005
79	0xbdb0e297	-0.086369686
80	0x3d80f846	0.062973544
81	0xbb2e760b	-0.0026620652
82	0xbce88bc1	-0.028386952
83	0x3dbd3f13	0.09240546
84	0x3da40b7a	0.080100015
85	0xbd510ca7	-0.051037457
86	0xbc957ec8	-0.01824893
87	0x3d7b1387	0.06129792
88	0x3d28de2e	0.041227512
89	0xbdd42197	-0.10357969
90	0xbdca492a	-0.09877236
91	0x3d136674	0.03598638
92	0x3d609326	0.05482783
93	0x3d8cd47e	0.06876467
94	0x3c77a1f7	0.015114299
95	0xbd3c5524	-0.045979634
96	0x3d8865af	0.066600196
97	0x3dc21fe7	0.09478741
98	0xbdd501d5	-0.1040074
99	0xbd2fa6b9	-0.04288361
100	0xbd7d101d	-0.061782945
101	0x3d62ff38	0.055419177
102	0xbde8ad50	-0.11361182
103	0x3dbe9d12	0.093073025
104	0xbd244e77	-0.040113892
105	0xbbf0c3c1	-0.0073475544
106	0x3d800d3e	0.06252526
107	0x3d4169b4	0.047219947
108	0xbd65405c	-0.05596958
109	0x3ca2c601	0.019869806
110	0x3dc5b3c3	0.096534275
111	0x3b3528b2	0.0027642664
112	0xbd914a44	-0.07094243
113	0x3c8058b1	0.015667291
114	0x3d2f3759	0.042777393
115	0xbd002f59	-0.031295154
116	0xbd98a6d6	-0.074536964
117	0x3df86d54	0.12130228
118	0xbdbbc0b6	-0.09167616
119	0x3ca84567	0.020540906
120	0x3d4a0772	0.049323507
121	0x3c48972d	0.012243074
122	0x3d17497d	0.03693532
123	0x3c1c4ec2	0.009540262
124	0xbcf7e5b7	-0.030260904
125	0x3dda2552	0.106516495
126	0x3d0d4b89	0.034495864
127	0xbde6c069	-0.11267168
128	0xbdda6b05	-0.106649436
129	0xbca54c9f	-0.020178137
130	0x3dac1f5e	0.0840442
131	0x3ddbde43	0.107357524
132	0x3d90d2f9	0.0707149
133	0x3d2b9f14	0.041899756
134	0x3dbf4c9b	0.09340783
135	0x3da9d2e9	0.08292181
136	0x3d89e35b	0.06732818
137	0xbd9aceef	-0.07559001
138	0xbca517ae	-0.020152893
139	0xbd14c8fd	-0.03632449
140	0x3d21ad78	0.039472073
141	0x3b85b546	0.0040804474
142	0xbdaae7a7	-0.083449654
143	0x3e01a3a7	0.12660085
144	0xbd014cbf	-0.03156733
145	0x3dc7ffa8	0.097655594
146	0xbc06d44f	-0.008229329
147	0x3de8f18e	0.11374198
148	0xbdc0d853	-0.094162606
149	0x3de88ff0	0.11355579
150	0xbdd49e0d	-0.10381708
151	0xbdfb9eb9	-0.12286133
152	0x3deb7395	0.11496655
153	0xbc82c623	-0.01596362
154	0xbd39d4df	-0.045369025
155	0xbdaf06b9	-0.08546204
156	0xbd917b65	-0.07103614
157	0xbdfb90d0	-0.1228348
158	0x3d543527	0.051808503
159	0xbdcda19d	-0.10040591
160	0xbc109bfb	-0.008826251
161	0xbc709ec5	-0.014686291
162	0x3dceffe0	0.10107398
163	0x3d90bf84	0.07067779
164	0xbd1fa37b	-0.038974266
165	0xbd7053c2	-0.058673628
166	0xbd75bd13	-0.05999477
167	0xbdee4095	-0.11633412
168	0xbc88d2f5	-0.016702155
169	0xbdb75146	-0.089510486
170	0x3d1630c5	0.036667604
171	0xbce07d4c	-0.027403496
172	0xbddb16ce	-0.10697709
173	0x3d86531d	0.06558821
174	0x3d5beb01	0.053690914
175	0xbd5851fa	-0.052812554
176	0x3d9836b0	0.07432306
177	0x3cdc95d9	0.026926922
178	0x3dec1e02	0.11529161
179	0x3de0f1e1	0.10983635
180	0xbcfab46d	-0.030603612
181	0x3d30214f	0.043000516
182	0x3c990af3	0.018681979
183	0xbb1edc69	-0.0024240261
184	0x3d5197b9	0.051170085
185	0xbd585506	-0.05281546
186	0xbc972cc8	-0.01845397
187	0x3de80a2e	0.113300666
188	0xbbd9583c	-0.006632833
189	0x3d9aa972	0.075518504
190	0xbdff0680	-0.12452412
191	0xbda7843c	-0.081795186
192	0x3ce5de96	0.028060239
193	0xbc08b75e	-0.008344499
194	0xbdf89998	-0.12138671
195	0x3d03ce48	0.032179147
196	0x3bc7cf9d	0.0060977475
197	0xbdbe5276	-0.09293072
198	0x3d80047a	0.06250854
199	0xbd074e15	-0.03303345
200	0xba022123	-0.0004964044
201	0xbd7a73af	-0.06114548
202	0x3d9fcb17	0.07802408
203	0x3d6c656d	0.057713915
204	0xbce0661d	-0.027392441
205	0xbdc59c91	-0.09649003
206	0x3df5c7e8	0.1200102
207	0x3d5f6b46	0.054545663
208	0xbe0210a1	-0.12701656
209	0x3b1860e1	0.0023251104
210	0xbd28200a	-0.04104618
211	0x3d25a21d	0.040437806
212	0x3d637fb9	0.055541728
213	0xbd411a4c	-0.04714422
214	0xbd0b5900	-0.034020424
215	0x3d3b8b88	0.045787364
216	0xbdc8fee4	-0.098142415
217	0x3c91d87b	0.017803421
218	0x3cee11b2	0.029061172
219	0x3c31d980	0.010855079
220	0x3dde21b6	0.108462736
221	0x3c1c378a	0.009534726
222	0x3d9475e3	0.072490476
223	0x3dce6025	0.10076932
224	0xbdff8263	-0.12476041
225	0x3d81c614	0.063366085
226	0x3d9c8f7f	0.07644557
227	0xbd9953a8	-0.07486659
228	0xbd9be432	-0.07611884
229	0x3d2791db	0.040910583
230	0x3dee6c52	0.11641754
231	0xbd8008d0	-0.06251681
232	0x3dc32a82	0.09529592
233	0x3dc0d351	0.094153054
234	0xbdc24166	-0.0948513
235	0xbd66ab2c	-0.056315586
236	0xbdc286b0	-0.09498346
237	0x3dacbd1f	0.084345095
238	0xbc3a55f6	-0.011373034
239	0xbd759d1b	-0.05996428
240	0xbd8bb395	-0.06821362
241	0xbd40d087	-0.047073867
242	0xbd9e67e7	-0.077346615
243	0xbd9fa11f	-0.07794403
244	0xbd299fd8	-0.041412205
245	0xbc960dc1	-0.018317105
246	0xbbec7a2e	-0.0072167134
247	0xbde4242e	-0.11139713
248	0x3d579ae2	0.052637942
249	0x3d428e41	0.047498945
250	0xbcb7d566	-0.022440623
251	0x3bd72abe	0.0065663746
252	0xbddacd7b	-0.106837235
253	0xbda97711	-0.08274663
254	0xbdd00af7	-0.101583414
255	0xbdc90281	-0.09814931

layer2.bias f4 [128]
0	0x3d9af66c	0.075665325
1	0x3ce3bd4b	0.027800223
2	0x3dbfab5f	0.09358858
3	0x3d85292c	0.065019935
4	0xbdb4fc16	-0.08837144
5	0xbcfaf9e8	-0.030636743
6	0xbd22320d	-0.039598513
7	0x3df0f657	0.117657356
8	0xbd5f9daf	-0.05459374
9	0xbdb7d435	-0.08976022
10	0xbda01700	-0.07816887
11	0x3c79aa29	0.015238323
12	0xbe02a4d7	-0.12758194
13	0x3cb6ed21	0.022329869
14	0xbc487ee9	-0.012237289
15	0x3df66fc2	0.12033035
16	0xbd2f37dc	-0.04277788
17	0xbd0291bb	-0.03187726
18	0x3d4f0b98	0.050548166
19	0x3de4fcde	0.11181043
20	0xbc67bf94	-0.014144797
21	0x3cf2c6da	0.029635835
22	0x3df19199	0.11795349
23	0xbddd9fdf	-0.108215086
24	0xbca231ee	-0.019799199
25	0xbd5d99c7	-0.05410173
26	0x3bd9bce9	0.0066448343
27	0xbdb0991f	-0.086229555
28	0x3dcc096c	0.099627346
29	0xbd502ab7	-0.050821986
30	0x3c6b1dfd	0.0143504115
31	0xbd5f1e19	-0.054472063
32	0x3cd680a0	0.02618438
33	0x3bfe71b1	0.007765018
34	0x3df70ebf	0.120633595
35	0x3cdfbbf0	0.027311295
36	0xbdbe0106	-0.09277539
37	0x3de735b9	0.11289544
38	0xbc6143da	-0.013749087
39	0xbc4a4ae1	-0.012346954
40	0x3d38fa3a	0.04516051
41	0xbd4cb926	-0.04998126
42	0x3d880e42	0.066433445
43	0xbd09e34a	-0.033664025
44	0x3d6d33b0	0.05791062
45	0xbdfd1935	-0.123583235
46	0x3d716df8	0.058942765
47	0xbdb71b7e	-0.089407906
48	0x3cf1b2ac	0.029504143
49	0xbb8b06e6	-0.0042427657
50	0xbdf891ce	-0.12137185
51	0xbc909c89	-0.017652767
52	0x3c1928a7	0.009348071
53	0xbd252f19	-0.04032812
54	0xbdb8e6c4	-0.0902839
55	0x3d2d19ba	0.042260863
56	0xbd7ec951	-0.06220371
57	0x3dc211ff	0.09476089
58	0x3d89a56a	0.06721003
59	0x3d129aa1	0.035791997
60	0xbdbcb7bd	-0.09214733
61	0xbd4ae9c0	-0.049539328
62	0x3a1d31b2	0.000599648
63	0xbce7546f	-0.028238503
64	0x3dce01b0	0.100589156
65	0x3d45e1ae	0.048310928
66	0xbdb470d7	-0.08810585
67	0x3cc47087	0.023979438
68	0xbdccfefc	-0.10009572
69	0x3db71f14	0.089414746
70	0xbdc63fc0	-0.09680128
71	0x3da50f83	0.08059599
72	0xbc4b7ca6	-0.012419855
73	0x3def9eb7	0.11700194
74	0x3dfc0e29	0.12307388
75	0xbdf832c6	-0.12119059
76	0x3df0119e	0.1172211
77	0xbdb33f9c	-0.08752367
78	0x3d3a7822	0.045524724
79	0x3db33ef8	0.08752245
80	0xbd15731f	-0.03648674
81	0x3de8418b	0.11340626
82	0x3cdfa9ed	0.027302707
83	0x3d169452	0.036762543
84	0x3db5fb1e	0.088857874
85	0x3ccaee09	0.024771707
86	0xbdbd2f5c	-0.09237549
87	0xbd89bf6a	-0.067259625
88	0x3c7b39a7	0.01533357
89	0xbdde7077	-0.10861295
90	0xbcf4fca9	-0.029905634
91	0xbdeb1a05	-0.11479572
92	0xbc8e422f	-0.017365543
93	0x3daeb68b	0.08530911
94	0x3dcc12ed	0.09964547
95	0xbc0c72b8	-0.008572273
96	0xbd7ae88a	-0.061256923
97	0xbdd85efa	-0.1056499
98	0xbdbc1210	-0.09183133
99	0xbd64e407	-0.055881526
100	0x3ce4d659	0.02793424
101	0xbd9a02c4	-0.07520059
102	0xbde63115	-0.112398304
103	0x3ca756a8	0.020427063
104	0x3dbb0c5a	0.09133215
105	0xbd05b470	-0.03264278
106	0x3d8061e7	0.062686734
107	0x3d35f177	0.044419732
108	0x3d680b1a	0.056651212
109	0x3b06260c	0.0020469455
110	0x3d91b4a7	0.07114535
111	0xbca45f4f	-0.020064978
112	0xbda1c822	-0.078995004
113	0x3ddf0e46	0.10891394
114	0x3dbe6e8d	0.0929843
115	0xbd815848	-0.063156664
116	0x3d939cee	0.07207666
117	0xbd979409	-0.07401282
118	0x3cbaefb6	0.022819381
119	0x3d6a0180	0.057130337
120	0x3cced7f0	0.025249451
121	0xbd689f23	-0.05679239
122	0xbd39e6ff	-0.04538631
123	0xbd6a8b02	-0.057261474
124	0x3cdf64d2	0.027269755
125	0xbdcf1ebd	-0.10113285
126	0x3deebc3d	0.11656997
127	0x3c2b9fdc	0.010475125

layer3.weight f4 [1, 128]
0	0xbd6397fb	-0.05556486
1	0xbd5cda4d	-0.053919125
2	0x3c512b40	0.012766659
3	0xbd67aedc	-0.056563243
4	0x3d7740a5	0.060364384
5	0x3da3aa56	0.079914734
6	0xbc2bbc8d	-0.010481966
7	0x3d76916c	0.06019728
8	0xbd6259b9	-0.055261347
9	0x3da7293d	0.081621625
10	0x3c997bed	0.01873585
11	0xbc8b7ab9	-0.017026292
12	0x3d99e63e	0.07514618
13	0x3d75350c	0.059865043
14	0xbd78ff65	-0.06079044
15	0x3d918ba9	0.07106716
16	0x3c8cb1c2	0.017174605
17	0xbd7062f7	-0.05868813
18	0xbd58f890	-0.052971423
19	0xbcb216d4	-0.0217394
20	0xbd816d87	-0.06319719
21	0x3d1de30e	0.038546614
22	0x3d7cd4e8	0.06172648
23	0x3c4dc9e6	0.012560343
24	0x3cd47b00	0.025937557
25	0x3d8f8d47	0.070093684
26	0xbd45c5ee	-0.048284464
27	0x3dbc3d0c	0.09191331
28	0xbd5da7df	-0.054115172
29	0xbd1702e6	-0.036868
30	0x3d37140d	0.044696856
31	0xbcc50902	-0.024052147
32	0xbd8ba9b5	-0.068194784
33	0xbb35e95f	-0.0027757508
34	0x3c76172e	0.015020175
35	0x3da86170	0.0822171
36	0x3d425649	0.04744557
37	0xbdba9cbd	-0.09111927
38	0xbd26cf17	-0.04072484
39	0x3d8f73fc	0.07004544
40	0x3d0a1597	0.033711996
41	0x3d33759d	0.043813337
42	0x3da2ed54	0.07955423
43	0xbd8ff991	-0.07030023
44	0x3d98c00b	0.07458504
45	0xbd035001	-0.03205872
46	0xbc9e5fe5	-0.019332835
47	0x3d9c26ed	0.07624612
48	0x3d9b149f	0.075722925
49	0xbcfa1cbc	-0.03053128
50	0x3d96688c	0.073441595
51	0xbdbb7af6	-0.09154312
52	0x3d43dc84	0.047817722
53	0x3d79dd95	0.061002333
54	0xbc962261	-0.01832694
55	0xbdabb38f	-0.083838575
56	0x3c2bfd83	0.010497454
57	0xbd877cb0	-0.06615579
58	0x3ac01998	0.0014656065
59	0x3d988195	0.07446591
60	0xbd659701	-0.05605221
61	0x3ce92e6b	0.028464517
62	0xbd60b308	-0.054858238
63	0xbb951633	-0.0045497655
64	0x3d86a5f7	0.06574624
65	0x3d26fd9d	0.04076921
66	0xbd77ca34	-0.06049557
67	0xbda2a055	-0.07940737
68	0xbc815256	-0.015786331
69	0xbd70ddac	-0.058805153
70	0x3d94eb56	0.07271449
71	0x3d940bd5	0.07228819
72	0x3da78185	0.08179001
73	0x3cbc403e	0.022979852
74	0xbbe3524a	-0.0069373
75	0xbd0f272d	-0.03494947
76	0x3c8ced46	0.017202985
77	0x3d2b01d0	0.041749775
78	0x3d3701f7	0.04467961
79	0xbd22d2e3	-0.0397519
80	0x3c4d74b0	0.0125400275
81	0x3d0b3108	0.033982307
82	0xbcc06427	-0.023485256
83	0x3c1bfdaf	0.009520932
84	0x3d31a8a8	0.043373734
85	0x3d1bf68a	0.038076915
86	0xbd12b8f2	-0.03582091
87	0xbd9aa51f	-0.075510256
88	0xbd55e878	-0.052223653
89	0x3cb6f337	0.02233277
90	0xbd21ddc0	-0.039518118
91	0xbd498bd2	-0.04920561
92	0xbd7df3d1	-0.0620001
93	0x3d230b05	0.03980543
94	0x3cf40de2	0.029791776
95	0xbd76d1bd	-0.060258616
96	0xbd006c46	-0.031353258
97	0xbd9af968	-0.07567102
98	0x3ba6685d	0.005078359
99	0xbda60c6f	-0.0810784
100	0x3d2ca62b	0.042150658
101	0xbdac4ffd	-0.08413694
102	0xbd397d74	-0.045285657
103	0x3964fb6f	0.0002183744
104	0x3cf48866	0.029850196
105	0xbd00a6b0	-0.031408966
106	0xbd40aaa0	-0.04703772
107	0x3d9d8fd3	0.07693448
108	0xbd7cc397	-0.061709967
109	0x3d100ff4	0.035171464
110	0x3ca27694	0.019831933
111	0xbd28e66c	-0.041235372
112	0x3da42266	0.080143735
113	0xbd9d0e7e	-0.0766878
114	0xbce48791	-0.027896674
115	0x3d03b8f9	0.032158826
116	0xbd24faff	-0.04027843
117	0x3da9fc30	0.08300054
118	0x3db70b5f	0.08937716
119	0xbb8a1d08	-0.0042148866
120	0xbc3fd0d2	-0.0117075015
121	0xbbf5e17f	-0.007503688
122	0xbba7c3a3	-0.0051197573
123	0xbd55fd74	-0.052243665
124	0xba67fca8	-0.00088495994
125	0x3c25348b	0.010083328
126	0x3d8a6723	0.06757953
127	0x3d0d191f	0.034447785

batchnorm1.weight f4 [64]
0	0x3f7feb91	0.9996882
1	0x3f7fe58e	0.9995965
2	0x3f7f5c1a	0.9974991
3	0x3f7fba65	0.9989379
4	0x3f8004d7	1.0001477
5	0x3f800000	1.0
6	0x3f800000	1.0
7	0x3f7fa82a	0.99865973
8	0x3f804c69	1.0023319
9	0x3f7fe1ad	0.9995373
10	0x3f7f7ead	0.99802667
11	0x3f800000	1.0
12	0x3f80910e	1.0044267
13	0x3f801799	1.0007201
14	0x3f800000	1.0
15	0x3f800223	1.0000652
16	0x3f800000	1.0
17	0x3f800085	1.0000159
18	0x3f800000	1.0
19	0x3f7ffc85	0.9999469
20	0x3f7ffef8	0.99998426
21	0x3f7ffe92	0.9999782
22	0x3f8053c0	1.0025558
23	0x3f7fcff5	0.9992669
24	0x3f80d65a	1.0065415
25	0x3f800000	1.0
26	0x3f7faba3	0.9987127
27	0x3f7fc591	0.9991084
28	0x3f800000	1.0
29	0x3f7fa5f3	0.99862593
30	0x3f804f0d	1.0024124
31	0x3f7fc52b	0.9991023
32	0x3f800000	1.0
33	0x3f7f7973	0.9979469
34	0x3f7fb2ac	0.99882007
35	0x3f800000	1.0
36	0x3f7fc668	0.9991212
37	0x3f800577	1.0001668
38	0x3f800000	1.0
39	0x3f7f6baf	0.9977369
40	0x3f7eeb75	0.9957803
41	0x3f805a65	1.0027586
42	0x3f800000	1.0
43	0x3f80648b	1.0030683
44	0x3f8014c4	1.0006337
45	0x3f7fe2aa	0.99955237
46	0x3f803773	1.0016922
47	0x3f809193	1.0044426
48	0x3f800000	1.0
49	0x3f800000	1.0
50	0x3f800000	1.0
51	0x3f800c15	1.0003687
52	0x3f7ffc12	0.99994004
53	0x3f80595d	1.0027272
54	0x3f800000	1.0
55	0x3f7fc33b	0.99907273
56	0x3f801b9d	1.0008427
57	0x3f800000	1.0
58	0x3f80075d	1.0002247
59	0x3f800000	1.0
60	0x3f7faeb8	0.99875975
61	0x3f800000	1.0
62	0x3f800000	1.0
63	0x3f7f3194	0.99685025

batchnorm1.bias f4 [64]
0	0xbab966d9	-0.0014145031
1	0xbb4e6516	-0.0031493357
2	0x3ad3aef6	0.0016150165
3	0x3aed9322	0.0018125514
4	0xbb770d1c	-0.0037697023
5	0x3a41db4e	0.00073950447
6	0xbb011ae1	-0.001969986
7	0x3b23ddec	0.0025004102
8	0x3ae48f9e	0.0017437821
9	0x3ada642f	0.0016661937
10	0x38efab5a	0.00011428325
11	0x3b0bb1d9	0.0021315722
12	0xbb3dcba9	-0.0028960502
13	0xba0bcc5f	-0.0005332883
14	0xbae99b0e	-0.0017822699
15	0x3b2268de	0.0024781744
16	0xbadd3866	-0.001687777
17	0x3b6a45a0	0.0035747066
18	0x3980c3c1	0.0002455991
19	0xba87b70c	-0.0010354235
20	0x3937ab23	0.00017515993
21	0x3ac38d58	0.0014919443
22	0xba94c29d	-0.0011349503
23	0x3b2de43b	0.002653374
24	0x3ad19746	0.0015990518
25	0xbb43656d	-0.0029815093
26	0x39205b4e	0.00015292803
27	0xba5ac36e	-0.00083451613
28	0xbafda2a7	-0.0019350842
29	0xba856ce1	-0.0010179543
30	0xbaa1063d	-0.0012285184
31	0x3b81811a	0.0039521577
32	0xbb1048de	-0.0022016088
33	0xba19637e	-0.00058513123
34	0x3b00ae96	0.0019635311
35	0xbb6db70a	-0.003627243
36	0xbb31f4d8	-0.0027153995
37	0x3ac159d5	0.0014751503
38	0xbb528dfb	-0.0032128084
39	0x3aa9a807	0.0012943753
40	0xbab0a69a	-0.0013477386
41	0x3a8221a5	0.000992824
42	0xbad4187e	-0.0016181616
43	0x3ae1d82d	0.0017230563
44	0x3b089858	0.0020842757
45	0x3b825567	0.003977466
46	0xb87b801d	-5.9962378e-05
47	0x3b8b0e3f	0.0042436416
48	0x3b2d26d6	0.0026420853
49	0xbaad7eb0	-0.0013236608
50	0x3b1bdcde	0.002378277
51	0xbab7e6c9	-0.0014030571
52	0x399aca70	0.00029523997
53	0x3b5fcfbb	0.0034150917
54	0x3b1d0d69	0.0023964292
55	0xbb16f0a7	-0.0023031624
56	0x3b416b66	0.0029513477
57	0xbb08ca50	-0.002087254
58	0x39fb4a4f	0.00047929815
59	0x3919466a	0.00014617448
60	0xb9b05182	-0.00033630064
61	0xbae33ba1	-0.0017336496
62	0x39f91453	0.00047508124
63	0xb9283f14	-0.00016045227

batchnorm1.running_mean f4 [64]
0	0x42cbc570	101.88562
1	0x403b0c92	2.9226422
2	0x3e2038e7	0.15646707
3	0x3df71db2	0.12066211
4	0x41ec0b40	29.505493
5	0x00000000	0.0
6	0x00000000	0.0
7	0x41fe5579	31.791735
8	0x425467f5	53.10152
9	0x42bf80d3	95.75161
10	0x4225f305	41.487324
11	0x00000000	0.0
12	0x41a917bf	21.136595
13	0x4238924c	46.142868
14	0x00000000	0.0
15	0x40052e35	2.0809453
16	0x00000000	0.0
17	0x4267f66c	57.990646
18	0x00000000	0.0
19	0x41c9b211	25.211946
20	0x41aca0da	21.57854
21	0x4228c633	42.193554
22	0x3faaa340	1.333107
23	0x3d078f7a	0.033095814
24	0x3f1d5bb0	0.6146803
25	0x00000000	0.0
26	0x428c2adb	70.0837
27	0x42b747b3	91.64004
28	0x00000000	0.0
29	0x427a4b7a	62.573708
30	0x42593517	54.301846
31	0x3e2ce2bb	0.16883366
32	0x00000000	0.0
33	0x42da911f	109.28344
34	0x41f50ef6	30.632305
35	0x00000000	0.0
36	0x42d9c0fd	108.87693
37	0x414f8b21	12.971467
38	0x00000000	0.0
39	0x42c5e85b	98.95382
40	0x426eae53	59.67024
41	0x429643fb	75.132774
42	0x00000000	0.0
43	0x3ea91153	0.3302103
44	0x41bd7b43	23.685186
45	0x424106e9	48.25675
46	0x42ce93c4	103.288605
47	0x4013c28a	2.3087487
48	0x00000000	0.0
49	0x00000000	0.0
50	0x00000000	0.0
51	0x42ae83c0	87.257324
52	0x3e32328b	0.17402093
53	0x3d15bac3	0.036555063
54	0x00000000	0.0
55	0x429168af	72.70446
56	0x420154ba	32.33274
57	0x00000000	0.0
58	0x42953cf9	74.61909
59	0x00000000	0.0
60	0x3d98b585	0.07456497
61	0x00000000	0.0
62	0x00000000	0.0
63	0x42b0bacc	88.36484

batchnorm1.running_var f4 [64]
0	0x48c7d908	409288.25
1	0x41187827	9.529334
2	0x3f09d7ce	0.53844917
3	0x40409d3f	3.0095975
4	0x47873ebe	69245.484
5	0x2e038869	2.9907108e-11
6	0x2e038869	2.9907108e-11
7	0x451e9453	2537.2703
8	0x4839e041	190337.02
9	0x4868d873	238433.8
10	0x4812246e	149649.72
11	0x2e038869	2.9907108e-11
12	0x473b4c57	47948.34
13	0x47dfbd49	114554.57
14	0x2e038869	2.9907108e-11
15	0x41699fac	14.601482
16	0x2e038869	2.9907108e-11
17	0x487263b7	248206.86
18	0x2e038869	2.9907108e-11
19	0x472aa6be	43686.742
20	0x434fa78b	207.65446
21	0x4714372c	37943.17
22	0x413adefa	11.679438
23	0x3d70dfda	0.05880723
24	0x40042f19	2.0653746
25	0x2e038869	2.9907108e-11
26	0x489fb020	327041.0
27	0x48c4e6cb	403254.34
28	0x2e038869	2.9907108e-11
29	0x486766fe	236955.97
30	0x472a91de	43665.867
31	0x3fc3e1c1	1.530327
32	0x2e038869	2.9907108e-11
33	0x48fa410d	512520.4
34	0x47ba9378	95526.94
35	0x2e038869	2.9907108e-11
36	0x48ab0c6a	350307.3
37	0x42940d80	74.02637
38	0x2e038869	2.9907108e-11
39	0x48e5e5e0	470831.0
40	0x47e5a377	117574.93
41	0x489f056f	325675.47
42	0x2e038869	2.9907108e-11
43	0x4040dcf4	3.013486
44	0x46c6350f	25370.53
45	0x48379173	187973.8
46	0x48e76f5c	473978.88
47	0x41382253	11.50838
48	0x2e038869	2.9907108e-11
49	0x2e038869	2.9907108e-11
50	0x2e038869	2.9907108e-11
51	0x48e536a0	469429.0
52	0x3fd01a68	1.6258059
53	0x3d92ed42	0.071741596
54	0x2e038869	2.9907108e-11
55	0x48910b90	297052.5
56	0x47c6ca34	101780.41
57	0x2e038869	2.9907108e-11
58	0x4831d9ce	182119.22
59	0x2e038869	2.9907108e-11
60	0x3e81fa28	0.25386167
61	0x2e038869	2.9907108e-11
62	0x2e038869	2.9907108e-11
63	0x48dc7f82	451580.06

batchnorm2.weight f4 [128]
0	0x3f8071cd	1.0034729
1	0x3f803aec	1.0017982
2	0x3f821fb9	1.0165931
3	0x3f80d39d	1.0064579
4	0x3f7e5b3f	0.9935798
5	0x3f809b59	1.0047408
6	0x3f7ee8df	0.99574083
7	0x3f7ecb3b	0.99528855
8	0x3f7ec4e7	0.995192
9	0x3f7ec99b	0.99526376
10	0x3f7eff15	0.99607974
11	0x3f80a60a	1.0050671
12	0x3f7e9598	0.9944701
13	0x3f807bb6	1.0037754
14	0x3f80486d	1.0022103
15	0x3f7e9009	0.9943853
16	0x3f7fce9b	0.9992463
17	0x3f7dce3e	0.99142826
18	0x3f807861	1.0036737
19	0x3f7ff33c	0.9998052
20	0x3f7f55f9	0.9974056
21	0x3f80f53a	1.0074837
22	0x3f806c6a	1.0033085
23	0x3f7f12a4	0.9963782
24	0x3f80e351	1.0069371
25	0x3f808fdf	1.0043906
26	0x3f7e7700	0.9940033
27	0x3f80eecf	1.0072879
28	0x3f7f2c02	0.99676526
29	0x3f7e7051	0.9939013
30	0x3f7f0b82	0.99626935
31	0x3f7ee8e0	0.9957409
32	0x3f805085	1.0024573
33	0x3f8022ef	1.0010661
34	0x3f807cb8	1.0038061
35	0x3f7e72aa	0.99393713
36	0x3f812d2c	1.009191
37	0x3f8135f3	1.0094589
38	0x3f7e7561	0.99397856
39	0x3f8019ab	1.0007833
40	0x3f7dd8c0	0.9915886
41	0x3f80a339	1.0049812
42	0x3f808c1c	1.0042758
43	0x3f805019	1.0024444
44	0x3f7ef7f2	0.99597085
45	0x3f7ec5d6	0.99520624
46	0x3f809cfe	1.004791
47	0x3f80c305	1.0059515
48	0x3f80d9a8	1.0066423
49	0x3f80a0fd	1.004913
50	0x3f7d4544	0.98933816
51	0x3f80cd72	1.0062697
52	0x3f807431	1.0035459
53	0x3f8009f0	1.0003033
54	0x3f808678	1.0041037
55	0x3f809372	1.0044997
56	0x3f7f0e26	0.99630964
57	0x3f7eb8f9	0.99500996
58	0x3f7f74c4	0.99787545
59	0x3f7e8652	0.99423707
60	0x3f7f9fdf	0.9985332
61	0x3f7dc1be	0.9912375
62	0x3f7e4cbb	0.9933583
63	0x3f80291e	1.0012548
64	0x3f80ff4d	1.0077912
65	0x3f80eced	1.0072304
66	0x3f809749	1.0046169
67	0x3f7ef83b	0.9959752
68	0x3f7ef867	0.9959778
69	0x3f8100f8	1.0078421
70	0x3f8148fb	1.0100397
71	0x3f7e8c6c	0.99433017
72	0x3f7fa3dd	0.9985941
73	0x3f8022c5	1.0010611
74	0x3f80944b	1.0045255
75	0x3f7de580	0.99178314
76	0x3f7d93d5	0.990537
77	0x3f80efc6	1.0073173
78	0x3f7fad22	0.99873555
79	0x3f7ff453	0.99982184
80	0x3f806f97	1.0034055
81	0x3f7e59ad	0.99355584
82	0x3f7e289a	0.99280703
83	0x3f80e226	1.0069015
84	0x3f7ea6d2	0.994733
85	0x3f80344e	1.0015962
86	0x3f80843f	1.0040358
87	0x3f804d80	1.0023651
88	0x3f7fb30c	0.9988258
89	0x3f7ec307	0.9951634
90	0x3f7ed799	0.99547726
91	0x3f7d0683	0.9883806
92	0x3f7ef2af	0.99589056
93	0x3f8106bd	1.0080181
94	0x3f7fc9c0	0.9991722
95	0x3f7f837a	0.9980999
96	0x3f80edee	1.007261
97	0x3f7f559b	0.9974
98	0x3f7eeb83	0.9957811
99	0x3f80646c	1.0030646
100	0x3f7fa620	0.9986286
101	0x3f8075d6	1.0035961
102	0x3f7fa32f	0.99858373
103	0x3f7eef55	0.9958394
104	0x3f811669	1.0084964
105	0x3f7fac21	0.9987202
106	0x3f804222	1.0020182
107	0x3f7ed88c	0.99549174
108	0x3f7e781c	0.9940202
109	0x3f8087af	1.0041407
110	0x3f7eb757	0.99498504
111	0x3f8044d2	1.0021002
112	0x3f7eb037	0.9948763
113	0x3f7f4925	0.99720985
114	0x3f812d12	1.0091879
115	0x3f80ad36	1.005286
116	0x3f7f7935	0.9979432
117	0x3f8081de	1.0039632
118	0x3f80a933	1.0051636
119	0x3f805eb9	1.0028907
120	0x3f807fee	1.0039041
121	0x3f802f0f	1.0014361
122	0x3f80cc6f	1.0062388
123	0x3f7ebdd2	0.9950839
124	0x3f7f25ce	0.9966706
125	0x3f813c66	1.0096557
126	0x3f80a28d	1.0049607
127	0x3f7dc7ec	0.9913318

batchnorm2.bias f4 [128]
0	0x3c27e83d	0.010248241
1	0x3c25d6b2	0.010121988
2	0xbc686b0a	-0.014185676
3	0x3c38b48c	0.0112735145
4	0xbc1e965d	-0.009679404
5	0xbc3803f9	-0.011231416
6	0x3c1ade76	0.009452453
7	0xbc2650e2	-0.01015112
8	0x3c221911	0.009893672
9	0xbc253416	-0.010083219
10	0xbc12270f	-0.008920445
11	0x3c3783a3	0.011200818
12	0xbc299cb7	-0.010352305
13	0xbc2b7f1a	-0.010467315
14	0x3c28a5de	0.010293452
15	0xbc20cc18	-0.009814285
16	0xbc2dbde0	-0.010604352
17	0x3c2777f8	0.010221474
18	0x3c3552f7	0.011067144
19	0x3c2c354d	0.010510755
20	0x3c294969	0.010332444
21	0xbc2d0cba	-0.010562116
22	0xbc2a3e63	-0.010390851
23	0xbc1fdd22	-0.009757312
24	0xbc325661	-0.010884852
25	0xbc30226e	-0.010750396
26	0x3c22ed3c	0.009944256
27	0xbc2fc432	-0.010727929
28	0x3c28691e	0.010278968
29	0x3c2d3b37	0.0105732
30	0xbc25f229	-0.010128536
31	0x3c27c653	0.010240155
32	0x3c239086	0.009983188
33	0x3c019365	0.007908677
34	0xbc2f5bf5	-0.010703077
35	0xbc2cd17f	-0.010547995
36	0xbc27ff67	-0.010253764
37	0x3c2bc705	0.010484462
38	0x3c17d292	0.0092665125
39	0xbc322390	-0.010872737
40	0xbc1d8f4c	-0.009616684
41	0xbc38d9a2	-0.011282356
42	0xbc228358	-0.00991901
43	0x3c212eff	0.009837865
44	0xbc1b479f	-0.009477525
45	0x3c137d9d	0.0090021165
46	0x3c28e93c	0.010309514
47	0xbc2d3e45	-0.010573928
48	0xbc36bf50	-0.011154011
49	0x3c29bfd9	0.010360681
50	0xbc254bc6	-0.010088867
51	0x3c27debc	0.010245975
52	0xbc26d283	-0.010182026
53	0xbc337caa	-0.010955015
54	0x3c27ce87	0.010242111
55	0x3c1c96ee	0.009557469
56	0xbc273f7d	-0.010208008
57	0x3c346e88	0.011012681
58	0xbb23624c	-0.0024930416
59	0xbc1c3d13	-0.009536046
60	0x3c397208	0.011318691
61	0xbc1d9c74	-0.009619821
62	0x3c21d4cd	0.009877396
63	0x3c331d50	0.010932282
64	0xbc26fea0	-0.010192543
65	0xbc3363ae	-0.010949058
66	0x3c30b2f8	0.010784857
67	0x3c210c84	0.009829644
68	0x3c259097	0.010105274
69	0x3c321ee4	0.010871623
70	0xbc3c6a6d	-0.011499983
71	0xbc226cf3	-0.009913671
72	0xbc2bf80e	-0.010496153
73	0xbc2c3641	-0.010510982
74	0x3c386b24	0.011256013
75	0x3c264529	0.010148325
76	0xbc14c1c0	-0.009079397
77	0xbc3500cb	-0.011047552
78	0xbc2a2325	-0.010384356
79	0x3c2ae3dd	0.010430303
80	0xbc275408	-0.010212906
81	0xbc2ba446	-0.010476178
82	0x3c1e170f	0.009649052
83	0xbc5474b0	-0.012967274
84	0xbc1d5ac2	-0.009604158
85	0xbc21a944	-0.009867016
86	0x3c31f789	0.01086224
87	0x3c2ea209	0.010658749
88	0x3c2e98f8	0.010656588
89	0xbc20f8ac	-0.009824913
90	0x3c301d9f	0.01074925
91	0x3c2605e2	0.0101332385
92	0x3c267fbd	0.010162291
93	0xbc31b68f	-0.010846748
94	0xbc2f0ea1	-0.01068464
95	0x3c288e56	0.010287842
96	0x3c385226	0.011250054
97	0x3c2ad29b	0.010426189
98	0xbc0d34b0	-0.008618519
99	0x3c236ab1	0.009974168
100	0xbc1fbefd	-0.009750125
101	0x3c23f086	0.010006076
102	0x3c34361e	0.010999231
103	0xbbce20f0	-0.0062905475
104	0xbc2f9db6	-0.010718754
105	0x3c23de61	0.01000175
106	0x3c2f798b	0.01071013
107	0xbc2801bb	-0.010254319
108	0x3c26fe09	0.010192403
109	0xbc24f5b7	-0.010068349
110	0xbc29fa33	-0.010374594
111	0x3c26b131	0.010174082
112	0xbc30534e	-0.010762049
113	0x3c2a39f3	0.010389793
114	0x3c40cfc0	0.011768281
115	0xbc3b65d8	-0.011437856
116	0x3c2aaf7d	0.010417816
117	0xbc326656	-0.010888657
118	0xbc2cdbd9	-0.010550463
119	0x3bcdd27b	0.0062811947
120	0x3c3805be	0.011231838
121	0x3c349e69	0.011024096
122	0x3c652d5d	0.013987866
123	0x3c24d2dd	0.010060039
124	0xbb553d47	-0.0032537745
125	0xbc438041	-0.011932434
126	0xbc312ec3	-0.0108143715
127	0xbc1a2c33	-0.009409952

batchnorm2.running_mean f4 [128]
0	0x3e3d64d8	0.184955
1	0x3df0efa9	0.117644615
2	0x3e277178	0.16351879
3	0x3dd3e9ea	0.1034735
4	0x3d8bf81a	0.06834431
5	0x3e1981eb	0.14990966
6	0x3e1cce82	0.15313151
7	0x3e89c22f	0.26905963
8	0x3e9580bd	0.29199782
9	0x3e54203f	0.20715426
10	0x3df32824	0.118728906
11	0x3e69f078	0.22845638
12	0x3e2dbc00	0.16966248
13	0x3de06a6c	0.10957798
14	0x3dc09fcd	0.094054796
15	0x3e318fa3	0.1733995
16	0x3d8e9045	0.06961111
17	0x3dbce29f	0.09222912
18	0x3e5cb845	0.21554668
19	0x3e2e40c3	0.17016892
20	0x3d99f275	0.07516948
21	0x3e7a8eb7	0.24468504
22	0x3ed2005a	0.41015893
23	0x3e4b60fa	0.19861212
24	0x3e82ad39	0.25522783
25	0x3db4806f	0.08813559
26	0x3e081a02	0.13291171
27	0x3d8e6613	0.06953063
28	0x3df14980	0.11781597
29	0x3e47617d	0.19470783
30	0x3da92ada	0.082601264
31	0x3d6b538d	0.057452727
32	0x3e41aa26	0.18912563
33	0x3d9f8beb	0.07790359
34	0x3e1e9a37	0.15488516
35	0x3e2c3711	0.16817881
36	0x3d2084cf	0.039189156
37	0x3e05fa32	0.13083723
38	0x3de3a77c	0.111159295
39	0x3ded6f81	0.11593533
40	0x3dc7f350	0.09763205
41	0x3ddc19b8	0.10747093
42	0x3e00a831	0.1256416
43	0x3e056be5	0.1302944
44	0x3e8aa854	0.2708155
45	0x3eca8d7e	0.39561075
46	0x3ebb988b	0.3663982
47	0x3d805ba8	0.06267482
48	0x3e81b77c	0.253353
49	0x3d927799	0.07151718
50	0x3d1bcde1	0.03803814
51	0x3d92942e	0.07157169
52	0x3e3f0f6d	0.18658228
53	0x3d7a564a	0.061117448
54	0x3d1ba35d	0.037997592
55	0x3e367a97	0.17820202
56	0x3e985897	0.2975509
57	0x3ef61d6a	0.48069316
58	0x3e5b4af0	0.21415305
59	0x3e7b4a12	0.24539974
60	0x3d759e33	0.059965324
61	0x3cd4c791	0.025974067
62	0x3e0c45c2	0.13698485
63	0x3d5f7a72	0.054560132
64	0x3e7e5ecd	0.24840851
65	0x3de83bef	0.113395564
66	0x3d87f834	0.06639138
67	0x3e02c548	0.1277057
68	0x3e6d76aa	0.23189798
69	0x3e197047	0.14984237
70	0x3d3788cc	0.044808194
71	0x3e910e09	0.2833102
72	0x3e1f0da7	0.15532552
73	0x3e330f62	0.17486337
74	0x3e9d1f2f	0.30687854
75	0x3ccd3b25	0.025052616
76	0x3e5bfa92	0.21482304
77	0x3dcaf9d4	0.09910932
78	0x3e129ed0	0.14318395
79	0x3e044b5b	0.12919371
80	0x3df63f33	0.12023773
81	0x3e8ec9d9	0.27888373
82	0x3e2f01d0	0.17090535
83	0x3eab634e	0.334742
84	0x3e6f3f75	0.2336405
85	0x3e54b0fe	0.20770642
86	0x3e221196	0.15827021
87	0x3df97be2	0.12181832
88	0x3e371b31	0.17881466
89	0x3d88e32c	0.066839546
90	0x3dad8b53	0.084738396
91	0x3d2024a1	0.039097432
92	0x3e1aaa4e	0.15104029
93	0x3e6c0408	0.23048413
94	0x3e0d8276	0.13819298
95	0x3dad7ceb	0.08471092
96	0x3da832d5	0.082128204
97	0x3d16773a	0.036734797
98	0x3eb726f4	0.35771906
99	0x3dc272e0	0.09494567
100	0x3e401a41	0.18760015
101	0x3db78651	0.08961166
102	0x3db5a4fc	0.08869359
103	0x3da83fdc	0.08215305
104	0x3e039b18	0.12852132
105	0x3de247ce	0.11048852
106	0x3e5a7e2e	0.21337196
107	0x3e7913ce	0.24323961
108	0x3df1ea1e	0.118122324
109	0x3e66d2ac	0.22541302
110	0x3e853132	0.26014096
111	0x3df187ea	0.11793502
112	0x3d17ecba	0.037090994
113	0x3e3012c4	0.17194659
114	0x3e0cb3b5	0.13740428
115	0x3df26630	0.11835897
116	0x3e57f469	0.21089329
117	0x3e0fc57f	0.14040183
118	0x3dc3bb60	0.09557223
119	0x3dd2f927	0.10301428
120	0x3e38bf5c	0.18041748
121	0x3dca0e36	0.09865992
122	0x3da84f70	0.082182765
123	0x3e6afe9b	0.22948687
124	0x3e8f50a8	0.27991223
125	0x3da46116	0.0802633
126	0x3e5e961e	0.21736953
127	0x3d9308d0	0.07179415

batchnorm2.running_var f4 [128]
0	0x3d9107c2	0.07081558
1	0x3ce6b536	0.02816258
2	0x3d69e412	0.05710227
3	0x3c7be9ba	0.015375549
4	0x3c892c98	0.016744897
5	0x3dbc800f	0.09204113
6	0x3d2e6101	0.04257298
7	0x3e2cdac3	0.16880326
8	0x3e352ae9	0.1769215
9	0x3e0ea870	0.13931441
10	0x3ceb9c43	0.028761035
11	0x3e0fa962	0.14029458
12	0x3daf570e	0.08561526
13	0x3d01b2a0	0.03166449
14	0x3cce4ad9	0.025182175
15	0x3d53b7ce	0.05168896
16	0x3ca41dfe	0.020033833
17	0x3cc3396f	0.023831097
18	0x3dd59e43	0.10430577
19	0x3d2d9555	0.042378742
20	0x3ca6205b	0.0202791
21	0x3e12ec1b	0.1434788
22	0x3e97c446	0.29641932
23	0x3dfcf545	0.12351469
24	0x3e122e18	0.14275396
25	0x3cf44d70	0.029822081
26	0x3d16c28c	0.036806628
27	0x3d041da6	0.032254837
28	0x3cec87be	0.02887332
29	0x3da2cf2c	0.07949671
30	0x3c95e5ec	0.018298112
31	0x3c30ecd3	0.010798651
32	0x3df04b94	0.117331654
33	0x3c836feb	0.016044578
34	0x3d1460b1	0.036225025
35	0x3d822218	0.06354159
36	0x3c625ba8	0.013815798
37	0x3c8e33f1	0.017358752
38	0x3d2525c7	0.04031923
39	0x3cd08bc7	0.025457276
40	0x3c76efba	0.015071804
41	0x3d59ef99	0.053207014
42	0x3d0e4c1d	0.034740556
43	0x3d22027a	0.039553143
44	0x3e232c1c	0.15934795
45	0x3ea98b18	0.33113933
46	0x3ebd8e1c	0.37022483
47	0x3c7bed08	0.015376337
48	0x3e349880	0.17636299
49	0x3c411f3b	0.011787231
50	0x3c19c0f9	0.009384387
51	0x3c8e363f	0.01735985
52	0x3dbeef60	0.09323001
53	0x3c3bb716	0.011457225
54	0x3beaaa89	0.0071614427
55	0x3d8ca5a9	0.06867535
56	0x3e2fd064	0.17169338
57	0x3edf70b9	0.43640688
58	0x3d8828da	0.06648417
59	0x3e369aa8	0.17832434
60	0x3c473d10	0.0121605545
61	0x3b6fbc2c	0.0036580665
62	0x3d72573c	0.059165224
63	0x3c2240a5	0.009903108
64	0x3db1ad64	0.0867565
65	0x3d037bad	0.03210037
66	0x3cc35a9b	0.023846915
67	0x3d2217c7	0.039573457
68	0x3e032be5	0.12809713
69	0x3cd3612c	0.025803171
70	0x3c1e961b	0.009679343
71	0x3e781b15	0.24229081
72	0x3d81115b	0.063021384
73	0x3d863070	0.065522075
74	0x3e85f7e7	0.26165697
75	0x3b88b37f	0.004171788
76	0x3da3153b	0.07963034
77	0x3cd6f7f7	0.026241286
78	0x3d68a4d0	0.056797802
79	0x3caae870	0.020862788
80	0x3d50e441	0.05099893
81	0x3e5192a1	0.2046609
82	0x3d89f5c7	0.067363314
83	0x3e3ff417	0.18745457
84	0x3e05cbb3	0.13065986
85	0x3daa0aac	0.08302817
86	0x3dbf1c9d	0.093316294
87	0x3d59fe2e	0.05322092
88	0x3d476566	0.048680685
89	0x3d1723a8	0.03689924
90	0x3cbf4a1f	0.023350773
91	0x3bf15458	0.007364791
92	0x3d374166	0.044740103
93	0x3df40f05	0.11916927
94	0x3cd2286d	0.025654042
95	0x3c81a7a2	0.015827004
96	0x3c956a6a	0.018239219
97	0x3c312c56	0.010813793
98	0x3ede25f0	0.4338832
99	0x3d075e96	0.03304919
100	0x3dba6e2a	0.091030434
101	0x3d00dae0	0.031458735
102	0x3ce1d038	0.027565107
103	0x3c9c8bd9	0.019109653
104	0x3cc98552	0.024599705
105	0x3d2459b9	0.04012463
106	0x3e065d75	0.13121589
107	0x3e37cbac	0.17948788
108	0x3d21ee32	0.0395338
109	0x3db241d9	0.08703966
110	0x3e35cf25	0.177548
111	0x3d17ac8f	0.0370298
112	0x3c1e8b30	0.00967674
113	0x3d1f00b2	0.038819022
114	0x3cc904c7	0.02453841
115	0x3d6de88a	0.058083095
116	0x3d6b712f	0.057480987
117	0x3d45d855	0.048302013
118	0x3c78061a	0.0151381735
119	0x3c9fa52a	0.019487936
120	0x3d90f8df	0.070787184
121	0x3d015761	0.03157747
122	0x3ca50fb8	0.020149097
123	0x3ddea960	0.108721495
124	0x3e419211	0.18903376
125	0x3cd0ec0b	0.025503179
126	0x3d469646	0.048483156
127	0x3c131d15	0.008979102
