pretrained/trained.pth (torch, 510430 bytes, 39 tensors)

clinical.layer1.weight f4 [128, 5]
000000 64 9d 3f 3e 84 e8 18 be 1d 36 a5 bd cc 8c 75 3d
       0.18712384 -0.14932448 -0.08066962 0.059948727
000010 e8 88 cf 3d b0 76 4a bc 24 ba e8 3d 50 9a cd bd
       0.10133535 -0.012357399 0.113636285 -0.100391984
000020 c9 37 49 be 88 5d ef bd 40 e2 37 be f0 fd 47 bd
       -0.19650187 -0.116877615 -0.17957401 -0.048826158
000030 da 3b bf bd cc fd 97 3d f2 22 39 be cd 09 e8 bd
       -0.09337588 0.07421455 -0.18079737 -0.11329994
000040 8a 9c 1a 3e 8f 2d 17 3e 24 23 7f bd 5c 2e bf 3d
       0.15098777 0.14763473 -0.062289372 0.09335014
000050 6f 6d 1e 3e a2 9d f5 bb 71 ed be bd fa 92 6f bd
       0.15471433 -0.007495598 -0.09322632 -0.058489777
000060 ac be 0a be ab 87 da bd ec 8a b1 3d b0 18 10 bc
       -0.13549298 -0.10670408 0.08669075 -0.008794948
000070 d4 52 0b 3d 30 41 c6 bc 82 d6 4b be 64 ea 38 3b
       0.034014538 -0.024201006 -0.19906047 0.002821588
000080 af 7d d3 3d 10 b5 b1 3d c0 a0 3b 3e 3d b6 56 3e
       0.103267066 0.08677113 0.1832304 0.20967956
000090 36 f1 1b be 4b 2e a5 3c a4 1c 18 3e d1 3e 23 be
       -0.15228733 0.020163676 0.14854676 -0.15941931
0000a0 63 46 f1 3d 0f e1 2e 3e 75 8a 1b 3e 51 7e 1c 3e
       0.11781003 0.1707804 0.15189536 0.15282561
0000b0 79 5f e2 3b d8 58 39 3e d6 b3 d4 3d c0 40 f5 3d
       0.006908354 0.18100297 0.103858635 0.11975241
0000c0 8f 88 8a 3d 81 9a a7 bd 3b c2 1f 3e ff dd 58 be
       0.06764328 -0.08183766 0.15601437 -0.21178435
0000d0 61 13 3b 3e 02 ea 0f be af 35 dd 3d a6 13 82 3d
       0.18269111 -0.1405411 0.10801255 0.06351404
0000e0 ae 03 55 3c be 1c f4 bd 38 be 35 be 05 bb 92 bd
       0.013001366 -0.11919545 -0.17748344 -0.071645774
0000f0 40 de 10 bb 5f a9 1c be 56 d5 2c be f1 41 bc bd
       -0.0022105128 -0.15298985 -0.16878256 -0.09192265
000100 c3 64 47 be c0 0b 2a bc 92 fe e8 bd 0c 2b 41 be
       -0.19472031 -0.010378778 -0.113766804 -0.18864077
000110 60 b8 c6 3b 90 51 98 bc d2 f0 b7 3d bc 4f c7 bc
       0.0060644597 -0.01859358 0.0898148 -0.024330013
000120 41 12 5c 3e 85 11 c2 bd c1 ff 2e be 78 a2 f5 bc
       0.21491338 -0.09475998 -0.1708975 -0.029984698
000130 d0 2b 58 3d 10 64 24 be 8c da 55 3e 30 19 eb 3d
       0.052776158 -0.16053796 0.2088415 0.114794135
000140 1c 85 85 bd cc 70 34 3e bc 8d 52 bd 63 fa 0f be
       -0.06519529 0.17621154 -0.0514047 -0.14060359
000150 f4 af c6 3d c4 63 08 3e fb ee be bd 76 b3 01 3e
       0.09701529 0.13319308 -0.09322926 0.12666115
000160 37 a4 58 be 8c 6f 00 3c 55 cd 3d 3d b6 fd a2 3d
       -0.21156393 0.007839095 0.046338398 0.07958548
000170 45 5c 6d bd f2 0e 59 3e 1e c7 e9 bd 32 37 17 be
       -0.057949323 0.21197107 -0.11414932 -0.14767149
000180 2f b0 69 bd 0d 49 19 3e 40 18 01 3c c8 b8 05 be
       -0.057052787 0.14969273 0.007879317 -0.1305877
000190 3f 12 de bd 00 68 70 ba 8a a4 33 be e2 60 10 be
       -0.10843324 -0.00091707706 -0.17543235 -0.14099458
0001a0 80 ed 67 bd 8a 0f 2b 3e 7d 75 8b 3c 2d 1d 1b be
       -0.056622982 0.16705146 0.017023796 -0.15147848
0001b0 d1 32 44 3e 1f 05 89 bc 80 c7 7c bd 78 18 22 3d
       0.1916001 -0.016726075 -0.061713696 0.039574116
0001c0 3e b9 32 be 72 3f db bd b5 5d da bd 00 1b 7e ba
       -0.17453477 -0.107054606 -0.106624044 -0.00096933544
0001d0 18 66 e8 bd 46 94 10 be 8e 04 32 3e c0 24 c2 3d
       -0.11347598 -0.14119062 0.1738455 0.09479666
0001e0 f4 b0 15 bc ce 9f 18 3d af b2 0f 3d 2c c5 eb bc
       -0.009136427 0.037261777 0.035082515 -0.028780542
0001f0 f4 56 1e 3e 14 be 4a be 50 a1 59 3c 5f c2 0c be
       0.15462857 -0.19799072 0.013283089 -0.13746022
000200 6a 43 00 3e 68 5e df bc 22 fd 27 be 94 6b b1 bd
       0.12525716 -0.027266696 -0.16405156 -0.08663097
000210 be bb 55 3d e3 b5 b3 3d c0 80 7d bc 38 5b 57 3e
       0.052180998 0.087749265 -0.015472591 0.21030891
000220 f6 03 2b 3d 15 11 2b 3e 53 e3 b8 bd cc 21 07 be
       0.041751824 0.16705735 -0.09027734 -0.13196486
000230 3c 61 55 bd d4 c0 55 be 86 22 f1 bd a2 1a 59 3e
       -0.052094683 -0.2087434 -0.11774163 0.21201566
000240 ad aa b7 bd 52 01 5f bd 78 fd 00 be 08 b6 1e 3e
       -0.08968101 -0.05444462 -0.1259669 0.15499127
000250 85 1a 56 be fa 62 1a 3e 66 80 4b 3e fd 75 6b 3d
       -0.20908554 0.15076819 0.19873199 0.05748557
000260 56 4f 0b 3e ae 20 11 be 7a 23 21 bc c9 9b 2b 3b
       0.13604483 -0.14172623 -0.009835118 0.0026185384
000270 28 38 e6 3d 73 c5 a0 3d 5b 47 d9 bc 8e 90 6c 3d
       0.1124118 0.078501604 -0.026523283 0.057755046
000280 20 e8 e8 3b 58 89 22 be 31 98 4f be 48 dc bd 3c
       0.0071077496 -0.15872705 -0.202729 0.023176327
000290 0e 37 22 be 5d 9b 3d 3e 89 49 11 be cc 15 bb bc
       -0.15841314 0.18516298 -0.14188208 -0.022837542
0002a0 4e 31 e9 3d c5 51 4c 3e dc ec 21 3e b4 1b 2f 3e
       0.11386357 0.19953068 0.15813011 0.17100412
0002b0 f8 8d 27 3e 7d d9 20 be 7a 41 7e 3c cd 78 1c 3d
       0.1636275 -0.15707965 0.0155185405 0.038201142
0002c0 20 2d 9a bd aa 96 0e be f0 cb fd 3d b6 c5 ca bd
       -0.07528138 -0.13924661 0.123924136 -0.099009916
0002d0 28 d5 ac bd d0 28 61 bd c8 a0 4a 3e 5f 0e 1e 3e
       -0.08439094 -0.054970562 0.19787896 0.1543517
0002e0 05 2b 28 be 25 d5 ed bd ff 60 cc 3d fe 69 98 3d
       -0.1642266 -0.1161292 0.09979438 0.074420914
0002f0 44 cc 10 be cf c5 e9 3d 00 26 78 bd 3a 56 01 3e
       -0.14140421 0.11414682 -0.060583115 0.12630549
000300 c4 66 b1 bd 23 d7 cf bd 2e 09 59 be 0e 04 59 3d
       -0.08662179 -0.10148456 -0.21194908 0.052982382
000310 57 4c 1f bd 82 a6 f1 3d 23 10 a5 bd ae 6a a0 3d
       -0.038891163 0.11799337 -0.080597185 0.078328475
000320 4d e4 19 3e 03 39 4d be 49 40 05 be bc 00 be 3d
       0.15028496 -0.2004128 -0.13012804 0.09277484
000330 71 09 90 3d 2a 61 00 3e 99 64 57 be da 5f 28 3e
       0.07033051 0.12537065 -0.21034469 0.16442814
000340 b3 30 37 be e3 51 f3 bd 67 08 49 3d e6 70 2c be
       -0.17889671 -0.11880853 0.04908028 -0.16839942
000350 76 15 a6 3d 93 d7 99 bc f4 ec 3d 3e 24 21 00 be
       0.08109562 -0.018779552 0.18547422 -0.12512642
000360 42 02 20 be 70 86 df bc 6c c1 c0 3d d0 ee 94 3d
       -0.15625861 -0.027285784 0.09411892 0.07272112
000370 ff 6c 45 3c 12 4a 27 be 81 8f 38 3e 49 9b 31 3e
       0.0120499125 -0.1633685 0.18023492 0.17344393
000380 60 64 ce 3d 68 c7 1c be 1c ee 87 3d f6 01 2f be
       0.10077739 -0.15310442 0.06637213 -0.17090592
000390 c4 eb c2 3d 40 b5 00 3e d3 28 3c 3e 1b 1d fc bd
       0.09517625 0.12569141 0.18374948 -0.12310239
0003a0 2b 03 44 3e 2b ce 77 3d 83 be ac 3d b6 f0 d2 3d
       0.19141833 0.06049935 0.08434775 0.10299818
0003b0 6e 29 4c 3d 5c fb 2e be 63 0b 48 be fc 4e 20 be
       0.049844198 -0.17088073 -0.19535594 -0.1565513
0003c0 48 50 31 bd 47 80 4f be f9 83 e0 bd a9 92 32 be
       -0.043289453 -0.20263778 -0.10962672 -0.17438759
0003d0 7c e9 ae bd 0b 2b 48 3d 34 67 c5 bd 24 7b 60 bd
       -0.08540627 0.048869174 -0.09638825 -0.054804936
0003e0 eb 11 e7 bc a0 6e 23 bd 4e d5 43 be d8 ae a8 bc
       -0.028206786 -0.039900422 -0.19124338 -0.020591184
0003f0 30 1c 10 3c f6 48 4a be 5c f6 95 3d 86 06 a2 bd
       0.008795783 -0.19754395 0.0732238 -0.079114005

clinical.layer1.bias f4 [128]
000000 16 5f 82 3d 40 c2 aa 3b 9c bf 1e be db be b3 3d
       0.063657925 0.0052111447 -0.1550278 0.08776637
000010 ba cc 5c 3e 55 13 d1 be 7d 2c 38 3e d7 6e f8 bd
       0.21562472 -0.40835062 0.17985721 -0.12130516
000020 fe 43 b5 3e 3b d9 5b 3e 4b 03 92 3e c1 c8 e8 3b
       0.35403436 0.21469586 0.28518137 0.00710401
000030 2a b7 1c be 9a 87 bd 3e 59 d0 ac be f6 62 97 be
       -0.15304247 0.37017518 -0.33752707 -0.2956769
000040 57 f9 8c be 65 37 9f be 06 37 33 be 4a c6 24 be
       -0.2753398 -0.3109695 -0.17501459 -0.16091266
000050 e4 e3 ad 3e 01 77 c9 be ab 83 d2 be 8a 7b cf 3e
       0.3396293 -0.39348605 -0.4111608 0.4052394
000060 f3 6e c1 3e 14 de aa be 75 60 82 3e ed fd a9 be
       0.3777996 -0.33372557 0.25464216 -0.33201542
000070 88 b2 c4 3e 21 4f 44 3e b8 f2 a7 3d ad 78 30 3c
       0.3841746 0.1917081 0.08200592 0.010770959
000080 4c d2 a7 3e 45 6b 5c 3e eb a7 63 be 20 e0 8e be
       0.3277763 0.21525295 -0.22232024 -0.2790537
000090 64 00 3b 3e 82 d2 14 3e e0 d9 bd 3d 5e b0 46 3d
       0.18261868 0.14533427 0.09270072 0.04850804
0000a0 50 6e ce 3e bd de e9 bd b5 e7 27 3d 88 80 d6 be
       0.40318537 -0.11419437 0.040992457 -0.41894937
0000b0 90 50 b7 3e 64 cb 34 be b4 4f df 3e 48 38 4b 3e
       0.35803652 -0.17655712 0.43615496 0.19845688
0000c0 0e 1d 39 be a4 6d e4 3e aa c1 d4 3e bd e4 66 be
       -0.1807749 0.446149 0.41554004 -0.22548194
0000d0 69 49 9c bd 96 5f c6 3e f4 78 4b 3e 29 8d 1c 3e
       -0.076311894 0.387448 0.19870359 0.15288223
0000e0 ab cf 21 3e 78 da 87 be 18 32 cb 3e e1 c2 bc 3e
       0.15801875 -0.26533866 0.39686656 0.3686743
0000f0 22 0f b8 bc 93 3d b6 3e d8 95 0e be 78 1c 01 3e
       -0.022468153 0.35593852 -0.13924348 0.12608516
000100 dd 1c 8c be 50 b9 3c be e4 8b 19 3d b7 70 22 3e
       -0.2736577 -0.18430066 0.037486926 0.1586331
000110 5a 90 4d be 53 1a 09 be 66 99 19 3e 8a 16 45 be
       -0.20074597 -0.13388948 0.14999923 -0.19246879
000120 7e 37 e9 bc 41 19 c0 bd 2b 30 7a be 8c 37 39 bc
       -0.028468844 -0.09379817 -0.24432437 -0.011304747
000130 54 30 04 be 7a 87 3f bc 89 7e aa bd c1 1f 79 be
       -0.1290906 -0.011690015 -0.08324916 -0.2432852
000140 d0 97 5c be b4 2a 79 3e 28 9d 58 bd 33 7b 25 3e
       -0.21542287 0.24332696 -0.05288425 0.16160278
000150 ae e2 70 3d 46 3f 6d be e0 b0 c6 3c 68 f5 af be
       0.05880993 -0.23168668 0.024254262 -0.34366918
000160 20 f4 e4 bd fb ee 2f 3e f1 30 8e be e6 a4 df 3e
       -0.11179376 0.17181008 -0.27771714 0.43680495
000170 d8 5e ca be 96 b2 82 3e 94 fb 2f 3e 68 00 c5 3e
       -0.39525485 0.25526875 0.17185813 0.38476872
000180 38 3d b8 3e ab 38 0a be 2c 23 a2 be d1 ac b4 bd
       0.35984206 -0.1349818 -0.3166746 -0.088220246
000190 64 b2 4c be ac b4 de be 5d e9 57 be 94 13 0f 3e
       -0.19989926 -0.43497217 -0.21085115 0.13972312
0001a0 13 15 74 be f6 23 ec bd d0 31 b7 bd de d3 6c be
       -0.23836164 -0.115302965 -0.08945048 -0.23127696
0001b0 bd ae c8 3e 1e 47 ba 3e 04 fb 0d 3e 2d c4 30 3e
       0.39195815 0.36382383 0.13865286 0.17262335
0001c0 bc 08 25 3d a5 fb 18 be 5e 78 00 be 02 6b ca be
       0.040291533 -0.14939745 -0.12545916 -0.39534765
0001d0 82 f3 a3 be 6d 11 0a be 5d da 81 3e ce 8e bb 3e
       -0.3202172 -0.1348321 0.2536191 0.3663239
0001e0 83 a3 9e be 73 6e 0b be 34 ea 18 3e d6 6d 92 be
       -0.30984125 -0.13616352 0.14933091 -0.28599423
0001f0 5e 29 81 be 92 a3 d2 3e 3c 33 a1 be 02 bf 86 3e
       -0.25226873 0.4114042 -0.314844 0.26317602

clinical.layer2.weight f4 [256, 128]
000000 ae 2c 99 bd a7 9c a6 3b 26 9c f5 bd 01 29 b2 3c
       -0.07479225 0.0050845924 -0.119926736 0.021748068
000010 19 51 9a bc 87 ef a1 bc 85 ce 1c 3c a0 2a a3 3d
       -0.018837499 -0.019767536 0.0095707225 0.079671144
000020 f7 c5 f9 3d 03 a0 57 bd 25 db ba bd 7a d4 f6 bd
       0.12195962 -0.052642833 -0.0912383 -0.120522454
000030 56 86 ab 3d b0 ff ba bc da e8 6a 3c b6 ec 87 3d
       0.08375232 -0.022827 0.014337743 0.06636946
000040 60 0d b8 bd a6 7b 6f bd 22 0e b6 bb da 05 54 3d
       -0.08986926 -0.05846753 -0.005555884 0.051763393
000050 28 43 25 bd 5f 37 df bc e6 7f ec 3d 00 06 81 3d
       -0.04034725 -0.027248083 0.11547832 0.062999725
000060 2a a7 f8 bd 70 cc b9 3d f1 e7 69 bd f8 f8 e9 3d
       -0.12141259 0.090721965 -0.057105962 0.1142444
000070 0a 8b a1 bd 38 32 e8 bd ef c0 8d 3d a1 35 09 3d
       -0.07887848 -0.113377035 0.06921565 0.03349841
000080 b6 22 c3 bd 0e 02 91 bd 99 f2 dd bd c1 93 9b 3b
       -0.09528105 -0.0708047 -0.108372875 0.0047478382
000090 78 f0 14 3d c2 ca 88 bd e0 32 b0 bc f5 a6 fb bd
       0.03636214 -0.06679298 -0.021508634 -0.12287704
0000a0 00 1c b6 3d dd 04 e2 3d 2a 95 b1 3c 02 4b cb 3d
       0.08892059 0.11036084 0.021677572 0.09926416
0000b0 ac 03 08 bd ac 85 16 bd be 05 89 3d e4 b9 c6 bd
       -0.033206627 -0.036748573 0.06690548 -0.097034246
0000c0 20 5a 2b 3c 2a e3 db bd 18 8e a1 bc 3e 57 84 bd
       0.010458499 -0.107366875 -0.019721076 -0.064619526
0000d0 98 3b 80 bd 71 9b 00 3d 42 91 29 3a 7d 85 67 3d
       -0.062613666 0.03139824 0.00064684835 0.05652379
0000e0 66 95 1c 3b c9 c6 90 3b a9 60 f1 3c 9f 1d db bd
       0.002389276 0.0044182283 0.029465036 -0.10699009
0000f0 27 b0 b8 3d df 44 6f 3c 96 e7 1f 3d ff 06 8b 3c
       0.090179734 0.0146038225 0.039039217 0.01697111
000100 3f 55 f8 3d 6c a8 49 3d 6d ca d0 3d 45 ca e5 bd
       0.121256344 0.049232885 0.1019486 -0.112202205
000110 39 a9 96 bb ca b3 9f 3c c6 a6 b6 3d 45 d5 f9 3d
       -0.0045978096 0.01949491 0.08918528 0.12198881
000120 46 c5 cb bd 49 d9 f6 bd 31 34 ac bd 9c 59 fb bd
       -0.09949736 -0.120531626 -0.08408392 -0.12272951
000130 08 08 ff 3c 1b 1f a7 bd c9 84 80 bd d8 3b 00 bd
       0.03113176 -0.0816023 -0.06275327 -0.03130707
000140 18 c2 b4 bd 78 bf 9f 3d b2 5c 88 3d 67 9b d3 3d
       -0.08826083 0.07800192 0.06658305 0.10332375
000150 61 e9 23 3d c4 fb 57 3c 22 50 d3 3d 44 bf 81 bd
       0.04001749 0.013182584 0.103180185 -0.06335309
000160 28 0b ee bd 5c 04 a0 3d 6f 55 0a bc 26 81 a6 bc
       -0.11623222 0.078133315 -0.0084432205 -0.020325255
000170 54 d2 38 bd 70 ea 95 3d e2 00 d9 3d f0 4e dd bc
       -0.04512246 0.07320106 0.105958715 -0.02701518
000180 81 35 bb bd b2 ab 4d 3d d0 c3 14 bd e1 d8 d3 3c
       -0.091410644 0.05021257 -0.036319554 0.025860252
000190 7f 0d fc 3d 2c b9 a1 bd 53 fd 67 3d 4c 34 34 3d
       0.12307262 -0.07896647 0.056638073 0.043995187
0001a0 d4 63 d1 bd a1 17 b9 bd 38 76 d0 3d 95 28 2b 3a
       -0.10224119 -0.0903771 0.101787984 0.00065291795
0001b0 5e 67 70 3c c2 6d 04 bd 44 0e 2d bd 5a d5 ed bb
       0.014673082 -0.032331236 -0.042249933 -0.0072580995
0001c0 b0 b1 33 bd b0 15 12 bd 2c 47 1a bd fc 90 9a bd
       -0.043870628 -0.035665214 -0.03766553 -0.07547185
0001d0 8d 0f 06 bc 3f d3 f9 3c 69 5a 43 bc 1b ce a0 bd
       -0.0081824185 0.030496238 -0.011923411 -0.078518115
0001e0 15 4f bc bd ff 40 77 bc a0 ad d8 bd 64 42 a8 bc
       -0.09194771 -0.01509118 -0.10579991 -0.02053947
0001f0 92 08 30 3d 8c b1 6b 3d 86 39 db 3d 14 76 17 bd
       0.042976923 0.05754237 0.10704331 -0.036977842
000200 7f 5a bd bd e4 fc 91 bd 78 06 ee bd a8 e3 6d bd
       -0.092457764 -0.07128313 -0.116223276 -0.058078438
000210 87 9a 7f bd 1a 7f a5 3d fe 1a d2 bd f9 a2 a7 3d
       -0.062403228 0.08080883 -0.102590546 0.081853814
000220 11 cc 05 3d 3a 37 b5 bd 51 bb 51 3d c9 fb 5c bc
       0.032665316 -0.08848424 0.05120403 -0.013487765
000230 94 a0 85 bd 20 d3 f0 3d e0 22 1f bd ca d5 82 bd
       -0.065247685 0.11759019 -0.03885162 -0.06388433
000240 fa 12 e3 bd 6a de c8 3b 1a da 30 bc f9 4e b0 3d
       -0.11087604 0.0061300294 -0.010794187 0.08608813
000250 c6 0d 99 bd db af cd 3d 7e 2c a5 bd 36 db 95 3d
       -0.0747333 0.100433074 -0.08065127 0.07317202
000260 da 76 b8 3c 00 82 af 3b 05 30 ea bd 90 ba 0b 3c
       0.02251761 0.0053560734 -0.1143494 0.008528367
000270 b4 d6 bd bd 86 b5 fb 3d da a9 58 3d 5b f1 cb bd
       -0.09269467 0.12290482 0.052896358 -0.09958144
000280 f8 18 31 bd f1 a0 7e bd 01 13 ec bd 8e 31 d9 3d
       -0.043236703 -0.062165204 -0.11527062 0.10605155
000290 af 9d b6 3d 74 03 e9 bd d8 f4 42 3d 72 03 e7 bd
       0.089167945 -0.11377612 0.047596782 -0.11279954
0002a0 9b a9 f4 bd a4 3b d6 3d 0a 9f 00 bd 9e 76 e4 bd
       -0.11946412 0.10460594 -0.03140167 -0.11155437
0002b0 67 18 66 bb 32 16 81 3d af be cc bd 9e 32 6f bd
       -0.003510976 0.063030615 -0.099973075 -0.05839788
0002c0 12 4b 8c 3d f9 02 d4 3b 92 87 7a bb 94 ad b8 bb
       0.06850256 0.006470081 -0.003822778 -0.0056359265
0002d0 da 05 ca 3d 7f 08 f4 3d 82 9b 04 bd 08 5e 96 bd
       0.09864397 0.11915683 -0.032374866 -0.07342154
0002e0 8e 1f 2c bd 34 7d 9c bc b4 3b ae 3d f4 70 83 3d
       -0.04202228 -0.01910267 0.08507481 0.064180285
0002f0 18 9b 5e bc 20 ac 9a 3d f2 cc 78 3d c7 67 59 3d
       -0.013586782 0.075523615 0.060742326 0.053077485
000300 02 69 e1 3c 6c 66 e9 3d e5 47 99 3d ed 84 7a 3c
       0.027515892 0.113964885 0.07484416 0.015290481
000310 3f 3d 48 bd d3 c0 cc bd c2 dc 1d bc a5 4a 54 bd
       -0.048886534 -0.09997716 -0.009635152 -0.051829
000320 dd 8d b6 bd db 71 52 3c de bb be 3c f5 fa f9 3d
       -0.08913777 0.012844528 0.023282941 0.122060694
000330 1a 92 9e 3d d8 5c f4 bd c5 af eb bd 69 40 f2 bd
       0.077427104 -0.11931771 -0.11508135 -0.118286915
000340 76 fa d0 3d d6 8a c2 bd 2d 48 ad bc d3 d2 e5 3d
       0.10204022 -0.09499137 -0.02115258 0.11221852
000350 75 5d e2 bd ef 36 95 bd 02 d9 ee 3d c6 70 5a 3d
       -0.11052982 -0.072858684 0.11662485 0.053330205
000360 ca 60 87 bd 3a 62 d1 3d 43 d5 c7 bd b7 1f f2 bb
       -0.06610258 0.10223813 -0.09757473 -0.0073890346
000370 15 f9 3e 3c 5c 93 f6 bd bc 44 a6 3d 1e f4 f9 bd
       0.0116560655 -0.12039825 0.08118579 -0.12204765
000380 54 d5 f5 3d 70 9e 89 3c 2e f8 d7 bd dd 97 4b 3c
       0.1200358 0.016799182 -0.105453834 0.012426344
000390 84 a4 ea 3c 0d 8d 4b 3d 33 60 9f 3d a8 2c 6f bd
       0.0286429 0.049695063 0.077820204 -0.058392197
0003a0 66 e9 ee bd 9a e4 b2 bd 9c d9 d0 3b 2e 34 f1 bd
       -0.11665611 -0.087350085 0.0063735973 -0.117775306
0003b0 62 da d2 3c d0 b2 c1 3d ba de b5 bd af 84 16 bb
       0.025738899 0.09457934 -0.08880372 -0.002296727
0003c0 ca fe 7e bd 26 91 81 bd 72 bc 95 bd e8 1e 17 bd
       -0.062254705 -0.06326513 -0.07311334 -0.03689471
0003d0 81 f9 5d bc bd 1f 5c 3d 6f b3 96 bd 9f b8 8e bd
       -0.013548256 0.053741205 -0.07358443 -0.069688074
0003e0 7b f9 79 3c 7b 03 9b bd 60 4b d4 bd 1d f1 68 bd
       0.015257235 -0.07569023 -0.10365939 -0.05687057
0003f0 ff 7d ee bd 08 5b 3a bd 27 aa 8e 3d 05 f5 77 3d
       -0.116451256 -0.04549697 0.06966048 0.060536403

clinical.layer2.bias f4 [256]
000000 dc 28 97 3d 5b 84 02 3d d6 a3 af 3c 71 bc 8b 3d
       0.0738084 0.031864505 0.021440428 0.06823052
000010 b3 25 78 bd f3 3a 47 3d ef 57 8c 3c 01 84 0b 3d
       -0.060582828 0.048640203 0.017131774 0.034061436
000020 34 40 3a bd 43 ed a4 bd e0 6c 43 bd d0 d2 50 3d
       -0.045471385 -0.080530666 -0.047711253 0.050982296
000030 93 b6 3a bd 43 b1 88 bd f7 40 79 3d 4f 49 da 3b
       -0.045584273 -0.06674435 0.06085297 0.006661571
000040 bc 68 66 3d 78 ee ce bc 8e 41 8f bd 0f 65 0d bd
       0.056252226 -0.025260195 -0.069949254 -0.034520205
000050 71 58 1a bc 12 ed 6f 3d 27 e1 76 3d 75 de 2a 3d
       -0.0094205 0.058575697 0.060273316 0.041716058
000060 76 48 36 3c be 05 a9 3d 1d 26 9d 3d 57 1c 4e bd
       0.0111256745 0.08253048 0.07673285 -0.050319996
000070 59 ab 30 3c 30 65 4c 3d 4f ba 38 bd 01 b2 8f bc
       0.01078304 0.049901187 -0.045099553 -0.017540934
000080 5b cf a3 3d 20 54 89 3d bc 04 a5 bd 85 dd 42 3d
       0.07998534 0.06705499 -0.08057544 0.04757454
000090 68 63 4e 3d c9 c5 bb bc 74 3b 14 3d 07 46 23 bd
       0.05038777 -0.02292146 0.03618951 -0.039861705
0000a0 89 b5 e8 bc 28 26 9e 3d df b2 93 3d 31 12 95 bd
       -0.028406875 0.077221215 0.07211851 -0.0727886
0000b0 42 47 b1 bd 76 d0 6d bd 92 ae e4 3c 75 ee f2 3b
       -0.086561695 -0.058060132 0.027915273 0.00741368
0000c0 f9 e1 5b bd cc 0a a3 bb ba a9 b5 3c 43 61 ab bd
       -0.0536823 -0.0049756523 0.022175658 -0.083681606
0000d0 38 1f fb bc ba 66 a4 bd a7 0b f5 bb 70 13 1e 3d
       -0.030654535 -0.08027406 -0.0074781957 0.038592756
0000e0 1a 35 4d 3d bb e8 8e bd 5f 21 1a 3d 13 2f ab 3c
       0.05009947 -0.069779836 0.03762948 0.02089647
0000f0 cb fe 6a bd 9f bb a4 bd 88 80 25 3c 60 23 a7 3d
       -0.057371896 -0.080435984 0.010101445 0.08161044
000100 e4 48 33 bc 24 da 1a bc 5d 6c 53 bd 6f ab 96 3d
       -0.010942671 -0.009451423 -0.051617015 0.07356917
000110 3a 55 8c 3d 2b b2 6a 3d 65 59 49 3d 1d 0a 2e 3d
       0.06852193 0.05729882 0.04915752 0.042490114
000120 89 26 a2 3d 12 19 27 bc c6 0e a1 bb 49 32 a6 3c
       0.07917506 -0.010198848 -0.004915091 0.02028765
000130 b1 48 80 3c 19 88 58 3c 96 20 a8 ba e7 04 13 bd
       0.015659662 0.013216042 -0.0012827094 -0.035893347
000140 23 1e 69 ba 0a 49 af bc 1d 2e 06 3c 23 98 ac bc
       -0.00088927353 -0.021397132 0.008189705 -0.021068638
000150 78 9c 87 bd 5c a5 d3 3c ee 5e 54 3d 7c fa 96 3d
       -0.06621641 0.025835685 0.051848345 0.07371995
000160 6f ec 1d bd 27 48 5a bc ea d2 ac 3c df b6 25 3d
       -0.03855556 -0.0133228665 0.021096665 0.040457603
000170 3e 2e 82 bd 41 ba 9a 3d d7 88 84 bc 49 14 2a 3d
       -0.06356476 0.07555056 -0.016178532 0.04152325
000180 fb d9 00 bd 52 57 a3 ba 06 6f a8 bd 20 b2 a7 bb
       -0.031457882 -0.0012461937 -0.08224301 -0.0051176697
000190 4a e0 a0 bc 56 ee 42 bd 14 e6 7a bc e2 69 3a bd
       -0.0196382 -0.047590576 -0.015313644 -0.045511134
0001a0 0e 03 a3 bd fd b9 19 bd 91 90 8b bd 4e f9 b8 3a
       -0.07959567 -0.037530888 -0.06814683 0.0014112385
0001b0 24 c9 03 3d 51 e2 15 3d 52 3b 04 3c 31 c8 4a bc
       0.032174245 0.036592785 0.008070784 -0.012376831
0001c0 87 b3 65 bc 30 e6 42 3d 6a 19 4b bd 39 c2 e0 3c
       -0.014019853 0.047582805 -0.049584784 0.027436363
0001d0 97 1f 91 bc d4 1c e6 ba 5f 3a 90 bd 7c 40 4d bd
       -0.017715259 -0.0017556199 -0.070423834 -0.050110325
0001e0 e4 4c 2a bc 88 f3 e2 3c 06 e8 73 3d 1c 29 12 bc
       -0.010394309 0.027704015 0.059547447 -0.008920934
0001f0 e6 12 83 bd 91 56 29 bd 67 47 7d 3c bf 59 35 bc
       -0.06400089 -0.04134232 0.015458918 -0.01106876
000200 7d f7 82 3d b4 dd d0 3c a7 13 83 bd 92 80 61 bd
       0.06394861 0.025496341 -0.06400233 -0.055054255
000210 25 ab 67 3d 9a 2d b4 3d 59 2e 6f bc 4f fa a3 bd
       0.0565597 0.0879776 -0.0145984525 -0.08006727
000220 ef 1d 2a bd c1 10 81 bc 0b 0e 52 bd 2d 91 3a 3d
       -0.041532453 -0.01575506 -0.051282924 0.045548607
000230 f8 c4 b9 bc 35 30 3d 3d b8 b1 21 bd d2 48 1f 3c
       -0.02267693 0.046188552 -0.039476126 0.009721952
000240 e5 5f 5b bd f9 98 fa 3c 1a a6 b1 bd 20 11 92 bd
       -0.05355825 0.030590521 -0.086742595 -0.071321726
000250 b6 ad 87 3c a0 0c 83 3d 0f 04 07 bd 38 e1 af 3d
       0.016562324 0.063988924 -0.032962855 0.08587879
000260 7e b9 86 bc 05 24 b6 3c 99 9f 2d 3d 54 54 05 3c
       -0.016445871 0.022233972 0.042388532 0.008137781
000270 fb 95 8f 3c a5 9f 69 bd 0d ea 86 bd 31 c2 2c 3b
       0.017527571 -0.057037015 -0.065876104 0.0026360864
000280 db 22 62 bd ab 22 67 bb 0b 21 8e bd 05 f4 9d bd
       -0.055209022 -0.0035268466 -0.06939896 -0.07712559
000290 e7 d9 a5 3c 3f f1 5b bd b1 eb 8c bc 2b df 43 3d
       0.020245505 -0.053696867 -0.01720223 0.04782025
0002a0 b9 18 7a 3d 49 e8 9f bd 97 e7 3f 3b 98 22 03 bd
       0.061058734 -0.07807977 0.0029282325 -0.032015413
0002b0 15 89 50 3d a4 c0 67 bd 3d 3b 5a bd 93 3b 3c 3d
       0.05091198 -0.0565802 -0.05327915 0.045955252
0002c0 ba 31 03 bd 66 8e 6f 3d f4 f1 f3 3c 22 73 41 3d
       -0.032029845 0.05848541 0.029778458 0.04722894
0002d0 05 b4 1f 3d 76 2c b8 bc 00 34 3e bd 05 3d 82 3d
       0.03899004 -0.022482138 -0.04643631 0.06359295
0002e0 d1 fa 7e 3d 90 2c 4f 3d b4 ba ca bc 39 db bf 3c
       0.062250916 0.050579607 -0.02474723 0.023419963
0002f0 40 c6 91 bd 66 11 15 3c 4b f8 e6 3c 11 19 1b bc
       -0.07117891 0.009098386 0.028194567 -0.0094664255
000300 77 0f a5 bd f5 97 83 3d 51 2f ae bd 9f 51 a7 bc
       -0.0805959 0.06425468 -0.08505119 -0.020424662
000310 0f 52 c9 bc 53 db 86 bc 1f 8c 95 3d 69 57 ba bb
       -0.024575261 -0.016462004 0.073021166 -0.0056866896
000320 dd 66 82 3d 15 b2 a9 bc c0 e4 a6 bc 00 05 61 3d
       0.06367276 -0.020714799 -0.020372748 0.05493641
000330 2b 20 2d bc 65 69 43 bd 3c 4e 5b 3c 99 66 97 3d
       -0.0105667515 -0.047707934 0.013385352 0.07392616
000340 dc 97 7d bd d3 17 f5 3b f8 dc 1d bc ef 0c b4 bd
       -0.061912403 0.0074796467 -0.009635203 -0.087915294
000350 29 e8 b0 3d 97 07 7f 3d 7d 2d a5 bd ff 58 e8 bb
       0.08638031 0.062263098 -0.08065317 -0.0070906873
000360 ea 6a 06 bd 75 25 48 bb 3a ae 5c bc 65 9d 9d bd
       -0.032816805 -0.0030539904 -0.013469273 -0.07696036
000370 32 b5 1f bd 2e 82 85 3d 02 8d 43 bc 2e 39 e4 bb
       -0.03899116 0.065189704 -0.011935474 -0.006964824
000380 d3 ad 13 3d e3 36 bd 3c e8 eb 8d 3d 7b 82 cf bc
       0.036054444 0.023097461 0.06929761 -0.025330773
000390 34 e8 31 bd e0 6b d8 bc c7 4c 84 bd 70 e8 62 bd
       -0.043434337 -0.026418626 -0.064599566 -0.05539745
0003a0 46 49 07 bb c3 e5 5c 3d ec 95 63 3d 57 1b 69 bd
       -0.002064304 0.053930055 0.0555629 -0.05691084
0003b0 d0 ab 75 3d c9 87 b4 bd 84 4d 9d 3d 98 ff 23 3d
       0.059978306 -0.088149615 0.076808006 0.040038675
0003c0 be 8d 0f bc 3e 8e 10 bd dc aa 85 bd 7d cf 95 3d
       -0.008761821 -0.035291903 -0.065267295 0.07314966
0003d0 80 4b d7 3c 07 a6 68 bd 9a c5 89 bd 80 03 9a bc
       0.026281118 -0.05679896 -0.06727143 -0.018800497
0003e0 55 3a 91 3d 1a bf b5 3b 36 42 96 3d ba 16 34 3c
       0.07091204 0.0055464627 0.073368475 0.010991747
0003f0 17 f7 ad 3d bf 65 9d bd 03 81 48 3d 85 41 99 3d
       0.08494394 -0.07685422 0.04895116 0.074832

clinical.layer3.weight f4 [256, 256]
000000 73 81 3c bd 03 4c 81 3d 55 38 49 bc 01 e8 63 bd
       -0.04602189 0.06313326 -0.012281497 -0.055641178
000010 f6 34 71 bc e2 f8 03 bc 62 18 cd bd d4 bd ad 3d
       -0.0147220995 -0.008054944 -0.10014416 0.084834725
000020 0d 42 c4 bc 2d d4 9e bd 8c ad 7f 3b a5 bb 8e bd
       -0.023957277 -0.07755313 0.0039013354 -0.06969384
000030 2e a4 6c bd 72 2d bc bb a8 00 a2 3d da b9 91 bd
       -0.05777376 -0.005742722 0.079102814 -0.071155265
000040 a2 84 84 bb 24 68 97 bd b3 dc b1 bd e7 04 9d bd
       -0.0040441314 -0.0739291 -0.08684673 -0.07666951
000050 b2 e5 7a bd 57 bd c0 3d c2 a9 c6 bc 0a a3 a3 3c
       -0.06125421 0.09411114 -0.024250869 0.019975204
000060 84 c1 cf bd c6 89 09 bd f9 34 0e bd 9e cb c2 bb
       -0.10144332 -0.033578657 -0.034718487 -0.005944683
000070 da b8 b0 3d ff e2 ae bd fa ea c8 bd ff 60 3c 3c
       0.08629008 -0.0853939 -0.09810443 0.011497735
000080 3a 72 6d bd 6d 16 9b 3d 2d 0b 6f bd 24 93 a9 bd
       -0.057970263 0.07572637 -0.058360267 -0.08280018
000090 59 fb 82 3c 2a a1 8a 3d f3 ab 94 bc 6b 11 b5 bb
       0.015988993 0.06769021 -0.018148398 -0.005525758
0000a0 ad c4 7d 3d f7 e3 8f bc 8e 0b c3 bd 8a ca 8c bd
       0.061955143 -0.017564757 -0.09523688 -0.06874569
0000b0 0f e9 62 bd a7 49 85 3d ec 33 0e bc 5b 95 c6 3d
       -0.055398043 0.06508189 -0.008679371 0.09696456
0000c0 e1 0c 24 bd cf 7f d8 bc c8 bd 14 3d 13 82 0e bd
       -0.040051345 -0.026428131 0.036313802 -0.034792017
0000d0 bc 49 0b 3c e3 c5 0b bd 12 05 77 bd e1 52 84 3c
       0.008501466 -0.034124266 -0.06030757 0.016152801
0000e0 d4 ad d4 bd 4e 97 8c 3d 91 aa 5a bd 9f 67 bc 3d
       -0.103847176 0.068647966 -0.05338532 0.09199452
0000f0 90 77 c9 bc dd cb a8 bc 9d f5 59 3d 64 59 8d bd
       -0.024593145 -0.020605022 0.05321275 -0.069018155
000100 c5 4c 5b 3c d6 87 8e bd cf df aa 3d 18 a3 b6 3d
       0.0133850025 -0.069595024 0.08343469 0.089178264
000110 6e b8 6f 3d 32 d1 da bd d6 02 46 3d 26 8a ad bd
       0.058525495 -0.10684432 0.04834255 -0.08473615
000120 b5 9d 19 bd 9e 5f 9c 3d 1a ab 92 3c ef d1 6f bc
       -0.037503917 0.07635425 0.017903853 -0.014637454
000130 7e 61 fb bc fa bc c4 bd 47 1c d6 3d 05 87 5f 3d
       -0.030686136 -0.09606357 0.10454612 0.054572124
000140 b1 1b 44 3d 0b cd 80 3d 48 5a a5 bd 1f b1 96 3d
       0.04787797 0.06289109 -0.080738604 0.07358002
000150 04 3a a0 bd e7 15 6d 3a 40 68 af bd 0b cc 4e 3d
       -0.078235656 0.0009044096 -0.08564806 0.05048756
000160 eb 9c 13 bd 37 a1 35 3d 9c 2c 2d bd 99 27 64 bd
       -0.03603832 0.0443432 -0.04227887 -0.055701826
000170 d3 af 1d bd 7c 56 7c bc 52 f0 d5 3c b0 c1 3e bc
       -0.038497757 -0.015401479 0.02611557 -0.011642858
000180 ec 90 9e bc 97 5b 8d 3d da c5 ba bc 08 26 22 3d
       -0.019356214 0.06902235 -0.022799421 0.03958705
000190 a1 ca 99 bd 96 ad 5f bd d5 3b 81 3d 9f 03 5d 3d
       -0.075093515 -0.054608904 0.0631024 0.05395853
0001a0 ae e4 21 3d c8 7d 45 bd 9f 23 5b 3d c5 65 db 3d
       0.039524727 -0.048215657 0.053500768 0.107127704
0001b0 dc 87 7f 3d da 22 f8 3c 7d ef 8b bd 78 2b 70 bd
       0.062385425 0.030290056 -0.06832788 -0.058635205
0001c0 94 cd 5d 3d 05 84 06 3d 10 43 91 bd 80 82 87 bd
       0.054151133 0.032840747 -0.07092869 -0.06616688
0001d0 1f 58 c7 bd 02 bf b9 3d f6 a8 cb bc 0c bb cd 3d
       -0.09733605 0.09069635 -0.02486084 0.10045442
0001e0 a5 f0 99 3c 32 63 20 bd c0 46 03 bd 44 d1 01 bc
       0.018791506 -0.0391571 -0.032049894 -0.007923428
0001f0 79 23 da bd aa 5c 78 bd a2 c4 0e bd d7 2d db 3d
       -0.10651297 -0.060635246 -0.034855492 0.10702103
000200 23 00 8d bd 7b 2a 61 bc 10 b7 55 bd 16 6e dc bd
       -0.06884792 -0.013743038 -0.052176535 -0.10763185
000210 a3 e9 80 bd a8 c5 63 3c ab 34 4e 39 e2 2f 53 3b
       -0.06294563 0.013902105 0.00019665311 0.0032224585
000220 62 c1 9f bd 31 8a ce 3b 7f f1 ac bd 8a 3f 24 bc
       -0.07800557 0.006303095 -0.08444499 -0.0100249145
000230 3c dd ac 3d 17 68 87 3d 45 c8 9c bd 45 45 0d bd
       0.084406346 0.066116504 -0.07655386 -0.03448989
000240 9e 9a 81 bc 81 e8 71 bc 16 c2 be bd 85 06 1c bd
       -0.015820798 -0.014764906 -0.09314363 -0.038092155
000250 e5 89 27 bd 20 5d d4 3c b5 49 ac 3d 89 22 a2 3c
       -0.04090299 0.025923312 0.08412496 0.019791858
000260 bb 23 b7 3c 03 b5 80 bd 08 1f cb bc 5d 0e d5 bd
       0.022355905 -0.06284525 -0.02479507 -0.1040313
000270 dd 7e 81 bd 6d 06 76 3d 72 8d af 3d 02 30 4b 3c
       -0.063230254 0.06006472 0.085719004 0.012401583
000280 8b 99 91 bb 7c c5 67 bd 9a 93 32 bc 08 6a 71 bd
       -0.0044433526 -0.05658482 -0.010899449 -0.05893901
000290 a1 18 6e 3c 6e 45 8a bd 69 dc 15 bb ba 4c ab bc
       0.014532239 -0.06751524 -0.002286697 -0.02091061
0002a0 3b d9 36 bd 8e 79 c9 bd ff 30 ba 3c 38 cf bb 3d
       -0.04464076 -0.09837638 0.022728441 0.09170383
0002b0 7c e7 40 bd 53 83 1c 3d 5e e5 ad 3d 01 4d 90 3d
       -0.04709576 0.038211178 0.08491014 0.07045937
0002c0 d1 ff 1a 3d f6 16 54 bd b8 9e 4e 3d ef 98 0c bd
       0.03784162 -0.05177971 0.050444335 -0.034325536
0002d0 0a 85 e8 3c 80 be ac bd 54 04 64 bd 42 4a 9a bd
       0.02838375 -0.084347725 -0.05566819 -0.07533695
0002e0 3e 72 c2 bd 75 73 60 bd f1 c8 91 3d 05 ae 9e 3b
       -0.09494446 -0.05479761 0.07118405 0.004842522
0002f0 f7 ef 09 3c 1c 5e 81 3d 58 25 34 3d a4 20 05 bd
       0.0084190285 0.06316778 0.043980926 -0.03250183
000300 06 5d 83 bd 2c 85 a7 3c 88 16 93 bd c9 8c 7b bd
       -0.06414227 0.020449243 -0.07182032 -0.06141356
000310 63 b4 68 3d 11 0b a1 3b 6e de 37 bc 7d 33 3e bd
       0.056812655 0.0049146493 -0.011222465 -0.04643582
000320 0f e9 9d 3d fb c4 92 3d 34 dc d1 3d 65 f0 42 3d
       0.07710468 0.07166477 0.102470785 0.04759254
000330 6a 0b 97 3c 0b 09 a7 bd a9 10 43 bd 9d 5b 97 bd
       0.01843806 -0.08156022 -0.04762331 -0.07390521
000340 dc f2 6a bd 0a 73 3b bd bf 01 d0 bd b0 64 9a 3c
       -0.057360515 -0.045764007 -0.10156583 0.01884684
000350 3f 0e 4b bd 31 48 c4 3d b1 b7 fa bc f4 cc b5 bd
       -0.049574133 0.09584082 -0.030605169 -0.08876982
000360 6d 0b 64 3c a0 77 74 3d be 0e 9c bd a8 00 94 bd
       0.01391874 0.059684396 -0.07619999 -0.07226688
000370 5a 1e 4c bc 78 0b aa bd 17 29 dd bc 06 9d 95 bc
       -0.012458408 -0.08302969 -0.026997132 -0.018263351
000380 7d c4 4a 3d ca c9 7c 3d f6 b0 88 3d 39 b3 3c 3d
       0.049503792 0.06171588 0.066743776 0.046069358
000390 08 b4 62 3c ad 4a ba 3d 14 c5 96 bd 84 46 a2 bd
       0.013836868 0.090962745 -0.073618084 -0.07923606
0003a0 b6 87 40 bd 8f 77 a8 3d a3 1c 5e 3d 66 9b 8f bd
       -0.047004424 0.08225929 0.05422653 -0.07012062
0003b0 36 15 96 bc be d6 b4 3d 63 9a 03 bd aa ac 1e 3b
       -0.018320661 0.08830021 -0.032129657 0.0024211803
0003c0 87 4c 99 bc 81 ac 94 3c 59 e1 b4 3d 9f 38 ab bd
       -0.018713249 0.018148663 0.08832044 -0.08360409
0003d0 e3 86 45 3d 02 8c 0a 3b fc 65 36 bd 50 b4 4d bd
       0.04822434 0.002114058 -0.044530854 -0.050220788
0003e0 4e ae 9a bd e6 bc 80 3b c2 24 f8 bc 3b da f8 bc
       -0.07552777 0.0039287684 -0.030290965 -0.030377498
0003f0 d8 95 85 3c b9 b8 56 bd a5 80 8e 3c b9 6a 1e 3d
       0.016306803 -0.05242226 0.017395327 0.038675997

clinical.layer3.bias f4 [256]
000000 2d fc 32 3d 21 eb 8c bc d6 03 e8 3c 7c 13 25 3d
       0.043697525 -0.017201962 0.028322142 0.040301785
000010 70 dc 42 3d 1a ec 53 b9 f4 cf 75 bb 72 37 0b 3d
       0.047573507 -0.00020210483 -0.0037507983 0.033988424
000020 4c d8 2b bd 2c 49 65 3b cd 59 95 bc d9 93 74 3d
       -0.041954324 0.003498624 -0.018231297 0.05971131
000030 32 58 76 3d f7 7a 90 bc 5a 45 65 bb 56 1a b6 bc
       0.060142703 -0.01763676 -0.0034983964 -0.022229355
000040 bf e1 c9 bc f9 79 e3 3b 33 28 63 bd 9b cf 21 bd
       -0.024643777 0.0069420305 -0.05545826 -0.03950463
000050 43 72 3f 3a d3 27 57 3d dd 86 c0 bc 83 98 0b bd
       0.0007303098 0.052528214 -0.023501808 -0.034080993
000060 58 30 58 3d e2 74 09 3a 06 fb 07 bd f8 98 42 bc
       0.05278048 0.0005243552 -0.03319838 -0.011877291
000070 4e 49 3e 3d 97 14 35 3d 3e 9c 60 3c 36 72 49 3d
       0.046456628 0.04420909 0.013709126 0.049181186
000080 be 6c fb 3b 8d 34 33 bd 6f 12 3f bc 50 12 49 bc
       0.007672875 -0.04375129 -0.01166211 -0.012272432
000090 e6 65 38 3d ec 25 79 3c 2c 85 62 bd a6 ae 6d bc
       0.045019053 0.015206795 -0.055302784 -0.014506971
0000a0 41 53 2e 3b 8a 2b 1c 3d 45 2e ac 3c 60 b0 2f bc
       0.0026599916 0.03812746 0.021018157 -0.010723203
0000b0 72 6b 83 bb 75 49 7a bd 26 75 88 3c 90 cb 10 bd
       -0.004010611 -0.06110521 0.016657423 -0.035350382
0000c0 9f c4 77 bd e5 37 75 3d cc 33 2e 3c 87 e8 03 bd
       -0.060490247 0.05986776 0.0106324665 -0.032204177
0000d0 88 98 17 3d e5 85 c1 3c 06 c8 f7 3c f5 4a 60 bd
       0.0370107 0.023623416 0.030246746 -0.054758985
0000e0 94 b1 63 bd 39 7c 0e 3d 46 a8 53 3d f3 c0 83 3a
       -0.055589274 0.034786437 0.05167415 0.001005201
0000f0 22 6c 2d bd 0e b0 c7 bb f2 c0 30 bd 4f df 4a 3d
       -0.04233945 -0.0060939854 -0.043152757 0.04952937
000100 99 bc 87 bc e2 c3 0f bb 1d b4 dd 3c 65 d2 6b bc
       -0.016569423 -0.0021936824 0.027063424 -0.014393424
000110 c7 30 80 3d 20 49 77 bd 67 67 4e 3d 4c 73 7b 3d
       0.062593035 -0.06037247 0.05039158 0.061389253
000120 74 bb 35 bd 57 eb 55 3d f8 e4 d0 bb 99 ae c6 3c
       -0.044368222 0.05222639 -0.0063749515 0.024253177
000130 54 5f 15 3b 09 2f b9 bb f8 4e 21 bd 67 70 cd bc
       0.0022792416 -0.005651359 -0.03938195 -0.025078012
000140 66 2e 5b bd bf d7 01 bd ab d5 b5 bc 7e c1 62 3d
       -0.053511046 -0.031699892 -0.022196611 0.05536031
000150 7b 07 74 bd c3 24 7e 3d 1b 66 83 bc 84 a0 42 3d
       -0.059577446 0.062046777 -0.016039899 0.04751636
000160 cc 21 65 3d 74 73 2c bd 30 44 61 bd 0c 54 8c bc
       0.055940434 -0.042102292 -0.05499667 -0.01712992
000170 db e5 44 bd ad c5 a6 bc d0 99 48 3d e5 00 05 3c
       -0.04807077 -0.020357931 0.048974812 0.008117889
000180 12 f5 a9 3c 1c c4 b4 39 10 6c 8e bc 73 43 03 3d
       0.020746741 0.00034478388 -0.017385513 0.032046746
000190 72 ef 3e 3d 38 a7 0b bd 60 03 55 bd 16 7a 05 3d
       0.04661507 -0.03409502 -0.05200517 0.032587133
0001a0 8b cf 33 bd 5b e8 1a 3d 25 19 bd 3c 94 58 c8 39
       -0.0438991 0.037819248 0.023083279 0.00038212969
0001b0 ca 1a 47 bd 18 b7 de 3b e7 40 4f bd 71 6d 79 bd
       -0.048609532 0.006796729 -0.050599005 -0.060895387
0001c0 66 34 03 bb 50 43 3d 3d c5 d2 62 bb b1 57 33 3d
       -0.0020020246 0.046206772 -0.0034610492 0.0437848
0001d0 85 44 9f 3c f7 0e 82 bc 4d 12 e9 3c b3 a1 9c bc
       0.019441852 -0.015876276 0.02845111 -0.019120073
0001e0 b4 58 40 bc 50 bb 10 3d 7f a4 9e bc 82 8b 41 ba
       -0.0117398985 0.035334885 -0.019365547 -0.0007383154
0001f0 ff 2b 93 3c 33 72 d3 ba fa 0b 16 bd 78 83 c0 bb
       0.017965315 -0.0016132056 -0.036632515 -0.0058750473
000200 7f c1 17 3a b6 be 76 bc 6c 94 66 3d d9 b2 67 3c
       0.0005789026 -0.0150601175 0.05629389 0.014141762
000210 7c 12 ea 3c 7e ce a0 3c e2 f7 59 bd a6 8e 29 3d
       0.028573267 0.019629713 -0.053214915 0.041395806
000220 6b ae 00 3d 5f 40 b9 bc 99 04 ad bb 99 9d 66 bd
       0.031416338 -0.022613702 -0.005280089 -0.05630264
000230 81 b1 c3 3c 45 63 08 bd d5 56 ac bc 7a 5a 4b 3d
       0.023888351 -0.033297796 -0.021037498 0.049646832
000240 72 d9 54 3d 69 3e 32 bd c7 21 71 bd e4 b2 12 3c
       0.051965185 -0.04351655 -0.058870103 0.008953784
000250 f9 f3 35 bd 9a 0d 48 bb 98 98 a1 3c f6 24 6f bd
       -0.044422124 -0.0030525685 0.019726083 -0.058384858
000260 09 15 79 3d 29 6c 76 3d cd d8 3c 3d dd 59 0a 3d
       0.060811076 0.060161743 0.046105195 0.033777107
000270 98 5a 3c bc 7d 04 11 3d a7 22 4d bd 6e 81 f0 ba
       -0.011496209 0.03540467 -0.050081875 -0.001834912
000280 ed 33 0d bd 46 6f df 3c 29 19 50 bc 72 4a b6 3c
       -0.03447335 0.027274739 -0.012701311 0.022252295
000290 ff 79 03 3c 9a 41 1e 3d 65 db 5a bd af e3 5b 3b
       0.008024692 0.03863678 -0.053431887 0.0033552458
0002a0 13 04 08 bd fa eb e7 3c 73 83 37 3d 67 fe fb 3c
       -0.03320701 0.028310765 0.044803094 0.030760957
0002b0 82 ff 3d bd 04 f3 4b 3d a8 7f 29 3d 0b 97 22 bd
       -0.04638625 0.049792305 0.041381508 -0.039694827
0002c0 66 d2 7d 3c b9 d7 b5 bc 19 b3 d9 bc 44 b5 9d bc
       0.015492057 -0.022197591 -0.026574658 -0.019251473
0002d0 8c 57 3e 3d 6f 54 8d bc 94 82 61 3d 11 d6 69 bd
       0.04647021 -0.017252175 0.05505617 -0.057088915
0002e0 a7 7b 58 bd 18 e0 cb bc fe 7b 46 bd d8 59 9b bc
       -0.0528523 -0.02488713 -0.048458092 -0.01896374
0002f0 50 3f 83 bc c6 ec 45 bd 3d 5a f1 3c 6d df 67 bd
       -0.0160214 -0.048321508 0.029461974 -0.05660956
000300 84 a4 cf 3c da 32 d9 3b a7 88 13 bc f4 f0 c8 3c
       0.025347002 0.0066283764 -0.009004748 0.024528958
000310 9d e7 57 bd c1 7d 1a bd 4b 91 17 3d 7e f8 52 bd
       -0.052711118 -0.037717585 0.037003797 -0.051506512
000320 13 16 2e bc a8 45 64 bd fd 8b c2 bb 47 63 6b 3d
       -0.01062538 -0.055730492 -0.005937098 0.057467725
000330 0f 51 24 bd 69 98 77 bd 41 5b 7c bd 18 fb 6c 3d
       -0.040116366 -0.060448084 -0.061610464 0.05785665
000340 5d 25 31 3d ce dd 28 bd d2 59 31 3d 0d 89 e8 39
       0.043248523 -0.041227154 0.04329855 0.000443526
000350 97 30 81 bb 62 0b 6e 3d 0e 9e 76 3d 15 21 88 bb
       -0.00394256 0.058116324 0.060209326 -0.0041543343
000360 46 e2 e7 bb 0f 2e fe bc ee 01 3c 3d 9a a4 76 3c
       -0.0070765344 -0.031027822 0.045900278 0.0150538925
000370 e4 b4 17 3d 34 9c b2 3c 5a ff 41 3a 66 4f 0c bd
       0.037037745 0.021803 0.0007400416 -0.034255408
000380 99 58 29 bc b5 f1 01 3d c0 54 83 3c 68 db b2 bc
       -0.010336065 0.03172465 0.016031623 -0.021833137
000390 e6 57 fa 3b 41 dc 03 bd f7 fb 31 3d 15 5b f1 bc
       0.007639873 -0.032192472 0.043453183 -0.029462377
0003a0 71 b2 bc bb 2f 5f 24 3d 85 3d 70 3d 9a 2d 6a bd
       -0.0057585766 0.040129837 0.05865242 -0.057172395
0003b0 f9 06 de 3c 26 cb b9 3b a1 f0 8b 3c 97 13 4c bd
       0.027102934 0.005669969 0.017082514 -0.04982337
0003c0 eb 17 d1 ba df 21 50 3d 93 48 86 bc ce 26 20 3d
       -0.0015952563 0.050813552 -0.016392028 0.039099507
0003d0 a3 16 79 3d 21 ba 01 bd 37 af 10 bd 91 b9 2a 3d
       0.060812604 -0.031671647 -0.035323348 0.041680876
0003e0 a9 92 06 bb c4 ea 16 bc 1f 86 eb bc ec 4f 38 bc
       -0.0020534194 -0.009211246 -0.028750477 -0.011249524
0003f0 44 e9 30 bd ab 6d 48 3a 41 1d 71 3d 24 6a c6 bc
       -0.04319121 0.00076457363 0.05886579 -0.024220534

clinical.layer4.weight f4 [8, 256]
000000 52 6a 79 bd e8 48 6d bd 2d fd 19 3e d0 e1 1e bd
       -0.06089241 -0.057930857 0.15037985 -0.03878957
000010 e3 ab 8e bb bc e3 db 3c c1 86 db bd e7 db 88 3a
       -0.0043539866 0.02684199 -0.10719062 0.0010441513
000020 44 4b e1 bd 16 2c 89 3d cb fc 28 bd d5 73 9d bd
       -0.11000684 0.06697862 -0.041256707 -0.07688109
000030 cb 86 94 bd 19 ff 19 be 38 a5 c0 3d 46 ea 0b be
       -0.07252272 -0.15038718 0.09406513 -0.13663587
000040 72 b5 f8 3c b6 67 a6 bd 79 44 90 bd 83 16 45 3d
       0.030359957 -0.0812525 -0.0704431 0.048117172
000050 f5 94 d2 3d 19 19 4c bb eb f1 97 3d 77 03 cd bd
       0.102823175 -0.003114289 0.07419189 -0.100104265
000060 8b 93 0d 3e af a9 c1 bd 0e ec 2e 3b fd 7d 49 bc
       0.13825814 -0.09456193 0.0026690993 -0.012298104
000070 74 82 a3 bc b3 6d 7f bd 2f 24 0b be ec 17 8d bd
       -0.019959666 -0.062360477 -0.13588022 -0.06889328
000080 8c c9 0f be 41 0f 7b bc 08 30 b3 bd 44 bc f9 bd
       -0.14041728 -0.015323461 -0.087493956 -0.12194112
000090 99 2d 1b bd c4 a8 17 3e 6e 1d 8f 3d a4 ad 01 3e
       -0.037885282 0.14810473 0.06988035 0.12663895
0000a0 d4 e8 3e 3d f0 ac 66 3d ac 31 12 be 81 86 f3 3d
       0.04660876 0.05631727 -0.14276761 0.11890889
0000b0 e8 8a f6 3d fc b8 9a 3d 58 8c 54 3d 2b be 43 3d
       0.12038213 0.07554814 0.051891655 0.04778878
0000c0 b3 ba 18 3e 3d c8 0f 3e c9 7e 1a 3d 9a d8 36 3d
       0.1491497 0.14041229 0.037718568 0.04464016
0000d0 23 76 81 3c 6e 4b 2d bd 09 1f 10 3e 31 d6 4b bd
       0.015803402 -0.042308263 0.14074339 -0.049764816
0000e0 2c d3 7f bd 41 d5 55 3d 70 11 c2 3d 0f f4 12 3c
       -0.06245725 0.052205328 0.09475982 0.008969321
0000f0 c0 89 54 bd 87 83 c6 3d 91 9f e2 3d f3 00 08 3e
       -0.05188918 0.096930556 0.11065591 0.13281612
000100 bc f9 09 bd 47 32 82 ba cd 0c 52 bd a9 62 8d bd
       -0.03368543 -0.0009933197 -0.05128174 -0.069035836
000110 f2 13 07 3e cf 8d 1c 3d 2b 03 af 3d ce f0 31 bd
       0.13191202 0.038221177 0.08545526 -0.04344254
000120 ac 1e b2 bd 04 47 91 3c ac 24 0c 3e ec 62 43 3d
       -0.086972564 0.017734058 0.13685864 0.04770176
000130 1e 7d 2c bd 3e 1e 0a be c2 2b 82 3d 6b 00 ac bd
       -0.04211151 -0.13488099 0.063560024 -0.08398517
000140 a4 59 18 be e6 6e 85 bd 33 9a 0f 3e 60 04 1b 3e
       -0.14877945 -0.06515293 0.14023666 0.15138388
000150 28 32 bb 3d 37 86 14 be fc af 98 3d 50 c8 05 3d
       0.09140426 -0.14504324 0.07455441 0.032661736
000160 01 c3 dc bd b5 9f f8 3d 3f c5 e5 3d 95 c3 98 bd
       -0.107793815 0.12139837 0.11219262 -0.07459179
000170 23 27 96 3d 5f 25 c3 bd 0e f1 0e be 70 c1 cf 3d
       0.073316835 -0.09528612 -0.13959143 0.10144317
000180 09 60 82 3d 35 2d aa 3d 43 46 24 bb 43 36 02 3e
       0.063659735 0.08309404 -0.0025066293 0.12716012
000190 52 49 41 bd ce 65 d7 bd 5f ba d0 bd e7 dc 81 bd
       -0.047189064 -0.105174646 -0.101917975 -0.06340962
0001a0 d7 80 d2 3b 6a 20 05 bd a7 2b db bd b9 2b d8 bb
       0.0064240503 -0.032501616 -0.107016854 -0.006597009
0001b0 c4 fd 09 3d e8 79 a8 bd ed 5f 8a 3d a3 11 b4 3c
       0.033689275 -0.08226377 0.06756578 0.021981066
0001c0 cc cf ab bd 58 7c 98 3c bd 84 51 bb 09 3a c6 3d
       -0.083892435 0.01861398 -0.0031969987 0.09679038
0001d0 a6 dd 0b 3c 4f 25 c7 3d 84 ce ce 3d 80 69 66 3c
       0.008536732 0.09723913 0.100979835 0.014063239
0001e0 50 00 4e 3a 9f db f5 3d 86 45 23 bd 20 ff be 3d
       0.0007858323 0.1200478 -0.039861225 0.09326005
0001f0 50 b5 cb bd 23 14 b7 3a e5 a2 65 3d 83 92 18 3e
       -0.09946692 0.0013967793 0.05606355 0.1489964
000200 d3 c3 11 be c3 a5 e3 3d 3e 0a 90 bd d6 f5 6e bc
       -0.14234857 0.11115601 -0.070332035 -0.014584979
000210 0d 3e 32 3c f1 c4 ff ba 79 a8 b3 3d a1 a3 4e bc
       0.010879052 -0.0019513649 0.08772368 -0.012612254
000220 e1 8f 00 3e 39 9a 94 bc 0a 13 a3 bc 21 73 ce 3d
       0.12554885 -0.018139945 -0.01990654 0.10080553
000230 af a0 1c 3d 39 45 f2 3c 5c f1 b2 bd 7b 1b 69 3d
       0.038239177 0.029574024 -0.08737442 0.056910973
000240 dc 06 a9 3d 53 03 8f 3c 42 d9 18 be 11 97 d5 bc
       0.082532614 0.01745764 -0.14926627 -0.02607301
000250 43 9e 19 be d2 6a 83 bd 58 61 f7 3b 05 50 12 3e
       -0.15001778 -0.06416859 0.007549446 0.14288338
000260 ba 4a 39 bd 60 fb 94 3d 17 ff ce bd 9f 38 90 3c
       -0.04523728 0.072745085 -0.10107248 0.017605124
000270 23 35 1a 3e e0 4f ca b9 15 81 c6 bd 74 0e 0f be
       0.15059333 -0.00038587954 -0.09692589 -0.13970357
000280 f8 5c 08 3d 31 e5 4c bd fa 93 d8 3d 3c e5 8c 3a
       0.033291787 -0.05002326 0.10575099 0.001074947
000290 63 bf a5 3d cf 33 d2 3c 35 92 bf bd e7 ec 1f 3d
       0.08093145 0.02565947 -0.09354059 0.039044287
0002a0 d9 06 91 bc 92 8f f8 bc 98 5e a9 bd 67 62 c0 bd
       -0.01770346 -0.030341897 -0.082699955 -0.09393769
0002b0 8e 95 9e bd 36 ae 9e bd 59 98 88 3d 97 67 d6 bd
       -0.07743369 -0.07748072 0.06669683 -0.10468977
0002c0 1b fb 6c 3d 96 ea fd bd 53 bb 03 3c 36 41 63 3c
       0.05785666 -0.12398259 0.008040267 0.013870528
0002d0 b4 cc e4 3d f0 c9 dd bd fd a8 54 bd d2 5e a8 bd
       0.111718565 -0.10829532 -0.051918972 -0.082212105
0002e0 53 79 8f bc 39 9a a4 bd b9 3a 1a 3e 1a 05 81 bd
       -0.017513907 -0.08037228 0.15061463 -0.06299801
0002f0 64 40 03 3d 25 40 88 bc 0a a5 de 3d 02 06 f0 bd
       0.03204383 -0.016632149 0.108713225 -0.11719896
000300 fe e6 b6 bc a7 9d 40 3d ee 46 16 be 26 cb 90 bc
       -0.022326943 0.04702535 -0.14675495 -0.017674994
000310 96 a8 f5 bd 2a 65 fb 3b 25 d3 80 3c 5a ca 02 3d
       -0.11995046 0.007671972 0.015725682 0.03193126
000320 1a 58 0a be e7 7d c0 3d f5 d8 18 3e 63 03 11 be
       -0.1351017 0.09399014 0.14926513 -0.14161448
000330 b8 a7 4d bd ba d9 47 3d fa d3 be 3d 1a 09 09 3e
       -0.050208777 0.048791625 0.09317775 0.13382378
000340 28 24 0d bd 1a 5b aa 3d 65 f9 0b 3e 42 c1 ee bc
       -0.03445831 0.083181575 0.13669355 -0.029144887
000350 d2 a3 89 3d 78 cf ed bd b4 7d d3 bd 29 f4 da bd
       0.06720699 -0.11611837 -0.1032671 -0.10691101
000360 5b 9c 82 bd e2 92 e5 3d 2d c8 56 3d fd e7 a2 3d
       -0.06377479 0.11209656 0.052436996 0.079544045
000370 07 76 09 bd db 0d af 3d ae b8 cd bd b6 30 80 3d
       -0.033559825 0.085475646 -0.100449905 0.06259291
000380 6f fd 00 3e 16 a7 8f 3c ec f8 af bd 82 82 14 3e
       0.12596677 0.017535727 -0.085924 0.1450291
000390 21 df fe 3d 6c 86 d8 3d e6 f6 df 3d 4b aa 06 be
       0.12444902 0.10572514 0.10935764 -0.13150899
0003a0 89 3a fd 3c 78 75 8a 3d 13 8b 14 3c 8a ee 8d 3d
       0.0309117 0.06760687 0.009066361 0.06930263
0003b0 09 ce d3 3d fd c9 df bd 2e eb 42 3d 60 d0 c8 3d
       0.103420325 -0.10927198 0.047587566 0.098053694
0003c0 cb 93 99 bd 9e 4a 04 be 83 ca 54 3d 85 01 ab 3d
       -0.074988924 -0.12919089 0.051950943 0.08349899
0003d0 fa 0c 2f 3d 71 ca 29 3c d0 27 1a be 9f ca 0b bd
       0.042736985 0.010363207 -0.1505425 -0.03412878
0003e0 21 73 b5 bd a9 f2 d3 3c a2 c2 0d be 43 45 fa bd
       -0.0885985 0.025872545 -0.13843778 -0.12220242
0003f0 25 a7 83 3d 99 bd ed bd b2 77 88 bd 63 7a a7 3d
       0.06428365 -0.116084285 -0.06663455 0.0817764

clinical.layer4.bias f4 [8]
000000 11 dc 09 3d 85 b0 64 3d 4c 1e 08 bd 4e 65 76 bd
       0.033657137 0.055832405 -0.03323202 -0.060155205
000010 8e 7c ce 3c d7 0b e2 3a 39 7d 79 3d 31 2e 62 3c
       0.025205877 0.001724596 0.060910437 0.013804958

clinical.batchnorm1.weight f4 [128]
000000 27 ff 7f 3f 00 00 80 3f 00 00 80 3f c3 01 80 3f
       0.99998707 1.0 1.0 1.0000538
000010 7d 2c 80 3f 00 00 80 3f 90 0e 80 3f dd 18 80 3f
       1.0013577 1.0 1.0004444 1.0007588
000020 2b 06 80 3f 60 02 80 3f 1d 03 80 3f a6 f6 7f 3f
       1.0001882 1.0000725 1.000095 0.9998573
000030 00 00 80 3f 00 00 80 3f 19 de 7f 3f 00 00 80 3f
       1.0 1.0 0.9994827 1.0
000040 00 00 80 3f ec 02 80 3f a2 de 7f 3f d3 08 80 3f
       1.0 1.0000892 0.99949086 1.0002693
000050 00 00 80 3f 4b 0a 80 3f 00 00 80 3f 00 00 80 3f
       1.0 1.0003141 1.0 1.0
000060 b7 03 80 3f 00 00 80 3f bd 11 80 3f 54 0c 80 3f
       1.0001134 1.0 1.0005413 1.0003762
000070 00 00 80 3f ca 09 80 3f e8 e7 7f 3f 14 09 80 3f
       1.0 1.0002987 0.99963236 1.000277
000080 00 00 80 3f 1f 0f 80 3f d4 f8 7f 3f de 01 80 3f
       1.0 1.0004615 0.99989057 1.000057
000090 63 11 80 3f af f7 7f 3f 00 00 80 3f 37 e8 7f 3f
       1.0005306 0.9998731 1.0 0.99963707
0000a0 43 ec 7f 3f 6d 00 80 3f 8f 01 80 3f 00 00 80 3f
       0.9996988 1.000013 1.0000476 1.0
0000b0 04 09 80 3f 00 00 80 3f 27 03 80 3f ab f7 7f 3f
       1.0002751 1.0 1.0000962 0.99987286
0000c0 00 00 80 3f ce f1 7f 3f 00 00 80 3f 00 00 80 3f
       1.0 0.9997834 1.0 1.0
0000d0 b6 f5 7f 3f 5b fc 7f 3f 90 37 80 3f 70 02 80 3f
       0.999843 0.9999444 1.0016956 1.0000744
0000e0 63 02 80 3f 4c 09 80 3f 00 00 80 3f 28 ea 7f 3f
       1.0000728 1.0002837 1.0 0.9996667
0000f0 33 d4 7f 3f cf 0d 80 3f 5b 02 80 3f 23 04 80 3f
       0.99933165 1.0004214 1.0000719 1.0001262
000100 c1 eb 7f 3f 00 00 80 3f 5e 19 80 3f ae 01 80 3f
       0.99969107 1.0 1.0007741 1.0000513
000110 0f 24 80 3f ae 04 80 3f ec 0b 80 3f 46 ed 7f 3f
       1.0011004 1.0001428 1.0003638 0.99971426
000120 76 e7 7f 3f d3 ec 7f 3f b7 f8 7f 3f e6 fd 7f 3f
       0.99962556 0.9997074 0.99988884 0.99996793
000130 00 00 80 3f 2c ed 7f 3f 7b 08 80 3f a9 f0 7f 3f
       1.0 0.9997127 1.0002588 0.99976593
000140 00 00 80 3f 00 00 80 3f 00 00 80 3f c5 f0 7f 3f
       1.0 1.0 1.0 0.9997676
000150 18 42 80 3f c1 03 80 3f 00 00 80 3f 00 00 80 3f
       1.002017 1.0001146 1.0 1.0
000160 68 dd 7f 3f 3f 03 80 3f 98 14 80 3f 31 1b 80 3f
       0.99947214 1.0000991 1.0006285 1.0008298
000170 00 00 80 3f 00 00 80 3f 03 f2 7f 3f 00 00 80 3f
       1.0 1.0 0.99978656 1.0
000180 bb 10 80 3f 59 1a 80 3f 00 00 80 3f 5d 00 80 3f
       1.0005106 1.0008041 1.0 1.0000111
000190 17 0c 80 3f ba 02 80 3f 24 d8 7f 3f 00 00 80 3f
       1.000369 1.0000832 0.9993918 1.0
0001a0 00 00 80 3f 2c dc 7f 3f 00 00 80 3f 00 00 80 3f
       1.0 0.9994533 1.0 1.0
0001b0 04 06 80 3f 30 f9 7f 3f 00 00 80 3f 9b 10 80 3f
       1.0001836 0.99989605 1.0 1.0005068
0001c0 d8 0b 80 3f af cd 7f 3f 00 00 80 3f 52 0f 80 3f
       1.0003614 0.99923223 1.0 1.0004675
0001d0 ec e8 7f 3f 2a 00 80 3f e7 14 80 3f 6a ce 7f 3f
       0.99964786 1.000005 1.0006379 0.9992434
0001e0 bb 07 80 3f b8 03 80 3f 00 00 80 3f a2 d5 7f 3f
       1.0002359 1.0001135 1.0 0.9993535
0001f0 a6 e7 7f 3f 00 00 80 3f 28 34 80 3f 00 00 80 3f
       0.9996284 1.0 1.0015917 1.0
