pretrained/trained.pth (torch, 511006 bytes, 39 tensors)

clinical.layer1.weight f4 [128, 5]
000000 b4 3d 52 be e9 68 45 be 34 9e 06 3e 4b e3 07 be
       -0.2053135 -0.19278301 0.13146287 -0.13270299
000010 44 bf 2e bd 1f 48 34 be 57 f6 dc 3d c4 e0 c2 bd
       -0.042662874 -0.17605637 0.10789173 -0.09515527
000020 9e 70 a0 ba 5b a8 29 bc df a3 54 be 26 fd 35 be
       -0.0012240594 -0.0103550805 -0.20765637 -0.1777235
000030 d4 bf 1b bd fe e7 ad 3d 55 ea f0 bd c7 53 6d bd
       -0.03802474 0.084915146 -0.11763445 -0.057941224
000040 ce 0b 4d bd 66 61 be 3d 8c 48 18 3e e2 73 56 be
       -0.050060086 0.09295921 0.14871424 -0.20942643
000050 2d c2 ef bd e0 22 6a bb 20 9f 73 3d c2 8b 0d be
       -0.11706958 -0.0035726354 0.059477925 -0.13822845
000060 d3 f1 85 3b 52 d0 40 be 51 f7 50 3e 13 90 b3 3d
       0.0040876656 -0.18829468 0.20406844 0.08767714
000070 a2 7f 22 be 13 42 1f be a2 25 40 3e b5 8b fc 3c
       -0.15869 -0.15552549 0.18764356 0.030828336
000080 fb f1 58 3e d8 22 9c bd f7 e1 36 be d8 0d a8 bd
       0.21186058 -0.076238334 -0.17859636 -0.082057655
000090 d9 25 a6 3d 6d ac 3a be 4b 86 08 3e 9a 1c 40 3e
       0.081126876 -0.18229838 0.13332479 0.1876091
0000a0 69 3a 12 be f0 b5 10 be 1c 82 2f 3e 19 68 ce bc
       -0.14280094 -0.14131904 0.17139477 -0.025196122
0000b0 0d 87 55 bd 38 bb 03 be 5b 10 2e 3e 92 16 3c 3e
       -0.052130748 -0.12864387 0.16998427 0.18367985
0000c0 1e 17 2d 3d dc 82 46 be e4 90 c9 bd b3 93 d4 3d
       0.042258374 -0.19385856 -0.09842089 0.10379734
0000d0 34 4b 58 bd 2c 36 f4 bd 54 23 55 3e e0 ef ba bd
       -0.052806094 -0.11924395 0.20814258 -0.09127784
0000e0 73 08 58 be 93 5c 30 3d 87 06 c7 b9 0f c2 49 3c
       -0.21096973 0.043057036 -0.000379611 0.012314334
0000f0 e7 6e 08 be 32 30 4b bb 37 5e 88 bd d4 20 4c be
       -0.13323556 -0.0031004068 -0.06658595 -0.19934398
000100 c9 81 ce bd 0b f8 6b bd be fc 0b 3e 64 f1 1f 3e
       -0.10083348 -0.0576096 0.13670632 0.15619427
000110 00 05 50 3c 74 de 39 be 7a 30 d5 bd 41 83 35 3d
       0.012696505 -0.18151265 -0.10409637 0.044314627
000120 1f ba 11 be ad c0 3a 3e d5 a6 fa bd e5 34 52 be
       -0.14231156 0.18237562 -0.12238852 -0.2052799
000130 fb d4 af bd 73 1d 72 3d ab 16 52 3e 4c 2a 14 be
       -0.08585545 0.059110116 0.2051646 -0.1446926
000140 fb 49 14 bd bd cb 26 3c 3f b8 d7 3c 3b f7 49 bc
       -0.036203366 0.010180411 0.026332973 -0.012327011
000150 cc 5d 10 be 96 5f f7 3c e3 a7 73 3d e0 fa e7 bd
       -0.1409828 0.030196946 0.05948628 -0.113271475
000160 ed ac 06 bb 48 a4 0f 3e bc 63 2d 3e 22 18 8e bd
       -0.002054985 0.14027512 0.16932577 -0.06938197
000170 d9 75 3a be 19 d4 dc 3d bc 5c f2 bd 18 41 bf bd
       -0.18209018 0.10782642 -0.11834094 -0.093385875
000180 af cb d9 bd 98 e0 24 be 47 eb cb 3d e3 23 59 3e
       -0.10634553 -0.161013 0.09956985 0.21205096
000190 9c b7 c7 3d 9b a9 16 be 6b bb 8c 3d ec 6e 01 3d
       0.097518176 -0.14713137 0.06871685 0.031599924
0001a0 26 29 9e 3d d0 70 6b bd bf b6 1a be ac eb fc bd
       0.07722692 -0.057480633 -0.15108775 -0.12349638
0001b0 03 5b 32 be e3 4d b5 3d c6 cc 2e 3e b7 47 41 3e
       -0.1741753 0.08852746 0.17070302 0.18875013
0001c0 93 c0 c5 bd 61 55 57 3d af 56 35 be a9 f0 40 bd
       -0.09655871 0.052571658 -0.17708848 -0.04710451
0001d0 8f 2c 50 be 45 4d d0 bd 8d 62 27 be e3 ff 26 3d
       -0.20329498 -0.10170988 -0.16346188 0.040771376
0001e0 4d 85 33 be f4 a2 f8 3c 64 44 3b 3e 09 c4 08 be
       -0.17531319 0.03035114 0.18287808 -0.13356031
0001f0 8c 3d 88 3d df 8d 97 3a e4 c2 56 3e eb c8 cd 3d
       0.06652364 0.0011562667 0.20972782 0.10048088
000200 99 5d d1 3d 11 a9 d9 bd 9b 29 da 3c 76 76 12 3e
       0.102229305 -0.1062795 0.026631167 0.14303002
000210 01 e8 0a 3d b3 5f 9c bc 96 0e e4 3d 5b 7c 14 be
       0.033912662 -0.019088602 0.111355945 -0.14500563
000220 01 d6 2b bc a5 40 90 bd 78 98 2a bc 62 60 a5 bd
       -0.010488034 -0.0704358 -0.010412328 -0.08075024
000230 66 46 bb bd aa 21 db 3c 7f db 11 3c 64 c3 4f be
       -0.09144287 0.02674945 0.00890243 -0.2028938
000240 9e 31 08 be d8 9b 24 3e 66 51 45 3d 88 ba ff 3c
       -0.13300177 0.16075075 0.04817333 0.031216875
000250 fa b0 4e be a6 df d1 3c 0b ed 3b 3e 24 73 42 3e
       -0.20184699 0.02561934 0.18352143 0.18989235
000260 78 78 48 be aa c6 3f 3e 78 40 a1 bd 09 0f 2a be
       -0.19577205 0.18728128 -0.078736246 -0.16607298
000270 a9 d7 51 3d d0 48 d5 3d a8 b0 45 bc aa 5f f9 3d
       0.05123106 0.104142785 -0.012066044 0.121764496
000280 89 4b 50 3e 2b 83 55 bd 0a 73 29 be e0 8f 3f bb
       0.20341314 -0.052127045 -0.1654779 -0.0029230043
000290 cb 4d 75 3c 6a fa f7 bc 20 ac 3d be 60 b4 ec 3d
       0.014972161 -0.030270774 -0.18522692 0.11557841
0002a0 f2 5e 74 3d b0 df 2e 3e fb 5e f7 3d 4f 9a 34 3d
       0.05966086 0.17077518 0.12078663 0.044092473
0002b0 98 ca 32 bd 0d f2 1e 3d e1 65 b9 bc 2e ac 30 3e
       -0.04365024 0.038805056 -0.022631587 0.17253181
0002c0 f2 f3 53 3e 52 a9 84 3c 7f cf 49 3d b7 b9 34 3e
       0.20698527 0.01619402 0.04927015 0.1764897
0002d0 ef 2f 41 3e 98 d5 df 3d 9c 88 94 3d cc 8f 34 bc
       0.18865941 0.10929412 0.07252619 -0.011020612
0002e0 44 41 e4 3d e1 8e a1 3d f7 29 81 3d 3d 31 b3 bd
       0.11145261 0.0788858 0.06306832 -0.08749626
0002f0 da 7a 53 be bb 34 43 3e f9 ae 53 bd 2b af 47 3b
       -0.20652333 0.19063084 -0.05168054 0.0030469398
000300 4a f7 e5 3d 58 49 4e be 05 d7 9f 3d eb c6 45 be
       0.11228807 -0.20145166 0.078046836 -0.19314162
000310 71 8f 8d bd 1b a4 58 be 69 07 91 bd c1 f6 57 3e
       -0.06912125 -0.21156351 -0.070814915 0.21090223
000320 53 3a a9 3d 1d cb 17 3d 2e 2e 21 3d ab 54 07 3e
       0.082630776 0.03705894 0.03935068 0.13215892
000330 61 60 8b bd 62 51 09 3e 14 f9 0f bd c3 44 45 3e
       -0.06805492 0.13409951 -0.03514965 0.19264512
000340 5b c5 f0 3d 52 ad 28 bd de 01 6b 3d 18 5e 7c 3d
       0.117563926 -0.041180916 0.057374828 0.061613172
000350 b0 c0 36 3d 99 3c dc 3d b2 b1 4e 3e bd 2e ba bd
       0.044617355 0.107537456 0.20184973 -0.09090946
000360 a6 c8 63 3d df 01 aa 3d ce db f8 3d 1d 47 e5 3d
       0.055611275 0.08301138 0.121512994 0.111952044
000370 4e 8e a7 bd 24 f0 aa 3c a8 41 40 3e 94 62 8a bc
       -0.08181439 0.020866461 0.18775046 -0.016892709
000380 df 36 46 be 98 2a 43 3e 06 1b cc bc 41 24 34 3e
       -0.19356869 0.19059217 -0.02491523 0.17591955
000390 d2 c6 06 3e 4f c0 08 be 65 61 2e be d6 0b bd 3d
       0.13161781 -0.1335461 -0.1702934 0.09230773
0003a0 fd 0c a2 3d fd eb 05 be a2 21 1e 3e df 88 1b 3d
       0.079126336 -0.13078304 0.15442517 0.037972327
0003b0 8a b3 43 be 1c 1d a2 3d 38 b3 e6 bc 40 db 25 3d
       -0.19111457 0.079157084 -0.02816163 0.040492296
0003c0 b9 ae 8a 3d 2b 2a ff 3d f3 df 29 be f1 3d 96 bc
       0.06771607 0.12459215 -0.16589336 -0.018340083
0003d0 7d 34 51 3e 7e 9d 1c 3e d4 5e a0 bc 46 0b c7 3d
       0.20430179 0.15294454 -0.019576468 0.09718947
0003e0 d5 9c 4c be 4e 3d 08 3e cf 2f 52 be 4a ae 3b be
       -0.19981702 0.13304636 -0.2052605 -0.18328205
0003f0 e2 14 c5 3c ec b5 b3 bd 87 c9 b2 3d 61 d5 5a bc
       0.02405781 -0.08774933 0.087298445 -0.013356538

clinical.layer1.bias f4 [128]
000000 2d 9f a7 be 23 a2 b7 3e a0 85 ab be 44 28 9f be
       -0.3273863 0.35865888 -0.33500385 -0.31085408
000010 35 ee 16 be 0e da 31 bd fd c3 8a 3c bb 11 b9 3e
       -0.14739306 -0.043420844 0.016939158 0.3614634
000020 24 44 21 3e 69 e8 9a 3d 2b 98 14 be 1c 1d ef 3d
       0.1574865 0.0756386 -0.14511172 0.11675474
000030 33 ee df be 09 97 65 3e ad 34 de bc 70 5c e3 be
       -0.4373642 0.22420897 -0.027124727 -0.44406462
000040 84 75 e6 3d d4 86 ab 3e 26 d3 c4 3e e2 93 b4 3d
       0.11252883 0.33501303 0.38442343 0.08817269
000050 e1 35 b4 be 9e 57 91 3e e9 0c 50 3d 82 e3 a2 be
       -0.35197356 0.2838716 0.050793562 -0.318142
000060 c3 14 da 3e e2 0b a7 bb 97 f9 2c 3c 6f 1a 88 be
       0.42593965 -0.005097852 0.010557554 -0.26582667
000070 d0 b9 d2 3d 89 ce fc bd ae f8 d6 3e 9d e4 87 3e
       0.10289347 -0.12344081 0.41986603 0.26541606
000080 b9 7f a2 bd c6 19 7a 3e f1 4b aa be 6e 92 c1 3e
       -0.079345174 0.24423894 -0.33261064 0.3780703
000090 b6 ba d9 3e 8f 11 5b be ea 40 be 3e 94 f3 6d be
       0.42525262 -0.21393417 0.371589 -0.23237449
0000a0 17 d1 48 3d f1 8a b7 bd fb ae 30 bd 35 9e f2 bc
       0.04902753 -0.08962048 -0.043135624 -0.029616455
0000b0 31 f6 ad be 73 e1 80 3d 6c bb 57 be 8f bc b4 3e
       -0.33976892 0.06293001 -0.2106759 0.3530011
0000c0 fb 10 83 be 5c a5 1c be a5 92 95 3e e1 4d 2d 3d
       -0.25598893 -0.15297455 0.29213443 0.0423106
0000d0 eb c1 35 be 7c a8 45 3d 16 97 8f 3e 42 11 f7 bd
       -0.17749755 0.048256382 0.28044957 -0.120638385
0000e0 d2 fd 6a 3d 81 5f d3 3d 17 24 d4 be 2b 66 96 3b
       0.05737097 0.1032095 -0.41433784 0.004589816
0000f0 da 75 70 be 95 ea c2 3c 5c a9 7e 3e b9 b8 71 be
       -0.23482457 0.023793498 0.24869293 -0.23605622
000100 8a d8 14 be 87 86 37 3d e8 5b 7e be aa 4c 22 be
       -0.14535728 0.04480603 -0.24839747 -0.15849558
000110 b9 10 ee 3d 4b b5 0c 3e 98 bf ca bd e2 f1 e3 3d
       0.11624283 0.13741033 -0.09899825 0.1113012
000120 c8 ff 96 3e d3 cc b6 3e f2 cb 9a be f6 f3 37 3e
       0.2949202 0.35703143 -0.30233723 0.17964157
000130 39 b4 b9 3e 8d d1 93 3e 66 90 8d be 81 f4 8b be
       0.3627031 0.28870812 -0.2764923 -0.2733498
000140 15 ca 22 3e c2 53 35 be 4e ac 93 be cd 4f 1c be
       0.158974 -0.17707732 -0.28842396 -0.15264817
000150 7a 2e f1 bd 65 0a 3a bd a3 4e f2 3d 37 ce c6 be
       -0.11776443 -0.04542007 0.11831405 -0.38829204
000160 7f f5 4e be 0c ac 0d be c9 c4 8f bb 7a 4e 5b be
       -0.20210837 -0.13835162 -0.0043874723 -0.21416655
000170 23 95 c9 be 88 f6 b5 be 76 4a 0a bd 76 b9 aa 3e
       -0.39371595 -0.3553965 -0.033762418 0.3334462
000180 fc ad cf 3e e3 04 bd be 93 5a 90 3d 20 f4 a5 3e
       0.40562427 -0.3691779 0.07048526 0.32412815
000190 04 22 9e 3d 55 fa 85 3e f4 ac 7f bc 60 9d a2 3e
       0.07721332 0.2616755 -0.0156052 0.31760693
0001a0 d7 46 b1 3d c4 44 76 bd f0 3d b0 3e 70 ad 86 3e
       0.0865609 -0.060124174 0.34422255 0.26304197
0001b0 f7 c5 cd 3e 08 3c d1 bd f7 4c e4 3e a2 38 e1 be
       0.40190098 -0.10216528 0.4458997 -0.4398852
0001c0 d4 bb c6 bd e2 de 9f be 4f a6 e2 3e cf 84 52 3d
       -0.09703794 -0.31224734 0.44267508 0.051396187
0001d0 df 79 7f 3e a8 a8 dc be af fd cf be 74 7d c2 be
       0.24948834 -0.43097425 -0.40623233 -0.37986338
0001e0 73 ca a2 3e 4b 51 68 be ca 22 11 3d 20 46 17 bd
       0.31795081 -0.22687261 0.035433568 -0.03693211
0001f0 95 c0 e1 be 54 46 a3 be f3 53 fc bd 7a 70 18 3e
       -0.4409224 -0.31889594 -0.123206995 0.14886656

clinical.layer2.weight f4 [256, 128]
000000 7b 44 53 bd bd d7 a8 3d 00 1e 97 bc d7 5a e0 bd
       -0.05157898 0.08244274 -0.018446922 -0.10954826
000010 f1 94 95 3d 13 4c 5a bd f3 28 63 3d 6c ef 56 3d
       0.07303799 -0.053295206 0.055458974 0.052474424
000020 04 57 da bc 82 56 fb 3d 29 d2 d9 3d 71 9b 22 3d
       -0.02665282 0.122723594 0.10635788 0.03969902
000030 e9 87 c3 bb 5a d3 95 bd f6 9a ef bc fd 2e 51 3d
       -0.0059671295 -0.07315703 -0.029248696 0.051070202
000040 51 a9 98 3d dd 58 4c bd c8 b3 34 3d 56 86 a9 bd
       0.074541695 -0.049889434 0.044116765 -0.08277576
000050 3a 18 22 3d 56 91 da bc c2 72 e5 bc 25 41 89 bc
       0.039573886 -0.02668063 -0.028008822 -0.016754696
000060 d1 35 11 bc 39 5e c9 bd 52 23 70 3d 28 46 d3 bd
       -0.0088629285 -0.09832425 0.058627434 -0.103161156
000070 66 dd de bb 46 83 f7 3d 06 41 90 3d 84 78 92 bc
       -0.006801295 0.12085585 0.07043652 -0.017879732
000080 10 4e eb 3c 5f c3 86 3c f2 57 d1 3d 1d e4 cd bd
       0.028723747 0.016450582 0.10221852 -0.10053275
000090 95 25 99 3d 10 47 ca bd 08 66 9c 3d 1b c0 a6 3d
       0.07477871 -0.09876835 0.076366484 0.0814211
0000a0 b6 1e 00 be 9d a1 c3 bd d5 ab cc 3d 10 3e b2 3d
       -0.12511715 -0.0955231 0.09993712 0.08703244
0000b0 2f bb f8 bd 41 c0 fb 3d c2 f5 6b bd 5f ed 31 bb
       -0.121450774 0.12292529 -0.05760742 -0.002714954
0000c0 db 13 a9 bc 0a cb 31 3d 8f f2 87 bd a0 08 a2 3d
       -0.02063935 0.043406524 -0.06638061 0.07911801
0000d0 e3 24 3c bb 70 76 42 bd 87 e8 ef bd f4 17 95 bd
       -0.002870851 -0.047476232 -0.11714273 -0.07279959
0000e0 cb 7d 9d bd b8 04 4e bd 20 87 8b ba 29 a7 59 3d
       -0.07690009 -0.05029747 -0.0010645129 0.053137932
0000f0 9a 4a 1a 3c 47 d5 6c bb 88 44 4d 3d e9 1c 54 bd
       0.0094172 -0.0036137865 0.050114185 -0.051785383
000100 1d 6c 09 3d 77 6b 66 bd ce f7 11 3c 14 e6 cb bd
       0.03355037 -0.05625483 0.008909179 -0.09955993
000110 dd b6 0f bd c6 67 83 bc 79 61 87 3d a4 73 89 bd
       -0.0350865 -0.016040694 0.06610388 -0.0671151
000120 41 6d 21 bd 16 2d e0 bd a5 3e f8 bd e8 43 39 bd
       -0.039410833 -0.109460995 -0.121213235 -0.045230776
000130 12 62 a0 bd 3e e4 d9 3d 54 6d 65 3c 4e 0e 2f 3d
       -0.078312054 0.10639237 0.014003117 0.04273825
000140 26 8e b9 bb 69 4d d6 3d 33 d2 50 3c 6f 1e 07 3d
       -0.0056626974 0.104639836 0.012745428 0.032988008
000150 85 e7 fc 3d ae e8 af 3d 1c 30 fc bd 36 02 4d 3d
       0.12348846 0.08589302 -0.12313864 0.050050937
000160 a8 23 d7 bd fd c6 3b 3d c8 6b 54 bd a1 0b 83 3d
       -0.10504848 0.045844067 -0.0518606 0.063987024
000170 dc ab f4 bd 39 1b ff 3d 9a be c2 bc e2 60 8e 3a
       -0.11946842 0.12456364 -0.023772527 0.0010862614
000180 0d 8f 0f 3b 59 96 17 3d 1c dc 3d 3d d6 57 57 3d
       0.0021905333 0.037008617 0.04635249 0.052574
000190 ba fb 4d 3c 05 dd 76 bd cc 0a 27 ba 7d 1d 0b bc
       0.012572223 -0.060269374 -0.00063721533 -0.008490917
0001a0 2b 45 8b 3d 98 b1 4d bd 60 e7 0e 3d dc 56 d8 3b
       0.06800302 -0.050218195 0.034888625 0.0066021513
0001b0 69 c4 fb bd b7 6b 69 3c 1a 12 12 3d b8 77 83 3d
       -0.12293322 0.014246873 0.035661794 0.06419319
0001c0 d3 9a ba 3d f5 fd ca 3d 1b b2 53 bd 84 66 cf 3d
       0.091115616 0.0991172 -0.051683526 0.10126975
0001d0 11 64 ab 3d 88 51 95 3b e9 ae 10 3d 8e 3c f9 bc
       0.083686955 0.0045568384 0.035323057 -0.030424383
0001e0 63 65 6d 3d f2 48 8f 3c 39 51 c1 3d 88 ae dc 3d
       0.057958018 0.017490838 0.0943932 0.10775477
0001f0 af 0f a2 bd ad 5f a6 bd f6 9a 81 bd a6 35 87 3b
       -0.07913148 -0.081237175 -0.063283846 0.0041262684
000200 e7 1b 71 bd 0e 07 a5 3d 76 46 60 bd a5 a0 c1 3d
       -0.0588645 0.08057986 -0.054754697 0.09454469
000210 96 69 19 3d b2 e7 9b bc a6 dd a2 3c 16 0b 82 3d
       0.03745421 -0.01903138 0.01988108 0.06349771
000220 75 37 a8 3c ff 3d 75 3d 30 1f 23 3d 59 ee f0 bd
       0.020534256 0.059873577 0.039824665 -0.11764211
000230 a7 7f 02 be ea 63 ac 3d e2 03 9a 3d f0 de c0 bd
       -0.12744008 0.084174946 0.07520272 -0.09417522
000240 54 6e 82 bc e1 e0 a0 bd dd 52 a2 bd be c5 fd 3c
       -0.01592175 -0.07855392 -0.07925961 0.03097808
000250 76 4b 37 3c c4 ea 83 bd 2f d0 cc 3c d3 7e c3 bd
       0.011187425 -0.06441262 0.025001613 -0.09545674
000260 9a 30 dd 3d e0 ad dc 3d 74 22 f8 bd 72 46 de 3b
       0.10800286 0.107753515 -0.121159464 0.0067833
000270 cb a2 f7 3d f0 8d 85 bd 20 22 29 3d c6 cc 8e bc
       0.12091597 -0.06521213 0.04129231 -0.017431628
000280 bc 0c cb bc d7 79 a7 3d b0 27 ac 3d 06 01 34 bd
       -0.024786346 0.08177536 0.08406007 -0.04394629
000290 a3 b3 63 bd 2f d9 63 bd 25 1a 29 3d e2 a6 0c bd
       -0.055591237 -0.055627044 0.0412847 -0.03433884
0002a0 5a 99 d7 bd 25 05 87 3c f8 74 ca bd e1 09 40 bd
       -0.10527296 0.016481945 -0.09885591 -0.04688442
0002b0 14 48 90 bc 30 88 6c bc d4 e0 d5 3d 0c a3 0a bc
       -0.017612495 -0.0144367665 0.10443273 -0.008461725
0002c0 7b b6 d1 3d ed 5f d9 bd 8b 2f 5b 3d de d5 e1 3d
       0.102398835 -0.106139995 0.053512137 0.1102712
0002d0 eb 96 2f 3d 1c 33 fa 3b 50 c6 ea bd bb 78 f5 3c
       0.042868536 0.0076354872 -0.11463606 0.029964795
0002e0 13 71 d0 bd 95 3f 82 bd db b2 c1 bd b9 86 47 bd
       -0.10177817 -0.063597836 -0.09457942 -0.048712466
0002f0 c6 49 ec 3d 36 a1 71 3d f4 4b e7 3c 6f f7 bb 3d
       0.11537509 0.058991633 0.02823446 0.091780536
000300 ec e2 8d bc b4 08 97 3d 37 5d 9b 3c 0a f1 24 3c
       -0.017320119 0.07374707 0.018965347 0.010067234
000310 d3 a5 eb 3d 4f 1e 3e bd de 6f 19 3d fb 36 a6 bb
       0.11506238 -0.046415623 0.0374602 -0.005072472
000320 5e 89 91 3d 32 93 bf bd 72 3e ac bd 28 e1 71 bd
       0.07106279 -0.09354247 -0.08410348 -0.059052616
000330 74 55 db bc bd bb e1 bd 21 1c fd 3d e2 27 5d 3c
       -0.026774146 -0.11022136 0.12358881 0.013498278
000340 7b 33 81 3d ad f0 6d 3d 02 4a 3a 3c 84 56 d5 bc
       0.06308647 0.058090854 0.011370184 -0.02604223
000350 e8 e5 d1 bd d8 d0 c1 3c 7a cb bb bd bb 09 a5 3d
       -0.10248929 0.023659155 -0.091696694 0.080584966
000360 8e 3d 9c bd 23 c4 b5 bd 04 da 80 bd 3d 7b e9 bc
       -0.07628928 -0.08875301 -0.06291583 -0.028501147
000370 cd 02 cc bc 64 02 b1 3d 1f 88 51 3c b8 dc 3f bd
       -0.02490368 0.08643034 0.012788801 -0.046841353
000380 3e 4e a6 bd 39 b2 29 bd b4 50 15 bd e2 28 96 bc
       -0.08120392 -0.041429732 -0.036453918 -0.018330041
000390 c0 5c a5 3d 3d d3 d5 bd 27 24 d1 3d 3a f5 4a 3c
       0.08074331 -0.10440681 0.10211974 0.012387568
0003a0 5d f9 6f bd 2b 7a 94 3d 7c 11 4a 3d b9 0b ce 3d
       -0.05858742 0.07249864 0.04933308 0.1006083
0003b0 7b ad cf 3d d8 65 e2 bc 80 a5 ab bd b9 35 92 3d
       0.10140511 -0.027636454 -0.08381176 0.07139153
0003c0 55 fe 90 bc f2 7b 10 bd 02 a9 00 3e ab a4 8c 3d
       -0.0176994 -0.035274453 0.12564471 0.068673454
0003d0 d2 53 d5 3c ec 6d a0 bd 30 25 fe bd 59 78 82 3d
       0.026040945 -0.07833466 -0.12409437 0.06370611
0003e0 22 ae 74 3c e4 81 9d 3d c9 ff 26 3d 5e b2 85 3d
       0.014934095 0.0769079 0.04077128 0.065281615
0003f0 a0 2c af bc 20 3c ff bd cf f5 d2 bd e4 38 e6 bd
       -0.021383584 -0.1246264 -0.103007905 -0.1124132

clinical.layer2.bias f4 [256]
000000 d0 3f 4c 3d f9 27 a8 bc 86 f2 17 3d ca 14 91 bd
       0.049865544 -0.020526873 0.037096523 -0.07084043
000010 b1 c0 7d 3d b0 b4 6c 3d 05 e8 2f bd 28 81 84 bd
       0.061951343 0.057789505 -0.04294588 -0.06469947
000020 79 e6 29 bc 3b 68 b9 bc 60 a8 c4 3c 9d 37 cc 3b
       -0.01036989 -0.022632709 0.024006069 0.0062322156
000030 65 4a 98 3d 30 b9 9d 3d 92 ba 02 bd d8 84 6a bd
       0.07436065 0.07701337 -0.03191621 -0.057255596
000040 77 2f 5f 3c 82 0e 82 bc 35 42 a8 3c 89 c6 63 bd
       0.013622156 -0.015876058 0.020539382 -0.05560926
000050 c7 0a ab bd f9 75 0b 3d e4 bf 8e 3d 6b af c8 3c
       -0.08351665 0.034048054 0.06970194 0.024497708
000060 ee 38 bb bc 78 73 69 3d af 79 ab 3d 29 05 5a bd
       -0.022854295 0.056994885 0.08372819 -0.053227577
000070 b4 b4 c1 bc 35 d5 a2 3d e0 f5 93 3d 72 0d c2 bc
       -0.023645736 0.07950822 0.07224631 -0.023688052
000080 8b 0e 38 bb 1b 8e e0 bc 16 43 8c bd 43 92 0b 3c
       -0.002808484 -0.027411511 -0.06848733 0.008518758
000090 54 55 65 3d 6f 6a b6 ba 95 14 c7 bc 64 61 b8 bc
       0.05598958 -0.0013917218 -0.024301806 -0.022507377
0000a0 92 58 29 3a 91 b3 25 bd f0 3d 2b bc 0b 5a 9a 3d
       0.00064600364 -0.04045445 -0.010451779 0.075367056
0000b0 2a 63 a3 bc c9 56 9b bd 30 00 91 3b 4c 55 fb 3c
       -0.019944746 -0.07584912 0.004425071 0.030680321
0000c0 79 f9 b0 bd a7 be 62 3d e7 99 a1 bd 45 38 a4 bb
       -0.08641333 0.0553576 -0.07890683 -0.0050115907
0000d0 de ec ad 3d 5e a7 54 bb 64 43 b4 3c 1f 03 23 bd
       0.084924445 -0.0032448391 0.02200479 -0.0397979
0000e0 ea cc 8d 3d f4 fe 3a 3d 23 b7 f0 3c 86 eb 89 bd
       0.0692385 0.0456533 0.029384201 -0.06734376
0000f0 7b ae 5c bd 3d ca 01 bb 63 69 c9 bc cc 56 d0 bc
       -0.053877335 -0.0019804381 -0.024586385 -0.025432013
000100 65 14 45 3d d6 27 11 bc 5f ea 83 3c 92 47 c5 bc
       0.048115153 -0.008859595 0.016102968 -0.024081979
000110 74 7e 8f 3c 2c be 9c 3d 5d ca 1a bd ed ec 31 bd
       0.017516352 0.0765346 -0.037790645 -0.04343884
000120 fa fb 92 3d 81 06 3e 3d 74 f9 a4 bd ae 12 02 3d
       0.07176967 0.04639292 -0.08055392 0.031756096
000130 cd 77 64 3c 82 1a 36 3c 93 b4 38 3d 9a b9 f8 bc
       0.013944578 0.011114718 0.045094084 -0.03036194
000140 01 5f f0 3b f7 24 8e 3c ba dc 02 3d 70 b6 83 bc
       0.007335544 0.01735161 0.031948783 -0.016078204
000150 15 3a a5 3d 23 ba 99 bb ef 13 dc 3a e5 01 97 bd
       0.08067719 -0.0046913787 0.0016790609 -0.07373408
000160 7a 45 96 bd 1e 25 d7 bc b2 78 56 bd e4 b7 50 bd
       -0.0733747 -0.026262816 -0.052361198 -0.05095662
000170 ce 99 07 3c 49 1f a6 3c 1a 3d 77 3c 53 0e b4 bd
       0.008276416 0.02027859 0.015090251 -0.08791795
000180 eb 71 f2 bc ba 31 b1 bc 93 6d a0 3d b4 fe 3e 3a
       -0.029595336 -0.021630157 0.078333996 0.00072858785
000190 0d ea 2e 3d 5b bc ab bd b5 c7 88 bd 5b 90 a9 bc
       0.042703677 -0.08385535 -0.06678716 -0.020698717
0001a0 ee a0 ad bd e2 9d 72 bd 21 74 85 bd cf 5a a7 3d
       -0.084779605 -0.0592326 -0.065162905 0.08171617
0001b0 83 2b 0c 3d bf f9 69 3d cd 3e 02 bd 93 f0 3e bb
       0.034221184 0.057122942 -0.031798173 -0.0029135093
0001c0 f7 67 b3 bd b6 e9 ad bd ab f0 68 bd f9 e1 c1 3a
       -0.08760064 -0.084918424 -0.056870144 0.0014792077
0001d0 18 09 2c bd e2 56 15 3d 4e 73 50 3d 52 5b a9 bd
       -0.04200086 0.03645981 0.050891213 -0.08269371
0001e0 8f 22 41 3d ef 6f 91 3d f7 3f d7 3c 92 d0 ac 3d
       0.0471521 0.07101428 0.026275618 0.08438219
0001f0 c5 5b 80 bd 3a 98 08 bd b9 5b 0f bc 18 8f 3b 3d
       -0.06267504 -0.0333483 -0.008749896 0.04579076
000200 1a d9 3a bd c3 30 ac bd 7f 59 cc bb b6 ce e6 3b
       -0.0456172 -0.08407738 -0.0062362547 0.007043685
000210 02 eb 9c 3d b0 e6 f6 3b dd a1 80 3d d9 f1 60 bd
       0.07662012 0.0075348243 0.06280873 -0.054918144
000220 f1 11 49 3d 89 83 d2 3b 4f ea a8 3d d3 74 22 bd
       0.049089376 0.0064243716 0.08247816 -0.039662194
000230 71 ed cc bc 16 f8 91 3d 74 63 87 bc ff 54 1e bd
       -0.025015565 0.07127397 -0.016526915 -0.038655277
000240 d7 56 84 bd ff c6 1d 3d 5f e4 b2 3d dd 8c f1 3c
       -0.06461876 0.038519856 0.087349646 0.029486114
000250 f0 92 12 bd 9f 2d b5 bd 32 d1 73 bd b7 21 7f bd
       -0.03578466 -0.08846592 -0.059525676 -0.062288012
000260 f6 7d 86 3d b8 a3 81 3d 6f 7c a9 3c 99 93 60 3d
       0.06566994 0.06330055 0.020689217 0.05482826
000270 d3 0b 87 3d e1 1d a1 3d 44 cc 48 3c dc 0e 40 3b
       0.06594052 0.07867027 0.012255732 0.0029305732
000280 d1 16 14 bd 31 a7 a2 bd 5d b4 fa bc 9b fa 21 3d
       -0.036154572 -0.079420455 -0.030603582 0.039545637
000290 76 75 aa 3b df 7b 83 3d 66 1a a5 bd b6 64 b9 bd
       0.0052019907 0.06420111 -0.08061676 -0.09052412
0002a0 11 d3 ae 3d af 6b 8e bd e8 b3 0e bd 05 6a d9 3c
       0.085363515 -0.06954133 -0.03483954 0.026539812
0002b0 ed 36 94 3d 90 25 18 3d 3a a7 8f 3d e3 43 d7 3c
       0.07237039 0.037145197 0.07014318 0.026277488
0002c0 20 de 2f bd 89 9b 51 bc 6c 44 9b 3d 59 23 e3 3a
       -0.042936444 -0.01279343 0.0758141 0.001732926
0002d0 56 40 8e bb 0b cd 60 3d 14 b7 b1 bd 85 a9 a7 bd
       -0.0043411655 0.054883044 -0.086774975 -0.0818663
0002e0 15 99 0e bd 64 31 7e bd 50 44 59 bd f4 39 6e 3d
       -0.03481396 -0.06205882 -0.053043664 0.058160737
0002f0 77 58 a8 3d 64 0e c4 3c 79 68 29 bc af 6e ae bd
       0.08219998 0.023932643 -0.01033985 -0.08517205
000300 74 90 f3 bc 5e 3b a8 3c b7 7f 1d 3d ea 0d da 3c
       -0.029731967 0.020536121 0.038451876 0.026617963
000310 ad c0 96 3d a6 91 9b bb 93 0f c5 3c 6e a4 3d bd
       0.07360969 -0.0047475873 0.024055278 -0.04629939
000320 75 7a 66 3d da c3 e5 ba f0 1a b5 bd bb 6e 90 3d
       0.056269128 -0.0017529682 -0.088430285 0.0705237
000330 3a f7 37 bd 31 30 0f 3d 4f ee a9 bc 27 cd 0b bd
       -0.044913508 0.03495807 -0.020743517 -0.034131195
000340 ef 3a 79 bd 7e 5a 97 bc be ae fa bc f5 b7 3b bb
       -0.06084722 -0.018475767 -0.030600902 -0.0028643582
000350 a9 8b a9 3d 22 aa ac bd 1d a5 8f bd d2 d8 ef bc
       0.08278591 -0.08430888 -0.07013915 -0.029278193
000360 00 67 66 3d fe 6a 91 3c 9e e0 af bd 8d 8a d3 3c
       0.056250572 0.017751213 -0.08587764 0.025822902
000370 83 1f 45 3d 63 4e 3c 3d 5e 26 ad bd db e2 e1 3c
       0.048125755 0.045973193 -0.084545836 0.027573993
000380 68 52 ca ba 75 48 70 bc 15 f3 93 bd 77 9b 78 3d
       -0.0015435936 -0.014665713 -0.072240986 0.060695138
000390 9a 9b 0e 3d 5e 86 ea 3c 9d a7 51 3d 91 39 f3 bc
       0.034816362 0.028628524 0.05118524 -0.029690536
0003a0 3b 6c 9e bd a7 2f 35 3d bc 0a 84 3c 6e ba 8f 3d
       -0.07735487 0.044234898 0.0161184 0.070179805
0003b0 85 40 32 bd b7 9d 2f 3d c0 11 90 bd f0 23 0f bd
       -0.043518562 0.042875018 -0.070346355 -0.034946382
0003c0 82 04 dd bc d6 e8 a7 bc 3e 5b b2 3d 16 cc 38 bd
       -0.026979689 -0.020496767 0.08708809 -0.045116507
0003d0 f7 35 91 3d bd a2 b7 bd 83 54 91 3c 81 a0 96 3c
       0.07090371 -0.08966587 0.017740494 0.018387081
0003e0 a6 20 77 3c 4e 3c 45 bd 3d f6 79 bd a5 f8 2f bd
       0.015083468 -0.048153214 -0.061025847 -0.042961735
0003f0 5c 81 16 bd ac 4c 18 3d 84 aa ae 3d bd c3 88 3c
       -0.03674446 0.037182495 0.08528617 0.016694898

clinical.layer3.weight f4 [256, 256]
000000 a1 f4 b7 bd 84 ff 17 bd 78 46 a5 bd 9e 17 89 3d
       -0.08982206 -0.037108913 -0.080700815 0.06693958
000010 f3 8b e2 3c 4a c4 7a 3d 65 a3 6e bc 3e 14 7c bc
       0.027654624 0.061222352 -0.0145653235 -0.0153856855
000020 87 e9 74 bc 13 3e e9 bc a8 15 81 3d 7f 60 e6 bc
       -0.014948255 -0.028471982 0.06302959 -0.028122185
000030 e0 28 cd bd 30 b6 8d bd d0 48 d0 bc 39 89 24 bd
       -0.10017562 -0.06919515 -0.025425345 -0.04016993
000040 d8 f0 9a 3d a9 81 d2 3d f3 9b 04 bd a9 13 6e 3d
       0.075654685 0.10278637 -0.032375287 0.058124218
000050 f6 35 99 bd 38 11 01 bd 8b 94 97 3d 7a 07 ac bd
       -0.07480995 -0.03151056 0.07401379 -0.083998635
000060 35 10 93 3d 88 d4 8a bd 19 c2 9d 3d a8 e3 47 3d
       0.071808256 -0.06778818 0.07703037 0.048801094
000070 b0 96 1a bd 93 ad b6 3d 9d 6c c9 bd 1d 23 b9 3c
       -0.037741363 0.089198254 -0.098351695 0.022599751
000080 c3 f9 c9 bd d4 ce 01 3d f4 13 ac bd 96 3f 29 bd
       -0.098620914 0.031691387 -0.08402243 -0.041320406
000090 ee f5 ae 3a 92 54 6e 3d 56 b5 6b 3d df ee 8e bd
       0.0013348439 0.05818612 0.057545982 -0.06979155
0000a0 52 e8 9e 3d 79 ba 50 3c 86 43 ad bd 48 5a 62 3c
       0.07759155 0.012739771 -0.08460145 0.01381547
0000b0 5c f8 39 bd e1 5c 5d 3d 49 e2 a9 3c e5 a0 a2 3d
       -0.04540287 0.054043654 0.020737784 0.079408444
0000c0 9a b8 56 bc d8 6d 87 bd 1a 70 83 3d 28 c3 ff bc
       -0.013105536 -0.06612748 0.06417866 -0.031220987
0000d0 c8 62 89 3d a6 5a c2 bd c4 1a 90 bd 36 41 92 bc
       0.06708294 -0.09489946 -0.07036355 -0.01785336
0000e0 a2 c1 ce bd 1a 4a 8e bd bb cb ab 3d 37 09 32 bc
       -0.10095526 -0.069477275 0.08388468 -0.010866455
0000f0 b6 a6 98 3a 68 7f c7 bd e9 41 29 3b 62 44 a6 3d
       0.0011646363 -0.09741098 0.002582664 0.08118512
000100 b5 35 cd 3d 5f eb 2c 3b 9e 3b 4e 3c 1b 59 4e 3d
       0.100200094 0.002638541 0.012587456 0.050377946
000110 be 68 53 3d 18 4f ca 3d 5a d2 c0 3d 0b 91 c5 3d
       0.05161356 0.09878367 0.094151214 0.096468054
000120 65 2f c0 bd 8a 59 6f 3d 13 4d b0 bc cf 93 da 3c
       -0.0938404 0.058435 -0.021521127 0.026681809
000130 1e 7c 95 bd 46 9b 48 bd d3 5c 88 bd a2 46 2e bd
       -0.07299064 -0.048976205 -0.0665833 -0.04254783
000140 53 6c d2 3d cd cc 0b bd 40 b2 ab bd 25 ef da 3c
       0.102745675 -0.03413086 -0.08383608 0.026725361
000150 e0 55 a5 3c 1c 31 21 bc 11 bc 86 bb 83 be e8 3b
       0.02018255 -0.009838369 -0.0041117747 0.007102789
000160 92 32 db bd 79 d3 22 3d 61 22 80 3d 5f 02 b9 bd
       -0.10703005 0.039752457 0.06256557 -0.090336554
000170 61 46 eb bc fd 03 01 3d 59 58 c3 bc 19 0d 77 ba
       -0.028720083 0.031497944 -0.023845838 -0.0009424254
000180 b9 c1 be bd 72 22 92 3c 8d 31 72 bd d4 95 1c 3d
       -0.093142934 0.01783869 -0.059129287 0.038228825
000190 53 dd cc 3c 0f 26 8e bd 57 3f 00 3d 80 db cb 3d
       0.02500788 -0.06940853 0.031310406 0.09953976
0001a0 02 d2 75 bc 62 f6 5a 3c a1 ed 15 bd f5 b1 69 bd
       -0.015003683 0.013364406 -0.036603574 -0.05705448
0001b0 3d a0 4a bc 48 67 81 3d c9 b8 0c bd ee a9 90 3d
       -0.012367305 0.063185275 -0.034355912 0.070636615
0001c0 39 61 8a bd 3b 8d 75 bd 47 c2 08 3d 08 1a 48 3d
       -0.06756825 -0.05994914 0.033388402 0.04885295
0001d0 0e 9a 69 bd 5f e5 66 3d e9 35 7c bd 17 ec d4 bd
       -0.057031684 0.05637109 -0.06157485 -0.10396593
0001e0 b0 15 af 3b 8c 9f a5 3d 64 37 b6 3c a4 0f 16 bd
       0.0053431615 0.08087072 0.02224321 -0.03663601
0001f0 28 ae d0 bd be c8 09 3d b3 fb b5 3c 3d 8b 37 bd
       -0.10189468 0.03363871 0.022214746 -0.044810522
000200 89 0b 86 bd c0 e0 9f 3d c5 80 b1 bd 7a 03 d7 bc
       -0.06545169 0.078065395 -0.08667139 -0.026246775
000210 db 3d 88 bd 40 38 d9 3d 77 c0 10 3d df 66 be b9
       -0.06652423 0.10606432 0.0353398 -0.0003631627
000220 7f 06 a5 3c e8 98 8a bd 23 a8 9d bc 97 ce 03 3c
       0.0201447 -0.06767446 -0.019245213 0.00804486
000230 9a 79 4d bc be 1f a1 bd 89 d9 0c 3d 1b 22 6a 3d
       -0.012541199 -0.078673825 0.034387145 0.05716143
000240 0f 2e c5 bd 27 3a 24 3d 17 5b 1e bd b7 68 a0 bd
       -0.096279256 0.04009452 -0.03866109 -0.07832473
000250 e0 17 9b 3d 60 59 b4 3d e7 81 fb 3b d3 02 c9 3d
       0.07572913 0.088061094 0.0076753977 0.09814992
000260 a1 ae ec bc 9b 15 84 bd 15 5e 8c bd 0e 12 16 3d
       -0.028891863 -0.064494334 -0.06853882 0.036638312
000270 f8 66 50 3c 20 01 d5 3d d1 50 c0 bd 69 44 62 3d
       0.012719862 0.10400605 -0.093904145 0.055241022
000280 f7 d8 a9 3d 37 7e 3a bd 1d c4 31 3d 3f d6 a0 bd
       0.08293336 -0.045530524 0.04339992 -0.07853364
000290 24 0f b4 bc 6d a2 47 3d ef 65 d2 bd 24 b6 6b 3d
       -0.021979876 0.048738886 -0.102733485 0.05754675
0002a0 04 27 37 3d be e2 37 bd 6c 2c 8f bd 0d 55 ba 3d
       0.044714943 -0.044893973 -0.06990895 0.090982534
0002b0 8b 93 5e 3c f1 77 5a 3d e1 2b a0 bd a6 6f 17 3d
       0.013584982 0.05333704 -0.07820869 0.03697171
0002c0 0d 36 6e bc 37 d1 8d 3c de 3d b1 bd f3 b9 d2 bd
       -0.014539254 0.017311675 -0.08654378 -0.10289373
0002d0 5b 22 16 3d cb ac da bd 4d 51 75 3d 8e dd 91 bd
       0.036653858 -0.10677489 0.059891988 -0.07122336
0002e0 2e da 66 3b 20 e2 ea 3c 88 ce 74 bd f0 83 89 bd
       0.003522526 0.028672278 -0.059767276 -0.06714618
0002f0 63 4e 9b 3d 7a fd 62 bb 6b 6f 42 bd e6 13 8b bd
       0.075833105 -0.0034635947 -0.047469538 -0.06790905
000300 be 94 bd bd 57 22 d7 3c 01 b1 80 bd fb e5 5e bd
       -0.09256886 0.026261492 -0.06283761 -0.054418545
000310 f1 eb ab ba b6 b0 93 bd ae df 88 bb a8 4c 32 3d
       -0.0013116581 -0.07211439 -0.0041770553 0.043530136
000320 fa 2b a6 3d 5c 25 d0 3d b0 25 65 bd 42 72 1b 3d
       0.081138566 0.10163376 -0.055944145 0.03795076
000330 2d 00 df bd b5 0a 50 bd 41 1f d9 3d ed 29 8a 3d
       -0.108887054 -0.05079146 0.10601664 0.06746278
000340 6a d7 c9 3c 0f bc 5d ba 5e ef 01 bc 63 1d 8a bd
       0.02463885 -0.0008458504 -0.007930605 -0.06743886
000350 82 73 3a 3d 73 b7 c9 bc b3 92 09 3d f8 45 b0 bd
       0.045520313 -0.024623608 0.03358717 -0.086070955
000360 2b 10 79 3d 99 27 a7 bc 26 0d bb bd 83 0c cf 3d
       0.060806435 -0.020404624 -0.09133367 0.10109808
000370 bb a6 87 3d ec e3 98 bd c9 36 c2 bd f1 14 59 3d
       0.06623598 -0.07465348 -0.09483106 0.052998487
000380 ca fd 66 ba 77 e2 86 bd ca d9 f0 3c 42 a8 94 bd
       -0.0008811621 -0.065861635 0.029400725 -0.07258655
000390 d6 22 bc 3c c0 5b b3 bd 9b 0e b7 3d 16 fc df bc
       0.02296583 -0.08757734 0.08938333 -0.027341884
0003a0 11 68 d3 bc e4 cf 0d 3d 3b c7 c1 bc a6 ba d9 bd
       -0.025806459 0.034622088 -0.02365457 -0.106313035
0003b0 7d 06 5b 3d 3c 2e c5 bd 00 54 f2 bc 4a a4 50 3c
       0.053472985 -0.09627959 -0.02958107 0.012734482
0003c0 2f 3c d4 bd b2 3d 27 3c e9 bd c1 bd e3 b9 9a 3d
       -0.103630416 0.01020758 -0.094600506 0.07554986
0003d0 17 ce 17 3d 95 ea 85 bc fc f7 47 bd 8f fa d8 bd
       0.037061777 -0.016347209 -0.04882048 -0.10594665
0003e0 ee 99 25 bd 71 6a 99 bd 30 d9 b1 bd ae bd 58 3d
       -0.040430002 -0.07491005 -0.08684003 0.052915268
0003f0 f3 0e 59 bc a5 40 9c 3d fc 41 6e ba c8 a8 ac 3c
       -0.013248193 0.076295175 -0.0009088812 0.021076575

clinical.layer3.bias f4 [256]
000000 68 85 51 3d 53 e8 5f bd aa 11 4c bd 90 ce 4f bd
       0.051152617 -0.05466492 -0.049821533 -0.050734103
000010 a9 7e 9f bc 40 a6 20 3d 49 0c 29 3d b6 5e d9 bc
       -0.019469576 0.03922105 0.04127148 -0.02653442
000020 a0 88 70 3d 18 5a d8 3c 03 ad 69 bd 54 6e 10 3d
       0.058724046 0.026410148 -0.057049762 0.035261467
000030 8d 35 bb 3c 0f c2 64 3c e5 07 4f bd 53 14 e2 bc
       0.022852683 0.013962283 -0.05054464 -0.027597582
000040 ef c4 41 bb 58 df 36 3d 1e 33 63 3d 1b db 38 bd
       -0.0029566844 0.04464659 0.05546867 -0.04513083
000050 dd 91 6c bd 1b d7 4a 3d 4d 67 d6 3c 5e 34 79 bc
       -0.057756294 0.049521547 0.026172305 -0.015210239
000060 75 9e de 3c d3 80 dc 3c ab d8 3b bd c9 3e 54 3d
       0.027175168 0.026916897 -0.045860928 0.05181769
000070 3f 3b a0 3c 32 d0 03 bc 6b 8e 5a 3d f6 a8 6a 3d
       0.0195595 -0.008045243 0.053358477 0.05729004
000080 22 80 08 bd 83 2c 21 3d 74 61 16 bd 9c 72 b7 bc
       -0.033325322 0.03934909 -0.036714032 -0.022393517
000090 0f 00 e2 bc 4b f1 5a bd ef ba 1d bc 80 fb 52 3d
       -0.027587919 -0.05345277 -0.009627088 0.05150938
0000a0 de a1 72 3d 38 a7 75 bd 2f 2e 6c bc af 02 25 3d
       0.0592364 -0.059973925 -0.014415308 0.040285762
0000b0 c9 9e 6a bd e3 4a 8a bc 5a 30 33 3d 74 33 1a bd
       -0.057280336 -0.016881412 0.043747284 -0.037646726
0000c0 c0 e1 5c bd 37 66 32 bc e4 4e 2b bd 2e bc 11 3c
       -0.05392623 -0.010888628 -0.041823283 0.008894963
0000d0 97 dc 44 bd 06 87 39 3d 8e 19 c0 ba 66 25 3c 3d
       -0.048061933 0.045294784 -0.0014656053 0.045934103
0000e0 09 c8 89 3b 4e 9e 43 bd d6 23 51 bd 3a 9f 14 bd
       0.0042047543 -0.047758393 -0.051059566 -0.036284663
0000f0 8b 2e 9a 3c a4 48 e2 bc 91 a3 3d 3c 59 56 25 3d
       0.018821022 -0.027622528 0.011574642 0.04036555
000100 fa 75 4d 3d c5 48 79 bd a7 b0 86 3c 47 ef 41 bd
       0.05016134 -0.060860414 0.016441656 -0.047347333
000110 2e 74 39 bc 9f 79 7d 3d a9 e8 3f bd e2 2d 4f bc
       -0.011319203 0.061883565 -0.04685274 -0.012645217
000120 3f 48 76 3d 9d 8e 24 3b 64 9c 5a ba d7 f5 1c 3d
       0.060127493 0.0025109418 -0.0008339344 0.03832039
000130 a4 53 2e bd b7 a3 66 3d 9b b7 1b 3c 43 fe 5c bd
       -0.042560235 0.056308474 0.009504224 -0.05395342
000140 09 5c f8 3b 17 c8 4f bc 89 88 58 bc e2 6a 6b bc
       0.007579331 -0.0126819825 -0.013216146 -0.014368745
000150 b1 ff 80 bd fd 9c 6b bb ef e5 30 bd df 90 ca 3c
       -0.06298769 -0.0035951727 -0.04318803 0.024727283
000160 33 23 5c bd c0 94 81 bb e2 ab bb bc 5f b4 3f 3d
       -0.053744506 -0.0039545 -0.022909109 0.046802875
000170 40 19 8f 3c f1 ec 3c 3c 28 41 7c 3d 17 82 00 b9
       0.017468095 0.011531101 0.061585575 -0.00012255493
000180 26 43 6c bd 0c 3d 3d bd 49 49 ea bb db 33 89 3c
       -0.057681225 -0.046200797 -0.0071498496 0.01674836
000190 0b 4a 1c 3d cb 53 b7 3c f8 44 00 3d a8 fa 1a bd
       0.03815655 0.022378823 0.031315774 -0.0378367
0001a0 b0 75 73 bd de 99 6c 3d 39 5c 58 3d d3 ac 4b bd
       -0.059438407 0.057763927 0.052822325 -0.049725365
0001b0 84 82 f7 3c b6 80 60 3a a9 a7 12 3d 5f 00 e6 3b
       0.030213602 0.00085641013 0.035804424 0.007019087
0001c0 9c a2 4e bb 36 a3 00 3c 16 0c 32 3d a7 0f 0b bc
       -0.0031530028 0.0078514125 0.043468557 -0.0084876185
0001d0 5f a6 a8 3c 7d 84 54 bd 7c 0e 81 3b 4a 05 c8 3c
       0.020587144 -0.051884163 0.0039384943 0.024416585
0001e0 3f 0d 37 bd 85 2b 5d 3d 1e ca 81 3c a2 c4 e1 bb
       -0.044690367 0.05399658 0.015843447 -0.0068898955
0001f0 9d 56 1b bc b2 92 f1 3c 4f e0 41 3d 30 a2 36 bd
       -0.009481099 0.029488895 0.047333058 -0.044588268
000200 28 6f 0e bd 41 55 3b bc e5 de 4f bd dc b7 37 3c
       -0.034773976 -0.0114339 -0.05074968 0.011213269
000210 f9 ef 8e bc f7 5c e4 bc a1 fd 62 bd c2 4d 78 bc
       -0.017448412 -0.02787636 -0.05541766 -0.015155258
000220 10 de 4c bd 34 34 18 3d 4e 07 2d 3c 4c e7 43 bd
       -0.050016463 0.03715916 0.010560824 -0.047828004
000230 44 45 5f bd a9 5f 5a 3d 9d 20 49 bd 2b a2 7f bd
       -0.054509416 0.053313885 -0.049103368 -0.062410515
000240 e7 37 3a 3d 6c 7e 4e bd af 95 7c bd 06 40 b1 bc
       0.04546347 -0.050413534 -0.061666187 -0.021636974
000250 01 59 83 bc 0d 7e b9 3b ab d7 8c 3b 44 53 05 3d
       -0.016033651 0.0056607784 0.0042981706 0.03255011
000260 e7 23 5b bd 7a 8c f5 bc 5d c2 6b bd 07 f2 c9 3c
       -0.053501036 -0.029974211 -0.057558406 0.02465154
000270 19 37 a3 3b 0b 93 73 3d 10 6b 3d bd f7 38 67 bd
       0.0049809334 0.059466403 -0.04624468 -0.05645081
000280 57 ef 2e bd 5c 55 97 bc 6a b4 e5 3c 57 3d 4f 3d
       -0.04270872 -0.01847332 0.02804013 0.050595608
000290 1d 5b 1e 3d 5b 6f ed 3b ba f6 c8 bc 71 e9 13 bd
       0.03866111 0.0072459406 -0.02453171 -0.0361113
0002a0 48 80 25 bd 03 e3 6a 3c 6b aa 49 bd 79 f1 69 bd
       -0.04040554 0.01433635 -0.04923479 -0.057115052
0002b0 6a 78 f9 bc 3f ff 3a bd 9f 87 a0 bc 17 d1 71 bd
       -0.030452926 -0.045653578 -0.01959592 -0.059037294
0002c0 28 ce 7b 3d d9 37 81 3c 76 2a 3a bc 99 39 4b bd
       0.061475903 0.0157737 -0.011362663 -0.049615476
0002d0 0f ea 60 bd 38 21 e3 bc fa 40 a8 3c f7 1e b5 3c
       -0.054910716 -0.0277258 0.020538796 0.022109492
0002e0 2b 90 65 bd cc 30 a7 3c f2 ce f4 3c 2c 27 b7 3b
       -0.056045692 0.02040901 0.029883835 0.0055893864
0002f0 4d b3 51 bc b3 e3 23 bd 21 ab 83 3d 40 80 44 3d
       -0.012799096 -0.040012073 0.064291246 0.04797387
000300 c8 00 48 bd 09 2f 7e 3d 7c 1c 2f bd d5 ae e6 3b
       -0.04882887 0.062056575 -0.042751774 0.0070398846
000310 a2 1d 28 3d cb 24 6e bd cd 68 08 3d 59 59 e6 3c
       0.041043885 -0.058140557 0.03330307 0.028118776
000320 7d 4b ba 3c 63 e4 01 bd 88 0f 73 bc 42 0c 07 bd
       0.022741074 -0.031711947 -0.014835246 -0.032970674
000330 77 4c 08 ba 6e 8f ae 3c b4 4c ff bc 9a 59 65 bd
       -0.00051993824 0.021308627 -0.031164505 -0.055993654
000340 8d d0 25 bd 2f 3d 40 bd 1e d9 b2 bc 4a 8a 25 3d
       -0.040482093 -0.04693335 -0.021832045 0.040415086
000350 d2 14 71 3d 75 85 4f bc 20 99 fc 3c dc 8e b9 bc
       0.058857746 -0.012666096 0.030834734 -0.022651128
000360 83 02 7d 3d c7 67 98 bc 44 2e 3e bd 4a 1f 57 3d
       0.061769973 -0.018604172 -0.04643084 0.052520074
000370 8f f8 1c 3d 35 55 81 3d 36 be 63 3d 21 0b 74 bc
       0.03832298 0.0631508 0.05560132 -0.014895231
000380 10 89 5e 3d d5 8c ce bc e8 ed 3f bc 1b 59 c0 bc
       0.05432993 -0.025213638 -0.011714436 -0.023479989
000390 1a 34 69 bd f1 39 68 3d 79 bb 1c bd 74 12 d5 bc
       -0.056934454 0.056695882 -0.038264725 -0.026009776
0003a0 db 81 30 3c 94 f8 5a bd 1c b1 4b 3b a3 ed 7a 3d
       0.010773147 -0.05345972 0.0031080907 0.061261784
0003b0 02 a2 0c 3d 58 8b 18 bb a3 94 ac 3c 4b 8a f7 bc
       0.03433419 -0.0023276415 0.02106697 -0.03021731
0003c0 e6 b4 1d 3d 72 b6 05 3d 10 dd ce bc 3a ce e4 3a
       0.038502596 0.032644697 -0.025251895 0.001745648
0003d0 bf 4a 12 3d 17 e0 90 3c 5e 2f 92 3c df 0d 31 bd
       0.035715815 0.01768498 0.017844852 -0.04322612
0003e0 f7 54 5d 3d 3f 52 0b bd 5d 9c 10 3d 5b 0b d6 bc
       0.054036107 -0.034013983 0.03530537 -0.026128462
0003f0 f2 73 30 3d 27 a3 32 bb 97 ae 6e bd 8e 8d 6f 3d
       0.043079324 -0.002725789 -0.05827197 0.058484606

clinical.layer4.weight f4 [8, 256]
000000 2b cf fc bc f5 63 00 3e bb 6f 83 bd 54 9e e2 bc
       -0.030860504 0.1253813 -0.06417795 -0.027663387
000010 e3 c1 cd 3b e0 d3 80 bd c5 22 64 3d 23 c1 ab bd
       0.0062792166 -0.06290412 0.05569722 -0.08386447
000020 69 26 f6 3d bb bb b7 bd 0c 47 22 bc 17 a4 1a be
       0.12019045 -0.089713536 -0.009904634 -0.15101658
000030 bd f5 07 be 25 50 c5 3d b5 fb ba 3c 00 fc a6 3d
       -0.13277335 0.09634427 0.022825101 0.08153534
000040 62 84 82 3c 06 4a 32 bd 79 61 a6 bd a5 79 e9 3c
       0.015932266 -0.043527626 -0.0812406 0.028500387
000050 be 91 d8 bd 51 0b 59 3d 44 48 f3 bd f1 23 b1 bd
       -0.10574673 0.052989308 -0.11879018 -0.086494334
000060 80 10 2a bd 95 ba f0 3d a8 9f 5f 3d 86 ef fc bd
       -0.041519642 0.11754338 0.05459562 -0.12350373
000070 98 ff 19 be 7d 39 07 3d fd 37 10 3e 61 87 7d 3b
       -0.15038908 0.03301381 0.14083858 0.0038685428
000080 ac 6d 8b bc a6 e4 86 3a b0 b5 48 3d 82 f5 63 bc
       -0.017020069 0.0010291531 0.049001396 -0.013913514
000090 bc 02 77 3d f0 86 8a 3d b4 07 aa bd de 29 12 be
       0.060305342 0.067640185 -0.083022505 -0.14273784
0000a0 53 f8 43 3d 88 46 10 3b 90 38 95 bd e4 5b b2 bc
       0.047844242 0.0022014696 -0.07286179 -0.021772332
0000b0 c2 90 8d 3c 4d 33 35 bd 34 43 d0 3b a7 a1 84 3d
       0.01728094 -0.044238377 0.0063556675 0.06476145
0000c0 cf 9b 0a 3c 3b 50 dd bc bb 26 82 3d 6a df f9 3d
       0.008459999 -0.027015796 0.063550435 0.12200816
0000d0 64 d2 cf 3d 8c cc d4 bc e7 3b e6 bc 87 b1 59 3d
       0.10147551 -0.025976442 -0.028104736 0.05314782
0000e0 2d 79 18 be e4 63 17 be 28 52 11 bd 43 5c eb bd
       -0.14889975 -0.14784199 -0.03547874 -0.11492207
0000f0 47 79 d3 bd 0b 90 ee 3d ef 27 e4 bd bf 88 97 bd
       -0.10325866 0.11648568 -0.11140429 -0.07399129
000100 ad 85 ec bc 11 8b ba bd c2 43 2a 3d a1 7d 1a 3e
       -0.028872335 -0.09108556 0.041568525 0.15086986
000110 a0 dc c7 3d 4c 81 fa 3c 5f d4 e0 3d db 2f 51 3c
       0.09758878 0.030579232 0.109780066 0.012767757
000120 c3 66 2b bd cd 29 08 be 7e 22 fb 3d 1e 5a 0d 3e
       -0.041846048 -0.13297196 0.12262438 0.13803908
000130 85 f9 f6 bd 4d 89 1d be ec 7e 16 be a8 7e a8 3d
       -0.12059311 -0.15384407 -0.14696854 0.08227283
000140 b9 46 e0 bd 1d a0 7e 3d 89 6c 1a 3d 7a a2 0b bd
       -0.10950989 0.062164415 0.037701163 -0.034090497
000150 6c 28 85 bd f4 6b e0 3c 9e 1e 7b 3d 0d a4 f9 3d
       -0.065018505 0.027395226 0.061308496 0.12189493
000160 f2 0f a8 3d a0 0a 2f bd 15 ac 80 3d 81 2b 81 bd
       0.08206166 -0.042734742 0.06282822 -0.06307126
000170 04 59 0a bd 22 81 87 3d 76 d4 ff 3c be d6 b6 bd
       -0.0337763 0.06616427 0.031229239 -0.089276776
000180 1c 0c 38 bd f8 ca f5 bd 4a bf 94 3d 7f 61 e8 3c
       -0.044933423 -0.12001604 0.07263048 0.028366802
000190 a8 9e 9c 3d e2 0e 40 bd 0f 92 01 be 04 05 12 3e
       0.07647449 -0.046889193 -0.12653373 0.14259726
0001a0 f6 f2 0e 3e 17 c3 ee 3c 7e b3 de 3c ec b9 84 bd
       0.1395987 0.02914576 0.027185198 -0.06480774
0001b0 30 90 a3 3d 52 6a 00 be 83 ec 0b bd 8c 7a 7e bd
       0.07986486 -0.12540558 -0.034161102 -0.06212859
0001c0 3d e7 5a 3c 80 71 01 be 71 bc 16 bd 0c d5 12 3e
       0.013360796 -0.12640953 -0.036800805 0.14339083
0001d0 bb d6 09 be c5 d9 dd 3d dc 98 d0 bc 6a 1b 00 3e
       -0.1346082 0.10832552 -0.025463514 0.12510458
0001e0 b4 c5 b0 bd e9 21 d3 3d 38 74 f6 bd ac 51 12 3e
       -0.08631459 0.10309202 -0.12033886 0.14288968
0001f0 c3 c5 f2 bd b6 0b eb 3d 6d ec fc 3d c6 ec c4 3d
       -0.11854126 0.11476843 0.12349782 0.096154734
000200 a7 c7 ee 3c 44 b0 a3 3d f0 ac 01 be 5b d1 8d bc
       0.029147936 0.079926044 -0.12663627 -0.017311743
000210 ce c3 8f 3d 0d 63 39 3d 39 c6 1e bd d2 b3 c0 bb
       0.07019769 0.045260478 -0.03876326 -0.0058808113
000220 bb e3 2a bc be b7 e0 3d 08 d7 ba 3d 80 64 de bd
       -0.010430272 0.10972546 0.09123045 -0.108590126
000230 e9 11 0a be bc 66 ed bd 7f 10 b2 bd 5d ae 7a bd
       -0.13483395 -0.11591861 -0.08694553 -0.061201442
000240 84 b0 10 be f5 2d be 3d b8 80 28 3d 13 a0 5f bd
       -0.14129835 0.09286109 0.04113838 -0.054596018
000250 f1 d7 0c bd ae 85 2a bc ea b7 47 bd d5 c3 04 3e
       -0.034385625 -0.010407848 -0.04875938 0.12965329
000260 fb 7e b5 3d 50 ab 8c bd 16 36 d3 bd 55 95 fa 3d
       0.0886211 -0.06868613 -0.103130504 0.12235514
000270 91 15 c7 bd 9a 6e 4b bd 9b 07 be 3d a7 e1 72 3d
       -0.0972091 -0.049666025 0.092787944 0.05929723
000280 73 da ca bd f5 56 84 3d a9 ef 11 bc ac 82 f9 3d
       -0.09904947 0.06461898 -0.008907237 0.12183127
000290 c2 a8 a2 bd f1 74 82 bd c1 66 bb bc 78 f7 56 3a
       -0.07942344 -0.06369961 -0.022876145 0.0008200328
0002a0 f3 19 18 3d bf 7b 99 bd 11 83 15 3d 89 5b 8a 3d
       0.037134122 -0.07494306 0.036501948 0.0675574
0002b0 11 66 d6 bd 33 52 25 bd 8f 3d 01 3e 16 69 e8 bd
       -0.10468686 -0.040361594 0.12621139 -0.113481686
0002c0 07 05 17 3e 91 04 6e bc 7c 82 71 3a cf f9 ce 3d
       0.14748012 -0.014527456 0.0009212864 0.10106241
0002d0 96 2e 0f 3e 0d c6 1e 3c 5a a4 f5 bd 69 29 12 3d
       0.13982615 0.009690774 -0.11994238 0.035684023
0002e0 94 9f 8f 3d 8d b3 e4 bd 9f ed 26 bd 93 e9 83 bd
       0.07012859 -0.11167059 -0.040753957 -0.06441035
0002f0 35 a8 3a bd 24 fc a2 bd 68 d0 8f 3d e7 35 9d 3c
       -0.04557057 -0.07958248 0.07022172 0.019190742
000300 b5 c2 25 3d 0d 1a 18 bd e6 0d ed bc 6e b7 18 be
       0.04046889 -0.03713422 -0.028937291 -0.14913723
000310 0f 8c aa 3d c9 0c 88 bc 63 30 0f 3e a9 b8 c8 3d
       0.08327495 -0.016607659 0.13983302 0.09800846
000320 38 42 f4 3d 96 80 87 3b cc c5 6c bd 56 91 69 3c
       0.11926693 0.0041352017 -0.05780582 0.014255842
000330 62 e1 fb bd 80 8b 59 bd d0 24 e9 bd 43 81 b1 bc
       -0.12298848 -0.053111553 -0.113839746 -0.021668082
000340 eb b2 b1 3d 5f 8e 0a 3e 0c 6a aa 3d 56 75 ba 3d
       0.08676704 0.13530873 0.08321008 0.09104411
000350 44 3e c8 3c c8 85 92 3d 59 3a fb bd d4 d0 c5 bd
       0.024443753 0.07154423 -0.12266988 -0.096589714
000360 02 b1 72 bc f0 09 0e be 1b 29 16 be 18 0e 06 3e
       -0.01481271 -0.13870978 -0.14664118 0.13091314
000370 7b 36 8e bd 3c 95 b7 bd 3d ae f6 3d 85 84 9a 3d
       -0.06943985 -0.08964011 0.12044952 0.07544807
000380 1e 98 03 3e 05 3b 94 3d c9 38 83 bd a9 23 fc 3c
       0.12850997 0.072378196 -0.06407315 0.030778723
000390 d6 96 20 bd d7 5c 84 3d 66 ce ee 3d 21 06 fb 3c
       -0.03920635 0.0646302 0.11660461 0.03064257
0003a0 6e d9 b2 3c 4b 49 5b bd 5e 6b f9 bc 2b fb d5 bd
       0.021832194 -0.053536694 -0.030446704 -0.10448297
0003b0 cc fa 87 bd 0f 94 02 3e d2 84 45 3c c1 37 87 3d
       -0.066396326 0.12751792 0.012055593 0.06602431
0003c0 35 64 b1 3c bf e9 a0 bd f8 bc 33 3c f2 09 07 3e
       0.021654228 -0.078570835 0.010970347 0.13187388
0003d0 ac b9 aa 3c 65 47 0e be fd d5 06 3e 0a d7 aa bb
       0.020840488 -0.13894422 0.13167568 -0.005213623
0003e0 c3 fe af 3c 13 bb cd bd b4 9e d0 3d 46 93 0a be
       0.021483785 -0.10045447 0.1018652 -0.13532743
0003f0 2f 6a 17 3e ff 73 86 3d 21 7d 19 be 58 3c 08 3e
       0.147866 0.06565093 -0.14989139 0.1330427

clinical.layer4.bias f4 [8]
000000 8e a6 6c 3d 9e cb 0f bd a7 77 0b 3d 39 8d 0a bd
       0.057776026 -0.035106294 0.034049656 -0.033826087
000010 31 ca 0f bd 30 5c 5a bd 5b b5 4c bd 69 8a 04 3d
       -0.035104934 -0.053310573 -0.04997764 0.03235856

clinical.batchnorm1.weight f4 [128]
000000 ba 17 80 3f 00 00 80 3f 00 00 80 3f 0a be 7f 3f
       1.0007241 1.0 1.0 0.9989935
000010 ec e6 7f 3f ba 13 80 3f 18 c4 7f 3f 00 00 80 3f
       0.99961734 1.000602 0.9990859 1.0
000020 15 10 80 3f 6b 00 80 3f 00 00 80 3f 2d 00 80 3f
       1.0004908 1.0000128 1.0 1.0000054
000030 00 00 80 3f cc 17 80 3f 00 00 80 3f 56 de 7f 3f
       1.0 1.0007262 1.0 0.9994863
000040 06 0f 80 3f 99 36 80 3f 18 4b 80 3f 00 00 80 3f
       1.0004585 1.0016662 1.0022917 1.0
000050 5d f9 7f 3f 00 00 80 3f bf 8e 80 3f 00 00 80 3f
       0.99989873 1.0 1.0043563 1.0
000060 a9 0f 80 3f 54 2d 80 3f 9c ef 7f 3f 00 00 80 3f
       1.0004779 1.0013833 0.9997499 1.0
000070 bd 2b 80 3f be 04 80 3f e6 6f 80 3f ee 08 80 3f
       1.0013348 1.0001447 1.0034149 1.0002725
000080 7d 16 80 3f 86 e1 7f 3f 59 10 80 3f 35 26 80 3f
       1.0006863 0.99953496 1.0004989 1.001166
000090 8f 0f 80 3f bf 40 80 3f 03 f1 7f 3f 00 00 80 3f
       1.0004748 1.0019759 0.9997713 1.0
0000a0 ad 22 80 3f b2 e8 7f 3f f8 e9 7f 3f 25 d8 7f 3f
       1.0010582 0.9996444 0.99966383 0.99939185
0000b0 64 34 80 3f 55 09 80 3f fd ac 7f 3f 1a cc 7f 3f
       1.0015988 1.0002848 0.99873334 0.9992081
0000c0 53 66 7f 3f 58 12 80 3f 20 09 80 3f 00 00 80 3f
       0.9976551 1.0005598 1.0002785 1.0
0000d0 a8 09 80 3f 00 00 80 3f 06 aa 7f 3f c5 08 80 3f
       1.0002947 1.0 0.9986881 1.0002676
0000e0 1d d0 7f 3f 7e ee 7f 3f 00 00 80 3f a4 02 80 3f
       0.9992693 0.99973285 1.0 1.0000806
0000f0 fd 22 80 3f 40 30 80 3f 00 00 80 3f 00 00 80 3f
       1.0010678 1.0014725 1.0 1.0
000100 da 6f 80 3f 00 00 80 3f 00 00 80 3f 3d 18 80 3f
       1.0034134 1.0 1.0 1.0007397
000110 6c 15 80 3f 00 00 80 3f ea 2e 80 3f 00 00 80 3f
       1.0006537 1.0 1.0014317 1.0
000120 00 00 80 3f 5e fb 7f 3f 9a e8 7f 3f 3b fc 7f 3f
       1.0 0.9999293 0.99964297 0.9999425
000130 96 1a 80 3f 10 65 80 3f 02 06 80 3f 00 00 80 3f
       1.0008113 1.0030842 1.0001833 1.0
000140 9f 18 80 3f 69 3c 80 3f eb 28 80 3f de 14 80 3f
       1.0007514 1.0018436 1.0012487 1.0006368
000150 df dd 7f 3f af 31 80 3f 20 cd 7f 3f 59 1e 80 3f
       0.99947923 1.0015162 0.9992237 1.0009261
000160 ba b5 7f 3f fe 19 80 3f 00 00 80 3f f5 23 80 3f
       0.9988667 1.0007932 1.0 1.0010973
000170 e0 10 80 3f d1 33 80 3f e8 02 80 3f a9 e6 7f 3f
       1.000515 1.0015813 1.0000887 0.99961334
000180 b7 06 80 3f 00 00 80 3f 00 00 80 3f 00 00 80 3f
       1.0002049 1.0 1.0 1.0
000190 9f d0 7f 3f ee e1 7f 3f 67 13 80 3f 00 00 80 3f
       0.99927706 0.99954116 1.0005921 1.0
0001a0 06 00 80 3f a2 ff 7f 3f 1a 2a 80 3f bb 05 80 3f
       1.0000007 0.9999944 1.0012848 1.0001749
0001b0 00 00 80 3f 00 00 80 3f 8f f7 7f 3f 71 d3 7f 3f
       1.0 1.0 0.9998712 0.9993201
0001c0 bb 91 7f 3f 53 14 80 3f 00 00 80 3f c2 21 80 3f
       0.9983174 1.0006202 1.0 1.0010302
0001d0 49 e3 7f 3f 72 f8 7f 3f 00 00 80 3f 33 0f 80 3f
       0.99956185 0.9998847 1.0 1.0004638
0001e0 e6 c8 7f 3f b3 eb 7f 3f 3c 02 80 3f 00 00 80 3f
       0.9991592 0.99969023 1.0000682 1.0
0001f0 6e 21 80 3f 00 00 80 3f 00 00 80 3f 87 3c 80 3f
       1.0010202 1.0 1.0 1.0018471
