pretrained/trained.pth (torch, 410607 bytes, 15 tensors)

layer1.weight f4 [128, 5]
0.058425292 -0.19800803 0.025940008 0.05410311 -0.19409326 0.05944703 0.18684739 -0.01952374
-0.14584719 -0.12493178 0.20825306 -0.07699047 -0.05120827 0.046582416 -0.103037134 -0.08251301
0.12851913 0.18612814 -0.08743612 0.038953483 0.09578033 -0.024765521 0.15011576 -0.052326795
0.17038366 -0.03147727 0.17089158 -0.15370877 -0.06706799 -0.03259666 0.01998126 -0.20460053
-0.004954103 -0.14938088 -0.15880133 0.0036004726 -0.08841049 -0.07670422 0.10979595 0.041211814
-0.0883739 0.17035644 -0.18586764 0.02115903 0.024525143 -0.065862544 -0.14776468 -0.14668027
0.049741767 0.023578538 0.20396751 -0.053321052 -0.12908426 -0.18668768 -0.044475973 0.15662357
-0.19348748 -0.06991398 -0.19510981 -0.13277099 -0.0780033 0.1724519 -0.13725312 0.1326945
0.1218232 0.035492666 0.0668968 0.12201751 -0.110091925 -0.10147255 -0.15841097 -0.17612652
-0.10184286 -0.1002367 0.06695914 -0.15131742 0.0040961565 0.15898325 -0.06399953 -0.19188417
-0.13428797 -0.16622527 0.19054517 -0.1512137 -0.19160934 -0.022079606 -0.19052817 -0.16996555
-0.10910219 0.18685319 -0.06942592 0.12507059 0.15583669 -0.0319254 0.1108856 0.1733259
-0.07447232 0.20823278 0.016162444 0.0808631 -0.03129183 -0.022883613 0.20314807 0.06606259
0.061017495 0.10770605 -0.06830711 0.2036086 -0.026551666 0.002798373 0.0050771977 -0.18983364
-0.16040927 -0.029666526 0.11946813 -0.09585199 -0.121644415 0.19193889 -0.08810663 0.17245194
-0.022384608 -0.112482965 -0.12681948 0.18162368 -0.06564568 0.115916975 0.013402636 -0.14723079
-0.050697263 0.08707535 0.09116976 -0.03376395 -0.087863185 -0.038148098 0.15992346 -0.07240241
-0.13410605 -0.1022401 -0.15966703 -0.174835 -0.12821431 0.07632515 0.124218196 0.023685649
0.0649924 0.21006605 -0.19139768 -0.021045635 0.21751009 0.021373717 0.09298244 0.008241227
0.13822411 0.14621262 -0.03162403 0.036885954 0.112198696 -0.03155859 0.1353552 0.20523064
-0.11709805 0.17853637 -0.009201664 0.18663469 -0.025128944 0.16614771 -0.08002116 0.078779444
-0.06707717 -0.0837516 -0.01685121 -0.07125107 0.14122254 -0.15480614 -0.15721877 -0.167284
-0.15392837 0.08643517 -0.14600866 -0.06374026 0.17217703 0.030391445 0.011441965 0.15079144
0.15515122 0.12088772 -0.13582522 0.1627359 -0.16997007 -0.050567243 -0.19108848 -0.14705813
0.11754409 0.09486788 0.19475758 0.13368575 0.051381186 -0.04807686 -0.02788643 0.09069638
-0.19793107 -0.008103033 0.09873193 -0.17624585 0.1855257 0.019575572 0.16982877 -0.14542526
0.033785928 0.13230418 -0.13142611 -0.10253725 -0.058695525 -0.011943238 -0.0909448 -0.04826681
0.20480837 0.076596774 0.13469578 -0.068453476 -0.1678599 -0.03690421 -0.12055478 -0.078423
-0.1777223 0.04233527 0.064576484 0.0290734 -0.20210417 0.09685066 0.11842214 0.10204594
-0.14564312 -0.20256937 0.19098441 -0.06649025 -0.11470128 -0.11242776 0.18504152 0.104403295
-0.16687015 0.18085836 0.06442469 -0.0647116 -0.065713786 0.13828695 0.18097238 -0.16721392
0.1363279 0.00039049066 -0.17304915 0.104108356 0.136771 0.015657006 -0.12934849 0.08448062
00000000: 5c4f 6f3d 9ec2 4abe 2480 d43c 399b 5d3d
00000010: 62c0 46be bb7e 733d ec54 3f3e 40f0 9fbc
00000020: f758 15be 3cdc ffbd 4a40 553e 2ead 9dbd
00000030: c3bf 51bd 34cd 3e3d 2205 d3bd 95fc a8bd
00000040: 859a 033e 6098 3e3e b511 b3bd b08d 1f3d
00000050: 7a28 c43d 10e1 cabc f2b7 193e 9f54 56bd
00000060: 0e79 2e3e 4fee 00bd 34fe 2e3e d565 1dbe
00000070: f15a 89bd 1384 05bd bdaf a33c cd82 51be
00000080: 0756 a2bb 4df7 18be d19c 22be e8f5 6b3b
00000090: 8f10 b5bd 1a17 9dbd b3dc e03d b8cd 283d
000000a0: 60fd b4bd eb71 2e3e 1654 3ebe b455 ad3c
000000b0: f4e8 c83c f1e2 86bd a04f 17be 5a33 16be
000000c0: 06be 4b3d c727 c13c dcdc 503e 2d67 5abd
000000d0: aa2e 04be 0e2b 3fbe 702c 36bd ee61 203e
000000e0: 9521 46be 102f 8fbd deca 47be 1ef5 07be
000000f0: 32c0 9fbd 3b97 303e 158c 0cbe 11e1 073e
00000100: 717e f93d c260 113d 3101 893d 51e4 f93d
00000110: e077 e1bd d7d0 cfbd 7c36 22be 835a 34be
00000120: fd92 d0bd e648 cdbd e021 893d f4f2 1abe
00000130: 0d39 863b 81cc 223e 3012 83bd 497d 44be
00000140: c982 09be f536 2abe 461e 433e c4d7 1abe
00000150: 3d35 44be 4ae0 b4bc d119 43be 730b 2ebe
00000160: f870 dfbd 7156 3f3e 2d2f 8ebd 8112 003e
00000170: a793 1f3e 35c4 02bd fd17 e33d 587c 313e
00000180: f284 98bd f93a 553e 1a67 843c 8e9b a53d
00000190: dd2b 00bd 6a76 bbbc 0c06 503e d34b 873d
000001a0: 7bed 793d fd94 dc3d 99e4 8bbd c67e 503e
000001b0: e182 d9bc e964 373b 9f5e a63b c063 42be
000001c0: 5442 24be 3707 f3bc b5ab f43d 0c4e c4bd
000001d0: b520 f9bd a18b 443e 4071 b4bd 3e97 303e
000001e0: ed5f b7bc 785d e6bd f7dc 01be 8ffb 393e
000001f0: 3e71 86bd e165 ed3d bb96 5b3c abc3 16be
00000200: efa7 4fbd 9054 b23d 36b7 ba3d 114c 0abd
00000210: 9df1 b3bd 2e41 1cbd fac2 233e b747 94bd
00000220: 1953 09be 4263 d1bd c17f 23be f207 33be
00000230: 9d4a 03be 5c50 9c3d 1c66 fe3d 6808 c23c
00000240: bc1a 853d 8e1b 573e c1fd 43be e567 acbc
00000250: f7ba 5e3e ef17 af3c 946d be3d 3606 073c
00000260: 9f8a 0d3e c3b8 153e 3388 01bd ba15 173d
00000270: 6ec8 e53d 9443 01bd 8e9a 0a3e fb27 523e
00000280: 1ad1 efbd 3dd2 363e 93c2 16bc 2a1d 3f3e
00000290: 37db cdbc a022 2a3e 22e2 a3bd 1e57 a13d
000002a0: c15f 89bd f585 abbd 8c0b 8abc 15ec 91bd
000002b0: a49c 103e 8085 1ebe f5fd 20be 7f4c 2bbe
000002c0: 669f 1dbe ec04 b13d 4b83 15be 418a 82bd
000002d0: 2d4f 303e 7bf7 f83c 1477 3b3c 1269 1a3e
000002e0: f6df 1e3e fb93 f73d c415 0bbe 3da4 263e
000002f0: a20c 2ebe 991f 4fbd b3ac 43be 6896 16be
00000300: f5ba f03d 174a c23d 886e 473e ebe4 083e
00000310: 1475 523d 3eec 44bd 1572 e4bc 06bf b93d
00000320: 71ae 4abe 95c2 04bc f733 ca3d cb79 34be
00000330: 73fa 3d3e f35c a03c 98e7 2d3e 5cea 14be
00000340: 1d63 0a3d bf7a 073e 9194 06be 0dff d1bd
00000350: b86a 70bd 92ad 43bc 4441 babd 6bb3 45bd
00000360: 49b9 513e c5de 9c3d b1ed 093e 5631 8cbd
00000370: 77e3 2bbe de28 17bd 6de5 f6bd 3d9c a0bd
00000380: d6fc 35be c067 2d3d ad40 843d 572b ee3c
00000390: 65f4 4ebe a459 c63d 4f87 f23d 76fd d03d
000003a0: 7823 15be 586e 4fbe 6b91 433e 0a2c 88bd
000003b0: 81e8 eabd 8740 e6bd 867b 3d3e 65d1 d53d
000003c0: 02e0 2abe ef32 393e 18f1 833d 8487 84bd
000003d0: f394 86bd 189b 0d3e d350 393e 203a 2bbe
000003e0: 8b99 0b3e c5ba cc39 cc33 31be c336 d53d
000003f0: b20d 0c3e 1f43 803c ee73 04be 2d04 ad3d

layer1.bias f4 [128]
-0.29282174 -0.0903715 0.10166327 -0.12526609 -0.44250485 0.40780544 0.21106356 0.16177419
-0.17241831 -0.29183438 0.12970264 0.012808748 0.14720087 -0.26038685 0.3346088 0.34311658
-0.03139002 -0.37424767 0.15174389 0.24158236 0.11459927 -0.18442893 0.06830991 -0.16851167
0.41918385 -0.13257284 -0.29302332 0.19527984 0.43133378 0.0042286227 0.051509816 0.16574998
0.05480827 -0.35003263 0.36787596 -0.20017327 0.36035183 0.1462882 0.1092958 0.42817745
0.14677612 0.0025080445 -0.11829221 0.044437792 0.30219463 0.043477237 -0.07042165 -0.4433811
-0.19060642 0.41650647 0.097557634 0.25254333 0.41524327 0.38062313 -0.29312313 -0.23343046
0.31286198 0.25924256 -0.20687276 0.18243665 -0.024774939 0.042273372 0.37561902 -0.31439775
0.12486308 0.026320888 0.40308496 0.4297374 0.41251406 -0.07325585 -0.24391387 0.30217788
-0.068899415 0.3403173 -0.11595118 -0.2232649 0.17560977 -0.30380544 0.1873282 0.44705817
0.092144206 0.28548357 -0.06745564 0.43491092 0.07780243 0.09862739 0.20237099 0.1553547
-0.1852943 -0.43090814 -0.23923597 0.42108533 0.28647032 -0.060521346 -0.29864457 -0.1540703
-0.36408097 -0.3409822 -0.084908806 0.06980531 -0.10697116 -0.03489998 -0.19941881 0.38274354
0.3555065 0.20120265 0.33662036 -0.29406953 -0.0354784 0.19643833 -0.22250062 -0.31703946
-0.2856307 -0.13748503 -0.235883 0.17706577 0.13348998 -0.3657349 -0.1774258 0.21107903
0.10150763 0.118610166 0.42545834 0.07484156 -0.29029644 0.073532075 -0.39210603 0.3914493
00000000: bbec 95be b114 b9bd d534 d03d c145 00be
00000010: ff8f e2be e0cb d03e 0c21 583e 22a8 253e
00000020: 6d8e 30be 516b 95be c5d0 043e c8db 513c
00000030: d3bb 163e 6d51 85be d851 ab3e faac af3e
00000040: d292 00bd 649d bfbe c062 1b3e 5e61 773e
00000050: 06b3 ea3d f0da 3cbe 11e6 8b3d 538e 2cbe
00000060: 449f d63e 2dc1 07be 2707 96be 70f7 473e
00000070: c8d7 dc3e 4290 8a3b f5fb 523d 5dba 293e
00000080: a37e 603d 7a37 b3be 3d5a bc3e 39fa 4cbe
00000090: 0980 b83e 93cc 153e 7ad6 df3d 133a db3e
000000a0: 7b4c 163e 015e 243b 3043 f2bd 6704 363d
000000b0: 41b9 9a3e 3015 323d 3a39 90bd d902 e3be
000000c0: 542e 43be 5640 d53e 4ccc c73d 5c4d 813e
000000d0: c49a d43e 09e1 c23e 3c14 96be 6508 6fbe
000000e0: 722f a03e 71bb 843e 74d6 53be acd0 3a3e
000000f0: d0f4 cabc d826 2d3d 2351 c03e bef8 a0be
00000100: 37b8 ff3d e79e d73c 2761 ce3e 8a06 dc3e
00000110: 0b35 d33e 2a07 96bd 8fc4 79be 0fb7 9a3e
00000120: 231b 8dbd 123e ae3e d077 edbd 8e9f 64be
00000130: 0cd3 333e 638c 9bbe f7d2 3f3e cfe4 e43e
00000140: 1ab6 bc3d e72a 923e 2f26 8abd a5ac de3e
00000150: e156 9f3d 28fd c93d 573a 4f3e 4d15 1f3e
00000160: cabd 3dbe fe9f dcbe 46fa 74be 7f98 d73e
00000170: 3dac 923e 3be5 77bd f1e7 98be 9bc4 1dbe
00000180: d268 babe 3895 aebe abe4 adbd 16f6 8e3d
00000190: b213 dbbd 48f3 0ebd 7234 4cbe f6f6 c33e
000001a0: f304 b63e 1108 4e3e 8159 ac3e 4890 96be
000001b0: cc51 11bd 2127 493e 34d7 63be ff52 a2be
000001c0: 303e 92be e0c8 0cbe 508b 71be bb50 353e
000001d0: 99b1 083e 9b41 bbbe 1caf 35be 1a25 583e
000001e0: 3be3 cf3d e3e9 f23d add5 d93e 8846 993d
000001f0: bca1 94be fc97 963d 1fc2 c8be 0b6c c83e

layer2.weight f4 [256, 128]
0.1028526 0.12406678 0.065013126 -0.071345076 0.06725191 0.08172761 -0.0076146196 -0.09280298
0.000690536 -0.0942011 -0.09760559 0.01179828 -0.053372182 -0.016669951 0.060912434 -0.013872673
0.08518566 -0.04093619 0.00063933135 -0.034786217 0.106329486 -0.12889735 0.090214044 -0.06761265
0.06589819 -0.07662792 0.08589261 0.020599436 0.0025613462 -0.09183303 0.10611915 0.053356413
-0.07406455 0.1104012 -0.08914142 -0.005132336 -0.0795598 -0.026666252 0.075566836 0.043085717
0.031864017 -0.06536 0.113959946 0.040333465 -0.030104838 0.019883713 -0.03119715 -0.03486063
-0.09868268 0.10046267 0.04954715 0.025663728 -0.084336385 -0.034959868 0.08765223 -0.05219908
0.037985135 -0.033910345 0.080593236 -0.05256022 -0.07870303 0.025656415 -0.09843515 -0.09819511
-0.11235825 -0.12716456 0.054072835 0.052237667 0.027186375 0.029793328 0.08673465 -0.057935003
0.0563771 -0.10914936 0.080172725 -0.062863484 -0.03511554 -0.06564164 0.038430847 -0.09020027
0.03753056 -0.016176067 -0.09191521 -0.03246644 -0.05288358 -0.005657019 0.045842845 -0.03730156
0.08090271 -0.023689449 -0.101799555 0.0032378056 0.04025063 -0.018739717 -0.12251745 0.11476523
-0.08503735 0.07144331 0.0011245173 0.028911812 0.10114538 0.11335626 0.057957247 -0.04905011
0.04851748 0.06436375 0.044024277 0.06280763 -0.13405095 -0.1135794 -0.06429449 0.11920636
-0.100103915 -0.038317308 -0.077543594 0.027914805 0.050493225 0.0049070646 -0.12215377 0.07131649
0.027434565 -0.074646994 0.014921885 0.052749712 0.048538078 -0.0839302 0.11654865 0.08298532
-0.12493118 0.009766382 -0.0034162672 0.10171217 -0.102435775 0.112246506 -0.0846855 0.06693977
0.07327116 -0.03399743 0.07040587 -0.01838082 -0.050487116 -0.024789648 0.043190856 -0.030866459
0.06973208 -0.048059482 0.10152918 0.06298407 0.021020098 -0.051708583 0.09974677 -0.10056495
0.05434572 -0.10267684 0.0012767665 0.023212614 -0.099215485 0.09315159 -0.0794661 0.11183273
0.055634364 -0.033348754 0.011230128 0.12006779 -0.03999877 0.056863133 0.046351746 -0.120297775
-0.09528097 0.11624779 0.09519756 0.024539746 -0.09521518 -0.069564566 -0.05610193 -0.038864326
-0.07521779 0.024411416 -0.023397878 0.0648217 0.032478414 0.08214533 0.051554352 0.08690948
-0.042056773 -0.060254984 0.05394454 0.048536688 -0.03674723 -0.0014599661 0.08790364 -0.07869264
0.12331792 -0.10239501 0.027396847 -0.07123325 0.006679744 -0.010624989 0.06984101 0.03667672
0.11862221 0.01243679 0.026785849 0.05793693 0.04986307 0.07375843 -0.116949804 -0.10471253
0.0126227625 -0.052569296 0.090030015 0.118040144 -0.10140142 -0.08483497 -0.06665876 -0.11993814
-0.0706917 -0.11950664 -0.116741404 0.051435165 -0.009094133 -0.05182227 -0.11610992 -0.089967445
0.028691452 0.0101058185 -0.10838318 -0.078869246 0.029658731 0.06317971 0.13412799 0.106507786
0.0882292 -0.06746392 0.09435079 0.10557506 -0.11164125 -0.09440976 -0.012775713 0.11020997
0.033017613 -0.103546746 -0.049462978 0.040568367 0.081366345 0.081048824 0.008222791 0.063819565
0.10397123 0.042082872 0.034802455 0.117533244 -0.014554401 0.034514096 0.000111628295 0.041749693
00000000: 62a4 d23d b916 fe3d 9a25 853d 5e1d 92bd
00000010: 5fbb 893d ce60 a73d 0f84 f9bb 7d0f bebd
00000020: 1605 353a 82ec c0bd 71e5 c7bd 934d 413c
00000030: ca9c 5abd 6c8f 88bc 517f 793d 354a 63bc
00000040: d275 ae3d b5ac 27bd cd98 273a fe7b 0ebd
00000050: 46c3 d93d abfd 03be 24c2 b83d 8078 8abd
00000060: a1f5 863d 19ef 9cbd 77e8 af3d 26c0 a83c
00000070: 42dc 273b f512 bcbd ff54 d93d 418c 5a3d
00000080: 28af 97bd 061a e23d c78f b6bd 282d a8bb
00000090: 40f0 a2bd 2f73 dabc c9c2 9a3d a67a 303d
000000a0: d883 023d 77db 85bd d563 e93d b434 253d
000000b0: 6c9e f6bc 2be3 a23c 2a91 ffbc 05ca 0ebd
000000c0: 251a cabd 5fbf cd3d f4f1 4a3d bd3c d23c
000000d0: 8eb8 acbd 1432 0fbd 0383 b33d b4ce 55bd
000000e0: 4d96 1b3d 93e5 0abd 110e a53d 6349 57bd
000000f0: 0e2f a1bd 672d d23c 5e98 c9bd 851a c9bd
00000100: 151c e6bd 6d37 02be 7a7b 5d3d 2af7 553d
00000110: f6b5 de3c 2311 f43c f0a1 b13d 414d 6dbd
00000120: adeb 663d b389 dfbd 9931 a43d 92be 80bd
00000130: 50d5 0fbd 206f 86bd aa69 1d3d ebba b8bd
00000140: a5b9 193d ac83 84bc 0b3e bcbd 88fb 04bd
00000150: 749c 58bd 845e b9bb b5c5 3b3d 85c9 18bd
00000160: 52b0 a53d 6010 c2bc 497c d0bd 5d31 543b
00000170: d8dd 243d 0984 99bc 6eea fabd 080a eb3d
00000180: 1028 aebd df50 923d 8a64 933a 77d8 ec3c
00000190: 4f25 cf3d 5427 e83d 9464 6d3d c5e8 48bd
000001a0: 44ba 463d 24d1 833d cd52 343d 49a1 803d
000001b0: a744 09be 519c e8bd d4ac 83bd 7722 f43d
000001c0: 4803 cdbd 9cf2 1cbd 2dcf 9ebd 97ad e43c
000001d0: fcd1 4e3d 71cb a03b c12b fabd 610e 923d
000001e0: 74be e03c 86e0 98bd ec7a 743c 1510 583d
000001f0: ddcf 463d 99e3 abbd 0fb1 ee3d 35f4 a93d
00000200: ebdb ffbd 2d03 203c 74e3 5fbb 784e d03d
00000210: d9c9 d1bd 7fe1 e53d 976f adbd b817 893d
00000220: 310f 963d e440 0bbd f430 903d 6093 96bc
00000230: 94cb 4ebd a913 cbbc e5e8 303d a8db fcbc
00000240: b1cf 8e3d 05da 44bd 88ee cf3d cbfd 803d
00000250: 5732 ac3c 61cc 53bd 0948 cc3d fff4 cdbd
00000260: 9e99 5e3d 3c48 d2bd 2d59 a73a 6128 be3c
00000270: 7d31 cbbd 43c6 be3d 1fbf a2bd 8f08 e53d
00000280: dce0 633d b498 08bd 92fe 373c 1ae6 f53d
00000290: c0d5 23bd 51e9 683d 54db 3d3d ae5e f6bd
000002a0: ab22 c3bd 5213 ee3d f0f6 c23d 9407 c93c
000002b0: 2d00 c3bd de77 8ebd 23cb 65bd 3330 1fbd
000002c0: c90b 9abd 73fa c73c e8ac bfbc 3dc1 843d
000002d0: 1608 053d d03b a83d a82a 533d 99fd b13d
000002e0: b943 2cbd eecd 76bd f3f4 5c3d 68ce 463d
000002f0: 4384 16bd 555c bfba d306 b43d 9b29 a1bd
00000300: 1b8e fc3d 7ab4 d1bd 5a6f e03c bde2 91bd
00000310: c1e1 da3b 6f14 2ebc ce08 8f3d 543a 163d
00000320: 34f0 f23d aec3 4b3c ff6d db3c 464f 6d3d
00000330: 383d 4c3d a90e 973d 6183 efbd 8673 d6bd
00000340: b4cf 4e3c e752 57bd a861 b83d 08bf f13d
00000350: 8cab cfbd f5bd adbd 6384 88bd 21a2 f5bd
00000360: cfc6 90bd e6bf f4bd 1e16 efbd aead 523d
00000370: 8fff 14bc 9743 54bd 0acb edbd da40 b8bd
00000380: 560a eb3c e092 253c 00f8 ddbd 3386 a1bd
00000390: def6 f23c 5d64 813d d958 093e c120 da3d
000003a0: 83b1 b43d 862a 8abd fd3a c13d bd37 d83d
000003b0: 2ba4 e4bd e759 c1bd 3951 51bc c4b5 e13d
000003c0: 7a3d 073d 5110 d4bd b199 4abd 042b 263d
000003d0: 66a3 a63d edfc a53d e3b8 063c d5b3 823d
000003e0: deee d43d 175f 2c3d 058d 0e3d 45b5 f03d
000003f0: 9575 6ebc a75e 0d3d fc19 ea38 ba01 2b3d

layer2.bias f4 [256]
0.06282127 -0.008588287 0.07515855 -0.011932831 -0.062884346 -0.05060657 0.008079698 0.054666072
0.06504406 -0.059091527 -0.059382346 -0.07318295 -0.04875679 0.045738913 -0.0602051 -0.054035693
0.042765956 0.007652769 -0.007919309 0.05160174 0.06750117 -0.038316112 -0.05029108 0.0028460217
0.062436327 0.04658224 -0.023661599 0.01028818 -0.045344353 -0.017214723 -0.034239512 0.0541224
0.021064721 0.057381753 -0.07636113 -0.074325725 -0.009890414 -0.04260836 0.066674456 0.029513212
-0.011348538 0.07609445 -0.060247857 -0.014835309 0.01235695 0.08704371 0.049167637 -0.07069707
0.024915468 0.05080135 0.08312681 -0.02643221 0.035269905 0.08731116 -0.07418802 -0.050668146
-0.046713907 0.0024840198 0.05627898 0.007710306 -0.023951374 -0.06209911 -0.090028316 0.076649144
-0.044746343 0.046051122 0.04062231 0.06860523 -0.062532514 0.013441436 -0.043833286 -0.08477005
-0.059302013 0.017049007 -0.017090168 -0.08541677 -0.038305983 0.04808154 0.07328028 0.05625149
0.047016762 0.04782651 -0.025054151 0.08395091 -0.05670382 0.0049865795 -0.01324146 -0.024875728
-0.06872868 0.09212634 0.030526614 -0.07426089 -0.009873215 -0.07125761 -0.014627094 -0.01451778
-0.07374238 -0.024336038 0.03508509 0.08661806 -0.009741517 0.049435493 0.08715268 -0.061356798
-0.046984375 0.05950402 0.01316821 -0.07019908 -0.0606701 0.065293014 -0.08024192 0.053596202
0.060623296 0.024925616 0.070214264 -0.068511486 0.06621475 0.025606463 -0.030070981 -0.07638759
-0.015500489 -0.042487085 0.018455198 0.054625783 -0.03670789 0.007855596 -0.06904516 -0.020587625
-0.037797604 -0.043073308 0.050925687 -0.0058504655 0.0011296718 -0.06624077 0.027972218 0.05195985
-0.016246926 0.036103 0.06897914 0.00069077936 0.02870299 0.048449144 -0.053331308 -0.011248926
-0.0077462993 -0.039061062 -0.06089583 0.082904674 0.0073007587 0.031056799 0.007916046 -0.06035279
-0.057181347 -0.04716926 0.034351364 0.061134443 -0.0033940282 -0.03978169 0.065785564 -0.06672119
-0.074189536 -0.011356616 -0.07112254 -0.05551927 -0.033517044 0.033536136 -0.048566524 0.03480347
-0.0074907457 0.057409573 -0.021523712 0.02531671 0.03456801 0.03973315 0.03956278 0.004134975
0.06907897 0.067226775 0.008360194 0.06186394 -0.031540677 -0.07868573 0.07867156 0.041509673
-0.017381256 0.031906947 0.0012668542 0.027522055 -0.063020155 0.010330704 0.029913971 -0.031486534
0.057995148 0.03290725 -0.0711769 0.08319045 -0.014531929 -0.035762124 -0.0460811 0.054959904
0.08156646 -0.042774882 0.008207059 -0.014172667 -0.07013591 0.06827264 0.047087148 -0.03549757
-0.07583985 -0.03894881 0.034794245 -0.010556325 0.0370585 -0.03913955 -0.06490053 -0.05007977
0.025275884 -0.07848205 0.06465892 -0.038305335 -0.012915428 0.04645332 0.049670037 0.059570402
-0.009709839 0.0834957 -0.051141493 -0.042783204 0.06716559 -0.07107358 0.01263255 0.06171871
-0.028718883 -0.0339617 -0.047063537 0.058173157 0.009952979 0.0037221662 -0.023979597 -0.07373231
0.052794155 -0.0638294 -0.083823346 0.020836446 -0.059991267 -0.08251507 0.018445576 -0.055461247
0.09069365 0.08837523 0.07080855 -0.05112582 0.039766338 0.073315434 0.024297666 -0.0111317905
00000000: 70a8 803d e3b5 0cbc baec 993d ec81 43bc
00000010: 82c9 80bd d648 4fbd b660 043c 88e9 5f3d
00000020: d235 853d f509 72bd e73a 73bd f1e0 95bd
00000030: 33b5 47bd ba58 3b3d 9f99 76bd 8854 5dbd
00000040: 5b2b 2f3d 14c4 fa3b fdbf 01bc 595c 533d
00000050: 0e3e 8a3d 5bf1 1cbd 05fe 4dbd 5284 3a3b
00000060: 3cbd 7f3d 05cd 3e3d f8d5 c1bc c18f 283c
00000070: 00bb 39bd e405 8dbc bb3e 0cbd 73af 5d3d
00000080: ec8f ac3c 2109 6b3d 3963 9cbd 1638 98bd
00000090: 670b 22bc 1b86 2ebd 9e8c 883d b1c5 f13c
000000a0: 38ef 39bc 68d7 9b3d 75c6 76bd cc0f 73bc
000000b0: ce74 4a3c f943 b23d 0164 493d a0c9 90bd
000000c0: 861b cc3c 1415 503d 643e aa3d 5d88 d8bc
000000d0: 2d77 103d 32d0 b23d e3ef 97bd 6789 4fbd
000000e0: 1557 3fbd f0ca 223b ca84 663d bca6 fc3b
000000f0: ac35 c4bc a35b 7ebd c460 b8bd 3afa 9c3d
00000100: f147 37bd 1aa0 3c3d 9463 263d e680 8c3d
00000110: 0c11 80bd 7839 5c3c 888a 33bd ec9b adbd
00000120: abe6 72bd 5caa 8b3c ae00 8cbc fdee aebd
00000130: bce6 1cbd 26f1 443d f913 963d f667 663d
00000140: a694 403d bbe5 433d 5d3e cdbc 74ee ab3d
00000150: 4442 68bd 7666 a33b b5f2 58bc 2fc8 cbbc
00000160: 9fc1 8cbd bcac bc3d f312 fa3c 1816 98bd
00000170: 44c3 21bc 83ef 91bd 7ba6 6fbc fcdb 6dbc
00000180: 3f06 97bd 5f5c c7bc 62b5 0f3d cf64 b13d
00000190: e29a 1fbc df7c 4a3d 1b7d b23d 4451 7bbd
000001a0: b072 40bd 7dba 733d 7abf 573c 89c4 8fbd
000001b0: 3681 78bd 58b8 853d e055 a4bd b187 5b3d
000001c0: 2250 783d ce30 cc3c 7fcc 8f3d c04f 8cbd
000001d0: 999b 873d a5c4 d13c 6b57 f6bc 1971 9cbd
000001e0: c3f5 7dbc f006 2ebd 5b2f 973c 49bf 5f3d
000001f0: 035b 16bd c2b4 003c 8d67 8dbd 61a7 a8bc
00000200: a9d1 1abd a36d 30bd 7497 503d 43b5 bfbb
00000210: 7f11 943a 3ea9 87bd fe25 e53c dad3 543d
00000220: 4618 85bc bde0 133d ef44 8d3d 6b15 353a
00000230: 8822 eb3c 9c72 463d ee71 5abd 6a4d 38bc
00000240: abd4 fdbb 7efe 1fbd e86d 79bd edc9 a93d
00000250: 343b ef3b d46a fe3c 4eb2 013c 7d34 77bd
00000260: fd36 6abd 8e34 41bd 04b4 0c3d 1c68 7a3d
00000270: 586e 5ebb 20f2 22bd 95ba 863d 1fa5 88bd
00000280: aff0 97bd 1a11 3abc b2a8 91bd 2d68 63bd
00000290: 2b49 09bd 305d 093d b1ed 46bd 158e 0e3d
000002a0: ee74 f5bb 4d26 6b3d 7f52 b0bc fd64 cf3c
000002b0: 3097 0d3d 3abf 223d 950c 223d af7e 873b
000002c0: 4679 8d3d 31ae 893d 32f9 083c 0b65 7d3d
000002d0: cc30 01bd fc25 a1bd 8e1e a13d 0c06 2a3d
000002e0: 2363 8ebc dcb0 023d 930c a63a ef75 e13c
000002f0: b610 81bd 1d42 293c 250e f53c 06f8 00bd
00000300: 528c 6d3d c1c9 063d 32c5 91bd c15f aa3d
00000310: 5417 6ebc 4e7b 12bd 89bf 3cbd a31d 613d
00000320: 510c a73d b734 2fbd e776 063c 7934 68bc
00000330: 6aa3 8fbd 87d2 8b3d 74de 403d e665 11bd
00000340: ec51 9bbd ca88 1fbd 6984 0e3d 70f4 2cbc
00000350: a7ca 173d cb50 20bd 92ea 84bd 7220 4dbd
00000360: 5f0f cf3c 32bb a0bd e56b 843d 0ee6 1cbd
00000370: 3b9b 53bc d645 3e3d cf72 4b3d 1800 743d
00000380: 0416 1fbc cbff aa3d be79 51bd 713d 2fbd
00000390: 1d8e 893d 068f 91bd c1f8 4e3c c2cc 7c3d
000003a0: dd43 ebbc 6c1b 0bbd b2c5 40bd fa46 6e3d
000003b0: d211 233c 96ef 733b dc70 c4bc f700 97bd
000003c0: af3e 583d fdb8 82bd 93ab abbd 32b1 aa3c
000003d0: 67b9 75bd a9fd a8bd 2d1b 973c 552b 63bd
000003e0: 98bd b93d 13fe b43d 1304 913d 4f69 51bd
000003f0: 07e2 223d 6726 963d e60b c73c 1d62 36bc

layer3.weight f4 [256, 256]
-0.06941781 -0.059163723 0.020217227 0.0739451 -0.067218944 -0.06865573 0.02755578 0.079051994
-0.09394646 0.02306867 0.03621612 -0.0048008924 -0.1031457 0.098492235 0.09951438 0.078092724
0.037131514 0.0043180645 0.032982353 0.04021778 -0.105101906 -0.09385661 0.026657224 -0.07712013
-0.085195735 -0.06758804 0.03671036 0.10621335 0.097243495 0.011259683 -0.03856966 0.0054881033
-0.067529164 -0.0583237 0.055460494 -0.014131317 -0.053989977 -0.08271178 0.08716824 0.0861758
0.056147587 0.015530326 0.07497141 -0.05777267 -0.08007666 0.049714293 -0.019908153 -0.09326137
0.05194413 -0.056455318 0.02584872 -0.09326637 0.041035157 -0.050615486 -0.033607416 0.04372227
-0.01611743 0.08399938 -0.077243075 0.071154475 -0.04103753 -0.031637587 0.018730046 -0.09527382
0.05176386 -0.10713031 0.104025885 -0.08683635 0.05532584 -0.013767252 0.061778244 0.036864046
0.09101801 0.10106646 0.057414845 -0.095886424 0.07590574 -0.06113503 0.09917435 0.06275375
0.10673454 -0.0359976 0.054876074 -0.026376238 -0.0895341 0.10433581 -0.06688348 -0.08258316
-0.02830268 0.05509736 -0.0681004 -0.012637228 -0.070154235 0.05553673 -0.04391268 -0.092379674
-0.057779968 -0.08214339 0.041378237 0.055203345 0.09337809 -0.006631594 -0.10032718 -0.016279677
0.073922604 0.09088669 0.08993568 0.055109933 0.0010815312 0.03271716 0.022029823 -0.07747524
0.04120071 -0.051809132 0.0932671 0.06595265 0.07677985 0.060571652 -0.10276431 -0.078276515
0.10505889 -0.039948516 -0.0681713 -0.0843218 -0.08554784 -0.05093617 0.041081488 0.08773521
-0.074398756 0.10129161 0.06354886 -0.019118328 -0.020853363 0.03493652 -0.0859969 -0.10694879
-0.011036484 -0.086698376 0.03612951 0.0631525 0.094724335 -0.08921359 -0.073692665 0.06076271
-0.012469273 0.07298657 -0.032978598 -0.106485315 0.0077637266 0.05958349 -0.07670663 0.07535404
-0.08177525 0.020538276 0.041267697 0.08668445 0.05083127 0.086852595 0.009827525 -0.10343382
0.020855693 -0.10664746 -0.041488487 -0.06856777 0.071172535 0.06595314 -0.10796956 -0.042602167
0.025931837 0.090614684 -0.10054014 0.0628699 0.1094223 -0.04764364 0.0125902435 -0.087478064
0.063098155 0.049197167 -0.08339417 0.059849948 -0.10339256 0.10119661 0.055730958 0.07903563
0.059578095 -0.07134032 -0.0963647 -0.009752208 -0.060607377 0.009648004 0.098150246 0.071731634
-0.09226888 0.06960738 0.049758155 0.035189595 0.09848151 -0.021994805 0.034569684 0.028385002
0.031047497 0.029834703 -0.08464612 0.082897514 -0.10342447 0.013325766 -0.081032865 -0.0019203993
0.028208656 0.04659323 0.0050924486 -0.036022805 -0.03741539 -0.03478894 0.08985751 -0.070719734
0.09015345 -0.07768936 -0.031459603 -0.03034428 0.017983492 -0.0638904 -0.04969327 -0.039768983
0.09868854 0.015085445 0.062179748 -0.10715664 -0.10319132 0.004976627 0.051306 0.053973854
0.06595863 -0.08718256 -0.10094638 0.077360414 0.059920818 -0.039601322 0.05809979 0.092326425
-0.05535474 0.020087205 0.031336397 0.042064637 0.090163864 -0.045858253 0.097228065 -0.042510033
0.07559976 0.061326675 0.055948913 -0.10001219 -0.083016515 0.08379388 -0.0021424834 0.036836695
00000000: ed2a 8ebd a955 72bd 999e a53c 8770 973d
00000010: 16aa 89bd 609b 8cbd a9bc e13c 03e6 a13d
00000020: 0067 c0bd 82fa bc3c 5b57 143d ce50 9dbb
00000030: 0e3e d3bd 4cb6 c93d 32ce cb3d 14ef 9f3d
00000040: 3717 183d 8d7e 8d3b 8118 073d 66bb 243d
00000050: ab3f d7bd e537 c0bd 4060 da3c 29f1 9dbd
00000060: 1a7b aebd 996b 8abd 9a5d 163d 6386 d93d
00000070: 9927 c73d 897a 383c 38fb 1dbd 8cd5 b33b
00000080: bb4c 8abd d5e4 6ebd 8b2a 633d 0a87 67bc
00000090: 9824 5dbd cb64 a9bd 4385 b23d f07c b03d
000000a0: 03fb 653d e972 7e3c 9c8a 993d 09a3 6cbd
000000b0: 3bff a3bd 37a1 4b3d 6c16 a3bc d1ff bebd
000000c0: 5ec3 543d b13d 67bd b2c0 d33c 7002 bfbd
000000d0: 7b14 283d 2f52 4fbd eea7 09bd 1f16 333d
000000e0: b308 84bc de07 ac3d 9e31 9ebd 70b9 913d
000000f0: f816 28bd 6a96 01bd c16f 993c ec1e c3bd
00000100: 5706 543d 2367 dbbd 860b d53d 42d7 b1bd
00000110: 599d 623d 0a90 61bc 2f0b 7d3d c1fe 163d
00000120: a767 ba3d effb ce3d d42b 6b3d 1a60 c4bd
00000130: 7874 9b3d ba68 7abd ec1b cb3d 0a85 803d
00000140: a397 da3d 3872 13bd bcc5 603d fb12 d8bc
00000150: a75d b7bd 03ae d53d 35fa 88bd 5c21 a9bd
00000160: 06db e7bc c5ad 613d 3978 8bbd 600c 4fbc
00000170: 06ad 8fbd 7b7a 633d c8dd 33bd 8e31 bdbd
00000180: b0aa 6cbd cb3a a8bd 3a7c 293d e71c 623d
00000190: 033d bf3d d84d d9bb 5678 cdbd f55c 85bc
000001a0: bc64 973d cd22 ba3d 3330 b83d f4ba 613d
000001b0: 2ac2 8d3a 6e02 063d e377 b43c 57ab 9ebd
000001c0: 13c2 283d d035 54bd d202 bf3d 2f12 873d
000001d0: c13e 9d3d fb19 783d 1876 d2bd 704f a0bd
000001e0: 1e29 d73d 0ea1 23bd 659d 8bbd e8b0 acbd
000001f0: b533 afbd 72a2 50bd 1045 283d 85ae b33d
00000200: 605e 98bd fa71 cf3d e825 823d 0a9e 9cbc
00000210: acd4 aabc 9919 0f3d 251f b0bd f807 dbbd
00000220: 5ed2 34bc eb8e b1bd 89fc 133d 1956 813d
00000230: d5fe c13d 9db5 b6bd 2eec 96bd 52e2 783d
00000240: ec4b 4cbc fc79 953d 9114 07bd f914 dabd
00000250: dc66 fe3b d10d 743d 5e18 9dbd 3853 9a3d
00000260: c879 a7bd e33f a83c 5108 293d 9e87 b13d
00000270: 7334 503d c6df b13d a103 213c 1cd5 d3bd
00000280: 8fd9 aa3c fc69 dabd d5ef 29bd 426d 8cbd
00000290: e8c2 913d 7112 873d 251f ddbd 9c7f 2ebd
000002a0: 016f d43c 3194 b93d fde7 cdbd efc1 803d
000002b0: cc18 e03d fa25 43bd 4f47 4e3c b327 b3bd
000002c0: 9b39 813d f882 493d 90ca aabd 3825 753d
000002d0: 7abf d3bd 2b40 cf3d 2546 643d 6fdd a13d
000002e0: 2908 743d e01a 92bd db5a c5bd bac7 1fbc
000002f0: 713f 78bd a912 1e3c ff02 c93d 09e8 923d
00000300: 77f7 bcbd 508e 8e3d 35cf 4b3d f722 103d
00000310: adb0 c93d 732e b4bc f198 0d3d aa87 e83c
00000320: 5257 fe3c e867 f43c f25a adbd 2cc6 a93d
00000330: 35d0 d3bd 5054 5a3c 8ff4 a5bd e8b5 fbba
00000340: d715 e73c 8bd8 3e3d 8ede a63b a68c 13bd
00000350: e140 19bd d97e 0ebd 3707 b83d 82d5 90bd
00000360: 5fa2 b83d 991b 9fbd c9db 00bd 9194 f8bc
00000370: 1e52 933c f8d8 82bd 2c8b 4bbd cde4 22bd
00000380: 381d ca3d f128 773c 31b0 7e3d f174 dbbd
00000390: f955 d3bd f912 a33b 3e26 523d b013 5d3d
000003a0: 5115 873d c58c b2bd fabc cebd 236f 9e3d
000003b0: 886f 753d ff34 22bd 0cfa 6d3d a315 bd3d
000003c0: a7bb 62bd ec8d a43c 985a 003d f84b 2c3d
000003d0: d5a7 b83d ddd5 3bbd 821f c73d 001f 2ebd
000003e0: 0cd4 9a3d ae31 7b3d b02a 653d 31d3 ccbd
000003f0: 9004 aabd 209c ab3d e868 0cbb 13e2 163d

layer3.bias f4 [256]
-0.008099529 -0.036440395 0.0151173575 -0.03434765 0.026127517 -0.0037785654 -0.02703262 0.043953333
-0.03527948 0.03343631 -0.0065814047 -0.04509321 -0.023583913 -0.04413133 0.009403637 -0.029232148
0.0014084455 0.04005933 -0.02799786 -0.052976012 -0.004371377 -0.013409177 0.009060583 0.049693067
0.038799703 -0.010712754 -0.022970403 -0.0042454507 -0.0497277 -0.017478704 0.008500911 0.041623708
0.02225746 0.017859653 -0.01787837 -0.058809172 -0.035026312 0.047684997 -0.038718633 0.018541139
0.012522417 0.054054495 0.047213282 0.031927705 0.03122402 -0.038014945 -0.04226646 0.02925191
-0.06550685 0.058472574 0.005045668 0.058759484 0.023050658 0.00653527 0.05567417 -0.027667975
0.034319907 -0.049919832 -0.045707457 0.058778573 -0.036510095 -0.028674973 0.012076476 0.009259873
0.029596616 0.005621658 0.028398056 -0.052118316 0.025102738 0.06441947 0.02175146 -0.025507936
-0.046369318 0.048732456 0.009381757 0.05325808 0.030025464 -0.020041196 0.0206565 -0.042629987
0.04044574 -0.0600999 0.060149025 0.018412877 0.040863186 0.03770518 0.029347967 0.019788286
0.00909565 -0.051407322 0.0014386893 -0.062149238 0.061465204 0.0452428 0.02207026 0.005714414
-0.0019017194 0.059265967 -0.056869145 -0.045266036 -0.062316485 -0.033506945 -0.008931223 0.015034229
-0.04990843 0.0073802015 -0.024201322 -0.012568619 -0.012293568 0.059561867 -0.006033967 -0.04519406
0.060238104 0.05060645 0.020700457 -0.033192948 0.020894669 -0.007857648 -0.03544592 0.060769092
-0.043715816 -0.004649114 0.009258435 0.034783624 -0.0032432391 -0.03005248 0.0026319055 0.0022717356
-0.040663943 0.062995546 0.045308866 -0.010362251 -0.05616834 0.034657225 -0.017137697 -0.055029523
0.043362092 0.013557253 -0.055569824 -0.004663824 -0.00043504505 0.034674913 0.054134905 -0.0013771872
0.029419756 0.03292039 -0.004367946 0.05345504 0.038133092 0.029922804 -0.010109345 0.016645981
-0.009889728 0.049582765 -0.011397196 -0.0003324815 0.025095385 0.018566452 0.010424755 0.024246192
0.024686355 0.011121222 0.039213147 -0.027571961 -0.0015142229 0.057652514 0.05425352 -0.03309702
0.013103521 0.049182657 0.026044568 0.032428045 -0.052203346 0.0067797173 -0.032773096 0.015121688
-0.017313177 -0.054843005 0.053465605 -0.016164796 0.025182266 0.010321626 -0.011221705 -0.013654329
-0.025621813 -0.033606533 0.00044618367 -0.006234991 -0.050835654 -0.05879807 -0.055860847 -0.014181039
-0.01870785 0.03412412 -0.03680491 -0.03789967 0.039670017 -0.04886433 0.041514207 0.020990897
0.02792107 0.054400675 -0.057671506 -0.029840035 0.006144735 0.0047110654 0.05632541 -0.02996235
0.019837793 0.02889439 -0.05683085 0.05341954 0.050398365 0.053698156 -0.06919108 0.059110206
0.008091552 -0.035656244 -0.013603524 0.008159383 0.027502475 -0.0057517933 -0.023522789 0.0024312525
-0.052380484 0.039324388 0.03805561 0.009341745 0.05366512 -0.048584644 -0.0060477206 -0.06060574
-0.045674495 -0.03109064 0.04027382 -0.04323278 -0.032127026 0.018925546 -0.019534439 -0.02220834
0.026810545 -0.05449827 -0.007665677 -0.0314989 -0.049439102 0.046538223 -0.04308768 -0.02029921
-0.023080131 -0.010950279 0.052185945 0.045234863 0.060542803 0.043427177 0.015770055 -0.008866003
00000000: e3b3 04bc 8642 15bd cbae 773c 1fb0 0cbd
00000010: 6009 d63c cfa1 77bb 8373 ddbc 6908 343d
00000020: 3781 10bd 83f4 083d d3a8 d7bb a8b3 38bd
00000030: 0d33 c1bc 0ec3 34bd b611 1a3c 4278 efbc
00000040: 979b b83a 4115 243d c55b e5bc 60fd 58bd
00000050: c53d 8fbb 2ab2 5bbc d772 143c f58a 4b3d
00000060: 70ec 1e3d 8c84 2fbc 6d2c bcbc 6c1d 8bbb
00000070: 46af 4bbd 802f 8fbc 6847 0b3c 9f7d 2a3d
00000080: 4755 b63c 684e 923c a975 92bc e3e1 70bd
00000090: c077 0fbd 5851 433d 6e97 1ebd 96e3 973c
000000a0: d32a 4d3c 3f68 5d3d b762 413d a0c6 023d
000000b0: 84c9 ff3c 8fb5 1bbd 981f 2dbd b4a1 ef3c
000000c0: 7528 86bd f080 6f3d 2256 a53b c9ad 703d
000000d0: bcd4 bc3c d125 d63b 990a 643d f3a7 e2bc
000000e0: 0893 0c3d bd78 4cbd be37 3bbd cdc1 703d
000000f0: 9c8b 15bd c7e7 eabc 69dc 453c b9b6 173c
00000100: 9a74 f23c e335 b83b 0aa3 e83c 047a 55bd
00000110: 42a4 cd3c 5bee 833d 1e30 b23c 05f6 d0bc
00000120: c1ed 3dbd af9b 473d f1b5 193c 2525 5a3d
00000130: f6f7 f53c 6f2d a4bc d237 a93c c89c 2ebd
00000140: 6faa 253d 502b 76bd d35e 763d 9ad6 963c
00000150: 2860 273d bf70 1a3d 266b f03c 0b1b a23c
00000160: ec05 153c 7c90 52bd 6792 bc3a 3390 7ebd
00000170: f0c2 7b3d 8450 393d b1cc b43c fb3f bb3b
00000180: 1d43 f9ba dfc0 723d 9fef 68bd e168 39bd
00000190: 923f 7fbd 943e 09bd 4454 12bc 2052 763c
000001a0: c86c 4cbd 9ed5 f13b da41 c6bc 9cec 4dbc
000001b0: f66a 49bc 25f7 733d 95b8 c5bb 681d 39bd
000001c0: 3bbc 763d b548 4f3d 0194 a93c 54f5 07bd
000001d0: 4c2b ab3c 5dbd 00bc be2f 11bd 03e9 783d
000001e0: 5b0f 33bd 9857 98bb b1b0 173c 4679 0e3d
000001f0: 868c 54bb 9e30 f6bc 0c7c 2c3b 66e1 143b
00000200: 3c8f 26bd cf03 813d ca95 393d 6ec6 29bc
00000210: c610 66bd bcf4 0d3d 5b64 8cbc a366 61bd
00000220: 739c 313d 3e1f 5e3c 2f9d 63bd fed2 98bb
00000230: c216 e4b9 4807 0e3d 90bc 5d3d bc82 b4ba
00000240: b301 f13c 88d7 063d fd20 8fbb acf3 5a3d
00000250: 7231 1c3d ab20 f53c aba1 25bc 275d 883c
00000260: 8708 22bc 4c17 4b3d 4ebb 3abc e950 aeb9
00000270: d694 cd3c ac18 983c 97cc 2a3c f39f c63c
00000280: 0a3b ca3c c935 363c f79d 203d 98de e1bc
00000290: e478 c6ba 0b25 6c3d f038 5e3d be90 07bd
000002a0: 27b0 563c c173 493d 6b5b d53c 45d3 043d
000002b0: 2dd3 55bd 6428 de3b 153d 06bd f5c0 773c
000002c0: 5dd4 8dbc 0fa3 60bd c0fe 5a3d 096c 84bc
000002d0: 0a4b ce3c 0a1c 293c 3edb 37bc 68b6 5fbc
000002e0: d6e4 d1bc 01a7 09bd c2ed e939 e54e ccbb
000002f0: 0c39 50bd 3fd6 70bd 58ce 64bd 9757 68bc
00000300: 3441 99bc bcc5 0b3d bfc0 16bd af3c 1bbd
00000310: 077d 223d f725 48bd cd0a 2a3d 1af5 ab3c
00000320: baba e43c 3ed3 5e3d f538 6cbd 1773 f4bc
00000330: c659 c93b 485f 9a3b 79b5 663d 9a73 f5bc
00000340: de82 a23c eeb3 ec3c 77c7 68bd 73ce 5a3d
00000350: 846e 4e3d 99f2 5b3d 0eb4 8dbd 8b1d 723d
00000360: 6e92 043c 480c 12bd 51e1 5ebc efae 053c
00000370: df4c e13c 8a79 bcbb ddb2 c0bc a655 1f3b
00000380: eb8c 56bd 9c12 213d 33e0 1b3d 1e0e 193c
00000390: f5cf 5b3d b100 47bd f52b c6bb b93d 78bd
000003a0: 2e15 3bbd ccb1 febc 29f6 243d db14 31bd
000003b0: a197 03bd bf09 9b3c b006 a0bc 44ee b5bc
000003c0: caa1 db3c 9439 5fbd 5c30 fbbb fe04 01bd
000003d0: a880 4abd dd9e 3e3d b57c 30bd 874a a6bc
000003e0: 8b12 bdbc cd68 33bc eec0 553d 3148 393d
000003f0: bbfb 773d b2e0 313d 3430 813c b642 11bc

layer4.weight f4 [1, 256]
0.09249794 -0.021524608 0.08644925 -0.14111269 0.11210763 -0.13902347 -0.10147041 -0.1264527
0.08904658 0.017646117 0.12596123 -0.027190102 0.073764384 0.11349747 -0.049806934 0.10402117
-0.053936828 0.13336007 0.0880574 -0.09823271 0.09234554 0.0630247 -0.10740208 -0.08957209
0.013219605 -0.115713745 -0.12685725 0.11422255 0.027978245 0.122645654 -0.014688065 0.094965935
-0.13046737 0.11743768 -0.064399414 -0.09711114 -0.0555661 -0.0715657 -0.0037985903 -0.11865069
0.06721842 0.025018115 0.11724413 0.029057361 0.11218907 -0.05739806 0.05615824 0.11899702
-0.022338472 0.13027333 0.09631649 -0.057468165 0.08460548 -0.022304809 -0.052853953 -0.054445185
0.013551941 -0.027350841 0.08513671 0.027299644 0.041295134 -0.15456699 -0.13714834 -0.12323793
0.05366676 0.099135265 -0.022752687 0.021647174 -0.080259174 0.089473166 0.044051033 0.051935818
-0.15270627 -0.15129909 -0.063460015 0.084763445 0.008109849 -0.0136311725 0.097876266 -0.1009613
0.036633424 -0.04805517 0.004540503 0.11656187 -0.05282791 -0.15446107 0.10546977 0.04937118
-0.16363184 -0.062282305 0.13041043 -0.07007518 0.14488421 0.0918683 0.011522757 -0.11338242
0.02665996 -0.1269255 0.007378044 0.020821003 0.028476467 0.066533886 0.1428919 0.0062413285
-0.018650332 -0.07976263 -0.08708739 -0.10175865 0.13015628 -0.030678602 0.016724654 -0.13151178
-0.051595747 0.110899545 0.08848341 0.08398892 0.08554523 0.016742432 -0.07893204 -0.06382171
0.035288073 -0.036672417 0.013933396 -0.043516617 -0.10860358 0.023540303 0.067767836 -0.1061111
-0.06133848 0.12905759 -0.10909641 0.037178244 -0.14373972 -0.027519856 -0.025066108 0.01790906
0.1290134 0.033682905 0.025834132 0.036344822 -0.052931685 -0.099904 0.0383229 0.09662853
0.13916248 0.09331764 -0.13170065 -0.08540785 -0.1252999 0.027314713 -0.15139045 -0.15809005
-0.09593813 -0.0052087344 -0.07587623 -0.032065008 -0.076688506 -0.059614368 0.02955463 -0.120038025
-0.03489763 0.13372506 -0.013731653 0.119254425 0.06356116 0.14379457 -0.028230887 -0.09775029
-0.12386967 0.005828959 -0.111930154 0.017179357 0.043954857 -0.11657854 -0.024265885 0.007838535
0.15178514 -0.016592994 -0.09578115 0.11067278 0.10310997 0.06728931 0.042746812 -0.008151717
-0.054399237 0.03222305 -0.05294908 0.13532044 -0.04322263 -0.001981296 -0.022178473 0.110003054
0.11826514 0.14116196 0.10905556 -0.0037528425 -0.059657626 -0.039348055 0.15589255 0.09288613
-0.1461887 -0.111677945 0.05311354 -0.08989498 -0.092631094 0.11851408 0.15668313 0.13038005
0.116097696 0.06851466 0.02338366 0.1464024 0.09398621 -0.05292139 0.10482327 0.06810266
0.069237135 -0.13103311 -0.073754534 0.06919719 0.12464163 0.056799892 -0.13926978 0.11233627
-0.0027554606 0.014529586 0.012671583 0.09277807 -0.07000095 0.15247872 0.13109912 0.10821074
-0.13583846 -0.15045424 0.0017022248 0.100513965 0.11798764 0.10395187 -0.03242912 -0.076086864
0.056637477 -0.03427124 0.055974323 0.04542617 -0.07857601 -0.05241707 0.11612782 0.11129861
0.15000188 0.052856654 0.0668146 0.083248004 0.08303708 0.044084746 0.051265422 -0.07583984
00000000: 8f6f bd3d 6054 b0bc 4e0c b13d d87f 10be
00000010: af98 e53d 2b5c 0ebe b8cf cfbd d17c 01be
00000020: 0e5e b63d 978e 903c fbfb 003e c7bd debc
00000030: c811 973d 5d71 e83d 5b02 4cbd 0d09 d53d
00000040: ddec 5cbd 8b8f 083e 7057 b43d 3b2e c9bd
00000050: a91f bd3d 1813 813d 9ff5 dbbd 9271 b7bd
00000060: 0b97 583c 54fb ecbd dee6 01be 83ed e93d
00000070: a232 e53c a52d fb3d 36a6 70bc 807d c23d
00000080: 3d99 05be 2b83 f03d d7e3 83bd 35e2 c6bd
00000090: 4799 63bd 0a91 92bd c5f1 78bb 22ff f2bd
000000a0: d0a9 893d caf2 cc3c b11d f03d b409 ee3c
000000b0: 62c3 e53d 3a1a 6bbd 2f06 663d b6b4 f33d
000000c0: 2cff b6bc 5f66 053e 9441 c53d bd63 6bbd
000000d0: a345 ad3d 93b8 b6bc 637d 58bd ea01 5fbd
000000e0: f608 5e3c df0e e0bc 285c ae3d 81a3 df3c
000000f0: 1625 293d cf46 1ebe 9d70 0cbe 2b64 fcbd
00000100: add1 5b3d 6e07 cb3d d863 babc 6a55 b13c
00000110: ec5e a4bd b53d b73d db6e 343d a7ba 543d
00000120: 085f 1cbe 26ee 1abe 53f7 81bd 7598 ad3d
00000130: 2cdf 043c 4855 5fbc 5a73 c83d ccc4 cebd
00000140: ee0c 163d 7fd5 44bd 80c8 943b fdb7 ee3d
00000150: 1462 58bd 0b2b 1ebe 8900 d83d 6f39 4a3d
00000160: 1b8f 27be bb1b 7fbd 508a 053e 9383 8fbd
00000170: 875c 143e 7325 bc3d f2c9 3c3c 0b35 e8bd
00000180: fd65 da3c c2f8 01be 85c3 f13b cf90 aa3c
00000190: 7b47 e93c eb42 883d 4152 123e 0f84 cc3b
000001a0: 95c8 98bc 975a a3bd e05a b2bd d766 d0bd
000001b0: b047 053e b151 fbbc 2402 893c 06ab 06be
000001c0: 1056 53bd 4d1f e33d ca36 b53d 6202 ac3d
000001d0: 5632 af3d 6d27 893c 1fa7 a1bd f5b4 82bd
000001e0: 3a8a 103d d135 16bd e648 643c 7b3e 32bd
000001f0: 8e6b debd 98d7 c03c ddc9 8a3d c750 d9bd
00000200: 0f3e 7bbd ac27 043e f06d dfbd 3748 183d
00000210: 8130 13be 5271 e1bc 7057 cdbc 05b6 923c
00000220: 171c 043e 16f7 093d 1aa2 d33c 4fde 143d
00000230: e5ce 58bd 789a ccbd 79f8 1c3d 2ee5 c53d
00000240: 9c80 0e3e 521d bf3d 89dc 06be 50ea aebd
00000250: 9e4e 00be 1bc3 df3c 1906 1bbe 5ce2 21be
00000260: 367b c4bd 08ae aabb ff64 9bbd 9956 03bd
00000270: dd0e 9dbd 322e 74bd 8d1c f23c 7fd6 f5bd
00000280: d1f0 0ebd 39ef 083e bafa 60bc aa3b f43d
00000290: 5a2c 823d e23e 133e 7644 e7bc 4e31 c8bd
000002a0: 62af fdbd da00 bf3b a33b e5bd b9bb 8c3c
000002b0: 020a 343d bbc0 eebd 40c9 c6bc 336d 003c
000002c0: 906d 1b3e 08ee 87bc e828 c4bd 69a8 e23d
000002d0: 522b d33d face 893d 4817 2f3d c78e 05bc
000002e0: bcd1 5ebd 51fc 033d 22e1 58bd 7191 0a3e
000002f0: 360a 31bd a2d8 01bb a1af b5bc 4849 e13d
00000300: fe34 f23d c38c 103e 8558 df3d 40f2 75bb
00000310: 8e5b 74bd 6d2b 21bd 4ca2 1f3e 153b be3d
00000320: 7eb2 15be 68b7 e4bd 958d 593d dc1a b8bd
00000330: 5fb5 bdbd 83b7 f23d 8b71 203e 5982 053e
00000340: a1c4 ed3d 6a51 8c3d 178f bf3c 83ea 153e
00000350: d87b c03d 19c4 58bd 95ad d63d 6879 8b3d
00000360: 33cc 8d3d 8b2d 06be 9e0c 97bd 42b7 8d3d
00000370: 1c44 ff3d 01a7 683d bd9c 0ebe 8f10 e63d
00000380: f594 34bb 800d 6e3c 799c 4f3c 6e02 be3d
00000390: a85c 8fbd 6223 1c3e d93e 063e 989d dd3d
000003a0: 3d19 0bbe ad10 1abe 301d df3a 44da cd3d
000003b0: 81a3 f13d b8e4 d43d 66d4 04bd 6ed3 9bbd
000003c0: b3fc 673d 0060 0cbd 5545 653d cb10 3a3d
000003d0: 76ec a0bd 48b3 56bd 6cd4 ed3d 87f0 e33d
000003e0: 189a 193e 3880 583d 18d6 883d ee7d aa3d
000003f0: 580f aa3d 3592 343d b1fb 513d eb51 9bbd

batchnorm1.weight f4 [128]
0.999763 1.004694 1.0062128 1.0004653 1.0008688 1.0 1.0127262 1.0
1.0 1.0 1.0045617 0.9991319 1.0 1.0008978 1.0 0.9990219
1.0030643 1.0 1.0003229 1.0013595 0.99844605 0.99969995 1.0 0.9998325
1.0 1.0016629 1.0054526 1.0 0.99909955 1.0082384 0.99974966 1.0042466
1.0 1.001528 0.99873525 0.99974847 1.0002952 0.9988375 1.0010909 1.0041654
0.99969697 0.99937004 1.0 0.9997507 1.0 1.0017519 1.001328 1.0
0.9990422 1.0002106 0.99977136 1.0000925 1.0017747 1.0017174 0.9993852 0.99860114
1.0003645 1.0031517 0.99948514 1.002724 1.001278 1.0002059 1.0000409 1.0
1.0016632 1.0 0.99981827 1.0050719 0.9997465 0.9997559 1.0013007 1.0
1.0013704 1.0 1.0 1.000137 1.0009567 1.0 1.0017085 1.0
0.9992303 1.0009984 1.0 1.0146545 1.0011665 1.0 1.0015355 1.0027497
0.9987485 0.99932575 1.000475 1.0005695 0.999238 1.0 0.99552655 1.0015031
1.0141165 0.99952275 0.9995185 1.0 1.0006125 1.0041144 1.0 1.0011864
1.0008813 1.0016541 1.0092875 1.0022323 1.0 1.0017586 1.0013392 0.9992366
1.000859 1.0 0.99991983 1.0 1.0 1.0 1.0 0.9984515
1.0024682 1.0 1.0009507 1.001964 0.9996037 0.9984704 1.0 0.9973952
00000000: 78f0 7f3f d099 803f 95cb 803f 3f0f 803f
00000010: 781c 803f 0000 803f 03a1 813f 0000 803f
00000020: 0000 803f 0000 803f 7a95 803f 1cc7 7f3f
00000030: 0000 803f 6b1d 803f 0000 803f e6bf 7f3f
00000040: 6964 803f 0000 803f 950a 803f 8c2c 803f
00000050: 299a 7f3f 56ec 7f3f 0000 803f 06f5 7f3f
00000060: 0000 803f 7d36 803f acb2 803f 0000 803f
00000070: fdc4 7f3f f50d 813f 98ef 7f3f 278b 803f
00000080: 0000 803f 1232 803f 1dad 7f3f 84ef 7f3f
00000090: ac09 803f d0b3 7f3f bf23 803f 7e88 803f
000000a0: 24ec 7f3f b7d6 7f3f 0000 803f a9ef 7f3f
000000b0: 0000 803f 6839 803f 842b 803f 0000 803f
000000c0: 3bc1 7f3f e706 803f 04f1 7f3f 0803 803f
000000d0: 273a 803f 4738 803f b5d7 7f3f 53a4 7f3f
000000e0: f20b 803f 4667 803f 42de 7f3f 4359 803f
000000f0: e129 803f bf06 803f 5701 803f 0000 803f
00000100: 8036 803f 0000 803f 17f4 7f3f 32a6 803f
00000110: 63ef 7f3f 01f0 7f3f 9f2a 803f 0000 803f
00000120: e82c 803f 0000 803f 0000 803f 7d04 803f
00000130: 591f 803f 0000 803f fc37 803f 0000 803f
00000140: 8fcd 7f3f b720 803f 0000 803f 33e0 813f
00000150: 3926 803f 0000 803f 5132 803f 1a5a 803f
00000160: fbad 7f3f d0d3 7f3f 910f 803f a912 803f
00000170: 10ce 7f3f 0000 803f d4da 7e3f 4131 803f
00000180: 92ce 813f b9e0 7f3f 72e0 7f3f 0000 803f
00000190: 1214 803f d286 803f 0000 803f e026 803f
000001a0: e11c 803f 3436 803f 5530 813f 2649 803f
000001b0: 0000 803f a039 803f e22b 803f f8cd 7f3f
000001c0: 261c 803f 0000 803f bffa 7f3f 0000 803f
000001d0: 0000 803f 0000 803f 0000 803f 849a 7f3f
000001e0: e150 803f 0000 803f 271f 803f 5b40 803f
000001f0: 07e6 7f3f c29b 7f3f 0000 803f 4b55 7f3f

batchnorm1.bias f4 [128]
-0.0033552013 0.00048665437 -0.0011623857 -0.0014657583 0.0018207654 0.0018023462 -0.004041455 0.010272268
0.007771194 0.0048274 0.0021982903 0.0054508 0.0021478792 -0.011262931 0.013255696 0.0030906454
-0.00754733 0.00048074193 -0.0055209757 -0.0003961825 -0.0021007454 -0.0021248846 0.0061922125 -0.0032119395
-0.00034829267 0.0023910785 -0.003224307 -0.01816133 0.0017066282 -0.001248164 -0.0034926436 0.0030170272
0.013314829 -0.0024094153 3.230392e-05 -0.0011214045 0.0047594793 0.004545379 -0.00013278321 -0.008707338
-0.0014177717 0.0060776 0.009822337 0.0010212909 -0.0032794194 0.0005821131 -0.0044313697 0.004420126
0.0020498675 -0.0013892762 -0.0025493624 -0.00097044004 0.0027339628 -0.0016516193 -0.00020466914 0.0035362067
-0.0018502979 0.0016264727 -0.00026183296 0.0030741584 -0.0035892942 -0.004612884 -0.0013008175 -0.0094608
0.0028649676 -0.00037413015 -0.0017721457 -0.0006111263 -0.0007131136 -0.0016236859 0.0013675252 -0.0023849574
0.00085919787 -0.0072749844 -0.0050951643 0.0028411683 -0.0020034018 0.008850475 -0.0014911351 0.0053262496
-0.0018425445 -0.00413324 0.0018860293 -0.00093321025 -0.0034253804 0.006896236 -0.0023431997 -0.01000157
-0.0012266584 -0.0018678341 0.0033989828 -0.0004266805 0.002070305 0.0013994427 0.0037594466 -0.0026910915
-0.00042362988 -0.00029990255 -0.0026874975 -0.0022388108 -0.0033014212 -0.00034810742 0.009065031 -0.0054046875
-0.0027207043 -0.002068847 -0.004275431 -0.0050369077 -0.009587041 -0.003155863 -0.0037912196 0.00035059548
0.00041679892 0.00095576316 -0.00022968097 -0.0077294866 -0.0072521567 -0.007137912 -0.0074873227 0.004121321
-0.003853274 0.016412653 -0.006863033 -0.010694209 0.0033694066 -0.00070559635 0.0035392712 0.00396661
00000000: f0e2 5bbb a525 ff39 315b 98ba b01e c0ba
00000010: c0a6 ee3a b43c ec3a 2f6e 84bb 044d 283c
00000020: 80a5 fe3b 2b2f 9e3b 3111 103b a09c b23b
00000030: 6fc3 0c3b 2888 38bc 6b2e 593c 6d8c 4a3b
00000040: 984f f7bb 170c fc39 4de9 b4bb b7b6 cfb9
00000050: a9ac 09bb a641 0bbb 0be8 ca3b 677f 52bb
00000060: 0d9b b6b9 a4b3 1c3b e54e 53bb 12c7 94bc
00000070: f1b0 df3a 6f99 a3ba d6e4 64bb 51b9 453b
00000080: 7126 5a3c 48e7 1dbb 127e 0738 17fc 92ba
00000090: 68f5 9b3b 67f1 943b b93b 0bb9 39a9 0ebc
000000a0: 86d4 b9ba 9b26 c73b deed 203c d6dc 853a
000000b0: 87eb 56bb f398 183a 0635 91bb b4d6 903b
000000c0: 1257 063b 6018 b6ba 3413 27bb 2165 7eba
000000d0: 492c 333b 267b d8ba 749c 56b9 b4bf 673b
000000e0: b285 f2ba 5e2f d53a a046 89b9 d277 493b
000000f0: 5d3a 6bbb ad27 97bb 3180 aaba 7901 1bbc
00000100: 2ec2 3b3b e626 c4b9 5847 e8ba fe33 20ba
00000110: 3ef0 3aba dcd1 d4ba 883e b33a f24c 1cbb
00000120: cb3b 613a fe62 eebb 56f5 a6bb e532 3a3b
00000130: 814b 03bb 9501 113c 3172 c3ba d287 ae3b
00000140: 8981 f1ba 2170 87bb a434 f73a aea2 74ba
00000150: 597c 60bb d2f9 e13b 5e90 19bb a0dd 23bc
00000160: d3c7 a0ba 1dd2 f4ba 78c1 5e3b 16b4 dfb9
00000170: f4ad 073b 816d b73a 0c61 763b 065d 30bb
00000180: a41a deb9 3d3c 9db9 ba20 30bb 03b9 12bb
00000190: a85c 58bb 3082 b6b9 7f85 143c ce19 b1bb
000001a0: d84d 32bb 7e95 07bb ea18 8cbb a50c a5bb
000001b0: f712 1dbc 98d2 4ebb 1c76 78bb 21d0 b739
000001c0: ce85 da39 2e8c 7a3a 84d6 70b9 a247 fdbb
000001d0: 80a3 edbb 25e5 e9bb 3758 f5bb 250c 873b
000001e0: 3687 7cbb d473 863c 4be3 e0bb c336 2fbc
000001f0: 43d1 5c3b c5f7 38ba 1ef3 673b 56fa 813b

batchnorm1.running_mean f4 [128]
10.88106 1.4910456 6.958657 48.073647 50.036533 0.0 0.19271648 0.0
0.0 0.0 4.022866 3.3774364 0.0 38.87031 0.0 38.032677
47.45199 0.0 43.08015 71.79721 59.17811 66.56389 0.0 50.661842
0.0 0.6101378 0.8706544 0.0 29.617548 10.468366 47.02819 0.42233345
0.0 33.092644 41.452545 17.786737 14.160711 55.08907 25.815275 4.69273
21.256516 0.009378728 0.0 19.63024 0.0 10.672405 0.7947514 0.0
13.043832 0.93727624 32.39743 55.638973 1.3223169 21.701956 50.441353 44.822727
34.914696 4.044757 6.0802835e-05 0.40650195 38.488705 38.61846 4.438915 0.0
29.67785 0.0 43.258175 4.2847166 10.9400835 69.4974 32.869457 0.0
57.663525 0.0 0.0 18.834173 4.7261343 0.0 35.958965 0.0
61.245457 0.7421039 0.0 7.665708 24.64796 0.0 1.0922327 0.81443036
35.846462 5.284373 35.31932 8.143203 0.03982249 0.0 5.49683 6.05028
5.271198 14.958947 66.21685 0.0 60.235317 0.064077556 0.0 49.898857
60.76688 1.222558 2.3266883 13.130042 0.0 48.623592 6.1732903 61.108192
4.6818542 0.0 57.202744 0.0 0.0 0.0 0.0 49.056187
1.8828526 0.0 52.648533 0.008675947 25.073997 10.2076025 0.0 21.322151
00000000: d218 2e41 95da be3f 51ad de40 6a4b 4042
00000010: 6925 4842 0000 0000 7857 453e 0000 0000
00000020: 0000 0000 0000 0000 51bb 8040 eb27 5840
00000030: 0000 0000 337b 1b42 0000 0000 7621 1842
00000040: d6ce 3d42 0000 0000 1352 2c42 2c98 8f42
00000050: 62b6 6c42 b620 8542 0000 0000 baa5 4a42
00000060: 0000 0000 fe31 1c3f 35e3 5e3f 0000 0000
00000070: bdf0 ec41 6d7e 2741 de1c 3c42 173c d83e
00000080: 0000 0000 de5e 0442 68cf 2542 3d4b 8e41
00000090: 4692 6241 355b 5c42 af85 ce41 d82a 9640
000000a0: 580d aa41 3da9 193c 0000 0000 bb0a 9d41
000000b0: 0000 0000 2cc2 2a41 d474 4b3f 0000 0000
000000c0: 89b3 5041 56f1 6f3f f896 0142 4f8e 5e42
000000d0: ae41 a93f 9b9d ad41 f2c3 4942 794a 3342
000000e0: a6a8 0b42 a66e 8140 8c06 7f38 0621 d03e
000000f0: 6ff4 1942 4e79 1a42 970b 8e40 0000 0000
00000100: 3d6c ed41 0000 0000 5f08 2d42 661c 8940
00000110: 950a 2f41 abfe 8a42 537a 0342 0000 0000
00000120: 73a7 6642 0000 0000 0000 0000 63ac 9641
00000130: 7e3c 9740 0000 0000 fbd5 0f42 0000 0000
00000140: 59fb 7442 85fa 3d3f 0000 0000 7b4d f540
00000150: 062f c541 0000 0000 48ce 8b3f 827e 503f
00000160: c762 0f42 9519 a940 fc46 0d42 8f4a 0241
00000170: e81c 233d 0000 0000 08e6 af40 e59b c140
00000180: a7ad a840 d957 6f41 076f 8442 0000 0000
00000190: f7f0 7042 183b 833d 0000 0000 6e98 4742
000001a0: 4911 7342 c87c 9c3f 76e8 1440 a714 5241
000001b0: 0000 0000 8f7e 4242 988b c540 ca6e 7442
000001c0: c0d1 9540 0000 0000 9ccf 6442 0000 0000
000001d0: 0000 0000 0000 0000 0000 0000 8939 4442
000001e0: 5001 f13f 0000 0000 1998 5242 8f25 0e3c
000001f0: 8c97 c841 5752 2341 0000 0000 c493 aa41
