pretrained/trained.pth (torch, 52113 bytes, 25 tensors)

clinical.layer1.weight f4 [64, 5]
0	0x3eb645ca	0.3560012
1	0x3debf4f6	0.11521332
2	0x3e64c502	0.22340778
3	0x3ecb33f1	0.39688066
4	0xbd866f13	-0.065641545
5	0x3d958f02	0.07302667
6	0x3ebe09ff	0.37117
7	0xbe91815d	-0.2841901
8	0xbd875db0	-0.06609666
9	0x3e8042c2	0.25050932
10	0xbdadf54f	-0.084940545
11	0x3e963f15	0.29345003
12	0x3e1c6657	0.15273415
13	0xbdb94880	-0.090470314
14	0xbeb4b4c5	-0.35294166
15	0x3e7db74e	0.24776956
16	0x3ec88848	0.39166474
17	0xbe88aaf3	-0.26692924
18	0xbecbe72c	-0.39824808
19	0x3e402167	0.18762742
20	0xbc57f012	-0.013179796
21	0x3ee0b6b1	0.43889382
22	0xbe676b92	-0.22599629
23	0x3ec01b01	0.37520602
24	0x3e82b836	0.25531167
25	0xbb9e7b0a	-0.0048364447
26	0xbc9d26b9	-0.019183503
27	0x3e750071	0.2392595
28	0xbec8f8fe	-0.39252466
29	0x3ea47a25	0.3212444
30	0x3c7c0310	0.0153815895
31	0xbe1957cf	-0.14974903
32	0xbdb02e05	-0.086025275
33	0x3eaedd6e	0.34153312
34	0x3eb81041	0.359499
35	0xbd21717a	-0.03941486
36	0xbd4c2673	-0.049841356
37	0x3ec92858	0.39288592
38	0xbcfdc8d5	-0.030979553
39	0x3e5953b2	0.21223333
40	0x3ee2cf38	0.4429872
41	0xbed80238	-0.42189193
42	0xbe323b17	-0.17405353
43	0x3e8dd302	0.2770005
44	0xbe6a9a1b	-0.22910349
45	0x3e8f16fc	0.27947223
46	0xbd94a6ab	-0.07258352
47	0x3ec89e1b	0.39183125
48	0x3de1c0f1	0.11023129
49	0xbe5de241	-0.2166834
50	0xbe4a2a04	-0.1974259
51	0x3d1f1602	0.038839348
52	0xbe9c4b1c	-0.30526054
53	0x3ecd30b7	0.4007623
54	0x3e405650	0.18782926
55	0x3df93ddf	0.12170004
56	0xbe8c7769	-0.27434853
57	0x3c4330ef	0.011913522
58	0xbead8ba8	-0.33895612
59	0xbe8b9381	-0.27260974
60	0x3ea8a314	0.3293692
61	0xbd852aa1	-0.065022714
62	0x3bb123cf	0.00540588
63	0x3e0ba3cf	0.13636707
64	0x3db67873	0.089096926
65	0x3d0f5e24	0.03500189
66	0xbec751c9	-0.38929585
67	0x3edca866	0.43097228
68	0xbe046c92	-0.12932041
69	0xbe9126e1	-0.28349975
70	0xbb37bfb7	-0.0028037855
71	0x3da11dba	0.07866998
72	0xbde6acbd	-0.11263416
73	0x3e9c0abd	0.30476943
74	0xbd36ca15	-0.044626314
75	0x3ebb664f	0.36601493
76	0x3dc41298	0.09573859
77	0x3ee22b0d	0.4417347
78	0x3e5e8d88	0.21733677
79	0xbe9d3b73	-0.3070942
80	0x3e7d13c4	0.24714571
81	0x3ed56eb9	0.41686037
82	0x3ee45a53	0.44600162
83	0xbe8ff020	-0.28112888
84	0xbe68a81b	-0.22720377
85	0x3e691145	0.22760494
86	0x3e7ba5ec	0.24575013
87	0xbd646fd2	-0.055770703
88	0x3d67a098	0.05654964
89	0xbeb876f0	-0.36028242
90	0x3ed057f9	0.40692118
91	0xbe81d77a	-0.25359708
92	0xbe6281ca	-0.22119823
93	0x3ebcd1f8	0.36878943
94	0xbde80ecb	-0.113309465
95	0x3d1444bf	0.036198374
96	0xbe84463a	-0.2583483
97	0x3e6a2b0f	0.22867988
98	0xbe8063a9	-0.25076035
99	0xbeb832d9	-0.35976294
100	0xbe832e8f	-0.2562146
101	0x3e84df2e	0.25951523
102	0x3d01898e	0.031625323
103	0xbeb2c14e	-0.34913105
104	0x3e8cdb62	0.27511126
105	0xbed67c13	-0.41891536
106	0xbe8a88b8	-0.27057433
107	0x3e57746a	0.21040502
108	0xbe8937d5	-0.2680041
109	0x3ea9c832	0.3316055
110	0xbe01678e	-0.12637159
111	0xbe87e093	-0.26538524
112	0x3e1f71fc	0.15570825
113	0xbe2516bf	-0.16121958
114	0xbeb5a804	-0.35479748
115	0xbda3069b	-0.07960244
116	0x3d8b93e7	0.068153195
117	0x3df14a66	0.117817685
118	0xbb456f6b	-0.0030126225
119	0xbe67745d	-0.22602983
120	0x3ede395d	0.4340314
121	0x3d923943	0.07139828
122	0x3c8d0fa9	0.017219381
123	0xbd111a07	-0.035425212
124	0xbe2d1fc1	-0.16906644
125	0x3e24383c	0.16037077
126	0x3ebe50b3	0.37170944
127	0x3dae0046	0.08496146
128	0xbdf4cede	-0.11953519
129	0xbeb4ddba	-0.35325414
130	0x3e29f235	0.16596301
131	0x3e43be18	0.19115484
132	0xbe712662	-0.23549798
133	0x3e97ac6c	0.29623735
134	0xbeaa1bb1	-0.33224252
135	0xbcc2ea87	-0.023793472
136	0x3e737669	0.23775639
137	0xbd89467e	-0.067028984
138	0x3e82c457	0.2554042
139	0xbe069211	-0.13141657
140	0x3e89031d	0.26760188
141	0xbed5bf9d	-0.41747752
142	0x3da6b1a1	0.08139349
143	0x3d070c50	0.032970726
144	0xbecacdc5	-0.39610115
145	0xbe59aa64	-0.21256405
146	0x3e254024	0.16137749
147	0x3e40c8a7	0.18826543
148	0xbdbdb55d	-0.09263108
149	0xbd37b356	-0.044848762
150	0x3e7c9cde	0.24669215
151	0xbe8b9bf7	-0.2726743
152	0x3ddbdad5	0.10735098
153	0xbec30bac	-0.38094842
154	0xbddd259e	-0.107981905
155	0xbe802f80	-0.2503624
156	0x3e950f8e	0.2911343
157	0xbed1f187	-0.41004583
158	0xbecb4aaa	-0.39705402
159	0xbec4b543	-0.38419542
160	0xbdf73f46	-0.12072615
161	0x3de873c8	0.113502085
162	0x3e9e24cb	0.30887446
163	0xbe27aaf2	-0.16373804
164	0xbe9567b6	-0.29180688
165	0x3ec6e44b	0.3884605
166	0x3ed69fae	0.419187
167	0xbd03dabf	-0.032191034
168	0x3e75760e	0.23970816
169	0x3ecedb7c	0.40401828
170	0x3d5035d9	0.050832603
171	0xbb069c59	-0.0020539968
172	0xbeba9337	-0.3644044
173	0xbecbc0d0	-0.39795542
174	0x3d8c3f43	0.06848004
175	0x3e833624	0.25627244
176	0xbe920435	-0.28518835
177	0x3e41a521	0.18910648
178	0x3d5a78dd	0.05333792
179	0xbed164e0	-0.40897274
180	0x3e9b2385	0.30300537
181	0x3e4e4e1f	0.20146988
182	0xbeda0367	-0.4258072
183	0xbe8cbe1b	-0.2748879
184	0xbe8750f0	-0.26428938
185	0x3d0e1789	0.034690414
186	0xbe823ad8	-0.2543552
187	0x3c822436	0.015886407
188	0xbe1cda45	-0.15317638
189	0xbebdeaf0	-0.37093306
190	0xbdf09164	-0.11746481
191	0x3e028e62	0.12749627
192	0xbed0bea1	-0.40770438
193	0xbe300a71	-0.17191483
194	0x3e72a82d	0.23696966
195	0x3e4ef8c5	0.20212086
196	0xbd9ee884	-0.077591926
197	0xbea8922e	-0.32924026
198	0x3eb4fa67	0.35347292
199	0x3e18e2a8	0.14930212
200	0x3df269c8	0.118365824
201	0xbec10b3f	-0.37703893
202	0x3e222a7a	0.15836516
203	0x3e8a4741	0.27007487
204	0x3e0afbff	0.13572691
205	0xbe1d943d	-0.1538858
206	0xbd76c5d4	-0.060247257
207	0x3ed0467e	0.4067878
208	0x3c45a81c	0.012064006
209	0x3d295cc5	0.041348238
210	0xbec5c4a5	-0.3862659
211	0xbe6ef7f8	-0.2333678
212	0xbe6c5437	-0.23079
213	0xbe5429e2	-0.20719102
214	0x3e39f8c4	0.18161303
215	0x3c7117f2	0.014715182
216	0xbd4463a8	-0.047946602
217	0x3cb90a6b	0.022587975
218	0x3ebfa51b	0.37430653
219	0xbec8f6a4	-0.39250672
220	0x3d28f4c9	0.04124907
221	0x3ebb0266	0.36525267
222	0xbd9a2e2c	-0.07528338
223	0x3bed6561	0.0072447513
224	0xbec197bb	-0.37811074
225	0x3ec92c04	0.39291394
226	0x3e63deef	0.22253011
227	0xbc20da41	-0.009817661
228	0xbe5f6a3a	-0.21817866
229	0x3dec7cd9	0.1154725
230	0xbeae5aa1	-0.3405352
231	0x3ec102cc	0.37697446
232	0xbe9f5961	-0.31122878
233	0xbe044cd7	-0.12919937
234	0xbe68bacd	-0.22727509
235	0x3ed358fb	0.41278824
236	0xbe3cfa09	-0.18454756
237	0xbe0f857f	-0.14015768
238	0xbe59dfb4	-0.21276742
239	0x3eda51a6	0.42640418
240	0xbea06211	-0.3132482
241	0x3bbff52c	0.005858084
242	0xbe285222	-0.16437581
243	0xbe7af218	-0.24506414
244	0x3de8bd34	0.11364213
245	0x3e67eee7	0.22649728
246	0xbe6fc8c6	-0.23416433
247	0xbb6e643f	-0.003637567
248	0xbe0cd8ce	-0.1375458
249	0xbedbeeeb	-0.42955717
250	0x3e9e3684	0.30900967
251	0xbeae50ca	-0.34046012
252	0x3eb0a9c4	0.3450452
253	0x3cafa55d	0.021441156
254	0x3d18de65	0.037321467
255	0x3ebc0d7a	0.36729032

clinical.layer1.bias f4 [64]
0	0x3ec2c98f	0.38044402
1	0x3e177bd6	0.14793333
2	0x3ea7f3f9	0.32803324
3	0x3ed8ad24	0.42319596
4	0x3da241de	0.079227194
5	0xbea4fd95	-0.32224718
6	0x3b38fd8e	0.0028227302
7	0x3e1159db	0.14194433
8	0xbe112900	-0.14175797
9	0x3d6a7faa	0.057250656
10	0xbe8c9355	-0.27456155
11	0x3bf24a64	0.007394122
12	0xbee0d679	-0.4391363
13	0x3e945e5b	0.28978238
14	0xbde2ef33	-0.1108078
15	0xbe29bc9e	-0.16575858
16	0x3ead2813	0.33819637
17	0xbe1bbebb	-0.15209477
18	0xbde159d3	-0.11003461
19	0xbed6737e	-0.4188499
20	0x3e22a626	0.15883693
21	0x3e47ae08	0.19499981
22	0xbdde0312	-0.10840429
23	0xbecb7e8b	-0.39744982
24	0x3e11db6f	0.14243864
25	0x3dfe642a	0.124214485
26	0xbdcf4797	-0.101210766
27	0x3db8642d	0.09003482
28	0xbebb4c97	-0.3658187
29	0xbed6c581	-0.4194756
30	0x3e9c5aac	0.30537927
31	0xbd2de7d5	-0.04245742
32	0x3e5374bb	0.20649998
33	0x3ebb4d18	0.36582255
34	0xbe7c7ef9	-0.24657811
35	0x3cac2504	0.021013744
36	0x3e5be7ca	0.2147514
37	0xbeb7d359	-0.35903433
38	0x3e5e00ba	0.21679965
39	0xbe228b5b	-0.15873472
40	0xbdbdb8b6	-0.092637464
41	0xbe77d647	-0.24202834
42	0xbedf9d8e	-0.43674892
43	0x3c8a4e9a	0.016883183
44	0xbd92d3ee	-0.07169329
45	0x3e9ef0cc	0.31043088
46	0x3ed94b13	0.4244009
47	0x3ec63f46	0.3872015
48	0x3ecfb5fa	0.40568525
49	0xbe70bf6a	-0.23510519
50	0xbde30a62	-0.11085965
51	0x3d9e3534	0.077249914
52	0x3e272c84	0.16325575
53	0x3e701a9d	0.23447652
54	0xbc62830e	-0.013825191
55	0xbe075061	-0.13214256
56	0xbebd496e	-0.36970085
57	0x3d865cfc	0.06560704
58	0x3ede0e05	0.4337007
59	0xbd1ef25e	-0.038805358
60	0x3de6c659	0.112683006
61	0x3ec6f01f	0.38855073
62	0x3e6c496e	0.23074886
63	0x3bfa3938	0.0076362155

clinical.layer2.weight f4 [128, 64]
0	0x3c985cdc	0.018598966
1	0xbd288009	-0.04113773
2	0x3dfd9dda	0.123836234
3	0x3d0c4561	0.034245852
4	0xbcdb3eec	-0.026763402
5	0x3c8b5210	0.017006904
6	0xbd9be416	-0.07611863
7	0xbd0733ed	-0.033008505
8	0x3ddce889	0.1078654
9	0x3b2b9ae7	0.0026184858
10	0x3c642c4d	0.013926578
11	0xbcc18f2a	-0.023627836
12	0x3d2bf2cb	0.041979592
13	0xbde5e660	-0.11225581
14	0x3d1ff77a	0.03905437
15	0x3da4cb2c	0.080465645
16	0x3dccf513	0.10007682
17	0xbbcf9a50	-0.006335534
18	0xbc46840e	-0.012116445
19	0xbd078aa7	-0.033091214
20	0xbdd5e040	-0.10443163
21	0xbda7fd67	-0.082026295
22	0x3de30122	0.110842004
23	0xbcabd4c9	-0.020975487
24	0x3dbe537e	0.092932686
25	0x3d844692	0.06458773
26	0xbca89cb0	-0.020582527
27	0x3cfe8b1e	0.031072196
28	0x3d98db85	0.07463745
29	0x3dc27e26	0.09496717
30	0xbdca01ae	-0.098636016
31	0x3d5d3bfa	0.054012276
32	0x3cedf2f2	0.02904651
33	0xbdda11a7	-0.10647898
34	0xbb66bc21	-0.0035207348
35	0xbdf85bd8	-0.12126893
36	0xbdd6e348	-0.10492569
37	0x3c5aef38	0.013362698
38	0x3dbb2a94	0.091389805
39	0xbcb408f8	-0.021976933
40	0x3dd8e2be	0.10590123
41	0xbd859625	-0.065227784
42	0xbda7dfac	-0.08196959
43	0x3d4a8cc3	0.049450647
44	0x3ce28fce	0.027656462
45	0x3c64230e	0.013924373
46	0x3c6114f8	0.0137379095
47	0xbdc4530d	-0.09586153
48	0xbdde55ba	-0.10856195
49	0x3dac57ca	0.08415182
50	0x3ba4f61e	0.0050342223
51	0xbd221a73	-0.039576005
52	0xbddf78c5	-0.10911707
53	0x3d5361a3	0.051606786
54	0xbc78a443	-0.015175882
55	0x3cd4f883	0.025997406
56	0xbd3fb54c	-0.046803758
57	0x3da508d4	0.080583245
58	0xbcdfd0ab	-0.02732118
59	0xbd7d4843	-0.061836492
60	0xbcb38404	-0.021913536
61	0xbd4a7ad8	-0.04943356
62	0xbdfb90fc	-0.12283513
63	0xbda3791d	-0.07982085
64	0xbdedc3eb	-0.11609634
65	0xbdc9a3d2	-0.09845699
66	0xbdcd89a5	-0.10036019
67	0x3db6c910	0.089250684
68	0x3e0470c5	0.12933643
69	0xbda06a1f	-0.07832741
70	0xbd28c4a6	-0.041203164
71	0xbd5c2c52	-0.053753205
72	0x39b9279f	0.0003531547
73	0x3dec877d	0.1154928
74	0xbc225946	-0.00990898
75	0x3e018c5d	0.126512
76	0x3d385583	0.045003425
77	0xbd009edf	-0.03140151
78	0x3d5a91aa	0.053361572
79	0x3d951bce	0.07280694
80	0x3d10df36	0.03536912
81	0x3da753a4	0.0817025
82	0x3df379b4	0.118884474
83	0xbd94d3eb	-0.07266983
84	0xbde63ab5	-0.11241666
85	0xbd261a78	-0.040552586
86	0xbd635a4f	-0.055506047
87	0x3da40251	0.08008254
88	0xbbb62000	-0.005558014
89	0x3dbf41a2	0.0933869
90	0xbd7320ad	-0.059357334
91	0xbde6ae63	-0.112637304
92	0x3d46ac20	0.048503995
93	0xbb317517	-0.0027077848
94	0x3d320eb7	0.043471064
95	0xbddc33b5	-0.1075205
96	0xbdc663b9	-0.09686989
97	0xbde5f8d4	-0.11229101
98	0xbd9cc7df	-0.0765531
99	0x3c2008ff	0.00976777
100	0x3d6d773f	0.05797505
101	0xbd9abfb8	-0.07556099
102	0xbcb40f77	-0.02198003
103	0x3dcc6c74	0.09981623
104	0xbac9cc25	-0.0015395923
105	0x3b944a0f	0.00452543
106	0x3d9746c3	0.073865436
107	0x3d522a10	0.051309645
108	0xbce33f4f	-0.027740149
109	0xbcc3224d	-0.023820067
110	0xbd24d854	-0.04024537
111	0xbc93440e	-0.017976787
112	0xbdbbba6d	-0.09166417
113	0x3d39b3a5	0.045337338
114	0x3d212e36	0.03935071
115	0x3dd3f772	0.10349931
116	0xbda6dfa3	-0.08148124
117	0xbba9c858	-0.0051813535
118	0xbdbfe63c	-0.093700856
119	0xbdabf2c0	-0.0839591
120	0xbdecfa71	-0.115712054
121	0xbcd98e0a	-0.026556987
122	0x3ddfb72c	0.10923609
123	0x3d6732a2	0.05644477
124	0xbd533a33	-0.051569175
125	0x3de8b54b	0.11362704
126	0x3db6ff6e	0.08935438
127	0xbd99538e	-0.0748664
128	0xbde65ad1	-0.112477906
129	0xbd993fc3	-0.07482865
130	0x3df2757b	0.11838814
131	0xbdec813c	-0.11548087
132	0x3c4782e8	0.012177207
133	0xbd9e9d71	-0.07744873
134	0xbd5f6d8f	-0.054547843
135	0x3deb5ae1	0.11491943
136	0x3d3e799d	0.0465027
137	0xbdd5ee0c	-0.104457945
138	0xbd116600	-0.035497665
139	0x3dc58fea	0.0964659
140	0xbd58a98e	-0.052896075
141	0xbd1ec866	-0.038765334
142	0x3c1fa72f	0.0097444495
143	0xbdacb6ee	-0.084333286
144	0xbd4a300e	-0.049362235
145	0xbd0d1d8b	-0.034452002
146	0x3d9055fe	0.07047652
147	0xbd4f11e5	-0.050554175
148	0xbddddc2a	-0.108330086
149	0xbd85fed1	-0.06542743
150	0x3c5ed7d1	0.013601259
151	0xbde987b1	-0.11402834
152	0xbdc68ed8	-0.09695214
153	0x3d4cdf6f	0.05001777
154	0x3cf667d3	0.030078804
155	0xbc8c4eab	-0.017127356
156	0x3c7af857	0.015317998
157	0xbdff501b	-0.12466451
158	0x3dcc2a8a	0.09969051
159	0x3de1c300	0.110235214
160	0x3c82e4fb	0.015978327
161	0xbd63df72	-0.055633016
162	0x3db4e548	0.088327944
163	0x3cbaeb97	0.022817416
164	0xbdc7597b	-0.09733864
165	0xbb5a8353	-0.0033342435
166	0x3dda6d5c	0.1066539
167	0xbe027c91	-0.12742831
168	0x3d12a751	0.035804097
169	0x3dcc80cd	0.09985504
170	0xbd7d1dea	-0.061796106
171	0x3d2b410b	0.041810077
172	0x3de9629f	0.113957636
173	0x3d80c3ec	0.06287369
174	0xbd736a7b	-0.05942772
175	0x3dcab442	0.09897663
176	0x3d94ea3c	0.07271239
177	0x3cd152f7	0.025552256
178	0xbcc1feda	-0.023681093
179	0x3b7dca9a	0.0038725496
180	0x3df032c4	0.11728433
181	0xbca34756	-0.019931477
182	0x3d839c68	0.064263165
183	0x3d5234e7	0.051319983
184	0xbcd660f3	-0.026169276
185	0xbe07a8f8	-0.1324805
186	0xbd27c351	-0.040957753
187	0x3cc59b05	0.02412177
188	0xbddee9ad	-0.10884414
189	0xbd48d329	-0.049029503
190	0x3d80c7e8	0.06288129
191	0xbdbd4a39	-0.092426725
192	0xbda4e786	-0.08051972
193	0xbd9ff220	-0.078098536
194	0x3ded7725	0.11594991
195	0xbdff2921	-0.124590166
196	0x3e0508ee	0.12991688
197	0x3dd47e98	0.10375708
198	0x3c421eb0	0.011848137
199	0x3d1ac10c	0.03778176
200	0x3d41d4a9	0.04732195
201	0x3de8bb76	0.1136388
202	0xbd7c3928	-0.061577946
203	0xbd6befe7	-0.057601836
204	0x3d6182c8	0.055056363
205	0xbde87cbd	-0.11351917
206	0x3dc58354	0.096441895
207	0xbcb63c55	-0.022245565
208	0x3bff0a20	0.0077831894
209	0xbcff4e82	-0.031165365
210	0xbd7d7c1f	-0.06188595
211	0xbdcb4110	-0.09924519
212	0xbda8fd7c	-0.08251473
213	0xbd9cdbe6	-0.0765913
214	0x3dd3dbc2	0.1034465
215	0x3d614656	0.05499872
216	0x3deb13a8	0.114783585
217	0xbdce95ad	-0.10087142
218	0xbd04d13c	-0.032426104
219	0xbce21014	-0.027595557
220	0xbc53738f	-0.012905969
221	0x3ca70c65	0.020391652
222	0x3d112951	0.035439793
223	0xbde39912	-0.1111318
224	0x3ddc422a	0.10754807
225	0xbd2aa728	-0.04166332
226	0xbd9d506a	-0.076813534
227	0xbd3d0497	-0.046146955
228	0x3d353b5e	0.04424607
229	0x3deef645	0.11668066
230	0x3db1663f	0.0866208
231	0x3d9cfb16	0.07665078
232	0x3db7174d	0.08939991
233	0xbd8d04a9	-0.068856545
234	0x3d496a73	0.049173784
235	0xbd370c67	-0.044689562
236	0xbd75550e	-0.059895568
237	0x3dab8183	0.08374312
238	0x3d24ff01	0.040282253
239	0xbdaa5c8e	-0.08318435
240	0x3c363da1	0.011123092
241	0xbc36c8e4	-0.0111562945
242	0x3b2dd37c	0.002652376
243	0xbd684a16	-0.05671128
244	0xbd9877ff	-0.074447624
245	0x3d284784	0.041083828
246	0x3da588eb	0.08082756
247	0xbd244a5b	-0.040109973
248	0xbdab63ac	-0.0836862
249	0xbde04cd3	-0.10952153
250	0xbba044df	-0.0048910226
251	0x3c358f84	0.01108158
252	0xbdef39c4	-0.1168094
253	0xbd53881a	-0.05164347
254	0xbdedc80a	-0.1161042
255	0xbdf6bef7	-0.120481424

clinical.layer2.bias f4 [128]
0	0x3d080bb0	0.03321427
1	0x3cd491ee	0.025948491
2	0x3dab25cb	0.08356818
3	0xbc781418	-0.0151415095
4	0xbde0b25e	-0.10971521
5	0xbd281865	-0.04103889
6	0xbde4df77	-0.11175435
7	0x3beec5e6	0.007286775
8	0x3cd0ecd6	0.025503557
9	0xbe008694	-0.12551337
10	0x3bdf4643	0.006813796
11	0x3c85651f	0.01628357
12	0xbd824bc8	-0.063621104
13	0xbd8e5207	-0.06949239
14	0xbc13b91d	-0.009016302
15	0xbcdc5084	-0.026893862
16	0x3da75b2a	0.08171685
17	0xbdc0370e	-0.09385501
18	0xbde50658	-0.111828506
19	0xbde8d4ad	-0.1136869
20	0xbc963437	-0.018335445
21	0x3d4586b2	0.04822416
22	0x3d99610e	0.07489215
23	0xbdab3eeb	-0.0836161
24	0xbd8e6de9	-0.069545574
25	0x3c4e6192	0.012596505
26	0xbc25e59b	-0.010125543
27	0x3dbf447b	0.093392335
28	0x3d8e6498	0.069527805
29	0xbd63bbf6	-0.055599175
30	0xbddbd180	-0.10733318
31	0x3dbd21fb	0.09234997
32	0xbcd468df	-0.025928913
33	0xbd8e4d7b	-0.06948372
34	0x3da481ac	0.080325454
35	0xbd7355cc	-0.059407994
36	0x3d97cf12	0.074125424
37	0xbd124c1c	-0.035717115
38	0xbcf82aae	-0.030293789
39	0xbdab173e	-0.083540425
40	0xbd90e44c	-0.07074794
41	0xbd18edfc	-0.037336335
42	0x3bc8184e	0.006106413
43	0x3b8d6daf	0.004316054
44	0x3c20ba33	0.009810018
45	0x3dd16067	0.102234654
46	0xbd1585c8	-0.036504537
47	0xbcfb36f7	-0.030665858
48	0xbda2d0a0	-0.07949948
49	0x3c81eb41	0.015859248
50	0x3d6f0079	0.05835006
51	0x3dbac931	0.091204055
52	0x3db574e5	0.088601865
53	0xbdc2db42	-0.09514476
54	0xbdd6e728	-0.10493308
55	0x3d8dc721	0.069227464
56	0x3d8cb218	0.06869906
57	0xbdb8d611	-0.09025205
58	0x3dc71254	0.09720293
59	0xbca134b7	-0.019678457
60	0x3d4d9230	0.050188243
61	0x3d816a8a	0.06319149
62	0x3df14132	0.11780013
63	0x3df5ef9f	0.12008595
64	0x3c8b5869	0.01700993
65	0xbd2f809a	-0.042847253
66	0x3dfde729	0.12397606
67	0xbcf4ee3c	-0.029898755
68	0x3cd28d66	0.02570219
69	0x3c8bfc72	0.017088149
70	0xbdf44900	-0.11927986
71	0xbd03882b	-0.03211228
72	0x3cc86e8d	0.024466777
73	0x3b9a4241	0.004707605
74	0x3d95fb85	0.07323364
75	0x3d05e0c7	0.032685068
76	0x3de8ac52	0.113609925
77	0xbd999e60	-0.07500911
78	0xbda997bf	-0.082808964
79	0x3d29d457	0.04146227
80	0xbdfb6563	-0.12275197
81	0xbda89dab	-0.08233198
82	0x3d045cf8	0.032315224
83	0x3d855245	0.06509832
84	0xbd771cf3	-0.060330343
85	0xbdaaaa20	-0.0833323
86	0x3e0329d2	0.12808922
87	0xbd41a37c	-0.04727505
88	0x3dcd2cdc	0.10018322
89	0x3de003f1	0.10938252
90	0x3db6abdb	0.089194976
91	0x3c131cdd	0.0089790495
92	0xbd737d81	-0.05944586
93	0x3d0d4fa1	0.03449977
94	0xbd5bb0ab	-0.05363528
95	0x3df1a757	0.11799496
96	0x3df2308e	0.11825667
97	0xbdcc281a	-0.09968586
98	0xbba94f15	-0.005166898
99	0xbdd28901	-0.10280038
100	0x3c13009a	0.008972311
101	0xbd152698	-0.03641376
102	0x3dcfb234	0.101414114
103	0xbc90647c	-0.01762604
104	0x3cf8ff12	0.030395065
105	0x3d387ab1	0.045038883
106	0xbdd3f822	-0.10350062
107	0xbd5fab63	-0.054606806
108	0x3c467289	0.012112268
109	0xbde75815	-0.11296097
110	0xbddd7302	-0.108129516
111	0x3d21b584	0.039479747
112	0xbdbb4f50	-0.09145987
113	0x3c7303cc	0.014832448
114	0x3de1af8f	0.11019813
115	0xbd0a805c	-0.03381382
116	0x3d5c2762	0.053748496
117	0xbdc0fe6e	-0.094235286
118	0x3d8ff73c	0.07029578
119	0x3e0617af	0.13094972
120	0xbdb0b229	-0.08627731
121	0x3cd799ce	0.026318457
122	0xbd0e1945	-0.034692068
123	0x3ca4faca	0.020139117
124	0xbcf1a008	-0.029495254
125	0xbd99981e	-0.07499717
126	0xbddec120	-0.108766794
127	0x3dde4e0f	0.10854732

clinical.layer3.weight f4 [4, 128]
0	0x3d2a170c	0.041525885
1	0x3daa084b	0.08302363
2	0x3d2ba514	0.041905478
3	0x3c593d38	0.013259225
4	0xbd6e6e31	-0.058210555
5	0xbc3db067	-0.011577702
6	0xbd9e7a46	-0.077381656
7	0xbdb225c7	-0.08698612
8	0xbcd39c69	-0.025831418
9	0xbc71e3b5	-0.014763762
10	0x3d641770	0.055686414
11	0xbd0736c7	-0.033011224
12	0xbda3e756	-0.08003108
13	0x3d19c327	0.037539627
14	0x3d923117	0.071382694
15	0x3d17f791	0.037101332
16	0x3daba14d	0.08380375
17	0x3ce63f1d	0.028106267
18	0x3cbce717	0.023059411
19	0x3cbe038a	0.023195047
20	0xbd6432bf	-0.055712458
21	0x3ca122ca	0.019669909
22	0x3cf542ae	0.029939022
23	0x3b95bfd0	0.004569985
24	0xbc6e55c9	-0.01454682
25	0x3d7fa57c	0.062413678
26	0xbce348dd	-0.027744705
27	0xbd3533f2	-0.044238992
28	0x3d7e06be	0.06201815
29	0x3c4f8e1b	0.012668158
30	0x3d63b1d2	0.055589505
31	0x3d84571a	0.06461926
32	0xbd21c6e6	-0.039496325
33	0xbcba119a	-0.022713471
34	0xbd1dbbcc	-0.038509175
35	0xbd90eba1	-0.07076193
36	0xbd0c85dd	-0.03430735
37	0xbd076ed2	-0.03306467
38	0x3c0bef15	0.008540888
39	0x3c671140	0.014103234
40	0xbda06f96	-0.07833783
41	0x3d8f4aed	0.06996713
42	0xbd01e861	-0.031715754
43	0x3c3b09ec	0.01141594
44	0xbda10cc7	-0.07863765
45	0x3cb7a5ef	0.02241799
46	0x3d286f23	0.041121613
47	0xbd504666	-0.050848387
48	0x3c6c3277	0.014416329
49	0x3d471a81	0.04860926
50	0xbcf81106	-0.030281555
51	0x3c9be0e0	0.019028127
52	0xbbddcdc5	-0.0067689144
53	0x3cff4dba	0.031164993
54	0x3d3e4ddd	0.046460975
55	0xbd5e8540	-0.054326296
56	0x3b62fb6e	0.0034634727
57	0x3d77557c	0.06038426
58	0xbd8dfc47	-0.06932884
59	0x3db0652a	0.086130455
60	0xbc245111	-0.010029093
61	0x3d762aa3	0.060099255
62	0xbd86941a	-0.06571217
63	0x3cc0974b	0.023509642
64	0x3d98003c	0.0742192
65	0xbd07b282	-0.033129223
66	0xbc83c244	-0.016083844
67	0xbd9ded54	-0.07711282
68	0xbd223c38	-0.03960821
69	0xbd4ee214	-0.050508574
70	0xbda73a47	-0.081654124
71	0xbd906be3	-0.07051828
72	0x3d88cfe0	0.06680274
73	0x3d2e3767	0.042533305
74	0xbd8ee52b	-0.06977304
75	0x3d6513e8	0.055927187
76	0xbce1193e	-0.027477857
77	0xbce61de0	-0.028090417
78	0xbd3647ab	-0.04450194
79	0x3d9c2866	0.07624893
80	0x3acaa590	0.0015460718
81	0x3d913d57	0.07091778
82	0x3d33e121	0.04391587
83	0xbb07abb1	-0.0020701701
84	0x3d5663aa	0.05234114
85	0xbd8ed9cc	-0.06975135
86	0xbd0e2caf	-0.034710582
87	0x3c8af9ae	0.01696476
88	0x3d27a6a9	0.040930424
89	0x3d67bb22	0.056574948
90	0x3d1f7b18	0.03893575
91	0xbd447436	-0.04796239
92	0xbb44ead8	-0.0030047204
93	0xbd80261a	-0.06257267
94	0x3d120bc1	0.03565574
95	0xbd8dea89	-0.069295
96	0x3d1d5e5d	0.03842007
97	0x3d842710	0.06452763
98	0xbd9dae6b	-0.07699283
99	0x3cbe496e	0.023228373
100	0x3db1fab1	0.08690394
101	0x3cfe8e90	0.031073838
102	0x3dab1cf4	0.08355132
103	0x3ad2c541	0.0016080515
104	0x3c2e2251	0.010628299
105	0x3da6bed6	0.08141868
106	0x3c237c71	0.0099784
107	0x3d732cd4	0.059368923
108	0xbc204f32	-0.009784507
109	0x3b04809c	0.0020218259
110	0x3d92a2cf	0.071599595
111	0x3d545091	0.051834647
112	0x3c28be76	0.010299316
113	0x3da9a05b	0.082825385
114	0xbd8d3f89	-0.06896884
115	0x3c985c55	0.018598715
116	0xbcef8bfc	-0.029241554
117	0x3d9a488a	0.07533367
118	0xbcd681f5	-0.026185015
119	0xbce26d49	-0.027640002
120	0xbda1378c	-0.07871923
121	0xbd9c3e11	-0.07629026
122	0xba3b5e3f	-0.00071475276
123	0x3ce7bb53	0.028287565
124	0xbd7bfff2	-0.061523385
125	0xbd972795	-0.073805965
126	0xbd25a391	-0.040439192
127	0x3b821d8d	0.003970808
128	0xbc54300c	-0.012950908
129	0x3d0ec5b0	0.0348565
130	0xbc1b69e8	-0.009485699
131	0x3d32b721	0.043631677
132	0xbd9501fe	-0.072757706
133	0x3d9a1044	0.07522634
134	0x3d2c1134	0.042008594
135	0xbd8f5016	-0.06997697
136	0xbd9ceb6a	-0.07662089
137	0xbd8c84a2	-0.06861235
138	0x3ba719c1	0.0050995057
139	0xbd0420b4	-0.03225775
140	0xbd453745	-0.048148412
141	0x3c914b15	0.017735997
142	0xbc9a5ba3	-0.018842524
143	0x3d7625e8	0.060094744
144	0x3c4c2cb0	0.012461826
145	0x3c753765	0.01496682
146	0x3d6ab6ec	0.057303354
147	0x3d57368a	0.052542247
148	0xbda9fddd	-0.08300374
149	0x3d58589e	0.052818887
150	0x3d456f06	0.048201583
151	0xbd8f9267	-0.07010346
152	0xbd973fec	-0.07385239
153	0xbc999b9e	-0.018750962
154	0xbcedf977	-0.029049618
155	0xbd92d804	-0.07170108
156	0x3d8515b7	0.064982824
157	0x3c3d0099	0.011535787
158	0x3db7d4d7	0.08976143
159	0x3d40984e	0.04702025
160	0xbbafef44	-0.005369099
161	0x3be6eff4	0.0070476476
162	0x3d3ca8ed	0.046059538
163	0x3d0de1cf	0.034639176
164	0x3cf55020	0.029945433
165	0x3d76c6f5	0.060248334
166	0xbd0a9c3a	-0.033840396
167	0xbcd084cb	-0.025453946
168	0x3d110561	0.03540552
169	0x3d44f183	0.048081886
170	0xbce4372f	-0.027858345
171	0x3da1ceb8	0.079007566
172	0x3d5ec728	0.05438915
173	0xbc722a7d	-0.014780638
174	0x3a7ad90b	0.0009569085
175	0x3db2e38e	0.08734809
176	0x3bf1ee24	0.007383125
177	0xbd564fae	-0.052322082
178	0x3bea0b5d	0.007142468
179	0xbc482bc5	-0.012217467
180	0x3bbb97be	0.005724876
181	0xbd815476	-0.06314938
182	0xbcf6d7e4	-0.030132242
183	0x3c9ed93f	0.0193907
184	0x3d3484d9	0.044072006
185	0x3ca1f5f1	0.019770594
186	0x3cb7aec1	0.022422196
187	0x3d951190	0.072787404
188	0xbd344dc5	-0.04401948
189	0xbcf0cdae	-0.02939495
190	0x3d9f15a0	0.077677965
191	0xbd82cf80	-0.06387234
192	0x3cf94116	0.030426543
193	0xbd977f41	-0.07397319
194	0x3d05c5e4	0.032659426
195	0x3b23f7ba	0.0025019483
196	0xbd6658cf	-0.05623704
197	0x3b75379a	0.0037417174
198	0xbd2deadc	-0.042460307
199	0x3d049dc7	0.03237703
200	0x3b51878a	0.0031971657
201	0xbc8c061f	-0.017092763
202	0x3da55f34	0.08074799
203	0x3d6175f5	0.055044133
204	0xbd5b934b	-0.053607266
205	0xbd5f7c32	-0.0545618
206	0xbd0296bf	-0.031882044
207	0x3d4886eb	0.048956793
208	0x3c6cf3c2	0.014462413
209	0x3b919e23	0.0044439
210	0x3d83a0ea	0.06427176
211	0x3d4501d8	0.04809746
212	0xbc768b45	-0.015047853
213	0xbd05c237	-0.03265592
214	0x3d2137b2	0.039359756
215	0xbd11938c	-0.035541102
216	0x3ace096c	0.0015719361
217	0xbd8d4172	-0.06897248
218	0x3d82ee8a	0.06393154
219	0xbdb701e9	-0.08935911
220	0xbd777065	-0.060409922
221	0xbd2282c1	-0.039675478
222	0x3d129b3e	0.03579258
223	0xbd624086	-0.055237316
224	0xbd81ce24	-0.06338146
225	0xbbf8b417	-0.0075898278
226	0x3cd4c596	0.025973123
227	0x3d3658ae	0.044518165
228	0xbd62de80	-0.055387974
229	0x3d1ba7d3	0.038001847
230	0xbd95df21	-0.07317949
231	0x3c8330ba	0.016014446
232	0xbcdbc872	-0.026828978
233	0xbb333020	-0.0027341917
234	0xbc049641	-0.008092464
235	0x3d3602a6	0.04443612
236	0xbc92e38a	-0.017930765
237	0xbc76eade	-0.015070645
238	0x3d0ef67c	0.034903035
239	0xbdb5c34f	-0.08875143
240	0x3d9f7e88	0.07787806
241	0xbce3446a	-0.027742583
242	0x3d5da43f	0.054111715
243	0xbd9bf879	-0.07615752
244	0xbcf04027	-0.029327465
245	0x3d5302ff	0.05151653
246	0xbbe89aa7	-0.007098514
247	0x3cae82ac	0.021302544
248	0xbb7e250c	-0.0038779406
249	0xbd10ebf8	-0.035381287
250	0x3c196f93	0.00936498
251	0x3ba620a6	0.00506981
252	0xbbe1e6f4	-0.006893987
253	0xbda525ed	-0.080638744
254	0xbce3ec99	-0.02782278
255	0x3d3e3cca	0.04644469

clinical.layer3.bias f4 [4]
0	0x3d16b0c9	0.03678969
1	0xbd1aa3c1	-0.037753824
2	0xbd823e56	-0.06359546
3	0x3d7773b9	0.060413096

clinical.batchnorm1.weight f4 [64]
0	0x3f803258	1.0015364
1	0x3f7f8321	0.9980946
2	0x3f7f9c7e	0.99848163
3	0x3f7fcd6f	0.9992284
4	0x3f800000	1.0
5	0x3f80658c	1.003099
6	0x3f805252	1.0025122
7	0x3f803291	1.0015432
8	0x3f7fbce8	0.99897623
9	0x3f801340	1.0005875
10	0x3f800000	1.0
11	0x3f809ca0	1.0047798
12	0x3f804b92	1.0023062
13	0x3f803863	1.0017208
14	0x3f800000	1.0
15	0x3f800c94	1.0003839
16	0x3f7fa29d	0.99857503
17	0x3f7fa4e1	0.9986096
18	0x3f804621	1.0021402
19	0x3f7f6a33	0.9977142
20	0x3f80372f	1.0016841
21	0x3f7fb7e3	0.99889964
22	0x3f8006b2	1.0002043
23	0x3f7faa24	0.9986899
24	0x3f809313	1.0044883
25	0x3f8044ac	1.0020957
26	0x3f806831	1.0031797
27	0x3f800000	1.0
28	0x3f803408	1.0015879
29	0x3f800bd7	1.0003613
30	0x3f8041f4	1.0020127
31	0x3f800000	1.0
32	0x3f7fd20f	0.999299
33	0x3f7f92d7	0.99833435
34	0x3f802090	1.0009937
35	0x3f80032d	1.0000969
36	0x3f807325	1.0035139
37	0x3f7fb6fe	0.998886
38	0x3f800000	1.0
39	0x3f7f1234	0.9963715
40	0x3f803d78	1.0018759
41	0x3f7f02c1	0.9961358
42	0x3f800000	1.0
43	0x3f802b91	1.0013295
44	0x3f802308	1.0010691
45	0x3f7fa01c	0.9985368
46	0x3f800000	1.0
47	0x3f80518b	1.0024885
48	0x3f800000	1.0
49	0x3f7fca56	0.99918115
50	0x3f7ffc0f	0.99993986
51	0x3f7f4990	0.9972162
52	0x3f7f7cf2	0.99800026
53	0x3f800000	1.0
54	0x3f800000	1.0
55	0x3f80242b	1.0011038
56	0x3f805da1	1.0028573
57	0x3f800000	1.0
58	0x3f800000	1.0
59	0x3f8048ec	1.0022254
60	0x3f8054e9	1.0025913
61	0x3f804f88	1.0024271
62	0x3f801616	1.000674
63	0x3f7fcf1c	0.999254

clinical.batchnorm1.bias f4 [64]
0	0xbb8cb417	-0.0042939293
1	0x3b363958	0.0027805176
2	0xba224077	-0.00061894156
3	0x3b3f3fae	0.0029182243
4	0x3ba4aff0	0.005025856
5	0x3b51d728	0.0032019112
6	0xbb279005	-0.002556802
7	0xbb9776fa	-0.0046223374
8	0x3bbbdad4	0.0057328735
9	0xbb6e40b1	-0.0036354477
10	0x3b0c8376	0.0021440662
11	0x3b9946ba	0.0046776207
12	0x3b623980	0.0034519136
13	0x3aa9746e	0.0012928376
14	0xbb780956	-0.0037847362
15	0xbaf70ec5	-0.0018849006
16	0x3ad92f03	0.0016569797
17	0x3b6435c9	0.0034822098
18	0x3937330e	0.0001747126
19	0xbbda262f	-0.006657384
20	0xbb9af142	-0.004728467
21	0x3b7bc728	0.0038418267
22	0x3a8343ae	0.0010014677
23	0xbb4f0072	-0.0031585959
24	0x3b2bbc19	0.0026204644
25	0xbae85fb2	-0.0017728715
26	0xbb9a8fb6	-0.0047168387
27	0xb8307d0f	-4.207814e-05
28	0x3a23c55a	0.0006247364
29	0xbb986a44	-0.0046513397
30	0x3b8db043	0.0043239905
31	0xbb501c5d	-0.0031755187
32	0x39e8ba6c	0.00044389383
33	0xba8ce403	-0.0010749105
34	0xbb9f01c6	-0.0048525063
35	0xbb81f7ba	-0.003966299
36	0xbbaab354	-0.005209366
37	0xbaa24cd2	-0.0012382513
38	0xbb88a7a3	-0.0041703745
39	0x3baa214d	0.005191958
40	0x3b9ead2a	0.00484242
41	0xbbd17d74	-0.006393129
42	0xbbb17f72	-0.005416804
43	0x3b904e38	0.0044038557
44	0xbb6014ec	-0.0034192158
45	0xbb24f0e2	-0.0025167991
46	0xbb0bd44f	-0.0021336263
47	0xbb73f732	-0.0037226197
48	0xbb72354b	-0.0036958035
49	0xbb2ec1ab	-0.0026665728
50	0xbba21927	-0.004946846
51	0xbbb20435	-0.0054326304
52	0x3b2ef308	0.002669515
53	0x3aa91e37	0.0012902681
54	0xbb83ceae	-0.004022441
55	0x3a83953d	0.0010038983
56	0xbb19e988	-0.0023485143
57	0xbb1aa9a9	-0.002359966
58	0xbbf1c4bc	-0.007378189
59	0x3bbe5aac	0.005809149
60	0xbb97e85c	-0.0046358537
61	0x3b20dba7	0.0024544985
62	0xbbc95d43	-0.006145151
63	0xbb865a74	-0.0041001383

clinical.batchnorm1.running_mean f4 [64]
0	0x42624544	56.567642
1	0x3d471476	0.048603497
2	0x4193c468	18.470901
3	0x3fc9e3d0	1.5772648
4	0x00000000	0.0
5	0x420392a7	32.893215
6	0x3b907bd9	0.004409295
7	0x426019a5	56.025043
8	0x4102139c	8.129787
9	0x42972712	75.57631
10	0x00000000	0.0
11	0x40f0f51c	7.5299206
12	0x41a0465b	20.034353
13	0x427f4ea7	63.82681
14	0x00000000	0.0
15	0x42af831e	87.75609
16	0x42a12fc0	80.59326
17	0x40dd3b86	6.913516
18	0x40af0fb9	5.4706693
19	0x42110136	36.251183
20	0x3e6e25d7	0.23256622
21	0x41294fa9	10.581948
22	0x4169f435	14.622121
23	0x415bc33d	13.735166
24	0x41e5d2bd	28.7279
25	0x41bb4a94	23.411415
26	0x3ee85494	0.45377028
27	0x00000000	0.0
28	0x41d314ee	26.38522
29	0x41840e38	16.506943
30	0x41e78b38	28.942978
31	0x00000000	0.0
32	0x421712dd	37.76842
33	0x41a861ef	21.04782
34	0x3c85c411	0.016328843
35	0x42311f32	44.280464
36	0x3f4cb3fa	0.7996212
37	0x40855535	4.1666512
38	0x00000000	0.0
39	0x3ebf15e1	0.3732138
40	0x41e1d94e	28.231106
41	0x424d3979	51.306126
42	0x00000000	0.0
43	0x4037b046	2.8701339
44	0x3e53ea49	0.20694841
45	0x41c42143	24.516241
46	0x00000000	0.0
47	0x412733d6	10.450155
48	0x00000000	0.0
49	0x4151135e	13.067228
50	0x428ceb74	70.45987
51	0x42a796e6	83.79472
52	0x412ed99a	10.928125
53	0x00000000	0.0
54	0x00000000	0.0
55	0x405cb505	3.4485486
56	0x3d669f65	0.056304354
57	0x00000000	0.0
58	0x00000000	0.0
59	0x427b50e2	62.828987
60	0x3fe0e918	1.7571135
61	0x42773d5b	61.809917
62	0x3d217bbd	0.039424647
63	0x425a535b	54.5814

clinical.batchnorm1.running_var f4 [64]
0	0x448ad30a	1110.595
1	0x3eb82169	0.3596299
2	0x44078776	542.1166
3	0x4156cb0b	13.424571
4	0x3db58352	0.08862938
5	0x44925ce4	1170.9028
6	0x3dba14aa	0.090859726
7	0x4556a1c4	3434.1104
8	0x429eccb4	79.39981
9	0x4552cfb0	3372.9805
10	0x3db58352	0.08862938
11	0x403f481a	2.9887757
12	0x418674f8	16.807114
13	0x4575f083	3935.032
14	0x3db58352	0.08862938
15	0x4583e26b	4220.3022
16	0x458390df	4210.109
17	0x41df32eb	27.899862
18	0x42670a25	57.759907
19	0x4497c2d4	1214.0884
20	0x40971506	4.7213163
21	0x44361f55	728.48956
22	0x43fc6ec1	504.86526
23	0x43af1b0a	350.21124
24	0x41ff3b5e	31.903988
25	0x4325433d	165.26265
26	0x40269580	2.6028748
27	0x3db58352	0.08862938
28	0x42fdd530	126.91638
29	0x44433edf	780.98236
30	0x4350c017	208.75035
31	0x3db58352	0.08862938
32	0x450258b0	2085.543
33	0x42494d5b	50.325542
34	0x3df42809	0.119216986
35	0x444c7696	817.8529
36	0x4103f007	8.2461
37	0x4107cbff	8.487304
38	0x3db58352	0.08862938
39	0x402f20ef	2.736385
40	0x43ed4407	474.53146
41	0x456adfa0	3757.9766
42	0x3db58352	0.08862938
43	0x40b7bb85	5.7416406
44	0x3efd14be	0.49429888
45	0x41eb7e7a	29.436756
46	0x3db58352	0.08862938
47	0x42b49acd	90.302345
48	0x3db58352	0.08862938
49	0x41126baf	9.15129
50	0x45268a2d	2664.636
51	0x456ad82f	3757.5115
52	0x438f72c0	286.89648
53	0x3db58352	0.08862938
54	0x3db58352	0.08862938
55	0x41cb6f91	25.429476
56	0x3ed86b3a	0.42269307
57	0x3db58352	0.08862938
58	0x3db58352	0.08862938
59	0x44d33be6	1689.8718
60	0x411446d1	9.267289
61	0x44eb06ea	1880.2161
62	0x3e88ac00	0.26693726
63	0x458489c5	4241.221

clinical.batchnorm2.weight f4 [128]
0	0x3f80a042	1.0048907
1	0x3f805f41	1.0029069
2	0x3f806f3e	1.0033948
3	0x3f809fa6	1.0048721
4	0x3f7f156c	0.9964206
5	0x3f800ef5	1.0004565
6	0x3f80538d	1.0025498
7	0x3f7f0a7e	0.99625385
8	0x3f7f15e4	0.9964278
9	0x3f7fd5da	0.99935687
10	0x3f806da0	1.0033455
11	0x3f7ffb6e	0.99993026
12	0x3f80853e	1.0040662
13	0x3f807d86	1.0038307
14	0x3f804f2f	1.0024165
15	0x3f7fe8fc	0.9996488
16	0x3f7f9fc0	0.99853134
17	0x3f7ec372	0.99516976
18	0x3f803e32	1.001898
19	0x3f800b8a	1.0003521
20	0x3f7fdd60	0.99947166
21	0x3f80cd08	1.006257
22	0x3f8064e8	1.0030794
23	0x3f7f469d	0.9971712
24	0x3f803eac	1.0019126
25	0x3f7f03c1	0.99615103
26	0x3f806466	1.0030639
27	0x3f8093ed	1.0045143
28	0x3f808b2a	1.004247
29	0x3f809e27	1.0048264
30	0x3f80a626	1.0050704
31	0x3f7f4a8c	0.99723125
32	0x3f7fdbdb	0.9994485
33	0x3f80b1d9	1.0054275
34	0x3f808b7c	1.0042567
35	0x3f80ae47	1.0053185
36	0x3f8069ae	1.0032251
37	0x3f806917	1.0032071
38	0x3f803d0e	1.0018632
39	0x3f7f4616	0.9971632
40	0x3f80560b	1.0026258
41	0x3f7f73fb	0.9978635
42	0x3f7f4f04	0.99729943
43	0x3f807588	1.0035868
44	0x3f7f11a5	0.996363
45	0x3f7fe2ab	0.9995524
46	0x3f7fbf2b	0.99901074
47	0x3f804571	1.0021192
48	0x3f806940	1.003212
49	0x3f7fafe6	0.99877775
50	0x3f804809	1.0021983
51	0x3f7fee24	0.9997275
52	0x3f804aa9	1.0022784
53	0x3f7fccd3	0.9992191
54	0x3f805457	1.0025738
55	0x3f7efe82	0.996071
56	0x3f7ed7e1	0.99548155
57	0x3f805abe	1.0027692
58	0x3f7fb114	0.99879575
59	0x3f80041b	1.0001253
60	0x3f7f3516	0.9969038
61	0x3f7fa56d	0.99861795
62	0x3f80047e	1.0001371
63	0x3f7fb5c5	0.99886733
64	0x3f80c356	1.0059612
65	0x3f803067	1.0014771
66	0x3f7f2a50	0.9967394
67	0x3f808dc8	1.0043268
68	0x3f7f20a4	0.9965918
69	0x3f80a437	1.0050114
70	0x3f8010da	1.0005143
71	0x3f806e9a	1.0033753
72	0x3f80cdc5	1.0062796
73	0x3f7fbda3	0.9989874
74	0x3f7f67e3	0.99767894
75	0x3f7f2efc	0.9968107
76	0x3f7fdf12	0.99949753
77	0x3f800060	1.0000114
78	0x3f8028c3	1.001244
79	0x3f7f9b18	0.9984603
80	0x3f7f350a	0.99690306
81	0x3f8079a7	1.0037125
82	0x3f806d22	1.0033305
83	0x3f8031d1	1.0015203
84	0x3f7f66ea	0.9976641
85	0x3f7f538c	0.9973686
86	0x3f7f5213	0.9973461
87	0x3f8024f4	1.0011277
88	0x3f80b8e6	1.0056427
89	0x3f7fe5f8	0.9996028
90	0x3f809847	1.0046471
91	0x3f8019cf	1.0007876
92	0x3f8007b4	1.0002351
93	0x3f805322	1.002537
94	0x3f7f91af	0.9983167
95	0x3f7eea9d	0.9957674
96	0x3f80317a	1.0015099
97	0x3f7f379e	0.9969424
98	0x3f807bbb	1.003776
99	0x3f7f264e	0.99667823
100	0x3f8049cf	1.0022525
101	0x3f808442	1.0040362
102	0x3f80f7ef	1.0075663
103	0x3f802f3e	1.0014417
104	0x3f8023a7	1.001088
105	0x3f7ff256	0.9997915
106	0x3f7f566b	0.9974124
107	0x3f7f0709	0.9962011
108	0x3f80911d	1.0044285
109	0x3f805e5c	1.0028796
110	0x3f803d8f	1.0018786
111	0x3f7ff1e3	0.99978465
112	0x3f7fafca	0.9987761
113	0x3f7ff00c	0.9997566
114	0x3f80661c	1.0031161
115	0x3f7f57e7	0.99743503
116	0x3f7fb05e	0.9987849
117	0x3f803d62	1.0018733
118	0x3f7ffc97	0.99994797
119	0x3f7f5544	0.9973948
120	0x3f7f2aff	0.9967498
121	0x3f7f2dda	0.9967934
122	0x3f803ba2	1.0018198
123	0x3f7ee96e	0.99574935
124	0x3f802ece	1.0014284
125	0x3f8055f5	1.0026232
126	0x3f807cd5	1.0038096
127	0x3f7f8b40	0.99821854

clinical.batchnorm2.bias f4 [128]
0	0x3c0928ba	0.008371526
1	0x3c089ee4	0.008338664
2	0x3c042b4e	0.008066965
3	0x3c090cba	0.008364851
4	0x3c0ba84b	0.008524011
5	0xbc07f11e	-0.008297233
6	0xbc0fe78f	-0.008783235
7	0x3bc3297d	0.0059558735
8	0xbc024b40	-0.007952511
9	0xbbf4fd94	-0.007476518
10	0xbc091f70	-0.008369312
11	0xbc04742b	-0.008084337
12	0xbc05be3a	-0.008163029
13	0x3c06dcfe	0.0082314
14	0x3c02676b	0.007959227
15	0x3bf9f9d6	0.0076286597
16	0x3c0667a8	0.0082034245
17	0x3bdfe8d6	0.006833176
18	0xbc0aeab3	-0.008478808
19	0x3bf6033e	0.0075077107
20	0xbbae17a8	-0.0053128786
21	0xbc12757a	-0.008939141
22	0xbc05e0fc	-0.008171316
23	0x3c09573a	0.008382613
24	0x3c09b3cd	0.008404684
25	0x3c05f453	0.008175927
26	0xbc0925e0	-0.0083708465
27	0xbbfad36f	-0.0076545994
28	0x3c0c8d68	0.008578636
29	0xbc09d0a9	-0.008411565
30	0xbc13cc9e	-0.0090209525
31	0x3c021bff	0.007941245
32	0xbc06af9a	-0.008220578
33	0xbc0ac4ff	-0.008469819
34	0xbc0d1575	-0.008611073
35	0xbc06c3e7	-0.008225418
36	0x3b5e5c1f	0.003392942
37	0xbc0a1395	-0.00842752
38	0xbc041b4f	-0.0080631515
39	0x3c01694e	0.007898642
40	0xbbf784ed	-0.007553688
41	0x3a2c28e4	0.00065673725
42	0x3c0951da	0.008381331
43	0xbc0b99a8	-0.008520521
44	0xbc006669	-0.0078369165
45	0x3c039a76	0.008032432
46	0x3c0c8764	0.0085772015
47	0xbc0928fa	-0.008371586
48	0xbc0890ba	-0.008335287
49	0x3c072dd1	0.00825067
50	0xbc094130	-0.008377358
51	0xbc05f3cd	-0.008175802
52	0xbc0b3623	-0.008496794
53	0x3c070ac0	0.008242309
54	0xbc01b046	-0.007915562
55	0x3bb562dd	0.005535467
56	0x3c02cbca	0.007983157
57	0xbc09e277	-0.00841581
58	0x3bf88f0d	0.0075854124
59	0x3c022882	0.007944228
60	0x3c01b139	0.007915788
61	0x3be3f76c	0.006956985
62	0xbc097589	-0.008389839
63	0x3c0863dd	0.0083245905
64	0x3c03a124	0.008034024
65	0x3c0dd596	0.00865688
66	0x3bfe640c	0.0077633914
67	0xbc0b344d	-0.008496356
68	0x3c06b25a	0.008221233
69	0xbc0e8282	-0.008698108
70	0xbbffbe05	-0.0078046345
71	0xbc076600	-0.008264065
72	0x3c07cabb	0.008288081
73	0x3c0800dd	0.008300987
74	0xbb00ce9a	-0.0019654394
75	0x3bd4bf04	0.0064924974
76	0xbc03457f	-0.008012175
77	0x3c08c02f	0.008346601
78	0xbc0c6e4c	-0.008571219
79	0xbc06ffad	-0.008239669
80	0xbc044f32	-0.008075522
81	0x3c017eab	0.007903735
82	0xbc0fbfe2	-0.008773776
83	0xbc0582a0	-0.008148819
84	0x3c09a845	0.008401935
85	0x3c058ef9	0.008151763
86	0x3b84b8bd	0.004050343
87	0xbab59a2c	-0.0013855151
88	0xbc0862ff	-0.008324384
89	0x3c0a8c51	0.008456306
90	0x3c0aa4f3	0.0084621785
91	0x3c1352b5	0.008991887
92	0xbb755386	-0.0037433817
93	0xbc069afc	-0.008215662
94	0xbbe9a5de	-0.0071303686
95	0xbc089e1a	-0.008338476
96	0xba90d760	-0.0011050515
97	0x3c00bb72	0.00785719
98	0xbc0b47fa	-0.008501047
99	0xbc0c268e	-0.008554114
100	0x3c0e889c	0.008699562
101	0xbc0a34e2	-0.00843546
102	0x3c1261a0	0.008934408
103	0xbc121677	-0.008916489
104	0xbc0d7e1e	-0.008636026
105	0x3bb97066	0.005659151
106	0x3c08d695	0.008351942
107	0x3c015fc9	0.007896372
108	0xbc0a526d	-0.008442503
109	0xbc13387f	-0.008985638
110	0xbb167d7a	-0.0022962973
111	0x3c047a44	0.008085791
112	0x3b701e91	0.0036639313
113	0x3bfa9b0c	0.0076478776
114	0xbc0c0958	-0.00854715
115	0x3c0fa1b2	0.0087665785
116	0x3c1386c2	0.009004297
117	0x3bc193fc	0.0059075337
118	0x3bd9e161	0.0066491817
119	0x3c075fd1	0.0082625905
120	0x3bf8b2c7	0.0075896713
121	0xbc0acb2c	-0.0084712915
122	0xbc12a341	-0.008950056
123	0x3c0b06f1	0.008485542
124	0xbc05336d	-0.008129937
125	0xbb6d2fe8	-0.0036191884
126	0x3c0521f2	0.008125769
127	0x3c096102	0.008384945

clinical.batchnorm2.running_mean f4 [128]
0	0x3d8caacf	0.06868517
1	0x3dd0a624	0.10187939
2	0x3e286c95	0.16447671
3	0x3dc87b96	0.09789197
4	0x3e3ec9b7	0.18631636
5	0x3e671ff4	0.22570783
6	0x3d78f631	0.06078166
7	0x3de11e9d	0.10992167
8	0x3d729040	0.0592196
9	0x3cf64b0f	0.030065088
10	0x3d696533	0.056981277
11	0x3e0156a3	0.12630706
12	0x3da15456	0.07877414
13	0x3db6c49a	0.089242175
14	0x3e2be1b5	0.16785319
15	0x3e1b741a	0.15181008
16	0x3e386ab3	0.18009453
17	0x3df08a8b	0.11745175
18	0x3d1d9d98	0.03848037
19	0x3e836ba3	0.25668058
20	0x3e01460a	0.12624374
21	0x3e91bcd1	0.28464368
22	0x3ea0ad5a	0.31382257
23	0x3e8a2d1b	0.26987538
24	0x3e08c074	0.13354665
25	0x3e6a6733	0.2289093
26	0x3dce3b82	0.10069944
27	0x3ed517f8	0.4161985
28	0x3e41dd66	0.18932113
29	0x3e3b8203	0.18311314
30	0x3d96848b	0.07349499
31	0x3ebb4059	0.3657253
32	0x3dba3444	0.09092
33	0x3df39216	0.11893098
34	0x3e3ad738	0.18246162
35	0x3e68b360	0.22724676
36	0x3dd01baa	0.101615265
37	0x3e86922e	0.262834
38	0x3d1705e7	0.036870863
39	0x3d9a20f8	0.075258195
40	0x3da9e77d	0.08296106
41	0x3e18ab36	0.14909062
42	0x3e1295bd	0.14314933
43	0x3dfe5836	0.12419169
44	0x3e3a1ebd	0.18175788
45	0x3ecc63f3	0.39920005
46	0x3d9cb0f8	0.076509416
47	0x3e29a31d	0.16566129
48	0x3dcc5366	0.099768445
49	0x3e12e908	0.14346707
50	0x3dc5c339	0.096563764
51	0x3e0befc7	0.13665687
52	0x3e9be3ab	0.30447134
53	0x3d56dc57	0.052456226
54	0x3d2cfec6	0.04223516
55	0x3e5834b3	0.21113853
56	0x3e13f241	0.14447881
57	0x3d3ef68d	0.046621848
58	0x3ea06eac	0.31334436
59	0x3de116ab	0.10990652
60	0x3e792460	0.24330282
61	0x3e8346cb	0.25639948
62	0x3ea9a294	0.3313185
63	0x3e8af673	0.2714115
64	0x3e4dc116	0.20093188
65	0x3ea05c35	0.31320348
66	0x3e47f8fe	0.19528577
67	0x3e15cfcd	0.14630051
68	0x3e7234a0	0.23652887
69	0x3e8366a0	0.25664234
70	0x3ca7c1f7	0.020478232
71	0x3eb29b54	0.3488413
72	0x3d952ebd	0.07284305
73	0x3daa5faa	0.08319028
74	0x3e21b315	0.1579097
75	0x3d9a9c45	0.07549337
76	0x3e58ea9c	0.21183246
77	0x3e0e2219	0.13880195
78	0x3db6ad79	0.08919806
79	0x3d9e29de	0.07722829
80	0x3dd3f769	0.10349924
81	0x3dc5b498	0.09653586
82	0x3defcc93	0.11708941
83	0x3eb44448	0.35208344
84	0x3d9806d4	0.07423177
85	0x3e1255f7	0.14290605
86	0x3e69abc7	0.22819434
87	0x3dfbef4b	0.12301501
88	0x3e0c6b28	0.13712752
89	0x3e98f5dd	0.2987508
90	0x3dbe2d9d	0.09286044
91	0x3e255a3f	0.16147707
92	0x3d07aed7	0.033125725
93	0x3deb634e	0.1149355
94	0x3e0d24b9	0.1378354
95	0x3e39084c	0.18069571
96	0x3e3fb56b	0.18721549
97	0x3e3a40a7	0.18188725
98	0x3ea8c6e2	0.32964236
99	0x3dbb5f76	0.09149067
100	0x3e2b2902	0.16714862
101	0x3e768006	0.24072275
102	0x3e27b7ba	0.1637868
103	0x3e0eca68	0.139444
104	0x3ea8c7bb	0.32964882
105	0x3dbdabd6	0.09261291
106	0x3e8d20b5	0.27564016
107	0x3dbb58af	0.091477744
108	0x3e0b71f2	0.13617685
109	0x3e2e57fc	0.17025751
110	0x3e89e806	0.26934832
111	0x3e4165a5	0.1888643
112	0x3c042e5d	0.0080676945
113	0x3ea11a5e	0.3146543
114	0x3edd36d1	0.43205884
115	0x3de0b5cb	0.10972174
116	0x3df553ed	0.11978898
117	0x3d1e464e	0.038641267
118	0x3e8f8e5e	0.28038305
119	0x3e81364a	0.25236732
120	0x3e27f057	0.16400276
121	0x3e5e5d03	0.21715169
122	0x3de38bb5	0.111106314
123	0x3e1dfa70	0.15427566
124	0x3ec2b381	0.38027576
125	0x3d0fdae9	0.03512088
126	0x3d992939	0.07478566
127	0x3e1df026	0.1542364

clinical.batchnorm2.running_var f4 [128]
0	0x3dc83953	0.09776559
1	0x3de71d5c	0.11284897
2	0x3e0b4c99	0.13603438
3	0x3de01202	0.10940935
4	0x3e2e4df8	0.1702193
5	0x3e7551f7	0.23957048
6	0x3dd72f4e	0.105070695
7	0x3e02101c	0.12701458
8	0x3dc366e7	0.095411114
9	0x3dc19d5c	0.09453842
10	0x3dc593d5	0.09647337
11	0x3e03b58d	0.12862225
12	0x3dedb829	0.116073914
13	0x3dea66db	0.114453994
14	0x3e210c62	0.1572738
15	0x3e1e7e7d	0.15477939
16	0x3e0ff8b4	0.14059716
17	0x3e126920	0.14297915
18	0x3dc4a72d	0.09602199
19	0x3eac93d0	0.33706522
20	0x3e039dff	0.1285324
21	0x3e9c54e7	0.30533525
22	0x3ebc233b	0.3674563
23	0x3e847939	0.25873736
24	0x3df7c258	0.12097615
25	0x3e904041	0.28174022
26	0x3dfdc1eb	0.123905025
27	0x3f26d667	0.651709
28	0x3e2b47cc	0.16726607
29	0x3e6a4e81	0.2288151
30	0x3dec6b61	0.115439184
31	0x3e9c6e97	0.30553123
32	0x3de6a6cb	0.11262282
33	0x3e1c4d85	0.15263946
34	0x3e0b6888	0.13614094
35	0x3e664bba	0.22489825
36	0x3dd6e748	0.10493332
37	0x3ea03a82	0.31294638
38	0x3dbf5943	0.09343197
39	0x3df0d478	0.11759275
40	0x3deb8435	0.11499826
41	0x3e35012c	0.17676228
42	0x3e07e80c	0.13272113
43	0x3df1ccd4	0.11806646
44	0x3e2c9083	0.16852002
45	0x3f0ab141	0.5417672
46	0x3ddbf5a7	0.10740214
47	0x3e44ea63	0.19230036
48	0x3de92517	0.113840275
49	0x3e15a458	0.14613473
50	0x3de2dede	0.11077665
51	0x3de0eeb4	0.10983029
52	0x3ea95735	0.33074346
53	0x3dd09d06	0.101862
54	0x3dc76533	0.09736099
55	0x3e654b38	0.22391975
56	0x3e14787a	0.14499083
57	0x3dc85fdc	0.09783909
58	0x3eca7b2c	0.39547098
59	0x3e00870d	0.12551518
60	0x3e4713f4	0.19441205
61	0x3e7882fe	0.2426872
62	0x3e72d2a6	0.23713169
63	0x3e72b071	0.2370012
64	0x3e4a800e	0.19775411
65	0x3ed83e40	0.42234993
66	0x3e223914	0.15842086
67	0x3e1e390f	0.15451454
68	0x3e649b13	0.22324781
69	0x3e958793	0.29204997
70	0x3db99ee5	0.0906351
71	0x3eba00fd	0.3632888
72	0x3dd3e783	0.10346892
73	0x3ddd9bee	0.10820757
74	0x3e168854	0.14700443
75	0x3dd3b304	0.10336879
76	0x3e22f5a4	0.15914017
77	0x3e0cf0a5	0.13763674
78	0x3dee9c7a	0.11650939
79	0x3dd03265	0.10165862
80	0x3e049116	0.12945971
81	0x3df4ea99	0.119588085
82	0x3e0293d0	0.12751698
83	0x3eea6191	0.45777562
84	0x3dddeb25	0.10835866
85	0x3e213d86	0.15746126
86	0x3e5826f4	0.2110861
87	0x3e147ccd	0.14500733
88	0x3df26f1b	0.11837598
89	0x3eb2f9de	0.3495626
90	0x3dd7fde1	0.105464704
91	0x3e21c6de	0.15798518
92	0x3dc32839	0.09529156
93	0x3deaf14a	0.114718035
94	0x3e10ee2a	0.14153352
95	0x3e145d5d	0.1448874
96	0x3e2db28f	0.16962646
97	0x3e44209f	0.19153069
98	0x3ea73e79	0.3266485
99	0x3ded4206	0.115848586
100	0x3e2236f8	0.15841281
101	0x3e7c5a1c	0.24643749
102	0x3e042239	0.1290368
103	0x3e0954b4	0.13411218
104	0x3ef30e3d	0.474718
105	0x3de01b73	0.109427355
106	0x3eb6b975	0.35688367
107	0x3e086587	0.1331998
108	0x3e0c7e62	0.13720086
109	0x3e525422	0.20539907
110	0x3e9add1b	0.30246815
111	0x3e2d1967	0.16904221
112	0x3db69950	0.08915961
113	0x3ec38f1b	0.38195118
114	0x3f245787	0.64196056
115	0x3e0812a8	0.13288367
116	0x3de416f5	0.11137191
117	0x3dc1daeb	0.094655834
118	0x3ea8e579	0.32987574
119	0x3e705740	0.23470783
120	0x3e3b1f26	0.18273601
121	0x3e5e0927	0.21683179
122	0x3de971ee	0.113986835
123	0x3e178278	0.14795864
124	0x3edd3cf4	0.43210566
125	0x3dc6eb44	0.09712842
126	0x3de11b68	0.109915555
127	0x3e07b99c	0.13254398

lstm.lstm.weight_ih_l0 f4 [8, 4]
0	0xbf22dab7	-0.6361498
1	0x3e23eeda	0.16009083
2	0x3f0a0015	0.53906375
3	0x3f2f7391	0.68535715
4	0xbe5def8b	-0.2167341
5	0xbef7644e	-0.48318714
6	0xbe36498e	-0.17801496
7	0xbef78ad2	-0.483481
8	0x3c87ef60	0.016593635
9	0xbda45d02	-0.08025552
10	0xbf0fb71e	-0.5613879
11	0x3c934b00	0.017980099
12	0xbb92a9f5	-0.004475827
13	0x3e440b86	0.19145021
14	0xbecd810e	-0.40137523
15	0x3d4d54fe	0.050129883
16	0x3df3eef1	0.11910809
17	0xbef07cc8	-0.469702
18	0xbde76f81	-0.113005646
19	0xbdf78d9b	-0.12087556
20	0x3eaecf1e	0.34142393
21	0x3dbe4293	0.09290042
22	0xbefcd7ae	-0.493833
23	0xbf26dca7	-0.6518044
24	0xbef73932	-0.48285824
25	0xbdcad378	-0.09903616
26	0x3eda86c9	0.42680958
27	0x3ebbc79d	0.3667573
28	0x3e837952	0.25678498
29	0x3ed80770	0.42193174
30	0xbed83b31	-0.4223266
31	0x3f3088b8	0.68958616

lstm.lstm.weight_hh_l0 f4 [8, 2]
0	0x3ef81077	0.48450062
1	0xbeb42485	-0.35184112
2	0x3dd55591	0.10416711
3	0x3d428752	0.047492333
4	0x3ecdfd76	0.40232438
5	0x3e60d317	0.21955524
6	0xbf15430e	-0.5830544
7	0x3e9c225c	0.30494964
8	0xbe64c372	-0.22340181
9	0xbeda982d	-0.42694226
10	0xbe16f3e5	-0.14741476
11	0x3ec8196c	0.39081895
12	0xbcd781b5	-0.026306966
13	0xbf2e67d6	-0.6812719
14	0xbed437ee	-0.4144892
15	0x3ed038db	0.40668377

lstm.lstm.bias_ih_l0 f4 [8]
0	0x3f1d28da	0.6139046
1	0x3ee677f6	0.45013398
2	0x3f14d921	0.5814381
3	0x3bd40b2c	0.0064710584
4	0xbc6d18fc	-0.014471289
5	0xbdd1425d	-0.10217736
6	0x3f1de963	0.61684245
7	0x3e33b633	0.17549972

lstm.lstm.bias_hh_l0 f4 [8]
0	0xbeb62365	-0.3557388
1	0xbdb6c1e5	-0.08923701
2	0x3ed40a6c	0.414142
3	0xbee86f96	-0.45397633
4	0x3ebeea01	0.37287906
5	0xbe45c100	-0.19311905
6	0xbd93ddf2	-0.07220067
7	0x3f34d590	0.7063837
